dga/illumination_adjustment/weights_last.pt (torch, 606791 bytes, 11 tensors)

model.0.weight f4 [64, 4, 3, 3]
0	0xbd7fd9db	-0.062463623
1	0x3d3660c6	0.044525884
2	0xbe2a0f92	-0.16607502
3	0x3d4cbbba	0.049983718
4	0xbdc0c14d	-0.09411869
5	0xbdbd7e6f	-0.09252631
6	0x3c83dac8	0.016095534
7	0x3da1c46b	0.07898792
8	0x3da55850	0.08073485
9	0x3db9c007	0.090698294
10	0x3dd74043	0.10510304
11	0x3c87fcd5	0.016600052
12	0xbd5cb9a8	-0.053887993
13	0xbd56cb95	-0.052440245
14	0xbe04c059	-0.12964
15	0x3e200df8	0.15630329
16	0xbd2576b2	-0.0403964
17	0x3e0e01cc	0.13867873
18	0x3ce38c29	0.027776795
19	0x3db5413c	0.08850333
20	0xbd863df5	-0.06554786
21	0x3e0f82b0	0.14014697
22	0x3dbe13f6	0.09281151
23	0x3e29b18a	0.16571632
24	0x3bfff65a	0.00781135
25	0x3d698f14	0.057021216
26	0x3ccf018d	0.025269294
27	0x3d27183d	0.0407946
28	0x3e02e5c1	0.12782957
29	0x3d194f9e	0.037429444
30	0xbd80826d	-0.06274877
31	0xbca957ce	-0.020671751
32	0xbd96a754	-0.07356134
33	0x3de3b337	0.11118167
34	0x3cde87c2	0.027164344
35	0x3d6992cf	0.057024773
36	0xbcb9714d	-0.022637034
37	0xbdc970ec	-0.09835991
38	0xbe14285f	-0.14468525
39	0x3d26a769	0.040687
40	0xbdc0b3bf	-0.09409284
41	0x3cb00f93	0.021491801
42	0xbd015d7c	-0.031583294
43	0x3d77868d	0.060431052
44	0xbb0884e5	-0.0020831164
45	0xbda8d6b6	-0.08244078
46	0x3daad3d8	0.08341187
47	0xbe195701	-0.14974596
48	0xbd136530	-0.03598517
49	0x3e1a788c	0.15085047
50	0xbd15a280	-0.036531925
51	0x3dbf606d	0.09344564
52	0xbe0c62fc	-0.13709635
53	0xbd5ad5b4	-0.05342646
54	0x3dd99dd6	0.10625808
55	0x3dc5df6c	0.09661755
56	0x3e0a762c	0.13521641
57	0xbdb39624	-0.087688714
58	0xbddf705a	-0.10910101
59	0x3d677e0e	0.0565167
60	0xbcc6abee	-0.024251904
61	0xbe04e5f6	-0.12978348
62	0x3e0aa6a2	0.13540128
63	0xbdade06f	-0.08490073
64	0xbcde855d	-0.027163202
65	0xbdc924f5	-0.09821502
66	0x3ded1d54	0.115778595
67	0x3e2e9b6f	0.1705148
68	0xbe030f21	-0.1279874
69	0x3e1968d8	0.14981401
70	0xbd4dd3bb	-0.05025075
71	0xbd88b8aa	-0.06675847
72	0xbd8b19d3	-0.06792035
73	0xbe0643cd	-0.13111801
74	0x3ddc7972	0.10765351
75	0xbd9363ac	-0.07196745
76	0x3e1c70a2	0.15277341
77	0xbe02bea8	-0.12768042
78	0xbe14b818	-0.14523351
79	0xbe164546	-0.14674863
80	0xbd957d76	-0.072993204
81	0xbe1430d0	-0.14471745
82	0x3dab4cf6	0.083642885
83	0x3db661df	0.08905386
84	0xbdeebd50	-0.11657202
85	0xbde9bfac	-0.11413512
86	0xbdd83824	-0.10557583
87	0xbd3658ad	-0.04451816
88	0x3c2d3b3a	0.010573203
89	0xbda9d84d	-0.08293209
90	0x3c84fe55	0.016234556
91	0xbd1006fb	-0.035162907
92	0x3dcd18c4	0.10014489
93	0xbdbc339d	-0.09189532
94	0xbcb9dc36	-0.022688013
95	0xbe12300a	-0.14276138
96	0x3d8d26ad	0.068921424
97	0x3cffabe0	0.031209886
98	0xbbd41fe3	-0.0064735278
99	0x3e11b899	0.14230575
100	0xbbb45bc3	-0.005504103
101	0xbe05d279	-0.1306857
102	0xbe049782	-0.1294842
103	0x3d8b8e65	0.06814269
104	0xbd66ae18	-0.056318372
105	0x3e22d728	0.15902388
106	0x3db24d32	0.0870613
107	0x3e1a8df8	0.1509322
108	0xbe04f948	-0.12985718
109	0xbdf61725	-0.12016133
110	0x3cf2e9ad	0.02965244
111	0x3d81b37d	0.06333063
112	0x3d8a67d3	0.06758084
113	0x3d7eee94	0.062239245
114	0x3e1399ae	0.14414093
115	0x3dd6e509	0.10492904
116	0x3e19f01b	0.15032999
117	0x3dadc09e	0.084840044
118	0xbc710a84	-0.01471198
119	0x3c1eca4e	0.009691788
120	0xbd3fe714	-0.046851233
121	0xbd9f5419	-0.07779712
122	0xbd7c7a61	-0.061640147
123	0x3d241f0b	0.040068667
124	0xbcb38fc1	-0.021919133
125	0xbdbe7457	-0.09299534
126	0xbe1b8e23	-0.1519094
127	0x3da1068b	0.07862576
128	0x3e1eb3cb	0.15498273
129	0xbd699056	-0.057022415
130	0xbb81c843	-0.0039606406
131	0x3d680c3a	0.056652285
132	0x3dddf398	0.108374774
133	0x3e093b7d	0.13401599
134	0x3cdc0121	0.026856007
135	0x3d1e4528	0.03864017
136	0x3a83b4bb	0.0010048369
137	0xbdfb53e1	-0.12271858
138	0xbcd95879	-0.026531445
139	0x3dd3749b	0.10324975
140	0x3daa86da	0.08326502
141	0x3cb0defa	0.021590699
142	0xbd900828	-0.07032806
143	0xbe21a422	-0.15785268
144	0x3d5931b5	0.05302592
145	0xbe05931f	-0.13044403
146	0xbe1b7fe1	-0.151855
147	0x3ddf16f7	0.10893052
148	0xbbb68a21	-0.0055706655
149	0x3e167cc7	0.14696036
150	0xbc411513	-0.01178481
151	0xbe15504e	-0.14581415
152	0xbdfebd7c	-0.12438485
153	0xbe11bc11	-0.14231898
154	0x3d3a0232	0.04541225
155	0xbe07b83b	-0.13253872
156	0x3e10779e	0.1410813
157	0x3ceebf5e	0.029143985
158	0xbe01ebf0	-0.1268766
159	0xbe06a9d5	-0.13150723
160	0xbd3c0d67	-0.04591122
161	0x3dd00b2c	0.10158381
162	0xbcac219b	-0.021012118
163	0x3e1735fa	0.14766684
164	0x3d11f6da	0.035635807
165	0xbe2495bd	-0.16072746
166	0x3dafe1f8	0.08588022
167	0x3d9b90a8	0.0759595
168	0x3db864fe	0.09003638
169	0xbe0dd8d0	-0.13852239
170	0x3daf8533	0.085703276
171	0x3e1e2870	0.15445113
172	0xbdcaeecc	-0.09908828
173	0x3e0b809a	0.13623276
174	0xbd7002b9	-0.058596347
175	0x3dd7e899	0.10542411
176	0xbe1dbc70	-0.15403914
177	0x3d8b9521	0.068155535
178	0xbe0664d1	-0.13124396
179	0x3e0ebd12	0.13939312
180	0x3db85b9e	0.090018496
181	0x3d87a3c8	0.06623036
182	0x3c885d95	0.016646186
183	0x3ddcf258	0.10788411
184	0x3e22e5b3	0.15907936
185	0xbddd9ec1	-0.108212955
186	0xbdcfcbbd	-0.10146282
187	0xbe237ab7	-0.15964781
188	0x3d96c77c	0.073622674
189	0x3befb78d	0.007315582
190	0x3d9a7e09	0.075435705
191	0xbd7a5f5f	-0.06112611
192	0xbe0a2f6f	-0.13494657
193	0x3d4dbf29	0.050231133
194	0xbe1b0fdc	-0.15142769
195	0x3d919900	0.071092606
196	0xbdc20881	-0.09474278
197	0x3d77c620	0.06049168
198	0x3d15b76d	0.03655188
199	0xbe27feb8	-0.16405761
200	0xbe14f292	-0.14545658
201	0xbde87b38	-0.11351627
202	0xbd9f0be3	-0.07765939
203	0xbdd1b2e0	-0.10239196
204	0xbd91b626	-0.0711482
205	0xbd318d02	-0.043347366
206	0xbd1f42e7	-0.038882162
207	0x3d2216da	0.039572574
208	0xbe02bebb	-0.1276807
209	0x3dc176e6	0.09446506
210	0x3cf9eefc	0.030509464
211	0xbe22ab33	-0.1588562
212	0x3dc4b51b	0.096048556
213	0xbde08f5e	-0.10964845
214	0x3cc314b6	0.023813587
215	0xbda28ffa	-0.079376176
216	0xbe10df30	-0.1414764
217	0x3d96ed4e	0.07369481
218	0xbd6578bc	-0.056023344
219	0x3de787b5	0.11305181
220	0x3d19c1bb	0.03753827
221	0xbd867111	-0.065645345
222	0xbd916fff	-0.0710144
223	0x3e06c354	0.1316045
224	0xbde93325	-0.11386708
225	0xbb909c4c	-0.0044131633
226	0x3d1aec5b	0.037823062
227	0xbd87a507	-0.06623273
228	0xbd904f91	-0.07046426
229	0x3e2cfece	0.16894075
230	0xbcbef8a0	-0.023311913
231	0xbd9439e4	-0.07237604
232	0x3dc804d4	0.09766546
233	0x3db9b8ed	0.09068475
234	0xbe2a473c	-0.16628736
235	0xbba36e76	-0.004987533
236	0xbda33232	-0.07968558
237	0xbbd98a0d	-0.0066387714
238	0xbe12ee9d	-0.14348836
239	0xbcc549e4	-0.024083085
240	0xbdf6c4bb	-0.12049242
241	0xbc311a5c	-0.010809507
242	0xbcffad13	-0.031210458
243	0x3dd04fcf	0.10171472
244	0xbd68aa46	-0.05680301
245	0x3d19db95	0.037562925
246	0x3c32de61	0.010917277
247	0xbdfc26cd	-0.12312088
248	0xbd8b5480	-0.068032265
249	0x3e1ecbcb	0.15507428
250	0x3e133b11	0.14378001
251	0xbe23cf95	-0.15997155
252	0xbd834041	-0.0640874
253	0x3d72c806	0.05927279
254	0x3de87f87	0.11352449
255	0x3d0c454b	0.03424577

model.0.bias f4 [64]
0	0xbe1e8df6	-0.15483841
1	0xbc616474	-0.01375686
2	0x3aa14876	0.001230492
3	0x3d41798b	0.047235053
4	0x3d76f09c	0.060288057
5	0xbe1f8c2b	-0.15580814
6	0x3e0f1347	0.13972197
7	0x3e11dbc1	0.14243986
8	0xbda96554	-0.0827128
9	0xbd0561c0	-0.032563925
10	0xbce2c34c	-0.027681015
11	0xbd85d591	-0.06534875
12	0x3d8e8ed0	0.06960833
13	0xbdd86c42	-0.105675235
14	0x3e0c55c4	0.13704592
15	0x3e184822	0.14871266
16	0xbdd33db8	-0.10314506
17	0x3e09da4f	0.13462184
18	0xbd4661de	-0.048433177
19	0x3d9b7fa9	0.075927086
20	0xbe017c40	-0.12645054
21	0x3e1e6893	0.1546958
22	0xbe035f76	-0.12829384
23	0x3dcaf06f	0.0990914
24	0x3e1f427d	0.15552707
25	0xbdb589d0	-0.08864176
26	0x3d578b3c	0.05262302
27	0x3d9846db	0.074353896
28	0x3df8ec3e	0.121544346
29	0x3e0b7867	0.13620149
30	0x3d8d0f32	0.06887664
31	0x3d9d640d	0.07685099
32	0xbe13146c	-0.14363259
33	0x3d958ee1	0.073026426
34	0x3e17253f	0.14760302
35	0xbe0e7aba	-0.13914004
36	0x3e13a61e	0.14418837
37	0xbd197b8d	-0.037471343
38	0xbdf4ab74	-0.119467646
39	0xbe0a869c	-0.13527912
40	0xbdb4ea1c	-0.08833715
41	0x3d4c9c26	0.049953602
42	0xbd2adafd	-0.04171275
43	0xbdd1c83f	-0.10243272
44	0xbdc49c45	-0.096001185
45	0xbd9c863f	-0.07642793
46	0xbe2834e2	-0.16426423
47	0xbda8ac0e	-0.08235942
48	0x3dfacded	0.122463085
49	0xbdb71091	-0.08938707
50	0x3d7e030c	0.062014624
51	0xbda8a52f	-0.08234631
52	0xbe1432b4	-0.14472467
53	0xbe257835	-0.16159137
54	0x3dd8ac66	0.105797574
55	0xbdab0cbf	-0.083520405
56	0x3cc53ed9	0.02407782
57	0x3dce7636	0.10081141
58	0x3dd671cb	0.10470923
59	0xbd97a551	-0.074045785
60	0x3d7ad23c	0.06123565
61	0xbd8ac627	-0.06776076
62	0xbdd115c6	-0.10209231
63	0x3d9567a8	0.072951615

model.1.weight f4 [64, 64, 3, 3]
0	0xbbf950e0	-0.007608518
1	0x3c8cfeb3	0.017211294
2	0xbc9b6fb6	-0.018974166
3	0xbb6445d6	-0.0034831665
4	0xbcaeafe6	-0.02132411
5	0xbd02ec74	-0.03196378
6	0x3d00fcb4	0.031490996
7	0x3bf52836	0.0074816
8	0xbcd00896	-0.02539472
9	0xbd074b32	-0.033030696
10	0xbcbdddde	-0.023177084
11	0xbce1c50e	-0.027559783
12	0x3cc3ca46	0.023900162
13	0x3cd6ea23	0.026234692
14	0x3d0d95e8	0.03456679
15	0x3cb7724b	0.022393366
16	0xbb4712ab	-0.0030376117
17	0xbd29dcd4	-0.041470364
18	0xbbaf038b	-0.0053409985
19	0x3cf4809b	0.02984648
20	0xbcc6635e	-0.024217304
21	0xbcf306a0	-0.029666245
22	0x3ce33f73	0.027740216
23	0x3cf9f278	0.030511126
24	0x3c719400	0.014744759
25	0xbcd2c64b	-0.02572932
26	0x3d073dca	0.03301791
27	0x3c970c70	0.018438548
28	0xbd022aeb	-0.03177921
29	0x3c963beb	0.018339118
30	0x3d11e206	0.035615943
31	0xb97d1156	-0.00024134418
32	0xb9cdb6ab	-0.00039236745
33	0xbce4755b	-0.02788799
34	0x3aa0912b	0.0012250295
35	0x3cc45870	0.023967952
36	0x3cb9992b	0.022656044
37	0xbd176b0f	-0.036967333
38	0xbcc16ed6	-0.023612421
39	0x3d219b10	0.03945452
40	0xbb7caf16	-0.0038556508
41	0xbce70d93	-0.028204715
42	0x3d098c06	0.033580802
43	0xbc96d423	-0.018411702
44	0x3ccb620b	0.024827024
45	0x3bfd3f16	0.0077284677
46	0xbcfc6690	-0.030810624
47	0x3c9ae863	0.018909639
48	0xbd17acd7	-0.037030067
49	0x3cd3d953	0.025860464
50	0x3c55580b	0.013021479
51	0xbcc96c46	-0.024587762
52	0x3d2474be	0.040150397
53	0x3d02e5ac	0.031957313
54	0xbca1e83e	-0.019764062
55	0xbc0f3f60	-0.008743137
56	0xbd188530	-0.037236392
57	0xbcff14c0	-0.031137824
58	0xba959456	-0.0011412005
59	0x3c007a60	0.0078416765
60	0xbbd388b6	-0.006455506
61	0x3c865db3	0.016402101
62	0x3d19abe8	0.03751746
63	0x3d15e547	0.03659561
64	0xbd1aca8a	-0.037790813
65	0x3cbb5a3e	0.02287018
66	0xbc2ff766	-0.010740137
67	0xbc636076	-0.013877979
68	0x3c0580e6	0.008148408
69	0x3b8f18e0	0.004366979
70	0x3d1d05d0	0.03833562
71	0x3c5cd956	0.013479551
72	0xbcfe93be	-0.031076308
73	0xbc28301b	-0.0102653755
74	0xbcffae96	-0.031211179
75	0xbb5404c0	-0.0032351464
76	0xbcf734e3	-0.030176586
77	0x3c86040b	0.01635935
78	0xbd16377f	-0.03667402
79	0x3cad4bd3	0.02115432
80	0xbca170f3	-0.019707179
81	0x3c4a18f6	0.012335053
82	0xbd02f756	-0.03197416
83	0x3c0d4170	0.008621559
84	0x3c5bfc4b	0.013426851
85	0xbcbeb300	-0.023278713
86	0x3cbf8bc3	0.023382073
87	0xbcaecfde	-0.021339353
88	0xbbfd2656	-0.0077255173
89	0x3bc9e74b	0.0061616055
90	0x3b614b00	0.003437698
91	0xbd0b8bc7	-0.03406885
92	0x3cc072d0	0.023492247
93	0x3c790190	0.015198126
94	0x3c762f4b	0.015025924
95	0xbb5842ab	-0.0032998722
96	0x3ae73bd6	0.0017641734
97	0x3ce7bfe8	0.02828975
98	0x3cf41c2b	0.029798588
99	0x3cdb6850	0.026783139
100	0x3c29262b	0.010324041
101	0x3cd4a346	0.025956761
102	0x3cf72a7e	0.030171629
103	0xbcc73b9e	-0.02432042
104	0x3cf5057e	0.029909845
105	0xbc262130	-0.010139748
106	0x3d1cbaef	0.03826421
107	0xbb8b88c0	-0.004258245
108	0xbd218df3	-0.039442014
109	0x3bb26720	0.0054444224
110	0x3c964d03	0.018347269
111	0xbcc595f0	-0.024119347
112	0x3c17cbd6	0.009264907
113	0x3d22c77e	0.03974103
114	0x3d08b0f3	0.033371877
115	0x3cc31a3e	0.023816224
116	0x3b359980	0.0027709901
117	0xbc95ef23	-0.018302506
118	0xbc8237b3	-0.0158957
119	0xbba21a2b	-0.004946967
120	0x3c3f6c36	0.011683514
121	0x3d1273f0	0.035755098
122	0x3d19af8b	0.037520926
123	0xbd131cac	-0.035916016
124	0x3c619906	0.013769394
125	0xbd133752	-0.03594143
126	0xbcc65143	-0.02420867
127	0x3bf39a00	0.0074341297
128	0x3d1efe4c	0.038816735
129	0x3cff18de	0.031139787
130	0x3b3569eb	0.002768154
131	0x3cff1536	0.031138044
132	0xbc2b59f6	-0.01045846
133	0xbb81f5eb	-0.0039660833
134	0xbc869d03	-0.01643229
135	0xbc545390	-0.012959376
136	0x3c914a43	0.017735606
137	0xbcab7418	-0.020929381
138	0xbd263a44	-0.04058291
139	0x3c45da56	0.012075981
140	0xbcfb0066	-0.030639838
141	0xbb9527ab	-0.004551848
142	0x3c8591e3	0.016304916
143	0xbcab3fd8	-0.020904467
144	0xbd1d7fbb	-0.03845189
145	0x3c712dab	0.014720361
146	0xbd200c6c	-0.039074346
147	0x3bd8452b	0.0066000423
148	0x3c5c8dc0	0.01346153
149	0x3c895a20	0.016766608
150	0x3d28c5b3	0.041204166
151	0x3d1eb82c	0.03874986
152	0x3c92d6b8	0.017924652
153	0x3c021886	0.007940417
154	0xbb752b2b	-0.0037409763
155	0x3cfabc2e	0.03060731
156	0xbc820896	-0.015873235
157	0xbcda8cd6	-0.026678484
158	0xbcae25b8	-0.02125822
159	0x3cebb1f3	0.028771376
160	0xbcb160ae	-0.021652546
161	0xbcedfd18	-0.029051349
162	0xbc639510	-0.01389052
163	0xbb5c4896	-0.00336126
164	0x3c30de90	0.010795251
165	0x3cb209fe	0.02173328
166	0x3b3532eb	0.0027648758
167	0xbc90e356	-0.017686527
168	0x3bab8220	0.005234018
169	0xb99af600	-0.00029556453
170	0x3b3adf2b	0.0028514366
171	0x3ccde72b	0.025134644
172	0xbc991c9e	-0.018690404
173	0xbcc42d73	-0.023947453
174	0xbd1b5b0e	-0.037928633
175	0x3c9a391e	0.018826064
176	0xbb897340	-0.004194647
177	0xbce4104e	-0.027839806
178	0xbd26a6c0	-0.04068637
179	0xbcacff2b	-0.021117767
180	0xbce49ba8	-0.027906254
181	0xbbcf1ef6	-0.0063208295
182	0xbab5b1ab	-0.0013862153
183	0xbcab291e	-0.02089363
184	0x3b405556	0.002934774
185	0xbd09aa3a	-0.033609606
186	0x3b318c80	0.0027091801
187	0xbd06584c	-0.03279905
188	0x3bd8f2ab	0.006620725
189	0xbcd4d2ee	-0.025979485
190	0xbcc6be68	-0.024260715
191	0x3ca923fe	0.020647045
192	0x3c62daf6	0.01384615
193	0xbcd241b8	-0.025666103
194	0xbc07aba0	-0.008280665
195	0xbb8c2ff6	-0.0042781783
196	0xbd1b728f	-0.03795105
197	0xbd033560	-0.032033324
198	0x3cbcedf0	0.023062676
199	0x3c0954e6	0.008382058
200	0x3ce36ba8	0.027761295
201	0x3b5e2696	0.003389751
202	0x3cb3e888	0.021961465
203	0xbc8b8e83	-0.017035728
204	0x3c80313e	0.01564848
205	0x3cda89e6	0.026677083
206	0xbca9f95b	-0.020748785
207	0xbd11a898	-0.035561174
208	0xbce44650	-0.027865559
209	0xbb2ebc96	-0.00266627
210	0xb9a88cab	-0.00032148263
211	0xbc7b1646	-0.015325135
212	0x3ccd3dab	0.02505382
213	0xbd10abf8	-0.035320252
214	0x3cc26dbe	0.02373397
215	0xbc6bb6f6	-0.014386883
216	0x3ae242ab	0.00172623
217	0x3bff6e00	0.0077950954
218	0x3be55120	0.0069981962
219	0x3d1604aa	0.03662554
220	0xbd0f2b78	-0.034953564
221	0xbce00ab8	-0.027348861
222	0xbd24335e	-0.04008805
223	0xbd251168	-0.040299803
224	0x3d17b903	0.037041675
225	0x3cedeb6e	0.029042926
226	0x3cdd5266	0.02701683
227	0xbd123673	-0.035696458
228	0xbca2422e	-0.019806948
229	0x3babb696	0.005240272
230	0xbb88ca4b	-0.004174506
231	0xbd156187	-0.036469962
232	0x3d10692c	0.03525655
233	0xbcc0aa7e	-0.023518797
234	0xbbd7f436	-0.0065903915
235	0xbc2b9486	-0.0104724225
236	0xbd12f17c	-0.03587483
237	0xbba4eb76	-0.005032952
238	0xbc5df11b	-0.013546254
239	0x3ce3d220	0.027810156
240	0x3ca43c36	0.020048242
241	0xbcf18e7b	-0.029486885
242	0xbd1c1c2e	-0.03811281
243	0x3b403340	0.0029327422
244	0x3af5412b	0.0018711438
245	0x3c39be86	0.011336928
246	0x3d261d4c	0.040555283
247	0xbc405c36	-0.011740735
248	0xbd1594ba	-0.03651879
249	0xbd10ab17	-0.035319414
250	0x3cad44d6	0.021150988
251	0x3c07700b	0.008266459
252	0x3bd36a60	0.00645189
253	0x3b475100	0.003041327
254	0x3cd9f758	0.0266072
255	0x3b1d2440	0.0023977906

model.1.bias f4 [64]
0	0xbccc7033	-0.024955845
1	0x3d10dbb4	0.035365775
2	0x3ce7d2e5	0.028298805
3	0xbc67799d	-0.014128116
4	0xbc91dd5f	-0.017805753
5	0x3c9d211a	0.019180823
6	0x3ba7a6d5	0.0051163235
7	0x3c7de06f	0.015495404
8	0xbca8f60d	-0.020625139
9	0xbce2bf60	-0.027679145
10	0x3c2597a3	0.010106954
11	0xbca6d2ce	-0.020364191
12	0x3cc7e97a	0.024403322
13	0xbce12bae	-0.027486648
14	0x3c6ada04	0.014334206
15	0x3d27d388	0.040973216
16	0xbc6f08e0	-0.014589518
17	0x3ceb70cc	0.02874031
18	0xbd211845	-0.039329786
19	0x3c79a260	0.015236467
20	0x3cc40f15	0.023932973
21	0xbcdb7136	-0.026787382
22	0xbd1fef9d	-0.039046872
23	0xbd19df7a	-0.03756664
24	0xbcace22e	-0.021103945
25	0xbcd82fb1	-0.026389929
26	0x3cb085ab	0.021548113
27	0xbcbbc04c	-0.022918843
28	0x3c8978e3	0.016781276
29	0xbc99fda8	-0.01879771
30	0x3caad1c3	0.020851975
31	0xbc475f8b	-0.012168775
32	0x3c7ff2b0	0.015621826
33	0xbccbc83b	-0.02487575
34	0xbb810319	-0.003937137
35	0x3c8fdbd4	0.017560877
36	0xbd322a87	-0.04349759
37	0xbcd1e113	-0.025620019
38	0xbcec03cb	-0.028810402
39	0x3c842b75	0.016134003
40	0x3c67c3c0	0.0141457915
41	0x3c4d3bb6	0.012526443
42	0xbd2d1d22	-0.04226411
43	0x3d211fde	0.03933703
44	0xbccb2dbe	-0.024802085
45	0x3c9b38c1	0.01894796
46	0xbd20838e	-0.03918796
47	0x3d14f432	0.036365695
48	0xbd189a16	-0.037256323
49	0xbc594270	-0.013260469
50	0x3ce507cf	0.027957825
51	0x3cb35f0e	0.021895912
52	0x3ce16b8a	0.027517099
53	0xbcdd4a47	-0.027012957
54	0xbd05fd9b	-0.03271256
55	0xbd13f158	-0.036118835
56	0xbc83faf2	-0.016110871
57	0x3d0f0ff9	0.034927342
58	0xbcbda5a9	-0.023150282
59	0xbcdaea6d	-0.026723111
60	0xbcb3698e	-0.021900918
61	0xbd0537d3	-0.03252394
62	0x3cf7552c	0.03019198
63	0x3c933ef0	0.017974347

model.3.weight f4 [64, 64, 3, 3]
0	0x3cb19416	0.021677058
1	0xbd24feff	-0.040282246
2	0xbd17796f	-0.036981042
3	0xbd25a9c7	-0.040445115
4	0xbcb8ab0b	-0.022542497
5	0x3cb62740	0.022235513
6	0x3c9e8128	0.019348696
7	0x3c8efdf8	0.017455086
8	0xbd025b98	-0.03182563
9	0xbd22e460	-0.039768577
10	0x3b33d767	0.0027441622
11	0xbc2dc71e	-0.010606555
12	0xbc994ba0	-0.018712819
13	0x3d17bee4	0.03704728
14	0x3ad3759c	0.0016133073
15	0xbd1efc9b	-0.038815122
16	0x3c856719	0.016284512
17	0xbc974ff1	-0.018470736
18	0xbd1b1626	-0.03786292
19	0x3bf81ea3	0.0075720116
20	0xbcf0bff6	-0.02938841
21	0x3ca404cd	0.02002182
22	0x3ba02960	0.004887745
23	0x3cedeb00	0.02904272
24	0x3cc810c6	0.02442206
25	0xba1d4b62	-0.00060003076
26	0x3cb92962	0.02260274
27	0xbccac4c6	-0.024752032
28	0x3cfb1d38	0.030653581
29	0xbc7ca2d0	-0.015419677
30	0xbb9c5fa5	-0.004772144
31	0x3bc82880	0.0061083436
32	0x3c3bad17	0.011454842
33	0xbcf684b7	-0.03009258
34	0x3ca60368	0.020265296
35	0xbbe0badc	-0.006858213
36	0x3cbbaaa8	0.022908524
37	0x3d0b44c4	0.034001127
38	0x3d0f83d5	0.035037834
39	0x3d18f713	0.037345003
40	0xbc80d2a6	-0.015725445
41	0xbc231b83	-0.00995529
42	0xbc491569	-0.012273171
43	0xbcef9367	-0.029245092
44	0xbd10c554	-0.035344437
45	0x3c326b90	0.010889903
46	0xbc8219c7	-0.015881432
47	0x3c5a8fb0	0.013339922
48	0xbb41eb33	-0.0029589653
49	0x3b6c1d57	0.003602823
50	0xbcc7c4f9	-0.024385916
51	0xbb87067d	-0.0041206465
52	0x3d32f8fe	0.04369449
53	0x3ca2cdb8	0.019873485
54	0x3d01bbc1	0.031673197
55	0xbd22582b	-0.039634865
56	0x3c60282b	0.013681452
57	0xbc371a7b	-0.011175747
58	0x3ce5588b	0.027996322
59	0xbca1a891	-0.019733699
60	0x3c6d0be8	0.014468171
61	0xbcb9921e	-0.022652682
62	0x3c8efcca	0.017454524
63	0x3cb5346f	0.022119729
64	0xbc8e57de	-0.017375883
65	0x3d13cdf4	0.036085084
66	0xbca152c3	-0.019692784
67	0x3c5c4461	0.013444037
68	0xbb490b93	-0.0030677065
69	0xbcea3a6c	-0.02859231
70	0xbcb31886	-0.02186228
71	0xbcd98a9e	-0.026555356
72	0xbcd14465	-0.025545308
73	0xbc9d9b63	-0.019239133
74	0xbd1f5441	-0.03889871
75	0x3c1e58e2	0.009664746
76	0x3ccc9e30	0.024977773
77	0xba98b77b	-0.0011651361
78	0xbc9fb501	-0.01949549
79	0xbd091c2d	-0.033474136
80	0x3d1f49d3	0.038888764
81	0xbb46e55e	-0.0030349116
82	0x3acb4946	0.0015509508
83	0xbbb05b84	-0.0053820033
84	0x3c8b8b19	0.0170341
85	0x3c37d9dd	0.011221376
86	0x3d1b4ef9	0.03791711
87	0xbb9e8196	-0.004837225
88	0xbccb8e7f	-0.02484822
89	0xbcb90c7e	-0.022588965
90	0x3d1373c3	0.03599907
91	0x3d2327e6	0.039832972
92	0x3c896f5d	0.016776735
93	0xbbd12654	-0.006382743
94	0x3c099497	0.008397243
95	0xbc02bcac	-0.007979553
96	0x3c57eb41	0.0131786475
97	0xbcee53c1	-0.029092671
98	0xbc669d9a	-0.014075661
99	0x3ca82a0e	0.020527866
100	0x3941f556	0.00018497309
101	0xbc3961c0	-0.011314809
102	0xbc8df100	-0.017326832
103	0xbc9caec8	-0.019126311
104	0x3caf0540	0.021364808
105	0xbc3de900	-0.011591196
106	0x3c6bc9f0	0.014391407
107	0xbcf4c066	-0.029876899
108	0x3d06430d	0.03277879
109	0xbc06ec2e	-0.008235021
110	0x3c6376ff	0.013883351
111	0x3ca21322	0.019784514
112	0x3cf694bf	0.030100225
113	0xbcfb681b	-0.03068929
114	0xbbf860b2	-0.0075798864
115	0x3c35af7a	0.0110892
116	0xbc42f589	-0.01189936
117	0xbd259b1e	-0.040431134
118	0xbbc452d6	-0.00599132
119	0xbc29ac0b	-0.01035596
120	0x3d261f76	0.040557347
121	0xbd002fb6	-0.0312955
122	0xbc7656cb	-0.0150353415
123	0x3cb65dbb	0.022261491
124	0x3cd8458e	0.026400354
125	0x3c1add30	0.009452149
126	0xbc10fb46	-0.008848971
127	0x3d526e61	0.051374797
128	0x3d0f3d1c	0.034970388
129	0xbc542f12	-0.012950676
130	0x3d4f8687	0.050665405
131	0x3d6cafe7	0.05778494
132	0x3cfcf775	0.030879715
133	0x3d2bb8ef	0.041924413
134	0x3d0128a0	0.031532884
135	0x3cd6ac18	0.026205108
136	0xbc9d3bdd	-0.019193584
137	0x3d334892	0.04377038
138	0x3c941100	0.018074512
139	0x3cd037a7	0.025417162
140	0x3ca9342c	0.02065476
141	0x3c9bf634	0.019038297
142	0x3cdf3886	0.027248632
143	0x3ccc121e	0.024910983
144	0xbccea508	-0.025225177
145	0x3d10ee87	0.035383727
146	0xbc923840	-0.017849088
147	0x3cd1b583	0.025599247
148	0x3d0d9629	0.034567032
149	0xbc5817f2	-0.013189303
150	0xbcbdd707	-0.023173822
151	0x3c517ec2	0.012786569
152	0x3d2a0e46	0.04151752
153	0xbd21f69c	-0.039541826
154	0xba47bd1a	-0.0007619426
155	0x3cbad360	0.02280587
156	0x3cae94ae	0.02131113
157	0xbc812997	-0.015766902
158	0x3cae9032	0.021308992
159	0xbb87242b	-0.0041241846
160	0xbcb88b1e	-0.022527274
161	0xbcfd0198	-0.030884549
162	0xba054ed9	-0.00050852966
163	0xbcb2f18c	-0.021843694
164	0xbbb67c4f	-0.005569018
165	0x3cc44b5b	0.023961714
166	0x3cbda975	0.023152092
167	0xb975901f	-0.0002341871
168	0xbb8b5358	-0.0042518787
169	0x3cc0aba3	0.023519343
170	0xbcc32cb2	-0.023825023
171	0x3cabec1c	0.02098661
172	0x3b801e6d	0.003909877
173	0x3c652f9b	0.013988401
174	0xbcaf4875	-0.021396855
175	0xbc666de0	-0.014064282
176	0xbba04af0	-0.0048917457
177	0x3b49eb94	0.0030810582
178	0xbd017256	-0.03160318
179	0xbd1c8631	-0.038213912
180	0x3d01d004	0.03169252
181	0x3c1121b1	0.00885813
182	0x3d005826	0.031334065
183	0xbb957e02	-0.0045621404
184	0x3c3d906e	0.011570079
185	0xbcbf1e31	-0.023329826
186	0x3c4d4f76	0.012531152
187	0xbbab8abb	-0.005235044
188	0x3c733ab1	0.014845536
189	0x3ca5a697	0.020221038
190	0xbc4fdfd6	-0.012687644
191	0xbc29bc8f	-0.010359897
192	0x3cdd125d	0.026986295
193	0xbc879fcb	-0.016555687
194	0xbceb46e0	-0.02872032
195	0x3b3e2ce8	0.0029018465
196	0x3ceb98ed	0.028759444
197	0xbd0181a7	-0.031617787
198	0xbcfdc7a8	-0.030978993
199	0xbcbc7abb	-0.023007741
200	0xbcb2d78a	-0.021831293
201	0x3d16a514	0.036778525
202	0x3ca54d66	0.020178508
203	0xbcc96a30	-0.024586767
204	0x3d1ec83a	0.03876517
205	0x3c505737	0.012716106
206	0x3cf8a2e3	0.030351108
207	0x3c47a3b0	0.012185022
208	0xbc709b80	-0.014685512
209	0x3ce77ba0	0.028257191
210	0x3c9845db	0.018587997
211	0xbc80c708	-0.015719905
212	0x3cadea53	0.021229899
213	0x3c1a3426	0.009411847
214	0x3ca42c58	0.020040676
215	0x3d25d72b	0.040488403
216	0x3be88600	0.007096052
217	0x3c8c5536	0.017130475
218	0x3c56c0b6	0.013107469
219	0x3bbdaf36	0.005788709
220	0xbba04d20	-0.0048920065
221	0xbc05a6ab	-0.0081574125
222	0x3c7b2170	0.015327796
223	0x3d262bea	0.040569223
224	0xbce2abd0	-0.027669817
225	0xb8530672	-5.0312323e-05
226	0x3d0e4993	0.034738135
227	0xbbb47392	-0.005506941
228	0xbcb3895f	-0.02191609
229	0xbb757782	-0.0037455265
230	0x3c09f75b	0.008420791
231	0x3c560579	0.013062828
232	0xbcdacab1	-0.026707979
233	0xbc6594ac	-0.014012497
234	0xbd051692	-0.032492228
235	0xbc206b8b	-0.009791265
236	0xbca115e0	-0.019663751
237	0x3b871ef6	0.004123564
238	0x3c91b1a0	0.017784894
239	0x3cc7b5c8	0.024378672
240	0xbc8370a3	-0.01604492
241	0x3ca1988b	0.019726058
242	0xbcc29c23	-0.023756092
243	0xbcb4e0e5	-0.022079894
244	0xbc6174af	-0.01376073
245	0xbadb9f69	-0.0016755882
246	0xbb7b4d98	-0.003834581
247	0xbbd9720b	-0.0066359094
248	0x3d08e69b	0.033423048
249	0xbcfa114f	-0.030525832
250	0xbc8a7564	-0.01690168
251	0xbc569b62	-0.01309857
252	0xbc9d1be8	-0.019178346
253	0x3c2347c6	0.009965843
254	0xbd253bec	-0.04034035
255	0xbc0610fb	-0.008182759

model.3.bias f4 [64]
0	0x3c7b9de4	0.015357468
1	0x3a0952b5	0.00052384596
2	0x3ca6269f	0.020282088
3	0xbd0d9434	-0.034565166
4	0xbcce77f9	-0.025203692
5	0xbd04c3ed	-0.032413412
6	0x3d0a857a	0.0338187
7	0x3d1f06c1	0.0388248
8	0x3c7b7cd8	0.015349589
9	0x3ca47501	0.020075323
10	0xbb91f1d9	-0.0044538793
11	0xbce5fb8e	-0.028074052
12	0xbca32d1e	-0.019918974
13	0xbcb41040	-0.021980405
14	0xbd1cc5ff	-0.03827476
15	0x3d138fe6	0.036025904
16	0xbc42cae0	-0.0118891895
17	0x3d114830	0.035469234
18	0x39e6cf84	0.0004402363
19	0x3c52d29b	0.012867595
20	0xbc2ce8e4	-0.010553572
21	0xbd24e71c	-0.040259466
22	0x3c97d088	0.018532053
23	0xba7998b4	-0.0009521351
24	0x3b3200a2	0.0027161022
25	0xbc091838	-0.008367591
26	0xbd210fdb	-0.03932176
27	0x3d2505e3	0.040288817
28	0xbcde4dfb	-0.027136793
29	0xbc9d5eef	-0.019210307
30	0xbaf1fb03	-0.0018461648
31	0xbc2379b8	-0.0099777505
32	0x3cd4e5de	0.025988515
33	0x3d2377f8	0.039909333
34	0xbc03065e	-0.0079971235
35	0x3d0318d6	0.032006107
36	0xbce017eb	-0.027355155
37	0xbc9252e8	-0.017861798
38	0x3c8dc82b	0.017307362
39	0x3ce0cdc9	0.027441876
40	0x3c078327	0.008271015
41	0xbcd08cc0	-0.02545774
42	0x3ca81a2f	0.020520298
43	0xbcf3ca88	-0.02975966
44	0x3b4dfc2d	0.0031430826
45	0x3ac6de71	0.0015172494
46	0xbd01cb3f	-0.03168797
47	0xbb4eb365	-0.0031540033
48	0xbb9f5df0	-0.004863493
49	0x3d23fb5c	0.040034637
50	0xbc2d9cbb	-0.0105964495
51	0xbd1be7a2	-0.0380627
52	0xbae42cf3	-0.0017408415
53	0x3d05c771	0.032660905
54	0x3cb9f23e	0.022698518
55	0x3ccf7e7f	0.025328873
56	0xbcda721e	-0.026665743
57	0xbd270fb5	-0.040786464
58	0xbd216d0f	-0.039410647
59	0x3cf8fa20	0.030392706
60	0x3c00399a	0.007826233
61	0x3d100e3c	0.035169825
62	0xbd151ad3	-0.036402535
63	0xbaaa882e	-0.0013010555

model.5.weight f4 [64, 64, 3, 3]
0	0x3c0b0bb7	0.00848668
1	0x3ac5caad	0.0015090309
2	0x3c7a6fc9	0.015285441
3	0x3c7360f5	0.014854659
4	0x3c55b0c1	0.01304263
5	0xbc8c32ba	-0.017114032
6	0x3d066f44	0.032820955
7	0xbb5a43b3	-0.0033304512
8	0x3885f3ef	6.3873704e-05
9	0x3cbe0c23	0.023199147
10	0xbc0c94cd	-0.008580399
11	0xbce5e1fb	-0.028061857
12	0xbd323ded	-0.04351609
13	0xbad01640	-0.0015875772
14	0x3c7499cd	0.014929247
15	0xbc331900	-0.010931253
16	0xbcb8b556	-0.022547405
17	0xbca7035d	-0.020387346
18	0xbb862cc6	-0.004094693
19	0x3b04ccd5	0.002026369
20	0xbb5fa7c4	-0.0034127096
21	0x3d06775a	0.032828666
22	0xbce7d034	-0.028297521
23	0x3d00b497	0.031422224
24	0x3cfb349a	0.03066473
25	0xbd05c50b	-0.032658618
26	0xbc6953b5	-0.014241149
27	0xbd0e7358	-0.03477797
28	0x3cd81137	0.026375396
29	0xbd07c0d1	-0.03314287
30	0xbd03614e	-0.03207522
31	0x3d00de49	0.031461988
32	0xbd1af013	-0.03782661
33	0xbceb4f0f	-0.028724222
34	0xbd130c93	-0.035900664
35	0xbcf3aac4	-0.029744513
36	0xbc7e8766	-0.015535211
37	0xbcde1ac8	-0.02711238
38	0xbc828deb	-0.015936812
39	0x3c2ea58d	0.010659588
40	0xbcd6acf3	-0.026205515
41	0x3cdbbfb3	0.026824808
42	0x3c94f8b8	0.018185005
43	0x3d1fa317	0.038973894
44	0x3d0bed3d	0.034161795
45	0xbb35f00e	-0.0027761492
46	0x3c9b1d26	0.018934797
47	0xbca47db0	-0.020079464
48	0x3c816635	0.015795806
49	0x3caa9f58	0.020827934
50	0xbd03b180	-0.0321517
51	0xbcf4c0f3	-0.029877162
52	0x3cf401d5	0.02978603
53	0xbc8f86cb	-0.017520329
54	0x3d12bdd6	0.035825573
55	0xbd1cb67e	-0.038259976
56	0x3bbfceae	0.0058534956
57	0x3c27bd82	0.010238053
58	0x3d121148	0.035661012
59	0xbca3c31f	-0.019990502
60	0x3c355d94	0.011069674
61	0xbcdfa27b	-0.027299156
62	0xbb79fb7d	-0.0038144283
63	0xbd19fee8	-0.037596613
64	0x3c95daa0	0.018292725
65	0xbcbce303	-0.023057466
66	0x3cfcce9e	0.030860242
67	0xbccc9e6c	-0.024977885
68	0x3b73812c	0.003715585
69	0xbc854b78	-0.016271338
70	0xbc4213b5	-0.011845519
71	0x3cc89f00	0.02448988
72	0x3cee6dfe	0.029105183
73	0xbc82af13	-0.015952623
74	0xbcdb37db	-0.026760032
75	0xbcff1b3c	-0.031140916
76	0x3d1d3769	0.03838292
77	0xbd03799e	-0.032098405
78	0x3d0b80b9	0.034058306
79	0x3d19780a	0.037467994
80	0x3c514667	0.012773133
81	0xbd27c601	-0.040960316
82	0x3c8b1851	0.016979368
83	0x3d057ff7	0.03259274
84	0xbd05feec	-0.032713816
85	0x3c113802	0.008863451
86	0x3d0dea83	0.034647476
87	0xbcc0fb7b	-0.023557415
88	0xbbbb6ec5	-0.005719992
89	0x3cc44ab7	0.023961408
90	0xbc1a266b	-0.009408574
91	0x3b29b596	0.0025895587
92	0xbc70d076	-0.014698138
93	0x3c80122e	0.015633669
94	0xbd06f19c	-0.03294526
95	0x3be95480	0.007120669
96	0x3ce484ae	0.027895298
97	0xbc3ebc36	-0.011641553
98	0x3cf2d78e	0.0296438
99	0xbc8d8e5d	-0.017279798
100	0x3bd82a82	0.006596864
101	0xbcca8b0d	-0.024724508
102	0xbcb9178d	-0.022594238
103	0xbc863b11	-0.016385587
104	0x3c90e47e	0.017687079
105	0x3bc3d4c8	0.0059762932
106	0x3c8a1cdd	0.016859466
107	0xbd056fe3	-0.032577407
108	0x3cf80ab6	0.030278545
109	0x3cbf67b3	0.023364877
110	0x3ce77860	0.028255641
111	0x3cb9c2a8	0.022675827
112	0xbcadd863	-0.021221345
113	0x3caebd1e	0.021330412
114	0xbd05d65b	-0.03267513
115	0xbc79d450	-0.015248373
116	0xbbffd700	-0.0078076124
117	0xbcbdc9d9	-0.023167538
118	0xbbef50cc	-0.007303333
119	0x3d07a196	0.033113085
120	0xbd118212	-0.035524435
121	0xbd2fe51e	-0.042943113
122	0x3d163d7f	0.03667974
123	0xbcec7a81	-0.028867008
124	0x3c3a7dbf	0.011382519
125	0x3c092eeb	0.0083730025
126	0x3b88de8b	0.00417692
127	0xbc17d56b	-0.009267191
128	0xbd06337e	-0.03276395
129	0xbb1c7b16	-0.0023877076
130	0xbc2629a6	-0.010141766
131	0xbc9481ab	-0.018128237
132	0x3bcfcccb	0.006341552
133	0x3bbc512b	0.0057469807
134	0x3b8f2e56	0.0043695373
135	0xbbcb539e	-0.0062050363
136	0xbd0a9fd4	-0.03384383
137	0xbd1d5202	-0.038408287
138	0xbd103ec7	-0.03521612
139	0x3d10d90f	0.035363253
140	0x3baefbfb	0.005340097
141	0xbb02c776	-0.0019955314
142	0xbcf71f7a	-0.030166376
143	0x3ba22a4e	0.004948891
144	0xba7f2b56	-0.00097339356
145	0xbbe980eb	-0.007125964
146	0x3c74cbc0	0.014941156
147	0xbc8a9998	-0.016918942
148	0x3ce95033	0.028480625
149	0xbce6dc16	-0.028181117
150	0x3ce2fd93	0.027708804
151	0x3c3c5a50	0.011496142
152	0x3d123fa2	0.035705216
153	0xbd29acc2	-0.04142452
154	0xbc26069e	-0.010133414
155	0x3c83ea7d	0.016103024
156	0xbcc27570	-0.02373764
157	0x3c9b8430	0.01898393
158	0x3cdb896f	0.026798932
159	0x3c4174ea	0.01180766
160	0x3cbfd7fd	0.02341842
161	0xbd2537a5	-0.04033627
162	0xbcf7d1ed	-0.030251468
163	0x3c8e8a2c	0.01739987
164	0xbc50d1b4	-0.01274531
165	0x3c85cd12	0.016333137
166	0x3c9c00f1	0.019043418
167	0xbd2464a2	-0.040135033
168	0x3c888900	0.01666689
169	0xbcb58d0b	-0.022161981
170	0x3c96250c	0.018328212
171	0xbd20fdff	-0.03930473
172	0x3c7a2cc3	0.015269461
173	0x3c90a682	0.017657522
174	0xbd00390e	-0.03130441
175	0x3c394d66	0.011309957
176	0x3cb7ec53	0.022451555
177	0xbc92466f	-0.017855851
178	0x3c552c60	0.013011068
179	0x3cbdcc91	0.023168834
180	0x3b16d9d6	0.0023018024
181	0x3b8dd8ab	0.0043288074
182	0x3cd2a6ab	0.02571424
183	0x3c91eceb	0.017813167
184	0xbcd42e18	-0.025900885
185	0xbcf41f46	-0.029800069
186	0x3c80eb08	0.015737072
187	0xbc7e41fb	-0.015518661
188	0xbb981200	-0.0046408176
189	0xbc44fb8b	-0.012022863
190	0x3c31c616	0.01085045
191	0xbcfa274b	-0.030536314
192	0x3caddc3e	0.021223184
193	0xbc01d5f6	-0.007924547
194	0xbcb7652b	-0.022387108
195	0x3bab2440	0.005222827
196	0x3d0f5ea7	0.035002377
197	0x3cfc7afb	0.03082036
198	0x3cb6007d	0.02221703
199	0xbd04e0fa	-0.032441117
200	0x3d0ef48a	0.03490118
201	0xbb9019e0	-0.004397616
202	0x3cdb1c9a	0.026747037
203	0xbb82977e	-0.0039853444
204	0x39e9ff4f	0.00044631443
205	0x3b4a4565	0.0030864116
206	0x3c1dae38	0.0096240565
207	0x3c7ba657	0.015359483
208	0x3cd8e4c2	0.026476268
209	0x3d172ffb	0.036910992
210	0x3c75a67e	0.014993308
211	0xbce077db	-0.027400902
212	0xbd217041	-0.039413694
213	0xbc9651ed	-0.018349612
214	0x3b26995e	0.0025421004
215	0x3cf61d8c	0.030043386
216	0xbc4ac499	-0.012375974
217	0xbd207c1d	-0.039180864
218	0x3d05353e	0.03252148
219	0xbca41ae0	-0.020032346
220	0x3d0ffbca	0.035152234
221	0xbd270d68	-0.04078427
222	0xbd0baf53	-0.03410275
223	0x3c4a2ab6	0.012339285
224	0xbcf8bf93	-0.030364787
225	0xbd122161	-0.035676364
226	0x3cfe7d3d	0.031065578
227	0x3a6edc4b	0.00091118057
228	0xbd0d2c55	-0.034466106
229	0x3c922f0a	0.017844696
230	0xbc9e4f02	-0.019324783
231	0xbc2001e9	-0.00976608
232	0xbc357948	-0.011076279
233	0xbd09bbcb	-0.03362636
234	0xb9d19572	-0.00039974932
235	0x3c02307b	0.007946129
236	0xbc8029fc	-0.01564502
237	0xbcc1ffe6	-0.023681592
238	0xbc886b23	-0.01665265
239	0x3d18d151	0.037308995
240	0xbd027bad	-0.031856228
241	0xbd1a4729	-0.03766552
242	0x3ba6f509	0.0050951284
243	0x3d1cf00e	0.03831487
244	0xbd238be2	-0.039928325
245	0x3d18f3f0	0.037342012
246	0xbd078e8a	-0.03309492
247	0x3d12a7f9	0.035804722
248	0x3c91142a	0.01770981
249	0x3c0ed87a	0.008718604
250	0x3d1dc5e2	0.038518794
251	0xbbeee4ac	-0.0072904434
252	0x3cddcf35	0.027076343
253	0xbb881666	-0.0041530607
254	0x3bea141f	0.007143512
255	0x3d1bb72c	0.038016483

model.5.bias f4 [64]
0	0xbd0e31bb	-0.034715395
1	0xbcb50958	-0.022099182
2	0xbcb87325	-0.022515843
3	0xbd29491c	-0.04132949
4	0xbcc0c30f	-0.023530511
5	0xbcdcc1b3	-0.026947832
6	0xbcecb7a3	-0.028896159
7	0xbce4fd8f	-0.027952937
8	0xbc42e19b	-0.011894609
9	0x3cff821f	0.031189976
10	0x3d07ec0e	0.033184104
11	0xbcfb4f62	-0.030677501
12	0xbcce35de	-0.02517217
13	0x3b57c250	0.0032922216
14	0xbd1708ae	-0.036873512
15	0x3c41de09	0.011832722
16	0xbca572b2	-0.020196293
17	0xbc155fcd	-0.009117079
18	0xbb06bbde	-0.0020558755
19	0x3d124ea7	0.03571954
20	0xbd0e3bcc	-0.034724995
21	0x3cf2b6fc	0.02962827
22	0x3c97f6d4	0.018550314
23	0xbcc68d0e	-0.024237182
24	0x3c91fae5	0.017819831
25	0x3cb83a76	0.022488814
26	0x3d136557	0.035985317
27	0xbd2fd521	-0.042927865
28	0x3c8c36ec	0.017116033
29	0x3d009be9	0.031398688
30	0x3cf626e2	0.030047838
31	0x3cf4fb56	0.029905003
32	0xbd055e42	-0.032560594
33	0x3bdbd0c0	0.0067082345
34	0x3ce34c1e	0.027746256
35	0xbcaecce0	-0.021337926
36	0xbd0fb3ac	-0.035083458
37	0x3ca5cb38	0.020238504
38	0x3ca1da09	0.019757288
39	0xbccba5de	-0.024859365
40	0xbcb6665e	-0.02226561
41	0x3c4c878d	0.01248349
42	0x3cb9116d	0.022591317
43	0x3cd72e78	0.026267275
44	0xbcc8f04c	-0.024528645
45	0x3cb819c3	0.022473222
46	0x3cb62eb7	0.022239072
47	0xbd07d7c4	-0.033164755
48	0x3c46d758	0.012136303
49	0xbb790cfb	-0.0038002122
50	0xbcb43e43	-0.022002345
51	0xbd18d048	-0.037308007
52	0xbbd63705	-0.0065373206
53	0xbc0171d2	-0.007900672
54	0xbd1ac180	-0.037782192
55	0xbd23411c	-0.039857015
56	0x3c910daa	0.01770671
57	0x3cd5f2e0	0.026116788
58	0xbcacf24b	-0.021111628
59	0x3d032649	0.032018933
60	0xbd15a83a	-0.036537386
61	0x3cf2b288	0.029626146
62	0xbacd7592	-0.0015675297
63	0x3cb634b0	0.02224192

model.7.weight f4 [64, 64, 3, 3]
0	0x3cc1e366	0.023668002
1	0x3ce83d4b	0.02834954
2	0x3d02d64b	0.031942647
3	0x3c9e0fd8	0.019294664
4	0x3cdc9776	0.026927691
5	0xbc661556	-0.014043173
6	0xbbad71eb	-0.005293121
7	0xbbaa9e56	-0.0052068634
8	0xbc0c956b	-0.008580546
9	0xbbbd42eb	-0.0057757995
10	0x3c8726d6	0.01649801
11	0x3c934f36	0.017982107
12	0xbc538010	-0.01290895
13	0x3c661a9b	0.014044429
14	0x3b90c1a0	0.004417613
15	0x3cd5e770	0.026111335
16	0x3d1112f4	0.035418466
17	0x3ce282b6	0.027650218
18	0x378bb556	1.6654532e-05
19	0xbc39bb60	-0.011336178
20	0x392876ab	0.00016065936
21	0x3d122a3b	0.035684805
22	0x3c3be786	0.011468774
23	0x3b552d96	0.0032528392
24	0x3a008a56	0.0004903426
25	0x3ca3c8c0	0.019993186
26	0x3c68268b	0.014169346
27	0x3bd8ead6	0.0066197915
28	0x3c620e56	0.013797363
29	0x3c503eeb	0.012710313
30	0xbd28974f	-0.041159924
31	0x3caf7986	0.021420252
32	0x3aa458ab	0.0012538632
33	0xbcd385f6	-0.025820713
34	0xbc76e2f0	-0.015068755
35	0x3c7a60e0	0.015281886
36	0xbcb56886	-0.022144567
37	0x3d20fb2b	0.039302032
38	0xbc806ba6	-0.01567633
39	0xbbaa4ccb	-0.0051971427
40	0xbc92b8fe	-0.017910477
41	0x3c7d136b	0.015446524
42	0x3b84acf6	0.004048939
43	0xbc1d0146	-0.009582823
44	0xbcdd5bbe	-0.027021285
45	0x3c1bdb46	0.009512728
46	0x3c88ab58	0.016683266
47	0x3c2d2160	0.010567039
48	0xbd1d9444	-0.038471475
49	0xb9592eab	-0.00020712118
50	0x3d0fe61a	0.03513155
51	0xbce712ee	-0.028207269
52	0xbd000cbf	-0.031262156
53	0xbb54d96b	-0.0032478224
54	0xbc697486	-0.014248973
55	0xbb989de0	-0.004657492
56	0xbb9dd54b	-0.0048166863
57	0x3ce7d0fe	0.028297897
58	0xbbef8336	-0.0073093427
59	0x3c1162f6	0.008873692
60	0x3ce6f343	0.028192168
61	0x3d0e0d77	0.03468081
62	0x3c043a20	0.008070499
63	0x3d1511fa	0.036394097
64	0x3ce1a27e	0.027543303
65	0xbcf6b96b	-0.030117711
66	0xbba9b260	-0.0051787347
67	0xbc47baeb	-0.012190561
68	0xbcc4e876	-0.024036627
69	0x3bceb6cb	0.0063084117
70	0x3d0d7a92	0.03454072
71	0xbc81da60	-0.0158512
72	0x3d21b44a	0.039478578
73	0x3b78dc6b	0.0037973176
74	0x3beb3b80	0.007178724
75	0xbd13aa3a	-0.036051013
76	0xbcc833b3	-0.024438715
77	0x3bef7f56	0.007308881
78	0xbce5cb80	-0.028051138
79	0x3cf021d6	0.02931301
80	0xbc268e66	-0.010165786
81	0xbcac01fe	-0.020997044
82	0x3c61c190	0.013779059
83	0xbc081600	-0.008306026
84	0xbcd91e9e	-0.026503857
85	0xbc5f80b6	-0.013641527
86	0xbbd6c5ab	-0.0065543256
87	0xbc450d66	-0.01202712
88	0x3cbd5b88	0.023114935
89	0x3d187040	0.037216425
90	0x3abac556	0.0014249485
91	0xbc83e9e0	-0.016102731
92	0xbbef50d6	-0.0073033376
93	0xbc0d073b	-0.008607681
94	0xbc0bbd4b	-0.008529018
95	0xbc033fab	-0.008010785
96	0xbb7bae40	-0.0038403422
97	0x3ccf2ac0	0.02528894
98	0xbcdd1a86	-0.026990186
99	0xbccea093	-0.025223052
100	0x3d0f77b7	0.03502628
101	0xbca7361e	-0.020411547
102	0xbd1a5594	-0.03767927
103	0x3d229b0b	0.03969864
104	0x3c94c936	0.018162351
105	0x3c84f918	0.016232058
106	0x3c50fee6	0.012756085
107	0xbd25ef44	-0.040511385
108	0xbce6b9ab	-0.028164705
109	0xbb904420	-0.0044026524
110	0x3cf8a518	0.03035216
111	0x3b719ed6	0.0036868355
112	0x3c14d3f6	0.009083739
113	0xbd18f96b	-0.03734724
114	0x3cd9befe	0.02658033
115	0x3cf564b6	0.02995525
116	0xbb8b2dd6	-0.0042474074
117	0x3cedb90b	0.0290189
118	0x3ce0a1db	0.027420929
119	0xbcb1e23b	-0.02171432
120	0xbce6158e	-0.02808645
121	0x3c666916	0.01406314
122	0xbc7a3786	-0.015272027
123	0xbc9d42fe	-0.019196983
124	0x3c232586	0.009957677
125	0xbcd2fc2b	-0.025755009
126	0x3caccf86	0.021095049
127	0xbc32dd66	-0.010917043
128	0xbc405266	-0.011738395
129	0xbd183ea6	-0.03716912
130	0x3ceacfbe	0.028663512
131	0x3c3b8a10	0.011446491
132	0x3ce274d0	0.027643591
133	0x3aa5c1d6	0.0012646269
134	0x3d2271eb	0.039659422
135	0xbcafa376	-0.021440249
136	0x3c0a9170	0.008457527
137	0xbd0c050b	-0.034184497
138	0x3c2a7316	0.010403415
139	0xbc958558	-0.01825206
140	0x3ba095c0	0.004900664
141	0xba561e56	-0.00081679726
142	0xbca6dad6	-0.020368021
143	0x3c381f9b	0.011238004
144	0x3b4b946b	0.0031063806
145	0xbcab0f0e	-0.020881202
146	0x3c723c1b	0.014784838
147	0x3c9e521b	0.01932626
148	0xbc822800	-0.015888214
149	0xbd19ddeb	-0.037565153
150	0xbcca59d3	-0.024701035
151	0x3a854aab	0.0010169348
152	0x3ba6de00	0.0050923824
153	0xbcf62d78	-0.030050978
154	0xbb20266b	-0.0024436961
155	0x3d0ee324	0.034884587
156	0x3cbaff08	0.022826687
157	0xbcb010e0	-0.021492422
158	0x3d01cbb4	0.031688407
159	0xbcfcef38	-0.030875787
160	0x3d27ba8a	0.040949382
161	0x3c78f546	0.0151951965
162	0xbc4f432b	-0.012650291
163	0x3c9cd270	0.019143313
164	0xbc59638b	-0.013268362
165	0xbd22a502	-0.039708145
166	0x3cc8a6c6	0.024493586
167	0xbc9eda5b	-0.01939123
168	0x3c03ad3b	0.008036907
169	0xbbe9abeb	-0.00713109
170	0x3c42c4fb	0.011887784
171	0x3b0a8aab	0.0021139781
172	0x3c05af5b	0.008159484
173	0x3c23af86	0.0099905785
174	0x3c33aab0	0.010965988
175	0xb892f556	-7.00752e-05
176	0xbc8997de	-0.016796049
177	0x3b7ad580	0.0038274229
178	0x3d173c02	0.036922462
179	0x3b20dc2b	0.0024545293
180	0x3c7c2e0b	0.015391837
181	0xbc67d7e6	-0.014150595
182	0x3cd51473	0.026010728
183	0x3b17582b	0.0023093324
184	0xbc0c9ad0	-0.008581832
185	0x3cade893	0.021229064
186	0xbcf1b9ab	-0.029507479
187	0xbd1fb286	-0.038988613
188	0xbcd2f5b6	-0.02575193
189	0xbcf04868	-0.029331401
190	0x3b931e2b	0.0044896803
191	0x3b52ac00	0.0032145977
192	0x3bf6aa8b	0.0075276545
193	0x3c4f4b3b	0.012652214
194	0x3d094c38	0.033519953
195	0xbcd31ffe	-0.025772091
196	0xbbe07fd6	-0.0068511767
197	0x3cb520b3	0.022110319
198	0xbd0d4ac3	-0.034495126
199	0x3c2533db	0.010083164
200	0x3d1fa9cc	0.03898029
201	0x3d0018a6	0.031273507
202	0xbcbb8ff6	-0.022895794
203	0xbb9ead0b	-0.0048424057
204	0xbd146792	-0.036231585
205	0x3d0c74d2	0.034291096
206	0xbcf8c07b	-0.03036522
207	0x3cb4e480	0.022081614
208	0xbc1fead0	-0.0097605735
209	0x39cc1aab	0.0003892978
210	0xbce4c960	-0.027928054
211	0xbd059e12	-0.03262145
212	0x3d26214f	0.04055911
213	0xbd1a9090	-0.03773552
214	0x3bea4300	0.0071491003
215	0x3bc9aaf6	0.0061544133
216	0x3d0aeb23	0.03391565
217	0xbc9a4f5e	-0.018836673
218	0xbbe61120	-0.0070210844
219	0x3d01034c	0.031497285
220	0xbc75456b	-0.014970164
221	0x3d20b7b8	0.039237708
222	0xbbfc0bf6	-0.0076918555
223	0x3cd6c1d0	0.026215464
224	0x3908ad56	0.00013034543
225	0x3ccbdc1b	0.024885228
226	0xbbe7f420	-0.0070786625
227	0xbc624b96	-0.013811966
228	0x3d12331c	0.035693273
229	0x3d27f013	0.041000437
230	0xbd1fcc32	-0.039013095
231	0x3c1ea2d0	0.009682372
232	0x3c714b30	0.014727399
233	0x3d054468	0.03253594
234	0xbab7c656	-0.0014020901
235	0xbcfe97b3	-0.031078195
236	0x3c9fb083	0.019493347
237	0xbcee7133	-0.029106712
238	0x3d12de3c	0.03585647
239	0xbb2b7f56	-0.0026168427
240	0xbc5047f0	-0.012712464
241	0xbc68a000	-0.014198303
242	0x3d29d9e7	0.041467573
243	0xbc9f999b	-0.019482424
244	0x3b98b1a0	0.0046598464
245	0xbc491a9b	-0.01227441
246	0xbd157b92	-0.0364948
247	0xbba0d3d6	-0.0049080653
248	0x3cc0c90b	0.023533365
249	0x3b7a26c0	0.003817007
250	0x3c809fd6	0.015701216
251	0x3b975bc0	0.0046190917
252	0x3c0d1210	0.0086102635
253	0x3c3c4ecb	0.011493395
254	0xbc3562d0	-0.011070922
255	0xbd2624df	-0.040562507

model.7.bias f4 [64]
0	0x3bc676e0	0.0060566515
1	0x3cc7358a	0.024317522
2	0xbc74dfe6	-0.01494596
3	0x3c015bcd	0.007895422
4	0x3c8ca3a4	0.017167874
5	0xbc487a90	-0.012236252
6	0x3a0eed5d	0.000545224
7	0x3cf41e4d	0.029799605
8	0x3c1bb3c0	0.009503305
9	0xbd29379a	-0.04131279
10	0xbcff34da	-0.031153131
11	0x3d2cfe2c	0.042234585
12	0x3c4a9129	0.01236371
13	0x3c82db24	0.015973635
14	0x3ca47f12	0.020080123
15	0x3cb8a509	0.022539632
16	0x3cfcce06	0.030859958
17	0x3c4def0a	0.012569198
18	0x3cbb1d82	0.022841219
19	0xbd1b50e0	-0.037918925
20	0xbb021f51	-0.0019855092
21	0x3b4f257a	0.003160803
22	0x3c1e76bc	0.009671863
23	0x3d340992	0.04395444
24	0x3c8ebee2	0.017425004
25	0xbb49afdd	-0.0030774989
26	0xbd0191b7	-0.031633105
27	0x3cab10b5	0.02088199
28	0x3d2ba0d9	0.041901443
29	0xbcb5eec0	-0.022208571
30	0x3d12a16b	0.03579847
31	0xbc895dcd	-0.01676836
32	0xbc557126	-0.013027465
33	0x3b3a13c0	0.002839312
34	0xbb9fdd36	-0.0048786653
35	0x3b1c1d18	0.0023821052
36	0xbbbef820	-0.0058279186
37	0x3bbf5fa9	0.005840261
38	0xbd22b084	-0.03971912
39	0xba07ce4a	-0.0005180581
40	0x3b5de1c5	0.0033856493
41	0xbc23e226	-0.010002648
42	0xbc9dbd6d	-0.019255364
43	0xbcc4ff4c	-0.024047516
44	0xbc989e4e	-0.018630173
45	0x3be5d68c	0.0070141014
46	0x3bcc68fd	0.0062381015
47	0xbd0a7899	-0.033806417
48	0x3c15d37d	0.009144661
49	0x3d27baf0	0.040949762
50	0xbbee44b0	-0.007271372
51	0x3c3fb4e6	0.011700844
52	0x3cfbac62	0.030721847
53	0xbba8a50d	-0.0051466287
54	0x3c9869b8	0.018605098
55	0xbcd4f45b	-0.025995424
56	0x3cca4266	0.024689864
57	0xbcd8e90e	-0.026478317
58	0x3c99a5d4	0.01875583
59	0x3cea659d	0.028612906
60	0xbd24ac0f	-0.04020315
61	0x3d3c2c5d	0.045940746
62	0xbc7515e3	-0.0149588315
63	0x3bb82ff4	0.005620951

model.9.weight f4 [1, 64, 3, 3]
0	0xbd285726	-0.041098736
1	0xbcecbf58	-0.028899834
2	0x3cd33448	0.025781766
3	0x3c85d806	0.01633836
4	0xbbb2fad6	-0.005462031
5	0x3c1534d6	0.009106835
6	0x38b77aab	8.748969e-05
7	0xbc97b4c3	-0.018518811
8	0xbd10c550	-0.035344422
9	0x3c766977	0.015039793
10	0xbcb2577e	-0.021770235
11	0xbcc6a165	-0.02424688
12	0x3c8eabd3	0.017415917
13	0xbc84bf00	-0.016204357
14	0xbd1aaa1b	-0.03775988
15	0x3c8f188d	0.017467761
16	0xbc407ccf	-0.011748507
17	0xb8b3c32a	-8.571737e-05
18	0x3d20762b	0.039175194
19	0xbc8f0a06	-0.017460834
20	0x3cc794eb	0.024363002
21	0x3ba33556	0.0049807234
22	0x3ccf5ef0	0.025313824
23	0xbbff86b6	-0.007798041
24	0x3b8a9ab6	0.0042298688
25	0xbc90bec8	-0.017669097
26	0xbcbdeb20	-0.023183405
27	0xbd1d483f	-0.038398977
28	0xbcb446dc	-0.022006445
29	0xbbbd5ee6	-0.005779135
30	0x3ce4a2d4	0.027909674
31	0x3c82bce0	0.015959203
32	0x3d2f077e	0.042731754
33	0x3b1291ea	0.0022364804
34	0xbcea2fee	-0.028587308
35	0x3d0895f6	0.03334614
36	0xbb9a0d6d	-0.0047013075
37	0x39e1bff0	0.0004305835
38	0x3d266609	0.040624652
39	0xbc9a137e	-0.018808123
40	0xbcadadf2	-0.021201108
41	0xbbba6dda	-0.005689365
42	0x3d1512ec	0.036395
43	0x3c17132c	0.0092208795
44	0xbbfbda61	-0.007685945
45	0xbc39e530	-0.011346146
46	0xbd1539ee	-0.0364322
47	0x3c1d90c6	0.009617036
48	0xbcc91060	-0.024543941
49	0x3cfa8aa8	0.030583695
50	0xbbd7dceb	-0.006587615
51	0xbb8653cb	-0.0040993444
52	0xbd1f507f	-0.038895126
53	0x3aea8cd6	0.0017894756
54	0xbb64115a	-0.0034800381
55	0xbc5c5ec0	-0.013450325
56	0xbc2ccfb3	-0.010547566
57	0x3cae724a	0.021294732
58	0x3cba25b5	0.022723058
59	0x3c9eda2a	0.019391138
60	0xbd06a1a8	-0.03286901
61	0xbc932cb4	-0.017965652
62	0xbbd9b9a5	-0.006644445
63	0x3cf4d267	0.029885484
64	0x3ca7159d	0.020396048
65	0x3abea349	0.0014544512
66	0x3d310efb	0.043227177
67	0xbcff1e6e	-0.03114244
68	0x3d148c56	0.036266647
69	0x3cb852e1	0.022500457
70	0x3b4052c2	0.0029346203
71	0x3c9839a9	0.018582182
72	0x3c87f56c	0.016596518
73	0x3d24e2cf	0.040255364
74	0xbc47a495	-0.0121852355
75	0xbca4d9d4	-0.0201234
76	0x3c3944cc	0.011307906
77	0xbd210f7c	-0.039321408
78	0xbcde7baa	-0.027158577
79	0xbbf7a3c3	-0.0075573637
80	0x3be3017f	0.0069276686
81	0xbc55979b	-0.013036634
82	0x3c2f8e6b	0.010715107
83	0x3c5104fb	0.012757535
84	0xbd1642c0	-0.03668475
85	0x3cdaa630	0.026690573
86	0xbca11586	-0.019663583
87	0xbca066d0	-0.019580275
88	0xbc9adf68	-0.018905357
89	0xbcd8600e	-0.02641299
90	0x3cbbae9f	0.022910414
91	0xbb2f9f26	-0.002679774
92	0x3d20f00a	0.03929142
93	0xbc90fbcb	-0.01769819
94	0xbbb0fb4b	-0.00540105
95	0xbcf03ac6	-0.0293249
96	0xbbec77f2	-0.007216447
97	0x3d1720e3	0.036896598
98	0xbd18ba3f	-0.037286993
99	0x3c7a28e4	0.015268538
100	0x3d34087b	0.0439534
101	0x3ceca535	0.02888737
102	0xbcd81344	-0.026376374
103	0x3d0559a0	0.032556176
104	0x3c8da4e6	0.017290544
105	0xbd0b905e	-0.034073226
106	0x3c108867	0.008821583
107	0x3c1b4c42	0.0094786305
108	0xbab768e8	-0.0013993056
109	0x3c5824b0	0.013192341
110	0xbd06e803	-0.032936107
111	0x3d0924c4	0.033482328
112	0xbc8f8f44	-0.017524369
113	0xbce01de7	-0.027358009
114	0x3c498a56	0.012301048
115	0x3d064e71	0.03278965
116	0xbd1cf587	-0.03832009
117	0x3d072f5d	0.033004154
118	0xbcb4e8c7	-0.022083653
119	0x3c9585b6	0.018252235
120	0xbcb78319	-0.02240138
121	0x3ce03cb5	0.027372697
122	0xbb908bde	-0.0044112047
123	0x3cb60668	0.022219852
124	0x3cae17ae	0.021251526
125	0x3d1b3ecc	0.037901685
126	0xbd1eb1af	-0.03874367
127	0xbc2c0be0	-0.010500878
128	0x3a3d4913	0.0007220667
129	0x3c8d2db0	0.0172337
130	0xbc7f77ae	-0.015592499
131	0xbc584803	-0.013200763
132	0x3caa9e8c	0.020827554
133	0xbcdd332e	-0.027001943
134	0x3d19afbe	0.037521116
135	0x3d190cfa	0.03736589
136	0x3cededa0	0.029043972
137	0xbc86da3c	-0.016461484
138	0x3c837c71	0.01605055
139	0xbc9848f0	-0.018589467
140	0xbd015499	-0.03157482
141	0x3ca284ae	0.019838657
142	0x3b10f14e	0.0022116485
143	0xbaf6c1d7	-0.0018826079
144	0x3aebf7c7	0.001800292
145	0x3c4e4044	0.012588564
146	0xbcf1a227	-0.029496266
147	0xbbafe39c	-0.0053677093
148	0x3ca94207	0.020661367
149	0xbd032a81	-0.032022957
150	0xbc69ea27	-0.014277018
151	0xbd1e51a1	-0.038652066
152	0xbc93fd79	-0.018065201
153	0xbb201299	-0.0024425148
154	0xbd00dc97	-0.03146037
155	0x3d2fa583	0.042882454
156	0x3d308fa5	0.04310574
157	0x3c4317bd	0.011907515
158	0xbcfb8ea0	-0.030707657
159	0x3d34113c	0.04396175
160	0x3d352f74	0.044234708
161	0xbd12b811	-0.03582007
162	0x3d02ea0b	0.031961482
163	0x3b6456b9	0.003484173
164	0xbd1313c7	-0.035907533
165	0xbbf9f82b	-0.007628461
166	0xbc2fedf7	-0.010737888
167	0x3c9bfc85	0.01904131
168	0x3d19bec7	0.037535455
169	0x3b9d0dc7	0.004792902
170	0x3b618e02	0.0034416919
171	0xbbeb2d80	-0.007177055
172	0x3c9ee4f0	0.019396275
173	0x3d2022db	0.03909574
174	0x3aaa19d6	0.001297767
175	0x3ced93be	0.029001113
176	0xbadda9d6	-0.0016911577
177	0xba026900	-0.00049747527
178	0x3c1035f6	0.008801928
179	0xbc4ba656	-0.012429794
180	0xbb9dc0c0	-0.0048142374
181	0x3d2b245b	0.04178272
182	0xbcdce961	-0.026966752
183	0xbb873351	-0.0041259904
184	0xbcc9c01b	-0.024627736
185	0xbd0f7a3d	-0.035028685
186	0x3b4fd1de	0.0031710784
187	0xbd0d76d5	-0.034537155
188	0x3d332441	0.043735746
189	0xbc3a1661	-0.011357875
190	0x3bffe9b5	0.0078098425
191	0xbca4d11e	-0.020119246
192	0xbc8e1026	-0.017341685
193	0xbc9ff58b	-0.019526264
194	0x3a867ed2	0.0010261184
195	0x39cd2b88	0.0003913308
196	0x3c965cb1	0.018354746
197	0xbd1df4e0	-0.03856361
198	0xbd148373	-0.036258172
199	0xbcc9d150	-0.02463594
200	0x3b9d3af2	0.0047982866
201	0x3c1c4757	0.009538493
202	0x3c4e6c0c	0.012599003
203	0x3ccdeaf2	0.025136445
204	0xbc54b59a	-0.01298275
205	0xbd1c95fc	-0.038228974
206	0x3cdb5e1d	0.026778275
207	0x3cf89fe8	0.030349687
208	0x3cdde82a	0.027088244
209	0xbba42be9	-0.0050101173
210	0xbb969ef8	-0.0045965873
211	0x3c5cbc4b	0.013472627
212	0x3c1d2c06	0.009593016
213	0xbcda24bd	-0.026628846
214	0x3ceb3281	0.028710606
215	0x3ca7eadf	0.020497737
216	0xbca6e745	-0.02037395
217	0x3d275d35	0.040860374
218	0xbc7c92bf	-0.015415846
219	0x3c6ba39d	0.01438227
220	0xbd02e377	-0.03195521
221	0xbc1f22a4	-0.009712849
222	0x3cad5ead	0.021163309
223	0x3cdf7cf0	0.027281255
224	0x3bac048b	0.005249565
225	0x3c2b44cf	0.010453417
226	0xbc14790f	-0.009062066
227	0xbd0e9400	-0.034809113
228	0xbc222483	-0.0098964
229	0x3c422941	0.011850656
230	0x3d0d6dd9	0.034528587
231	0x3c6f9f7e	0.014625428
232	0x3bbc13a2	0.005739645
233	0x3c239a17	0.009985468
234	0xbbf69233	-0.0075247525
235	0xbd2689f7	-0.040658917
236	0xbb24e3df	-0.0025160236
237	0x3d0580c4	0.032593504
238	0x3d2082bf	0.03918719
239	0xbd1ce4fc	-0.038304314
240	0x3c8ba686	0.017047178
241	0xbc144236	-0.009048989
242	0x3cead752	0.028667126
243	0x3c655dd0	0.013999417
244	0x3b4b13f4	0.0030987235
245	0x3a9b229f	0.0011835879
246	0x3d02a851	0.0318988
247	0x3b8937e6	0.004187572
248	0xbd03c5a4	-0.032170907
249	0x3d04e165	0.032441515
250	0x3d3622a4	0.04446663
251	0x3c89a926	0.01680429
252	0x3aea8986	0.0017893768
253	0x3c4dc05a	0.012558067
254	0x3b249304	0.0025112042
255	0xbd0bf061	-0.03416479
