dga/illumination_adjustment/weights_last.pt (torch, 606791 bytes, 11 tensors)

model.0.weight f4 [64, 4, 3, 3]
000000 ef 6a 19 3e a3 bc d0 3d d1 ce 41 bc d8 92 9f 3d
       0.14982198 0.101922296 -0.011829094 0.0779168
000010 72 5b 0b 3e a2 93 f1 bc 2a c4 ac bc 51 a3 32 3d
       0.13609102 -0.029489342 -0.021089632 0.043612782
000020 2c f9 10 3d 64 0f e6 3c 51 32 34 bd 3f 8e a0 bd
       0.03539388 0.02808351 -0.043993298 -0.07839631
000030 05 92 b7 bd 1d 0d 94 3d 34 21 08 be e4 75 dd 3c
       -0.08963398 0.07229064 -0.13293916 0.027033754
000040 90 ae d2 3d 62 ec 0f 3e 40 6c 23 be e2 5a 1d be
       0.102872014 0.14055017 -0.15959263 -0.153667
000050 2c a7 b9 bd b2 2f f4 3d a5 d5 01 be 4c fd 1d be
       -0.09065089 0.1192316 -0.12679155 -0.15428656
000060 56 94 b6 3c 23 1b b6 3c 3f 92 8d 3d d8 3b bb 3b
       0.022287529 0.022229737 0.0691266 0.005713921
000070 a6 33 41 3d ac 0c c2 bd 64 9c df 3d 80 7d 61 bd
       0.047168396 -0.09475073 0.10918501 -0.055051327
000080 e3 e0 86 bd e1 dc 92 3c e6 8d d2 3c a0 c3 de bd
       -0.065858625 0.017927589 0.025702428 -0.10877156
000090 3c d2 42 bd 07 ba 08 bd a7 c7 fd bd 21 7f db 3d
       -0.047563776 -0.033380534 -0.12391596 0.10717607
0000a0 cf 40 1f be c1 9b d4 3d 63 81 47 bd 69 24 37 bb
       -0.15552066 0.1038127 -0.048707377 -0.0027945286
0000b0 60 71 1f 3e 31 ea 97 3c f2 91 57 3d 2f 0a ae bd
       0.15570593 0.018544288 0.05262942 -0.08498036
0000c0 58 67 af bd 71 45 ac bd 4d 09 6d bd 43 69 f3 bd
       -0.08564633 -0.084116824 -0.057870198 -0.118853115
0000d0 50 15 07 3e 65 7b a5 3d 7e 69 1c 3c a8 0d c0 bd
       0.13191724 0.08080176 0.009546636 -0.09377605
0000e0 04 d8 01 3e 98 50 17 3e d8 a2 ec bb 76 be 71 3d
       0.1268006 0.14776838 -0.007221561 0.05901953
0000f0 aa 04 0d 3c 96 17 13 be e3 bf 01 bd 77 7d 07 bc
       0.008607069 -0.14364466 -0.031677138 -0.008269659
000100 64 8f 23 bd 0d 27 f9 bd 9c 71 81 bd b6 0e 09 be
       -0.03993167 -0.121656515 -0.063204974 -0.13384518
000110 a1 bf 4a 3d 8a 01 22 3e 58 2f b7 bd 4f 06 70 3c
       0.049499158 0.158209 -0.08944577 0.014649942
000120 bc 25 19 be d3 51 93 bd 67 4d 83 3d bf f7 97 3d
       -0.14955801 -0.07193341 0.06411248 0.07420301
000130 71 83 9d bd 7a 2c 0c be 7d bf 10 be c4 10 4d 3d
       -0.07691086 -0.13688841 -0.14135547 0.050064817
000140 74 6d 70 bb 43 d0 e8 3c 7c 64 c5 bd c9 c6 0e 3e
       -0.0036686333 0.02841962 -0.096383065 0.13943018
000150 20 2e 1f 3d 02 a6 6b 3c 2f 04 ff 3d f2 cd b9 3d
       0.038862348 0.014382841 0.1245197 0.09072484
000160 0c 87 95 3c 0e 1a 2a 3d e3 2d 03 3e 3a a5 3f bd
       0.018252872 0.041528754 0.12810473 -0.04678843
000170 6c 08 fd bd f7 86 8b 3d 5b 63 17 be 21 b5 1a 3e
       -0.12355122 0.06812852 -0.14783995 0.15108158
000180 20 12 20 3e b7 4a 12 3e d8 2d 0f 3e 71 54 53 3c
       0.15631914 0.14286314 0.13982332 0.01289855
000190 f4 f5 3d bd 85 34 bc bd 4a 95 59 bd 63 d8 a0 3c
       -0.046377137 -0.09189705 -0.05312089 0.019634431
0001a0 1d b6 19 be 19 69 0a 3e 83 17 d6 bd 64 3e 0e 3e
       -0.15010877 0.13516654 -0.10453703 0.13890988
0001b0 c0 b0 cb 3c 5b dd dd bc d4 04 a7 3d bf 23 4b 3d
       0.024864554 -0.02708309 0.08155218 0.049594637
0001c0 c0 28 ea bd 59 66 c3 3c bc 15 09 3e 3c 4c aa 3d
       -0.11433554 0.023852514 0.13387197 0.08315322
0001d0 94 2e 1b 3e de b7 c8 3d df 14 0c be 55 23 49 bd
       0.15154487 0.09800695 -0.13679837 -0.04910596
0001e0 e6 09 18 3e a7 56 8a bc bd b1 ce bc 18 21 6a bb
       0.14847526 -0.016887022 -0.025231237 -0.0035725292
0001f0 3e 9e f9 bd fe f7 54 3d 74 08 9e bd a6 d5 58 3d
       -0.121883854 0.051994316 -0.07716456 0.052938126
000200 53 a4 1f be 37 82 f5 3d fa 19 5a bd b1 9c bb bd
       -0.15590028 0.11987727 -0.05324743 -0.09160746
000210 f1 54 9b bc 7f 7b 4a bd 98 87 4c 3c 55 23 1e bd
       -0.018961402 -0.04943418 0.0124835 -0.038607914
000220 f1 17 93 3c 5d 37 d4 3d 54 62 de bc 89 e7 f5 3d
       0.017955752 0.10362122 -0.027146496 0.120070525
000230 dc 48 bf 3d 41 74 41 bd 28 7e bc bd 9f 9b 64 3c
       0.09340069 -0.04723001 -0.0920375 0.013953119
000240 5a 6c a3 bc bd 9c b3 3d 7d bd 0b 3e e5 78 5d 3d
       -0.019949127 0.0877013 0.13646503 0.054070372
000250 d0 4c d8 3c 3b 0b ed bd fa f4 8b bd eb 94 e3 bc
       0.026403815 -0.11574408 -0.06833835 -0.02778097
000260 c9 f0 9f bd c7 36 0e be 15 54 fd bc 63 0c 10 3d
       -0.07809598 -0.13888083 -0.030923882 0.035168063
000270 7b 7b 14 bc 61 45 16 3e 3d 0c bf bd b7 66 00 3e
       -0.009062643 0.14674903 -0.09328506 0.12539183
000280 28 cc ec 3d 04 37 d6 3c e7 36 20 be 89 f1 75 bc
       0.11562377 0.02614928 -0.15645944 -0.0150112
000290 43 c4 8d bd f6 ed 04 3d e3 3b 8b b8 8f 21 67 bd
       -0.069221996 0.0324535 -6.639191e-05 -0.05642849
0002a0 d6 f4 cf bc 04 aa cc 3d 86 98 1b 3d 8e 9a 26 3d
       -0.025385302 0.099933654 0.037987255 0.04067474
0002b0 e4 14 28 3d 4c 9d c0 3b 33 59 25 3e f7 48 04 be
       0.041035548 0.0058781262 0.16147308 -0.12918459
0002c0 95 9a f6 3d f3 a6 25 be d3 b5 06 be 20 d0 67 3d
       0.12041203 -0.16176967 -0.13155298 0.056594968
0002d0 f8 a7 ff 3b bc 0e 05 be b0 df a8 bb ff cd 35 3d
       0.007802006 -0.12993902 -0.0051536188 0.044385906
0002e0 7b e9 b1 3c f5 5f 17 3e dd e5 bd bd 1f 7c 0c be
       0.021717777 0.14782698 -0.092723586 -0.13719223
0002f0 ff 51 05 3e 9f 94 f9 3d c0 3b 2d be 02 58 5c 3d
       0.1301956 0.1218655 -0.16917324 0.05379487
000300 c9 a0 bd 3a d0 17 d0 bb 37 a7 40 3d 6f dc e7 3c
       0.0014467473 -0.006350495 0.04703447 0.028303353
000310 2a 44 85 3d 41 5c bf bd f5 ac 05 be c3 c2 02 3e
       0.06507142 -0.09343768 -0.13054259 0.12769608
000320 ce 8b cb 3a 96 49 ea bd 52 2e 82 3d 45 07 be 3c
       0.0015529336 -0.11439817 0.06356491 0.023196826
000330 64 74 0e be 93 06 88 bc 40 a8 10 3e 5e 14 eb bd
       -0.13911587 -0.016604697 0.14126682 -0.11478494
000340 ce e1 fd 3d 05 56 91 3d dc d8 e5 3c 87 1e 1c bd
       0.123965845 0.07096485 0.028057508 -0.03811505
000350 c3 ef 1d be e7 3e ed 3c 8d 6a d5 3d 06 7f 23 3e
       -0.15423493 0.028960658 0.104207136 0.15966424
000360 ed 1a b7 3c 4c 12 8d bd db 8f 2d be 1b 54 07 3e
       0.022351706 -0.068882555 -0.16949408 0.13215677
000370 7c 26 3d bd e1 05 1b be 71 1d df 3c f7 bd 4a 3b
       -0.04617928 -0.15138961 0.027235718 0.0030935982
000380 47 09 0b be 86 a6 86 3d cc 00 df bc 99 77 04 3e
       -0.13577758 0.065747306 -0.02722206 0.12936248
000390 d8 34 fa bd c5 7c 74 3d 2a f9 01 3e dd f6 97 3d
       -0.122171104 0.059689302 0.12692705 0.07420132
0003a0 43 a0 3a bd f4 0d e2 bd 01 36 17 3e 24 12 6e bd
       -0.045562994 -0.110378176 0.14766695 -0.05812277
0003b0 1f f3 c4 3d e6 a9 37 bd ae b1 52 3d 3b d3 86 3d
       0.09616684 -0.044839762 0.05143898 0.06583258
0003c0 f4 3c 8e bd 2b 33 8e bd 4f c4 fc 3d b7 0f d0 bc
       -0.0694522 -0.06943353 0.123421304 -0.025398118
0003d0 d5 57 0a be dc ab d7 3d dc 3a 85 bd bc fb 13 3e
       -0.13510068 0.105308264 -0.06505367 0.14451498
0003e0 2d d7 74 bd f9 30 03 3d 69 27 28 bc e5 0c 16 be
       -0.05977552 0.032029126 -0.010263302 -0.14653356
0003f0 b7 ba 26 3e e0 5d dd 3d f0 9b f6 bd 14 28 55 3c
       0.16282164 0.10808921 -0.120414615 0.013010044

model.0.bias f4 [64]
000000 73 d1 25 3d c1 f6 15 3e aa d4 97 bd 00 4b 89 ba
       0.04048295 0.1464491 -0.07413609 -0.0010474622
000010 3d 7c 0e 3e 77 4b 1b 3e c5 82 e5 3d db a2 1d be
       0.1391458 0.15165506 0.11206583 -0.15394156
000020 2d e0 f3 bd cc 42 b7 bd c1 14 cb bc 3e e6 1d 3d
       -0.119079925 -0.08948287 -0.02479017 0.038549654
000030 cc e2 0c be 0b 57 00 3e 33 d1 fc 3d cc 2e ed bd
       -0.13758391 0.12533204 0.12344589 -0.115811914
000040 33 3a 8c 3d a6 4f 6d 3d 83 42 f3 3c 23 7e 59 bd
       0.06847038 0.057937287 0.029694801 -0.05309881
000050 c7 f7 8a bc e2 e8 0f 3e 43 6d cc bd 8a 43 07 be
       -0.016963853 0.14053681 -0.099817775 -0.13209358
000060 14 6a 26 bd d7 29 10 bd 4e 46 75 bd ba b4 01 3e
       -0.040628508 -0.03519615 -0.0598815 0.12666598
000070 d8 78 17 be c4 25 cd 3a a2 09 87 bd 7a 63 bb 3d
       -0.14792192 0.0015651514 -0.06593634 0.09149833
000080 54 89 1f bd a1 11 81 3d b9 4b a4 bc 7c d3 6d 3d
       -0.038949326 0.063021906 -0.020055639 0.058063015
000090 1a 7b c7 bd 77 f5 06 be 99 67 50 3d cc 85 d6 bd
       -0.09740277 -0.13179575 0.05088005 -0.104747385
0000a0 4c ad e5 3d df 3a 01 bd 61 a0 cb bd 4a 13 07 3e
       0.112146944 -0.031550284 -0.09942699 0.13190952
0000b0 64 f2 01 3e 00 92 f8 bd b8 ef 1d 3e f7 70 07 3e
       0.12690121 -0.12137222 0.15423477 0.13226686
0000c0 dc be 9d bd 59 f2 e8 3d 5f 2c 24 3e 5b e2 04 3e
       -0.07702419 0.11374349 0.16032551 0.12976973
0000d0 c3 e1 f7 bd ca 6f e1 bd a8 95 08 bc 91 5c 1b 3e
       -0.121036075 -0.1100765 -0.008336462 0.1517203
0000e0 8c b4 07 3e 2d 58 97 bc 5c 18 13 be d0 7d 04 be
       0.13252467 -0.018474663 -0.14364761 -0.12938619
0000f0 f2 f7 54 3d 07 ee e9 bd eb d2 e6 3d e2 0c ca bc
       0.05199427 -0.11422353 0.11270698 -0.024664346

model.1.weight f4 [64, 64, 3, 3]
000000 48 9b cf 39 8d 08 f3 bc d4 15 2c bd 89 1f 51 bc
       0.0003959781 -0.029667163 -0.042013004 -0.012763866
000010 0e b1 95 bc d7 84 01 3d 0c fe bd 3c 94 aa a2 3c
       -0.018272903 0.031620827 0.023192428 0.019856729
000020 82 8c cf bc b9 d1 8a 3b d6 d4 5f 3c 14 24 bf 3c
       -0.025335554 0.0042364267 0.013661584 0.023332633
000030 d8 51 24 bd b0 e4 cd bc 2e fe 3c 3c 5c 0d 2e bc
       -0.040117115 -0.02513346 0.011535211 -0.010623302
000040 f3 dc 15 3d f1 5b 0d 3b d3 31 d9 3c d5 a9 1d bd
       0.036587667 0.0021569694 0.026513016 -0.038492043
000050 33 e4 c5 bc 64 89 0f 3d 45 60 f4 3c 68 87 25 bd
       -0.024156665 0.035043135 0.029831061 -0.040412337
000060 c1 51 b4 3c ae 9e 00 3d a9 75 18 bd 8d 4d 85 bc
       0.02201164 0.03140133 -0.037221584 -0.01627233
000070 75 68 8a bc 78 04 5f bc f2 df 95 3c 6a 76 cb 3c
       -0.016895512 -0.013611905 0.018295262 0.024836738
000080 51 e8 cd 3b 13 d2 80 bc 2a f3 19 3d 11 5d 31 bc
       0.006283798 -0.015725171 0.037585415 -0.010825411
000090 f6 63 3a bc fd b4 12 bd ed e7 56 3c cb f4 23 bd
       -0.011376372 -0.035817135 0.013116819 -0.040028375
0000a0 ab f5 74 bc 12 0f 43 bb b2 f0 b4 b8 55 22 95 bc
       -0.01495115 -0.0029763621 -8.627902e-05 -0.018204847
0000b0 0a 31 93 3c 16 f3 ac bc de 58 9d ba 8f 5b 0a bd
       0.01796772 -0.021112006 -0.0012004634 -0.033778723
0000c0 e0 95 cf 3c 7d 37 e7 ba e6 76 38 bc 32 c7 fe bb
       0.02534002 -0.0017640438 -0.011258816 -0.007775211
0000d0 ea 35 d7 3c 01 08 8d 3c 1b c4 12 3d f2 51 a1 bc
       0.026270825 0.01721573 0.035831552 -0.019692395
0000e0 3b 6d 08 bc 19 99 85 3c a1 20 ac 3c 52 82 23 3d
       -0.008326824 0.016308354 0.021011652 0.039919205
0000f0 e6 87 4d 3b 0d 72 bb bc c5 de f8 3c b7 55 14 bd
       0.003136152 -0.022881532 0.030379662 -0.036214557
000100 0a 2f a3 bc dd 5c d8 bb 9c de 45 bc 6a 51 10 bd
       -0.01991989 -0.006602867 -0.012077 -0.035233893
000110 0f ae 9c bc 8c d1 0a bc d4 0e f3 3b 23 00 c1 3c
       -0.019125966 -0.008472811 0.007417539 0.023559636
000120 10 94 22 3d dc ff 9f 3c aa 6c cc bc 2c f6 05 3c
       0.039691985 0.019531183 -0.024954159 0.008176368
000130 6b 31 32 3c 88 fd 8d 3b 9d b2 31 3d 2f 65 06 bd
       0.01087604 0.004333202 0.04338323 -0.03281134
000140 4d ff 86 3c ad b3 ab 3c d1 98 fe bc 45 09 fc bc
       0.016479159 0.0209597 -0.031078728 -0.030766139
000150 ca 89 23 bd be d2 d9 3b 61 e7 fd bc d4 a0 c4 3c
       -0.039926328 0.006647437 -0.03099412 0.02400247
000160 29 61 f2 bc af 6b be bc 6d 2c dc 3c 3a de e4 3b
       -0.029587345 -0.023244707 0.026876653 0.0069844993
000170 73 c7 08 3d ff 7e d8 3c 9f db bf 3b 51 52 ab 3b
       0.033393335 0.026427744 0.0058550383 0.0052283187
000180 d8 b4 44 3b 02 4b 0b 3d bf 4c e7 3c 8d c1 5c bc
       0.0030015018 0.03400708 0.028234838 -0.0134738805
000190 aa 9a 76 bc 97 b1 8a ba 24 11 b6 3c ea f2 53 3c
       -0.015051523 -0.001058149 0.02222497 0.012936333
0001a0 f0 10 0d 3c 47 54 fd 3c da 0d f2 bc 32 be 07 3c
       0.008609995 0.030923976 -0.02954762 0.008285092
0001b0 dc bd 63 3c 5c 5c 6d bc d5 96 cc 3a 73 48 ec bc
       0.0139002465 -0.014487352 0.0015608916 -0.02884314
0001c0 de 30 34 3d fc d2 15 bd 3e dd 8e 3b b2 f9 01 3d
       0.043991916 -0.036578164 0.00435987 0.03173227
0001d0 c3 ae 2a 3d 50 4b 10 3d 4b 86 17 ba ed f0 13 3a
       0.041670572 0.035228074 -0.0005780204 0.0005643506
0001e0 ff 12 9d bc 62 39 01 bd 6c b4 ec bc 3c b9 35 3d
       -0.019174097 -0.031548865 -0.028894626 0.044366106
0001f0 29 b2 65 bc d0 d5 18 3d 53 cb 90 3c 57 d8 24 3d
       -0.0140195275 0.037313282 0.017675078 0.04024538
000200 c5 5c 12 bd 82 8d 09 3d 34 7c 6f bc b1 f2 8d 3c
       -0.035733003 0.033582218 -0.014617015 0.017327638
000210 3d 2c cc 3c 91 99 02 bd 5d fa 8f 3a b0 dc 1e bd
       0.024923438 -0.031884734 0.0010984648 -0.038784683
000220 22 0b 38 bd ab 52 10 3b ac b9 0e 3d 92 40 90 bb
       -0.044932492 0.002202193 0.03484504 -0.0044022286
000230 5b a0 68 3b 76 19 12 bd 77 05 ff 3c 1d 46 30 bd
       0.003549597 -0.035668813 0.031130536 -0.043035615
000240 90 21 fc 3c 1a 79 b2 ba 82 5c e4 bb b5 e1 35 bc
       0.030777723 -0.0013616413 -0.0069690356 -0.011101176
000250 4b 38 fc bc ff 74 c0 bc 42 4a c1 3b bb 5d 1c bd
       -0.030788561 -0.023493288 0.005898745 -0.038175326
000260 42 00 60 bb 88 59 8c bc ec b7 98 bb f3 d6 20 bc
       -0.0034179841 -0.017132536 -0.004660597 -0.009816873
000270 13 a3 73 bc 12 d3 51 bc a7 89 e4 3c c6 b6 eb b9
       -0.014870423 -0.012806671 0.027897669 -0.0004495887
000280 90 e7 ff 3c c2 e0 bf bc 4a 7d e1 bc 69 df a4 bb
       0.031238347 -0.023422603 -0.027525563 -0.0050315154
000290 5c 56 0d bd a2 7d 0b 3d 2e 1c 81 3a 1a 37 5a 3c
       -0.034506187 0.03405536 0.0009850317 0.013318801
0002a0 8d b8 2a 3d 76 99 a1 b9 c7 d3 87 bc 20 54 f6 3c
       0.041679908 -0.0003082265 -0.016580475 0.03006941
0002b0 2c 76 b4 bc 63 77 26 3d 4c 75 19 bd 7a 1f d6 3b
       -0.022029005 0.0406412 -0.03746538 0.006534514
0002c0 2f 27 19 bd 98 b3 0d bc 07 9f 5d 3c 0c a9 a0 bc
       -0.037390884 -0.0086487755 0.013526685 -0.019611858
0002d0 7f ea 6f bc af 4f 98 3c 24 08 ab bc dc 63 1f bc
       -0.014643311 0.018592684 -0.020877905 -0.009728398
0002e0 14 d5 81 ba 77 0d 1c bd 2b cb b6 3c 35 81 11 3d
       -0.0009905421 -0.03809878 0.022313675 0.035523612
0002f0 bc e2 17 bc 0f 28 d2 3b 09 77 9f bb 91 3b c2 ba
       -0.009270366 0.0064134668 -0.004866485 -0.0014818778
000300 10 0a 09 3d 00 73 2b bd 0b 6d de bc 52 7f 33 3c
       0.033456862 -0.04185772 -0.027151605 0.0109556485
000310 e5 ba 6f bc 2e ad b7 3b 7f cb 0b 3c 1b 20 de 3c
       -0.0146319615 0.0056053614 0.008532404 0.027114918
000320 6d 68 fc bc 08 d4 90 3c d3 a3 cd 3c 2f 2e 04 3d
       -0.030811513 0.01767923 0.025102532 0.032270607
000330 65 0f 16 3d 45 07 1e 3d d3 38 e7 3c 56 dc 08 3d
       0.036635775 0.03858115 0.028225338 0.033413254
000340 f2 39 32 bc 66 74 f3 3b 22 35 08 3c 1b d8 db bb
       -0.010878073 0.0074296473 0.008313449 -0.0067091114
000350 0b 23 28 bd 11 17 31 bd b5 33 11 bd 03 bf e8 3c
       -0.041049045 -0.04323489 -0.035449702 0.028411394
000360 20 31 7b 3c be d9 9b bc 9e 53 04 3c 11 70 46 bc
       0.0153315365 -0.019024726 0.0080765765 -0.01211168
000370 b1 d8 7c bc 26 80 be 3c f8 29 33 3d 34 07 20 3d
       -0.015432523 0.023254465 0.043741196 0.03906937
000380 0e 0a 2c 3c 2a cb 41 bc f2 75 e7 bb 9a 5f ff bc
       0.010500444 -0.011828223 -0.0070636207 -0.031173516
000390 bb da c2 3b 2c 29 e1 bc c8 75 a5 3b c8 3a 19 bd
       0.005946485 -0.027485453 0.005049441 -0.037409574
0003a0 6c 54 0a bb d6 81 59 3c 00 18 db 3c 5c 4b 2f 3d
       -0.0021107448 0.013275584 0.026744843 0.042796478
0003b0 e7 e6 24 3d 3c 5b 09 bd 22 6d 80 3c b3 ec 9e bb
       0.040259268 -0.033534274 0.015677039 -0.004849994
0003c0 25 95 c0 bc 24 db 28 3d 62 af 16 3c 33 2b 08 3d
       -0.023508618 0.041224614 0.009197088 0.033244323
0003d0 76 c1 ff 3b 27 72 02 bd 1c 2b 6d 3c a7 2f f3 3c
       0.0078050448 -0.031847145 0.01447561 0.029685808
0003e0 bc 91 00 bd ad 05 07 bd 41 91 eb 3c 5f c9 0b bd
       -0.031388983 -0.032964397 0.028755786 -0.03412759
0003f0 c0 74 f6 bb bd 3b 8b ba c4 25 9f bc 80 f6 1b 3c
       -0.007521242 -0.0010622662 -0.019427188 0.009519219

model.1.bias f4 [64]
000000 8a 54 d1 bc e2 df c8 bc bb fb 0e 3d 19 5e f9 ba
       -0.025553007 -0.024520818 0.034908038 -0.0019025236
000010 42 33 06 3a b7 3c ac 3c 61 be 24 3d 36 23 77 3c
       0.00051193323 0.021025045 0.040220622 0.015084079
000020 9d 35 1e bd 9f 63 2b bc 5c 2d de bc 92 05 1c bd
       -0.03862535 -0.010460763 -0.027121238 -0.03809125
000030 b6 c7 8d 3c 5b 78 2f bc 6b f1 f2 3c 08 c5 9e bc
       0.017307144 -0.010709847 0.029656133 -0.019381061
000040 d9 23 06 bd 00 ff 0a 3d 39 88 1d bd ee ef c4 bc
       -0.03274903 0.033934593 -0.03845999 -0.024040189
000050 30 e0 8f 3b 7b 36 1e bd 50 f9 0c bd e5 d1 1c bd
       0.004390739 -0.038626175 -0.03441745 -0.03828611
000060 7b 48 89 bc 9a c2 07 3c e5 c0 1c bd 42 2d f7 3c
       -0.016758194 0.008286143 -0.038269896 0.030172948
000070 20 5e 24 3c 20 84 a1 bc d1 e0 15 3d 09 f0 cd ba
       0.010032207 -0.019716322 0.036591355 -0.0015711795
000080 18 b3 30 bc 56 31 eb bc f2 0e 2a bb ce d0 e9 3c
       -0.010784887 -0.028710049 -0.002594885 0.028541949
000090 b3 82 f4 bc 6d 5f cf bc 50 b8 2b 3c d8 86 1d bc
       -0.029847478 -0.025314057 0.010480955 -0.009614669
0000a0 97 55 b9 3b 8a f5 1a 3d 80 f5 03 3c d7 79 75 bb
       0.005655955 0.03783182 0.008054137 -0.0037456655
0000b0 c8 29 b5 bc 5f fa 21 bd a7 ec 07 bd 30 79 95 bb
       -0.02211465 -0.039545413 -0.033184674 -0.004561566
0000c0 03 7d 80 bb 06 37 7b 3c 80 7e 04 bd a8 5e d8 3c
       -0.0039211526 0.015332943 -0.032347202 0.026412323
0000d0 bd 43 19 3d 56 19 cb 3c 14 cc 2c 3d 36 4f 99 bc
       0.037418116 0.024792355 0.04218681 -0.018714529
0000e0 d7 2d 96 bc 1f 39 e6 3c 9e 3b 47 bc e0 19 1e bd
       -0.018332405 0.02810341 -0.01216021 -0.038598895
0000f0 94 c3 0e 3d 23 b0 3e 3c a6 89 f7 bc 70 79 b8 3c
       0.034854487 0.011638674 -0.030217003 0.022518843

model.3.weight f4 [64, 64, 3, 3]
000000 52 31 aa 3c 80 4e 99 bc 27 ce 18 3d 43 f2 d9 3b
       0.02077547 -0.01871419 0.037305977 0.0066511943
000010 e8 84 05 3d 06 13 79 bb b5 ff 1b bc df d5 7c 3c
       0.032597452 -0.0038005724 -0.0095214145 0.01543185
000020 f7 da be 3c 0b ba 45 3c d0 fe 94 bc 92 56 17 bd
       0.02329777 0.012068282 -0.01818791 -0.036947794
000030 9f 81 92 bb 1e 81 20 bd a3 4a bf bc 99 bc 12 3b
       -0.0044710184 -0.039185636 -0.02335102 0.0022390245
000040 2e a0 f5 3c d6 6e 19 3d 0e 0f cf bc 36 51 78 bc
       0.029983606 0.037459217 -0.025275733 -0.015156081
000050 20 89 d1 bb de 24 0b bd 3e ad d6 bc fa ea 18 bd
       -0.0063945204 -0.033970706 -0.026205655 -0.037333466
000060 00 d1 83 ba 86 6a 27 bd 9a aa 22 bd 9b 99 d6 bb
       -0.0010056794 -0.040873073 -0.03971348 -0.006549073
000070 e4 cd 10 bc 02 5e 8d bc 03 36 0f bc 55 b0 11 bc
       -0.008838151 -0.01725674 -0.008740905 -0.0088921385
000080 e1 a7 96 bc 89 61 a3 3c 03 5b 96 3c bd 88 08 3d
       -0.018390598 0.01994397 0.018353945 0.03333353
000090 a7 61 a6 bc 9d c4 bd 3c 44 60 d1 3c be 76 f7 bc
       -0.020310236 0.023165042 0.025558598 -0.030207988
0000a0 67 d8 21 bd 9f fe a4 bc 4c a4 15 bc 1c a5 95 3c
       -0.039513018 -0.020140944 -0.00913341 0.018267207
0000b0 80 7e 14 bd e3 58 dd bc 9b 60 12 3d f6 9f 0a 3d
       -0.036253452 -0.027019924 0.03573666 0.033843957
0000c0 06 40 3f bc 00 cd 22 ba f7 be 7e bc 43 93 25 bd
       -0.011672979 -0.0006210357 -0.015548459 -0.040423643
0000d0 e0 1b 97 bc a1 7a cf 3c c3 25 17 bd 6b ca 4c 3b
       -0.018445909 0.025327029 -0.036901247 0.003124858
0000e0 06 35 12 3d c1 24 5a 3c 29 55 2b bc 41 bc 08 3c
       0.0356951 0.013314427 -0.0104573155 0.0083456645
0000f0 3f a3 04 3d c7 1f 1e 3d 9f 86 7e 3c 50 f3 89 bc
       0.032382246 0.038604524 0.015535026 -0.016839653
000100 fa 6c 27 3d cb 09 c4 3c c8 ba aa bc c0 eb 59 bb
       0.040875413 0.02393045 -0.020841017 -0.003325209
000110 00 05 3c 3a 50 36 d8 bc 0f e7 04 3d 9c 72 2a 3d
       0.0007172376 -0.026393086 0.032446917 0.041613206
000120 43 33 a4 bc 14 e5 b5 3a 2f 8f 0b 3d 9a 92 67 3c
       -0.020043975 0.0013877475 0.034072097 0.014134074
000130 70 36 8f bb 85 bb 15 3d 1d d3 e4 bc 33 b8 ce 3c
       -0.004370503 0.036555786 -0.027932698 0.025234317
000140 b2 32 00 bb 2c 1e 40 bc 7a ed ab 3b ca fc de 3c
       -0.0019561467 -0.011725944 0.0052468153 0.027220149
000150 5b 87 d5 3c ee fd 1d 3c 8c 35 f6 3c 57 fb a2 bc
       0.02606552 0.009643061 0.03005483 -0.019895239
000160 a1 fe 88 3c 3a 01 38 3b 9e 37 a9 bc dc 26 a2 3c
       0.016722979 0.0028076903 -0.020656403 0.01979392
000170 43 4b 24 bc e2 5c 76 bc 5f 6c f3 3c 17 2d ee bc
       -0.010027709 -0.015036793 0.029714761 -0.029074235
000180 8d 36 04 3a 60 80 f5 3c 4d 72 ef bc f5 0e c1 3c
       0.0005043529 0.02996844 -0.029229308 0.023566702
000190 1f f6 61 3c 9f 91 20 bd 87 c8 18 3d 9f 10 ee 3b
       0.01379159 -0.039201375 0.037300613 0.007265165
0001a0 38 d8 29 bd ba be e0 bb ef 6e 64 bc f9 fe 2a bc
       -0.041465968 -0.006858674 -0.013942464 -0.010436767
0001b0 6b 18 89 bb 5f b4 39 bc a4 70 61 bc 3c 67 27 bc
       -0.004183819 -0.011334508 -0.013759766 -0.010217484
0001c0 d9 fc 96 3c a7 09 ca 3c 15 87 10 bd a4 76 06 bc
       0.018431114 0.024662806 -0.035285074 -0.008206997
0001d0 c1 b8 c5 3c 21 0a f4 3c 83 94 93 bc 12 9f 3c 3c
       0.02413595 0.029789986 -0.018015152 0.011512535
0001e0 22 a3 5c bb 7f b6 10 bc bc fe 26 bd 8d c1 ed bc
       -0.003366657 -0.008832573 -0.040770277 -0.029022956
0001f0 36 6b 1d 3d 5b 9a fb 3c d8 75 d5 3c 80 35 26 bc
       0.038432322 0.03071325 0.026057169 -0.010144591
000200 67 7d 01 bd 83 0b e1 bc a8 05 a5 3c 00 62 44 ba
       -0.031613734 -0.02747131 0.020144299 -0.000749141
000210 d3 be be 3c da 59 12 3d e8 52 17 3d 76 8d 1e 3d
       0.023284351 0.03573022 0.0369443 0.038709126
000220 88 1f 28 3d 2a 8f 06 3d 98 2c e7 3c 80 bc 62 bc
       0.041045696 0.032851376 0.028219506 -0.013838887
000230 2e 34 f8 3c 9b 91 fb 3c e0 f3 ad bc 68 8b 93 bc
       0.030298319 0.030709079 -0.021234453 -0.01801081
000240 d5 fc d8 3c f0 a7 04 bd 9c 08 f1 bb 78 0e ce bc
       0.026487747 -0.03238672 -0.0073557626 -0.025153384
000250 07 20 18 bc c2 d7 35 3c 7b 92 88 3c 4d 50 e3 bc
       -0.00928498 0.011098804 0.01667141 -0.027748251
000260 11 3e 21 bd e6 59 ca 3c bb f7 69 3c 77 7b 0b 3d
       -0.03936583 0.02470107 0.014280255 0.034053292
000270 6e d2 b9 3c 80 88 8b ba 82 fe 00 bd 66 84 ec bc
       0.022683349 -0.0010645539 -0.031492718 -0.028871726
000280 e0 be 01 bc 06 a5 af bc fc 50 15 bd 19 a5 8e 3c
       -0.007919043 -0.021440994 -0.036454186 0.01741271
000290 49 6d cd 3c a7 1b 89 bc 57 d0 1d 3c 20 11 c3 3c
       0.025076525 -0.016736818 0.009632192 0.023811877
0002a0 b5 28 f5 3c 77 6c f7 bc 9f 40 cf bc 80 c5 ba ba
       0.029926637 -0.030203087 -0.025299368 -0.0014249533
0002b0 a0 09 ae 3b f8 96 e7 3c 80 2c fd ba ff 7a 1f bd
       0.005311206 0.02827023 -0.001931563 -0.038935658
0002c0 4b 55 f3 bc d7 98 10 3d 58 c9 e7 bc e0 a5 88 3c
       -0.029703757 0.03530201 -0.02829425 0.016680658
0002d0 b3 0e 7c 3c 1a fb 2a 3b 8c 98 16 3d dc 2e 17 bc
       0.015384364 0.002608961 0.036766574 -0.009227481
0002e0 c0 a6 6e 3c 04 fa db 3b 4c 15 8f 3c 27 b1 29 3b
       0.0145661235 0.006713154 0.01746621 0.0025892945
0002f0 31 69 01 3d 51 18 8d 3c e0 14 f4 bc 2f a8 8b 3c
       0.03159446 0.017223509 -0.02979511 0.01704797
000300 bb 0d f4 3b c6 fc 2d bd 58 2d 2a bd ff 74 0e 3d
       0.007447926 -0.04247739 -0.04154715 0.034779545
000310 7a 86 25 3d d8 f3 6d 3b 00 70 68 b9 f6 b4 26 3c
       0.04041145 0.0036308672 -0.00022166967 0.01017498
000320 2b 31 02 bb 3e 40 86 3c 2b 68 1e bc 56 29 c7 3b
       -0.0019865732 0.016388055 -0.00966839 0.0060779257
000330 b8 72 b4 3c 03 f7 a4 3c ab 08 87 3b 0b 05 21 bd
       0.022027358 0.020137316 0.0041209063 -0.03931145
000340 d7 57 13 bd c6 e7 00 3d f7 66 6e bc 86 77 25 bd
       -0.035972442 0.031471036 -0.014550916 -0.04039719
000350 e8 44 19 bd b9 bb 3e bc 67 fd 05 bd 65 69 a2 bc
       -0.03741923 -0.011641436 -0.032712366 -0.019825647
000360 e4 bd 74 bc 3a 94 b0 bc 95 b8 fb 3c ad 89 cb bc
       -0.014937852 -0.021555055 0.030727664 -0.024845922
000370 5a 8b 77 bc a4 ee 00 bd b0 13 dc bc 6e 03 11 3d
       -0.015108908 -0.031477585 -0.026864856 0.03540366
000380 53 2b 9f 3c 55 14 49 bc d6 04 c0 bc cb 3c 27 3d
       0.019429838 -0.012272914 -0.023439806 0.04082946
000390 31 38 bf 3c 00 80 a0 bc cd 4a 07 3d 65 e7 b6 3c
       0.023342224 -0.019592285 0.03303032 0.022327134
0003a0 b1 83 9e 3b 32 42 9d 3c fe 59 c0 3c 99 ca 8d 3c
       0.004837476 0.019196603 0.023480412 0.01730852
0003b0 8d 6c c6 3b 3e 07 8d 3a 70 fd 24 3d 98 84 a7 3c
       0.0060554207 0.0010759605 0.04028076 0.020448968
0003c0 0f 63 f5 bc 49 46 05 3d 49 66 27 bd e7 00 a9 bc
       -0.029954461 0.032537732 -0.04086903 -0.020630313
0003d0 55 0d 38 bb 06 01 80 bb 78 a9 05 bb dc 88 75 bc
       -0.0028084118 -0.003906372 -0.00203952 -0.014986243
0003e0 a5 fe dd bc 20 b7 02 3d b4 98 ac bc 4d ce ef bb
       -0.027098963 0.031912923 -0.021068908 -0.007318294
0003f0 0f 24 03 3c 3f dd 1f bd a2 cf 20 ba 1c 40 00 bd
       0.0080042025 -0.039029356 -0.00061344553 -0.03131114

model.3.bias f4 [64]
000000 0a d8 69 bb 02 12 24 bd f8 64 6b bc cc a0 1f bd
       -0.0035681748 -0.040056236 -0.014367335 -0.038971707
000010 dc 9c b1 3b c6 3d 02 bd 89 a8 4b 3b dc 7c 73 3b
       0.0054203104 -0.031797193 0.0031075797 0.003715328
000020 98 a5 84 bb 50 0b b1 3c fb 33 d1 3b 90 4c a6 bc
       -0.0040480606 0.02161184 0.0063843704 -0.02030018
000030 61 6c 97 3c 84 17 83 bc e4 b1 07 bd 79 be 20 3d
       0.018484296 -0.016002424 -0.033128634 0.03924415
000040 f2 b0 f8 3b eb 8d 04 bd 7d ea 00 bd 96 e3 d8 3b
       0.007589453 -0.032361906 -0.031473625 0.0066189272
000050 e5 fa aa 3b ac 4f 15 3d 99 47 95 3c 19 d4 87 39
       0.0052178972 0.036452934 0.018222617 0.00025907232
000060 33 69 cf 3b 89 7f 3d 3d 14 30 8a bc 29 35 0a 3d
       0.0063296794 0.046264205 -0.016868629 0.033742104
000070 66 70 b5 3c 58 f3 89 3c b7 64 50 3b c2 fe 6d 3c
       0.022148322 0.016839668 0.0031798312 0.014526071
000080 91 b8 0f 3c 31 df 0b 3d 2a b7 0e bd e3 56 cd bc
       0.008772031 0.0341484 -0.034842648 -0.025065845
000090 a6 7c 65 3c 96 a0 e9 3b fb 6d b8 bc 63 6e 00 bd
       0.014006769 0.007129739 -0.02251338 -0.031355273
0000a0 bb 0e 21 3c 75 30 17 3c 35 91 83 bc dd 9f f8 3c
       0.009830172 0.009227862 -0.016060451 0.030349666
0000b0 4a 8a 9d ba 49 ce 88 39 75 39 d7 bb ff b3 81 bc
       -0.0012019363 0.00026093636 -0.0065681287 -0.0158329
0000c0 02 6e f8 ba c0 4b 05 3c a0 d3 df bc ad 7d e5 bc
       -0.0018953683 0.008135736 -0.02732259 -0.028014028
0000d0 3b 45 de bc c7 2c 04 3d 9a 18 08 bd 62 8a 0f bd
       -0.027132621 0.032269266 -0.033226587 -0.03504408
0000e0 02 7d 3b bc 02 15 98 bb 74 40 7c 3b 16 9e ec bc
       -0.011443378 -0.004641176 0.0038490565 -0.028883975
0000f0 32 1e c2 3c 82 20 bd 3c 2b 94 ad bc c1 03 ae 3c
       0.023696039 0.02308679 -0.021188816 0.021242024

model.5.weight f4 [64, 64, 3, 3]
000000 95 67 7e 3c 03 fa 1d bd 69 42 85 3b e5 64 24 bd
       0.015527626 -0.038568508 0.0040667546 -0.040135283
000010 15 ae c9 3b 02 f0 cb ba a3 42 5a 3c 80 10 08 bc
       0.0061547854 -0.0015559199 0.0133215515 -0.008304715
000020 e6 b5 19 ba 50 57 0b 3d 0e 4b 91 bc d3 aa 34 bb
       -0.0005863592 0.034018815 -0.017735984 -0.002756764
000030 75 1c ab 3c 7a c3 b3 39 5d f7 c3 3c 37 bc b4 bc
       0.020887593 0.00034287182 0.023921663 -0.022062404
000040 d7 c6 c8 3b 8c 04 fc 3c 1a 4b 64 3c 34 7d a9 3b
       0.006127219 0.030763887 0.013933921 0.005172396
000050 7d ec 24 3d 29 db 34 3c 5a 7e e1 bb 81 af 53 3c
       0.040264595 0.01103858 -0.0068815174 0.012920261
000060 a7 2b 9b bc 06 8a 11 3d 8d 55 3c 3b c5 bd 25 bc
       -0.018941713 0.03553202 0.0028737516 -0.010116045
000070 e0 fc e1 bc 91 ef 9c 3c e4 86 cd 3c 23 ac 1a bc
       -0.0275864 0.019157203 0.025088735 -0.009440455
000080 9d 47 f4 3c 2d af 24 bd e4 28 9d bc 87 ab 12 bb
       0.029819304 -0.040206123 -0.019184537 -0.002238007
000090 07 89 54 bc 60 6d 67 bc 55 27 b3 3c 6d 84 cb bc
       -0.012972123 -0.014125198 0.02186934 -0.024843419
0000a0 83 69 19 3d ed 70 24 bc 1e 01 5a 3c 14 99 d2 3c
       0.03745414 -0.010036689 0.01330593 0.025707759
0000b0 10 19 ca bc 8a fc 00 bd c6 8c a2 bc 4e 19 22 3d
       -0.024670154 -0.03149084 -0.019842517 0.039574914
0000c0 93 02 1b 3d 43 31 bc bc 56 1e 51 3c a0 30 17 3c
       0.03784425 -0.022972709 0.01276358 0.009227902
0000d0 a8 8e c5 3c c4 b4 0f bd a0 e7 3f bc e7 75 1e 3d
       0.024115875 -0.0350845 -0.011712939 0.03868666
0000e0 82 57 e7 3b 61 39 a2 3c 68 ce d5 3c ef ac 29 3b
       0.0070599923 0.019802751 0.026099399 0.002589043
0000f0 d3 a2 b8 bc b3 15 d3 b6 38 98 f5 3c a1 7f 62 bc
       -0.022538578 -6.290816e-06 0.02997981 -0.013824374
000100 69 d3 51 bc cd 94 1b bc 67 a7 11 3d 0a 6a 8e bb
       -0.012806752 -0.009495926 0.035560038 -0.004346137
000110 45 fc d4 bc 4a 9b c7 3c 88 6a 18 3d f0 81 b2 3c
       -0.025999198 0.02436604 0.03721097 0.021790475
000120 3f 82 1c 3d 39 8a 38 3d cd e5 2a 3d 34 09 c1 3c
       0.03821015 0.045053694 0.04172306 0.023563959
000130 b1 96 11 3d e8 fc 51 3c 49 c6 80 3c d1 04 99 bc
       0.0355441 0.012816645 0.01571955 -0.018679054
000140 69 34 5d bc 11 2c b9 3c 9a 56 28 3c 4a c0 03 bd
       -0.013501265 0.02260402 0.010274554 -0.032165803
000150 fa 3e aa 3c 30 72 df bc 86 10 34 3d d7 0f db 3b
       0.020781983 -0.027276129 0.04396107 0.006685238
000160 d5 d1 a2 bc d7 fe ea 3c 96 35 c2 3c 97 96 27 3d
       -0.019875446 0.02868597 0.023707192 0.040915098
000170 97 b3 a3 3b 75 67 0e bd c4 06 e6 bb 1f 79 ba 3c
       0.004995774 -0.034766633 -0.0070198495 0.022762833
000180 45 02 84 bc 86 40 73 bc e9 80 9d bb 56 c5 fc ba
       -0.016114363 -0.014846927 -0.004806627 -0.0019284885
000190 b6 b1 1d bc b0 91 59 3c f6 dc 0e 3c db 85 25 3d
       -0.009624889 0.0132793635 0.008719673 0.040410858
0001a0 d6 34 8a 3a b6 46 1b bd 4b 67 c3 3c 8e 38 c4 3c
       0.0010544311 -0.037909232 0.023852965 0.023952749
0001b0 ba 42 ca 3c 29 7e 10 bd d1 10 99 bc 65 a3 ee 3c
       0.02469002 -0.035276566 -0.018684776 0.029130647
0001c0 d0 6e 0b bd 52 3b 16 3c 0b 3d dd bc eb 86 1b bd
       -0.034041226 0.0091694165 -0.027006647 -0.037970465
0001d0 80 cb eb bc b2 c6 1d 3d e0 4a 2a 3d ce ea 02 bb
       -0.02878356 0.03851957 0.041575313 -0.001997638
0001e0 98 34 0d 3c 27 df 96 3c 26 75 2e bc 43 eb 20 3d
       0.008618496 0.018416954 -0.010648048 0.039286863
0001f0 46 bf 87 bc 2a 00 11 bd f4 b4 0a bd e6 fa 89 bc
       -0.016570698 -0.035400547 -0.033863977 -0.01684327
000200 56 33 e4 ba d6 dc e1 3c 38 6d 96 3c 70 67 93 3c
       -0.0017410319 0.027571123 0.018362626 0.017993659
000210 b6 6d 00 bd 56 6a 41 3c 0b 1d fe bc ba 38 ee bb
       -0.03135463 0.011805138 -0.031019708 -0.007269946
000220 7c c7 35 3d 9c 16 32 3d ea 46 39 3d 77 02 a5 3c
       0.044379696 0.043478593 0.045233645 0.020142777
000230 6b 3d 14 3d 9d 23 e2 3c fa 07 27 3d 43 61 ed 39
       0.036191385 0.027604872 0.04077909 0.00045276628
000240 36 d2 a3 bc e1 f1 f8 bc c5 4b ad 3c e8 44 39 3b
       -0.019997697 -0.030388774 0.021154294 0.002826983
000250 4e 81 16 bd 55 23 c5 3c 60 af 76 bc ec 5e 85 3c
       -0.03674441 0.0240647 -0.015056461 0.016280614
000260 70 ed 19 bb a2 2e be bb b9 58 09 3d 35 bd ad 3b
       -0.002348747 -0.005803899 0.03353188 0.0053020963
000270 b7 f9 48 3a 75 cc c6 3c 4f 67 f3 bc 4f 4a 55 3c
       0.0007666605 0.024267415 -0.029712347 0.013018205
000280 ab d8 d6 3c f2 e8 14 3d bb 30 1a 3c 9d b9 b1 b9
       0.026226362 0.036354966 0.009411032 -0.00033898363
000290 7a d8 58 bb a5 9a b1 3c b2 1f 71 3c 0a 03 c5 bc
       -0.0033088014 0.021680186 0.014717029 -0.0240493
0002a0 5e 4d 37 3c 4f af f9 3c 48 21 90 3c e0 06 03 3d
       0.011187879 0.030479101 0.017593995 0.03198898
0002b0 c5 6f 0c bd 37 d3 0f 3b 11 35 a3 bc b5 ed 75 3c
       -0.03428628 0.0021945962 -0.019922765 0.015010287
0002c0 2c a0 fe 3c 22 ff 1c 3d ec 67 f1 bc b0 2c 04 3d
       0.031082235 0.03832925 -0.0294685 0.03226918
0002d0 9a bd 14 3d 50 25 9b bb b5 06 a6 bc a6 7d 4b 3c
       0.03631363 -0.0047346726 -0.02026687 0.012420094
0002e0 e7 ac a0 3c 88 33 5f bc bf ad ae 3c b5 3c 83 3c
       0.019613696 -0.013623126 0.021323083 0.016020158
0002f0 8e 2a 08 3d 36 ab af 3c 52 47 4e bb e9 ae 20 3d
       0.03324371 0.021443944 -0.0031475616 0.039229307
000300 6e af 38 3d 6a 51 1a 3d e3 08 fd b7 77 da 2a bc
       0.045089178 0.0376753 -3.0164088e-05 -0.010428063
000310 38 ae 7c 3c 65 cc c0 bc ca d9 83 bc 3d 7e 27 3d
       0.015422396 -0.023534963 -0.01609506 0.040891875
000320 46 62 f2 3c 53 2f c0 bc e0 19 e3 3c 23 97 01 3d
       0.029587876 -0.023460066 0.0277223 0.031638276
000330 2a 2a f6 bc 25 28 d8 bc 59 88 f1 bc 02 a0 1c 3d
       -0.030049402 -0.02638633 -0.029483961 0.038238533
000340 0c d1 23 bc 78 80 9d 3c 4a c3 68 3c 18 a9 39 3d
       -0.009998571 0.019226298 0.014206717 0.045327276
000350 9c de af 3b 24 eb 5c bc e3 62 1c bc 4b a1 5a bc
       0.0053671133 -0.013483796 -0.009545061 -0.013344119
000360 3b 16 c1 3c 7e 0b 89 3c c8 fe 12 3d 6a a5 4a 3c
       0.02357017 0.016729113 0.03588751 0.012368539
000370 5e 8f 8e ba ff b8 b0 3c 96 1e a6 bc 51 13 96 bc
       -0.0010876467 0.021572588 -0.020278256 -0.018319758
000380 fd 3d f4 bc cc 20 a9 3c fd 83 05 bd 8d 56 88 3c
       -0.029814715 0.020645522 -0.032596577 0.016642833
000390 08 ef 8c 3b e2 f8 2c 3c cc 6e 2a 3d 05 9d a9 3c
       0.0043009557 0.010557385 0.04160957 0.020704756
0003a0 e6 73 0e 3d f7 16 24 bc c5 61 64 bc 16 5c 19 bd
       0.034778498 -0.010015241 -0.013939326 -0.037441336
0003b0 c5 02 ec bb 9c 25 0a 3d b5 9f 14 3d d3 63 17 3d
       -0.0072024786 0.033727273 0.03628512 0.036960434
0003c0 a0 ed 41 bb 48 90 81 39 fd 83 9d bc 43 e0 99 bc
       -0.0029591098 0.00024712295 -0.019227976 -0.018783694
0003d0 a6 43 1c 3c 9b eb 25 3d 3d 22 88 bc 11 02 1d bc
       0.009537613 0.040507894 -0.016617889 -0.009583012
0003e0 14 0b 50 3b 3e 38 d4 bc 68 3a e8 bc c8 89 92 bc
       0.0031744884 -0.025905725 -0.028348163 -0.017887965
0003f0 1f 17 93 3c 63 52 7b bb 43 39 81 bc 59 7f 25 3d
       0.017955361 -0.0038348667 -0.015774375 0.04040465

model.5.bias f4 [64]
000000 52 1b 8c 3c 7c 1e 1a bd 1f 61 cb 3b e0 7f cd bb
       0.017102871 -0.03762673 0.006206646 -0.0062713474
000010 c6 07 1c 3b e8 36 17 3d 6c 04 04 bd 86 ad 66 bc
       0.0023808344 0.036917597 -0.03223078 -0.014079457
000020 73 d1 fd bc f1 8b 25 bd e2 7b 06 bd 8a 17 16 3d
       -0.030983662 -0.04041666 -0.032832988 0.036643542
000030 be d5 ca bc ba 2e fa bc c7 ad ea 3b b3 a2 a0 bc
       -0.024760123 -0.03053986 0.007161829 -0.019608831
000040 7b d2 a7 3c 90 d7 8b bc 76 f9 0e 3d ae ee 1b bd
       0.020486107 -0.017070562 0.034905873 -0.03806942
000050 08 65 2e bc 33 95 64 bc c9 63 24 bd 78 05 18 3d
       -0.010644205 -0.0139515875 -0.040134225 0.03711459
000060 b8 f8 d2 bc 93 54 98 bc f1 75 fa 3a ba 47 b3 3b
       -0.025753364 -0.018595016 0.0019108636 0.005471197
000070 9b 7b 34 bc ca ae d4 bc 63 87 ae 3a c2 ab 1f 3d
       -0.011015798 -0.025962252 0.0013315495 0.03898216
000080 3e 57 a9 bc 23 0c dd 3c 40 fe b7 bc 2b 69 d9 ba
       -0.020671483 0.026983326 -0.022460103 -0.0016587129
000090 6c 63 83 bc a0 03 22 bd dd 33 d0 3c 9a f7 20 3d
       -0.016038619 -0.03955424 0.025415355 0.03929863
0000a0 4f f5 8c 3c 58 f5 cc bc 0d 89 29 3c 2b 71 7a 3b
       0.017206816 -0.025019333 0.010347617 0.0038214426
0000b0 78 4b 0d 3d 3e 96 f2 3b 0d 7d 94 3b 39 41 21 bc
       0.0344958 0.007403164 0.004531509 -0.00984221
0000c0 b2 db ff 3c 8d 85 34 3c fa f7 04 bd 75 27 b7 3c
       0.031232689 0.011018169 -0.03246305 0.022357682
0000d0 9b 8f 04 3d cf a4 0f 3c 9c b9 de bc e0 0d 0c bc
       0.032363515 0.008767321 -0.027188115 -0.00854823
0000e0 73 90 8c 3c 48 f6 57 3c 51 ff c5 ba c3 6c 5e bc
       0.017158723 0.013181277 -0.0015105997 -0.0135757355
0000f0 a3 9c eb bc fb 29 10 bc 22 a6 15 3b 2a f8 02 bc
       -0.028761214 -0.008799071 0.0022834619 -0.007993737

model.7.weight f4 [64, 64, 3, 3]
000000 46 d4 00 bb fe 6b 71 3c b1 27 21 bc c2 4d 15 3d
       -0.0019657775 0.01473522 -0.009836123 0.03645111
000010 91 a5 f8 bc 5c 45 75 bb 63 ed 8d 3c ee c3 19 bd
       -0.030352386 -0.0037425375 0.017325109 -0.03754037
000020 16 ee ca 3c 16 89 20 bb b6 44 03 3c d7 61 22 3d
       0.024771731 -0.0024495772 0.008011987 0.03964409
000030 10 9a 81 bc 00 21 26 3a e0 5d 6c bc 30 1f 3b 3c
       -0.015820533 0.0006337315 -0.014426678 0.01142101
000040 1b 2e 37 3c e2 f0 1a 3d 47 8d 85 3b 6e a0 df 3c
       0.011180426 0.03782738 0.0040756795 0.027298179
000050 08 ef c4 bc e0 5a 0f bc 36 ed 87 3c e4 e4 f9 bc
       -0.02403976 -0.008749694 0.016592603 -0.030504651
000060 04 61 ac 3c af 5d 4b bc 01 ec 2b 3c cf b2 fa ba
       0.021042354 -0.012412473 0.010493279 -0.0019126775
000070 cf 9e 4a 3c 58 8a 22 bd 09 cd 05 ba d0 f2 a9 3b
       0.0123669645 -0.039682716 -0.00051041 0.005186416
000080 d1 e8 a1 bc 1c 32 90 3c 79 47 41 3c e3 4f 84 bc
       -0.019764336 0.017602019 0.011796826 -0.016151374
000090 ad 24 6a 3c f2 d2 23 bd d3 e8 17 3d dc 7b 0a bb
       0.014290971 -0.039996095 0.037087273 -0.0021130955
0000a0 99 15 a7 3b fd 69 f0 3b 4d 9e e9 bc 49 14 0d 3c
       0.00509901 0.0073368535 -0.028517867 0.008610793
0000b0 6a 97 16 bb 8d 37 ec 3b b6 79 71 bc 84 b3 ae bc
       -0.0022978433 0.0072087706 -0.014738491 -0.021325834
0000c0 62 10 69 bc 2f 67 25 3d 1e 6e 4e 3c 1c b7 fe bb
       -0.014225097 0.040381607 0.012599496 -0.007773293
0000d0 30 46 e5 3b 57 ed 07 3d ab c9 9a 3a 68 4f 90 3c
       0.0069968924 0.03318533 0.0011809369 0.017615989
0000e0 da 88 0c bd 10 15 d3 3c a6 ce 7e 3c 30 7e 15 3d
       -0.0343102 0.02576688 0.0155521985 0.036497295
0000f0 5b 31 07 3c de 74 0b 3d d8 32 f1 3c 76 d2 48 bc
       0.008251513 0.034047 0.02944319 -0.012257209
000100 b0 32 64 3c ab f6 6a 3b 0e 6e c2 3c 8b ac c5 bb
       0.0139281005 0.0035852592 0.023734119 -0.0060325316
000110 3e 20 1a bd 4b aa f8 3b 0e 98 ff bc d6 8a b7 3b
       -0.037628405 0.00758866 -0.031200435 0.0056012673
000120 6b 82 65 3c 66 bd 21 bd c0 87 b8 bc 00 1b 24 ba
       0.014008145 -0.039487265 -0.022525668 -0.0006260127
000130 b6 8a b3 bb 53 2c c9 bc c0 db c5 bc d0 e5 c3 3c
       -0.005479182 -0.024557268 -0.024152637 0.023913294
000140 ab f3 c0 bc 64 a7 f0 3c 87 19 89 3c b2 a7 d2 ba
       -0.02355369 0.029376693 0.016735805 -0.0016071706
000150 48 e8 20 3d f3 2f 14 bd b8 28 0f bc 0e 14 f4 39
       0.03928402 -0.03617854 -0.008737735 0.0004655425
000160 39 08 2e bd d5 c9 7f 3c ba 01 70 3c d5 65 8e bc
       -0.04248831 0.015612085 0.014648849 -0.017382542
000170 47 7d a5 3c cc a4 b8 bc 92 32 13 bd 72 5e a2 3c
       0.020201338 -0.022539519 -0.0359369 0.019820426
000180 09 c7 a6 bc 77 1c be bb 93 a7 03 bd 14 2e 56 3b
       -0.02035858 -0.005801733 -0.032142233 0.0032681273
000190 a2 e3 01 3d 61 7c b3 3b 38 fb 08 3b 9b da db 3c
       0.03171123 0.0054774736 0.0020901691 0.026837638
0001a0 64 26 02 bc a6 f8 2f 3b 18 e9 40 3c 8d 86 b6 3b
       -0.007943723 0.0026851087 0.011774324 0.005570239
0001b0 2b 3f 76 bc 72 f3 99 3c 3b 7f 25 3d 57 9f 29 3d
       -0.015029709 0.018792842 0.04040454 0.041411724
0001c0 55 b6 1a 3d a3 05 16 3d ad ca 1e 3a 02 87 b3 bc
       0.03777154 0.03662647 0.0006057423 -0.021914963
0001d0 ef 69 0c 3d ba be a1 3c f5 ea 1d 3d 92 7e 28 3b
       0.034280714 0.019744266 0.03855415 0.0025710207
0001e0 b9 4a c8 bb 0e 6d bb bc e8 16 c4 3a fd 03 fe bb
       -0.0061124233 -0.02287915 0.001496044 -0.0077519403
0001f0 67 4e c0 3c 19 d5 22 3d 68 9c ca bc 5a eb 25 bc
       0.023474885 0.039754007 -0.024732783 -0.010126913
000200 7c 0a 84 bc 24 de 29 bb 15 05 12 bd 3e 67 45 3c
       -0.01611828 -0.002591976 -0.035649378 0.012048541
000210 66 53 83 3c 26 0f ee 3c 7d 77 f8 3c ac 46 07 bd
       0.016030978 0.029059958 0.030330414 -0.033026382
000220 56 5c a7 3c c0 df 2b 3c 4b 87 d4 bc 56 d2 98 3b
       0.020429771 0.010490358 -0.025943419 0.004663746
000230 db 81 ff bc 36 c5 92 3c ab f9 93 ba 6b 5b 6c bc
       -0.03118985 0.017916303 -0.0011289617 -0.014426093
000240 6d f8 cc bc 3e 0d 1a bb e9 54 20 bd 07 e3 06 bc
       -0.025020802 -0.0023506428 -0.039143477 -0.0082328385
000250 2a 4e 25 3d f9 84 46 bc 24 80 bd bb e8 f4 1b 3d
       0.040357746 -0.012116664 -0.005783098 0.038075358
000260 00 f3 51 3c 83 14 85 bc 0b 1e e7 bb c3 2a 12 bd
       0.012814283 -0.016245132 -0.007053142 -0.035685312
000270 b0 c2 20 3c 2b 93 a3 bb 06 bd b3 3c dc a0 14 3d
       0.009812042 -0.004991909 0.02194072 0.03628622
000280 6e 4a c1 3c 2b 84 c4 3a 72 61 d0 bc b3 87 18 bd
       0.023595061 0.0014993002 -0.02543709 -0.037238788
000290 a3 41 82 3c ee 92 04 3d b2 af 94 bc 26 19 0f bd
       0.015900439 0.032366686 -0.018150184 -0.034936093
0002a0 fd 25 48 3c 88 6d 1c 3c 65 d9 0a bd 79 d0 4a bc
       0.012216088 0.009547599 -0.03389873 -0.012378805
0002b0 d2 fb a3 bc a2 c7 dc 39 81 46 14 bc dc 56 28 3d
       -0.020017538 0.00042110408 -0.009050013 0.04109846
0002c0 97 f9 77 bc 10 b9 73 bc 26 da 0e 3c 3d 36 c9 bc
       -0.01513519 -0.014875665 0.008719003 -0.024561996
0002d0 57 b0 ab bc 57 54 c4 bc c6 58 15 bc ed a9 a1 bc
       -0.020958109 -0.023965998 -0.0091154035 -0.019734347
0002e0 79 2c c0 bc fa 20 8d 3c 6e 02 7d 3c 74 76 ec 3c
       -0.023458706 0.017227639 0.015442474 0.028865077
0002f0 3e 02 5a 3c 0f 33 81 bc d3 88 3e 3c f2 1e d3 3c
       0.013306199 -0.015771417 0.011629301 0.025771592
000300 9f 5f 78 bb 69 a3 2e 3d 5e 39 86 3b b4 ab 0e 3c
       -0.0037898791 0.04263631 0.004096194 0.008707929
000310 f2 b4 fb bc e3 57 d4 bc 86 83 8e 3b 9e 31 f4 bc
       -0.03072593 -0.025920814 0.004349175 -0.029808816
000320 60 52 2a bd 61 b1 64 bc 45 5c 10 3d 05 89 f7 3c
       -0.041582465 -0.013958306 0.035244245 0.030216703
000330 be 53 8b 3c 9d f9 25 bd 93 88 68 bb 62 23 35 3d
       0.017007705 -0.040521253 -0.0035481795 0.044223197
000340 03 89 82 bc 7b 81 2b 3c ba 46 11 bd df 06 86 3c
       -0.015934473 0.010467882 -0.03546784 0.016360698
000350 15 e3 0f bd 46 cc aa 3c 95 2a 12 bd 1a b6 09 bd
       -0.03512867 0.020849358 -0.03568514 -0.03362093
000360 de 03 c8 3c 50 77 4b 3c 90 6d 0a bc 98 47 16 3d
       0.024415907 0.012418583 -0.008448973 0.03668937
000370 2e ce 92 3c 6b a7 5d 3c 70 3c 28 bd f0 4e c6 3c
       0.01792058 0.013528685 -0.041073263 0.024207562
000380 16 3d 6c bb 44 ec 21 3d 78 6e e8 bc 45 f6 89 3b
       -0.0036047152 0.03953196 -0.028372988 0.004210266
000390 32 42 e1 bb d4 c9 5c 3c fc fa e7 bc 3b 4f 88 bb
       -0.006874346 0.013475854 -0.02831792 -0.0041598356
0003a0 35 4d e0 3c a0 6f a3 bc 69 a3 b9 bc e2 19 0f 3d
       0.027380565 -0.019950688 -0.022660928 0.034936793
0003b0 cc ca b8 bc 0d 84 9f bb 22 7d 06 37 0a 6f d1 bc
       -0.022557639 -0.0048680366 8.016157e-06 -0.025565643
0003c0 aa 53 e1 bc 0f 16 8a 3a 9a ad b3 bc 54 7b 92 3c
       -0.027505714 0.0010535138 -0.021933366 0.017881073
0003d0 ee 53 0f bd 6d 91 f6 3c 5d 81 30 3d 81 71 67 bb
       -0.03499215 0.030098641 0.04309212 -0.0035315456
0003e0 6b 91 80 bb ea ed 71 b9 a6 11 f5 3c dc e1 67 bc
       -0.003923585 -0.00023072181 0.029915642 -0.01415297
0003f0 b6 c3 01 3d e8 8e 23 3d 70 58 ee 3c e8 94 16 3d
       0.031680785 0.039931208 0.029094905 0.0367631

model.7.bias f4 [64]
000000 cc d8 ad 3b a9 b6 9b 3b 2b 8d ba 3c 1a 78 9f 3c
       0.005305385 0.0047519994 0.022772392 0.019466449
000010 e9 32 fb bc 5b 1c 4b 3c 2b 85 d1 bc 8b d6 b9 bb
       -0.030663924 0.012396897 -0.025576195 -0.0056713275
000020 cc 51 3f 3b 0b be 1f bc 3e 0c b1 3c 3a 2e 24 3d
       0.0029193042 -0.0097499 0.021612283 0.040083148
000030 27 6d 1c 3d 5c c7 aa bc d6 e3 e4 ba f4 4d ea bc
       0.038190033 -0.020847015 -0.001746292 -0.028601624
000040 11 78 b6 bc df e3 90 bc d6 33 e3 bb ef 46 0e 3d
       -0.022274049 -0.017686782 -0.0069336696 0.034735616
000050 98 96 45 3c eb 12 fb 3c 52 b3 01 bd 8c f8 d2 bc
       0.01205983 0.03064867 -0.031665154 -0.025753282
000060 1b f7 06 3d 50 69 28 bd 3b c2 c4 bc c9 9b 2c 3d
       0.032950502 -0.04111606 -0.024018398 0.042140756
000070 08 45 85 bc 05 16 04 3d aa a7 cd 3b 6f 48 c2 3b
       -0.016268268 0.032247562 0.0062760906 0.005929045
000080 c5 6d 4a bc 04 5d 1a bd d2 6e bd 3c 96 c9 be bb
       -0.012355273 -0.037686363 0.023124132 -0.0058223708
000090 8e ea a6 bc 96 30 d7 3b bb b4 eb bc 44 6c a9 bc
       -0.020375516 0.006567071 -0.028772702 -0.020681508
0000a0 d8 36 bd 3b 7a 04 d7 3c 0b d7 6c 3c 4d 45 22 3d
       0.00577436 0.026247252 0.014455567 0.03961687
0000b0 0e ec aa 3c 13 e4 be bc f2 b5 b5 3b 93 c5 08 bd
       0.020864513 -0.023302114 0.005545371 -0.033391546
0000c0 3f fc a8 3c 09 31 35 3d 3c 2e 13 3d 00 51 40 bc
       0.020628093 0.044236217 0.035932764 -0.011738062
0000d0 5a e4 c7 bc c7 0c 0c bd d5 3a 22 3d 59 e1 0d bd
       -0.024400879 -0.034191873 0.039606888 -0.034638736
0000e0 37 c8 be 3c c0 24 31 3d 76 84 c4 3b 83 1c 53 3c
       0.02328883 0.04324794 0.005997236 0.012885216
0000f0 46 e8 07 3d 58 8c ac bc 8c bb c5 3c 2c d3 21 3c
       0.033180498 -0.021063015 0.02413728 0.009877007
