decomposition/simple_retinex_model/weights_last_hsv.pt (torch, 668167 bytes, 24 tensors)

feature_extraction.weight f4 [64, 3, 9, 9]
000000 15 ff 77 bc 15 98 23 bc 50 94 85 bd 98 6d 0e bc
       -0.0151365 -0.00998499 -0.06522429 -0.008693121
000010 8c 29 30 bd d8 7f ca bc 76 03 b5 3c 7e 3b df 3c
       -0.043008372 -0.024719164 0.022096377 0.027250048
000020 d0 86 3d bd 1a 79 77 3a e7 ed 0f bc 08 62 c2 3c
       -0.046271145 0.0009440348 -0.008784748 0.023728386
000030 85 86 8c 3b b7 96 6e bd 44 e6 39 3b cc aa f4 3c
       0.004288497 -0.0582492 0.0028366009 0.029866599
000040 a2 f2 b0 bc cb 21 15 bd c9 ec 23 bd e0 75 11 bd
       -0.021600071 -0.03640918 -0.040020738 -0.035512805
000050 25 3a d2 bc 92 97 b2 bc 2c 82 24 bd ad 53 9d 3c
       -0.025662491 -0.02180079 -0.040163204 0.019204939
000060 17 c3 e4 bc d4 43 a1 3c a8 34 d5 bc 5b 9b 06 bd
       -0.027925057 0.019685663 -0.026026085 -0.032863002
000070 91 83 46 3d b1 e7 83 bd e7 43 f6 bb 4b 61 3b 3d
       0.048465315 -0.06440676 -0.007515419 0.045747083
000080 33 b6 cf bc d1 3d 54 bd fc 34 5a 3b 9e 52 94 bc
       -0.025355434 -0.051816765 0.0033295741 -0.018105801
000090 d9 b0 25 bd 87 b3 1a 3d e6 3c 66 3d 1a 3c 05 bd
       -0.04045186 0.037768867 0.05621042 -0.03252802
0000a0 02 bb 99 bb ca 74 39 bd 91 65 13 3d f0 10 93 bc
       -0.0046914825 -0.045277394 0.035985533 -0.017952412
0000b0 d4 b0 60 3d 41 0b d4 bc ae 4f dd 3c a0 71 98 bb
       0.054856136 -0.025884273 0.027015533 -0.004652217
0000c0 fe 45 72 3c ee 53 1c 3d 3f c6 0b bd 40 81 56 bd
       0.014787195 0.03816598 -0.03412461 -0.052369356
0000d0 31 0e 1c bd 3d 47 2d 3d 9e 82 a3 3b 9b 61 1b 3d
       -0.03809947 0.042304266 0.004989936 0.03793488
0000e0 ca 87 b0 bc 63 5b cf 3c 0c 33 fb 3c 21 3c 58 3c
       -0.021549124 0.025312131 0.03066399 0.01319793
0000f0 48 b7 81 3b b1 92 51 bd 98 6c ae 3c a5 20 88 3b
       0.0039586164 -0.051165286 0.021292016 0.004154282
000100 71 ed f7 bc d4 12 cc 3c eb 36 d6 3c c0 1a 0a 3d
       -0.030264588 0.024911322 0.026149234 0.033716917
000110 9f 91 47 bd f4 51 1d 3c cd eb 11 bd e5 32 64 bd
       -0.04872286 0.009602059 -0.035625268 -0.0557126
000120 ee 80 69 3d d7 12 f7 bc 4a 27 17 bd 63 c6 5c bc
       0.057007723 -0.03016035 -0.036902703 -0.013475033
000130 72 86 51 3d 3d b9 6a 3d c2 4d 99 bb e5 25 60 3b
       0.051153608 0.057305563 -0.004678459 0.0034202274
000140 05 bc 26 bd 7a e3 5c 3d 1c d7 19 bd 81 4e b5 ba
       -0.040706653 0.053927876 -0.03755866 -0.00138326
000150 df 2b 24 bd 56 9e 92 3c 7b 98 a7 3c 08 ca 35 bd
       -0.0400809 0.017897766 0.02045845 -0.044382125
000160 3d 6d c9 bc 9c 9b 5b 3d c2 92 d1 3b 32 7a 46 bd
       -0.024588222 0.053615198 0.0063956687 -0.04845638
000170 5d e7 03 bd 9b c1 0b 3c dc 82 49 bb 0a 14 c3 bb
       -0.032203067 0.008530046 -0.0030748164 -0.0059533166
000180 c4 19 73 3c dc e8 99 3c b6 02 0e bc 09 dc 94 bc
       0.014837686 0.018787794 -0.0086676385 -0.018171327
000190 9f 54 26 bd 52 5c 42 3d a6 6e 6b 3d dd 6e a3 3c
       -0.040608045 0.047451325 0.05747857 0.019950325
0001a0 24 28 3a bd 72 d6 2d 3d 5d 4d 08 3d 6e a4 4d 3d
       -0.045448437 0.04244084 0.033276904 0.05020564
0001b0 85 50 e5 bb 0c ca 66 3d 62 ff 7a 3c 50 31 4d bc
       -0.006998124 0.05634503 0.015319677 -0.012523964
0001c0 06 b2 9c 3c bc fd 31 3d 42 6e 1a bd bc 4d 3c 3d
       0.019127857 0.04345487 -0.037702806 0.04597257
0001d0 6a 24 5d 3d 8c 7f 7b bd fa 10 34 bc 44 62 f6 3b
       0.053989805 -0.061400935 -0.010990376 0.0075190384
0001e0 89 5c 66 bc 72 15 19 bd 2d d6 ea bb 1a 91 81 3d
       -0.014060148 -0.037373967 -0.007166645 0.06326504
0001f0 bd e9 2b bc d4 44 24 b9 36 0d e5 bc dd 6f 2d 3d
       -0.010492739 -0.00015665899 -0.027960401 0.04234301
000200 08 e6 7d bb cf c1 d4 3c f9 a8 64 3d 59 47 a8 bb
       -0.0038741846 0.025971321 0.055825207 -0.0051354584
000210 dc c9 67 bd 0a 87 c6 bc 8e d6 f8 bc fa b2 ea 3c
       -0.056588992 -0.024234314 -0.030375745 0.028649796
000220 9e 36 00 bd ff 63 a1 3b 31 df 00 bd 61 69 38 3d
       -0.031302087 0.0049252505 -0.031462852 0.045022372
000230 42 31 76 3d 33 83 76 bc 69 bf e6 bc a5 fb bd 3c
       0.06010557 -0.015045929 -0.028167443 0.023191283
000240 dc cb 26 bc cb 4d fb bc 9b f8 24 bd 1b 76 73 3d
       -0.01018044 -0.030676743 -0.04027615 0.059438806
000250 33 d1 3b 3c 48 5a 3b bd 24 64 6b 3d eb 81 07 3d
       0.011463451 -0.045740396 0.05746855 0.033082884
000260 cf da 3d 3d c4 a2 33 3d cf b8 3e bc d2 28 b5 bc
       0.04635125 0.043856397 -0.0116407415 -0.022114191
000270 10 6c 11 3d c7 c3 65 bd aa 40 b3 3c c0 bd 08 3d
       0.035503447 -0.05609491 0.02188142 0.033384085
000280 26 ae 33 bd ee 08 d6 3c e7 2a bc bc 29 29 82 bd
       -0.043867253 0.026127305 -0.022969676 -0.06355507
000290 9e 5d 80 3a 9c d4 5b 3d 75 58 02 bd 38 b0 0d 3d
       0.0009793525 0.053669557 -0.03182264 0.034591883
0002a0 61 fd 2e bd 71 ec 0a 3c a9 0e b4 bb ba bf 40 bd
       -0.04272211 0.008479224 -0.0054949117 -0.047057845
0002b0 f1 7b ee bc bb 8f 77 bc d6 3b 0d bd b8 d3 23 bd
       -0.029111834 -0.015109952 -0.034480892 -0.039996833
0002c0 ca 96 96 3c 24 37 c6 3c a8 76 3a 3c 3f 96 46 bd
       0.018382449 0.024196215 0.011380829 -0.04848313
0002d0 58 c6 7a bd 9a 74 72 bc 4a ef ce 3c 70 ad 20 bd
       -0.06122431 -0.014798308 0.025260586 -0.039227903
0002e0 12 44 60 bd bf 28 18 3d 93 1b d8 3b 60 c3 1e bd
       -0.054752417 0.037148234 0.006595084 -0.038760543
0002f0 ba 2a 73 bd e4 d1 80 3c ea 66 9b 3c 58 30 52 bd
       -0.05936692 0.015725084 0.018969972 -0.051315635
000300 c4 3b 83 bd 37 00 f1 3b 39 e1 f7 3c 03 75 d5 3c
       -0.06407884 0.007354762 0.030258762 0.026056772
000310 cd dd fb 3a ae 58 72 bd 10 8e 06 3c f4 f7 ce bc
       0.0019215882 -0.059166603 0.008212581 -0.025264718
000320 78 02 16 3c 7b 01 00 3d 51 b6 82 3c 33 24 2f 3d
       0.009155862 0.031251412 0.015956076 0.04275913
000330 97 dd 80 bd 3e 9f 44 bd 78 08 a9 bb 91 cd 07 3d
       -0.06292265 -0.048003428 -0.0051584803 0.033155028
000340 f2 0c 4e 3d 29 27 21 3c 9b c5 b5 3a 7c 1b 21 3d
       0.050305314 0.009835997 0.0013868095 0.03933285
000350 80 7c 7f bd 8e b3 27 3a 19 0e df 3b 19 1d 80 bd
       -0.06237459 0.00063973 0.0068071005 -0.0625555
000360 e6 30 9d 3c 84 74 66 bd 64 c1 57 bd 94 77 7b 3c
       0.019188356 -0.05626346 -0.052674666 0.015348334
000370 bf 17 dc bc fc 7f 6f bd e7 eb 3c bd f9 d0 47 3c
       -0.026866792 -0.058471665 -0.04612341 0.012195819
000380 3f 7f fd bc e4 af 00 bd a3 48 e4 3c 74 c4 28 bd
       -0.030944465 -0.031417742 0.027866667 -0.041202977
000390 6f e4 b0 bb 9c 1a 2e bb a7 7a 32 3c 55 ad 87 bd
       -0.005398325 -0.0026566153 0.0108935 -0.06624857
0003a0 4b 30 18 3d 9c 1f 29 bd c2 81 52 bd 8f 47 6a bc
       0.03715543 -0.04128991 -0.051393278 -0.014299287
0003b0 51 45 07 3d 45 35 0d bd 7b 15 80 3c 6a 6a 2b 3d
       0.03302509 -0.03447463 0.015635243 0.04184953
0003c0 51 13 38 bc 5d 7c db bc d1 cd ca bc 97 9f c0 3c
       -0.011235074 -0.0267927 -0.024756344 0.023513598
0003d0 d6 ba 64 bd 0b eb 7d 3d 3c 90 4a bd 2e 7f 58 bd
       -0.055842243 0.061991733 -0.04945396 -0.052855663
0003e0 d1 58 d6 3c 76 9a 51 bd 68 24 71 bd 98 cc a3 bc
       0.026165398 -0.051172696 -0.05887261 -0.019995019
0003f0 ee da 0b bd 30 0f 3e bc 63 18 16 bd eb af 67 bd
       -0.034144334 -0.011600301 -0.03664435 -0.056564253

feature_extraction.bias f4 [64]
000000 83 65 92 bc 34 f1 a2 bd 54 80 6d bd b3 90 1d 3d
       -0.01787067 -0.07956162 -0.05798371 0.038468074
000010 a0 9d 8e 3c d0 5f 21 bd ac 81 3d bd d8 ca 90 bd
       0.017409146 -0.039398015 -0.046266243 -0.070699394
000020 9b 0a fd 3c 56 b6 be ba 97 55 5c bd 57 38 07 bd
       0.030888846 -0.001455019 -0.053792562 -0.033012714
000030 af 95 63 bc 44 db 80 bd f0 a4 36 bd 50 2f 5c 3d
       -0.013890668 -0.062918216 -0.04459089 0.05375606
000040 2c 00 95 3d e9 1a 56 3d 2b 53 ff bb b3 a7 9f bd
       0.072754234 0.052271757 -0.007791897 -0.07795658
000050 22 23 c7 3c ff 77 80 bd 64 10 3e 3d bf 06 76 bd
       0.024308745 -0.062728874 0.04640235 -0.060065027
000060 5f bc fc bc 55 a8 78 bd 87 6b 8e bd fc 3b 21 bd
       -0.030851541 -0.06070741 -0.06954103 -0.039363846
000070 b6 7c 89 3d 4a 6f 54 3d 57 52 d6 bc e9 4f a9 bd
       0.0671324 0.051863946 -0.02616231 -0.08267195
000080 f1 89 80 3c 44 50 5b bc 83 ac c5 3c 17 29 23 bc
       0.015690776 -0.013385836 0.024130112 -0.009958527
000090 b2 ab 8e bd bc df 1b 3d 57 91 ec 3c 1d 92 3d 3d
       -0.06966342 0.038055167 0.028877897 0.046281923
0000a0 84 02 51 bd dc 23 89 3d 21 c3 2d 3d 5d ae 6e bd
       -0.05102779 0.06696293 0.042422418 -0.058271755
0000b0 dc 3a ce bc 60 ac 84 3d 99 01 71 bc 0b f3 87 3c
       -0.02517455 0.064781904 -0.014709854 0.016595384
0000c0 62 91 b4 bd af 6f 99 3d 63 da 94 3d 1b 78 74 3b
       -0.08816792 0.07492005 0.072682165 0.0037303034
0000d0 f6 0c 56 3d f3 4f 8e bd 31 60 79 3c da b5 83 bc
       0.052258454 -0.06948843 0.015220688 -0.016077925
0000e0 ea b4 aa bc 84 97 90 ba 10 c5 aa 3a 78 8a da 3b
       -0.02083822 -0.0011031483 0.00130287 0.006669339
0000f0 5f 01 96 3d f1 f0 48 3d b3 f5 69 3d aa f8 6c bd
       0.0732448 0.049057905 0.057119083 -0.057854332

convolutions.0.weight f4 [64, 64, 3, 3]
000000 51 6d f9 bc 9f 68 e6 bc ab 8c e6 3c 67 d2 07 3d
       -0.030447634 -0.02812606 0.028143248 0.03315964
000010 57 1e 76 bc d9 54 35 bb c5 3d 02 3d 3b 3f ff 3c
       -0.015021882 -0.0027668981 0.03179719 0.03115808
000020 17 9e 85 bc 4b d0 8b bc c8 b7 e6 3c 8e 18 30 bc
       -0.016310735 -0.017067095 0.028163806 -0.010748042
000030 5e 16 a7 bb 95 19 a6 bb ee 03 15 3d bb 91 b4 3c
       -0.005099102 -0.0050689676 0.0363807 0.022042146
000040 65 08 0e 3d e7 1d ab bc 64 31 13 3d 81 5c 3b 3d
       0.034675974 -0.020888282 0.035935774 0.045742515
000050 cb f8 01 3d b0 08 1a bb 9f 99 cc 3c bf e9 c1 bc
       0.031731408 -0.0023503713 0.024975596 -0.02367103
000060 d2 24 50 bc a7 2f 64 bb 0c 6c 11 bd 99 04 03 39
       -0.012704091 -0.0034818442 -0.035503432 0.00012494846
000070 fe e7 3a 3d fd a6 00 3d bf 4e 14 bd 82 e0 f7 bc
       0.0456314 0.031409252 -0.03620791 -0.03025842
000080 ba dd b7 3c 0e 69 88 bc c9 8a 18 3d 72 89 c7 3b
       0.022444595 -0.016651656 0.03724173 0.006089383
000090 dc b0 36 bc 7b da f4 3c f6 b1 14 bd 21 17 55 3c
       -0.011150565 0.029889336 -0.03630253 0.013006003
0000a0 1d 97 e6 bc 29 e9 29 bc 14 72 09 bc af 8f 19 bd
       -0.028148228 -0.010370531 -0.008389015 -0.037490543
0000b0 2c f0 8e bc ff fb a6 bc 97 ad 31 bb 75 07 00 3d
       -0.017448507 -0.020383833 -0.0027111524 0.03125711
0000c0 ab bf 02 3c dd 6e 7f bc 40 9f bf bb 59 e5 c1 3c
       0.0079802675 -0.015590397 -0.0058478415 0.023668932
0000d0 72 c1 a6 3c 10 b1 98 bc c2 13 c9 bc 89 f8 0a bd
       0.020355914 -0.018639117 -0.024545554 -0.033928428
0000e0 db 4a 2f bd 63 15 2b bd 92 90 2f bd 90 2c 47 3b
       -0.042795997 -0.041768443 -0.042862482 0.0030391552
0000f0 fb 8a d2 3b b9 42 84 bc a2 c9 86 bc 41 91 13 3d
       0.006425259 -0.016145097 -0.016453568 0.036027197
000100 b6 61 f4 3c 25 a6 bb 3c 5d 9e cd 3c 64 88 37 bc
       0.029831748 0.022906372 0.025099928 -0.011201952
000110 77 1d 57 3c ff 6a b6 bb d4 3b b2 bc 73 fa 91 bc
       0.013129584 -0.005566954 -0.021757044 -0.017819619
000120 a8 5c b8 bb c1 be ee bc 28 f1 d4 3b b2 9d c7 bc
       -0.00562628 -0.029143693 0.0064984746 -0.024367187
000130 e7 ce 24 bb 46 d6 c9 3c 77 29 2f bd c3 c2 e4 3b
       -0.0025147737 0.024638306 -0.042764153 0.006981225
000140 2c 44 4b bc 08 ab 09 bc 1c fb ce bb 8a ff 1a bc
       -0.01240639 -0.008402593 -0.0063165557 -0.009460339
000150 b4 84 e7 3c 0c f1 7e bc 2f 14 23 3d 64 c5 b8 3c
       0.02826152 -0.0155604 0.03981417 0.02255506
000160 4c 40 4e bb e1 d5 fb bc ca 4b ef bc 22 7b 8e 3c
       -0.003147143 -0.030741634 -0.029210944 0.017392699
000170 4d 9d 8c bb 34 b9 30 bc a4 0e fd bc ad 7a 3c bd
       -0.0042912127 -0.010786343 -0.03089077 -0.04601543
000180 de ce 09 bd 7d 5b d8 b9 c5 e7 71 3b d2 30 a6 bc
       -0.03364455 -0.00041266895 0.0036911827 -0.020286951
000190 b9 5a 21 bd af db 0b 3d 6b 7d 02 bd 74 01 70 3c
       -0.03939316 0.034145053 -0.03185789 0.014648784
0001a0 17 40 0a bd 11 0f 63 bc e1 5a 20 3c f2 1f 75 bc
       -0.033752527 -0.013858573 0.009787292 -0.01496123
0001b0 7b 7b cc bc a6 c3 0b bb 97 83 5a bc f2 27 2b 3d
       -0.024961224 -0.0021326332 -0.0133370375 0.04178614
0001c0 6f d2 a6 3c 5f 1e da bb e1 cb 89 bc 5a c7 bb bb
       0.020364014 -0.0066564525 -0.01682085 -0.0057305517
0001d0 d8 61 83 39 3f 76 18 bd 5f 3d be 3c d1 18 a4 3b
       0.00025059166 -0.037222143 0.023222623 0.005007841
0001e0 7c b2 61 3a d0 a5 31 3c b9 c8 42 3a ab 0f ac bb
       0.0008609665 0.010842755 0.00074304227 -0.005250891
0001f0 d1 1a 2d bc a0 74 95 3b 5f 09 11 3d 76 b9 66 b9
       -0.010565476 0.004561022 0.035409328 -0.00022003599
000200 1d 6d fb 3c 5f 41 af 3b c5 1f 21 bd f0 57 f6 bc
       0.030691678 0.005348369 -0.03933694 -0.030071229
000210 1f dd 93 3c 3f 49 51 bc ad a3 16 3d b1 c9 ff bc
       0.018049775 -0.012773811 0.036777187 -0.031224104
000220 54 37 8c 3c e8 c2 ce 3c 91 97 1b 3d af 71 8a ba
       0.017116226 0.025239423 0.037986342 -0.0010562445
000230 2d dc 08 bd 01 cb e3 bc ab 3a de 3a 8e 9d d1 bc
       -0.0334131 -0.02780676 0.001695474 -0.025587823
000240 66 60 a9 3a 97 08 be bc 02 8c 28 3d 2a d3 71 bb
       0.0012922406 -0.023197455 0.041149147 -0.0036899545
000250 e4 cc 07 bc df eb b9 bc 27 a3 1d 3d eb 2d ab bc
       -0.008288596 -0.02269548 0.038485672 -0.020895919
000260 e3 1e 29 3d 06 43 5a 3c 14 9c 04 bd 4a 60 f7 3a
       0.04128922 0.013321644 -0.03237541 0.0018873301
000270 6a 3b 0b bc 45 b4 c0 bc 8f f4 12 3d be 40 f7 bc
       -0.008498052 -0.02352346 0.03587776 -0.030182239
000280 4e 8b 51 bc 81 70 c2 3b d6 88 f0 3c 1b 17 ac 3c
       -0.0127895605 0.0059338217 0.029362123 0.021007111
000290 3e d9 1f bd 9e a2 f6 3a 57 08 41 bd c2 25 07 3d
       -0.039025538 0.0018816774 -0.047127094 0.032994993
0002a0 70 53 88 bc b7 9f 1a bd be c1 27 bd 6c 9f 37 3d
       -0.016641349 -0.037749972 -0.04095625 0.04482977
0002b0 df 97 f5 3c f0 6a 0e 3d 2a 62 1f bc 76 81 ed bc
       0.029979644 0.034769952 -0.009727994 -0.028992396
0002c0 8d 93 c1 bc 84 e8 c0 bc 5b 94 39 3b a5 45 00 bd
       -0.023629928 -0.023548372 0.0028317187 -0.03131642
0002d0 08 81 eb bc 46 1d ce 3c 45 00 41 ba 83 19 90 bb
       -0.02874805 0.025160443 -0.0007362406 -0.0043975725
0002e0 4e 87 d4 bc 8b 6b 84 bc b1 a9 11 bd cb a7 93 3c
       -0.025943425 -0.016164562 -0.03556222 0.018024346
0002f0 d4 dd 12 bd cd 29 1c 3d 81 4a 1c bd 60 6a 00 bd
       -0.035856083 0.0381258 -0.03815699 -0.031351447
000300 d9 a7 a7 3b 4c 01 29 bd ad 13 37 bd 79 11 6f 3c
       0.0051164445 -0.041261002 -0.0446965 0.014591568
000310 c3 03 6b bc 7b 3f 48 3b aa 91 07 bd 1d 97 0b 3d
       -0.014344159 0.0030555415 -0.0330979 0.03407966
000320 9a 55 19 3d 0f 29 56 ba 8d a2 c5 3c 64 57 2d 3d
       0.03743515 -0.00081695704 0.024125362 0.04231967
000330 ef a9 5f bc 03 0c c4 bc cd 10 0c 3d 8f b2 7b b9
       -0.013651355 -0.023931509 0.03419571 -0.00024003744
000340 6c 80 28 3c 80 1e bf 3c 0a d4 25 bb a6 04 13 bd
       0.010284524 0.023329973 -0.0025303387 -0.035893105
000350 71 a5 cd bc 86 0d 9e bb 8d 7e c9 3c 5e f3 15 3d
       -0.025103303 -0.0048233895 0.024596477 0.036609046
000360 38 c8 3f 3d 85 d9 0b 3c 13 ce 40 3d c7 84 28 3c
       0.046821803 0.008535747 0.047071528 0.010285563
000370 d0 c1 7c 3c 75 8f 38 3d 1d 02 36 3d 22 2b c7 ba
       0.015427068 0.045058686 0.04443561 -0.001519535
000380 7c 41 1f 3a 0b 48 42 3b 83 ef b8 3b 3a d1 99 3c
       0.00060751266 0.0029644992 0.0056437864 0.018776525
000390 d4 a2 91 bc cd 01 8c bc 08 36 db 3c 53 e4 e4 bb
       -0.017777838 -0.017090702 0.026759163 -0.006985226
0003a0 39 a2 10 bd 5a 51 f0 3c 4f 8d cd bb 2a a1 2e 3c
       -0.035310958 0.029335666 -0.006272949 0.010658542
0003b0 34 95 ef bc 88 52 76 bb 19 d0 cf bc db c8 05 bd
       -0.02924595 -0.0037585814 -0.025367783 -0.032662254
0003c0 96 a1 79 3c fb 00 f7 bc f6 25 bf 3c ad 32 2d bd
       0.015236279 -0.030151835 0.02333353 -0.042284656
0003d0 b5 47 bb bc 27 d5 5a bb 59 97 f8 bc 05 d6 da bc
       -0.022861341 -0.003339121 -0.030345606 -0.02671338
0003e0 04 33 59 3b 88 6c 98 bb 57 2f c5 3c c4 6d e6 bc
       0.003314198 -0.00465161 0.024070425 -0.028128512
0003f0 64 6d 06 bd b0 1b 22 3a bd ff bd 3c e7 25 f9 bc
       -0.032819167 0.00061839353 0.023193235 -0.030413581

convolutions.0.bias f4 [64]
000000 96 5c c1 bc 29 e6 8e 3c 00 e5 f8 3c 70 85 a6 bc
       -0.023603719 0.017443733 0.030382633 -0.0203273
000010 6a 72 af 3a d4 68 84 3b 4b 9c 42 3a 1a 2c 08 bd
       0.0013385538 0.004040817 0.0007423802 -0.033245184
000020 d0 05 52 bd ec 17 28 3d b4 91 12 3d 15 68 03 3d
       -0.051275074 0.04103844 0.035783485 0.032081682
000030 8b 53 61 bc 1f 65 48 bd 9c 76 f0 3c 2e 28 55 3c
       -0.013752828 -0.04892456 0.029353432 0.013010068
000040 23 9b f3 3c f0 f9 99 bc 31 75 1b bd 66 90 fc 3b
       0.02973706 -0.018795937 -0.03795356 0.0077076433
000050 ae bb 7c 3d 70 00 cb 3c 5d 1e 69 3c 2e 30 33 3d
       0.061702423 0.024780482 0.014228431 0.04374712
000060 75 c1 36 3d ca 1f ae 3b 8b 8c f7 bb e1 14 e3 3b
       0.04461809 0.005313848 -0.007554596 0.006929979
000070 18 d9 f7 bc b1 14 6a bc 87 d5 43 bd 41 c7 f3 3b
       -0.030254886 -0.01428716 -0.047811057 0.0074395244
000080 84 fd 10 3d ef 27 4e bd 06 3e 03 3d f9 6b f0 3c
       0.03539802 -0.050331052 0.032041572 0.02934836
000090 2b e4 b3 bc cd 91 d6 bc 87 dc 17 3d 22 8a fb 3c
       -0.021959385 -0.02619257 0.037075546 0.030705515
0000a0 28 4c ff 3c 77 a8 7a 3c 31 2e be bc 78 90 92 3c
       0.031164244 0.015298954 -0.023215385 0.017891154
0000b0 18 33 87 3d fb 8d d5 3c 92 71 5c bd 2d 79 9b 3c
       0.06601542 0.026068678 -0.053819247 0.01897868
0000c0 2c 8e 4c 3c 28 a0 6f bc c3 d5 53 bd 5b fa f9 bc
       0.012485068 -0.014625587 -0.05171753 -0.030514887
0000d0 51 75 69 bd 9b 49 fc 3c 1f 6e e4 bc bd 9b 5b bc
       -0.056996647 0.030796817 -0.027884541 -0.01340383
0000e0 6c ff 0e bd ff 33 39 bd dc 2b ed bb 50 83 2b 3d
       -0.034911558 -0.045215603 -0.0072378945 0.041873276
0000f0 dd 90 5d 3c 90 ef 38 3d e1 79 0a bc 24 b7 0b bc
       0.013523308 0.04515034 -0.00845191 -0.008527551

convolutions.2.weight f4 [64, 64, 3, 3]
000000 36 40 18 bd 83 9c a6 3c 8f 41 d1 bc 77 f4 09 bc
       -0.03717061 0.020338302 -0.025543956 -0.008420101
000010 e9 86 59 bc 18 45 d6 bb a3 31 07 3d d8 15 ce bc
       -0.013276794 -0.0065389983 0.03300632 -0.0251569
000020 df c8 d3 3c af 0d 13 3d 8b ee 8d 3c a2 20 b2 bc
       0.025852619 0.03590172 0.01732566 -0.021744076
000030 5e 6a a7 3c 9a f4 88 3c b7 3d e0 3c 0a e2 06 bd
       0.020436462 0.016718198 0.027373178 -0.03293041
000040 c2 47 35 bc 00 11 48 3c a5 ba f0 3c 5e 49 86 3c
       -0.011064472 0.012211084 0.029385874 0.016392406
000050 8c 8e 4e 3c 6f 93 ee 3b 2b b0 b3 bc 64 9f 02 3d
       0.012607228 0.007280759 -0.02193459 0.031890288
000060 52 9a 22 3d c5 f2 30 3d 67 5c 16 3d 29 33 5d bc
       0.039697953 0.043200273 0.036709215 -0.013500967
000070 5c e1 a5 bc ef 7e 0c 3d b4 cd aa bc dc a0 c9 3c
       -0.020249061 0.03430074 -0.02085004 0.024612837
000080 34 5c c0 bb c0 6e dd ba cf 45 2e 3d 5a 23 7a 3c
       -0.0058703665 -0.0016893968 0.042547043 0.0152672175
000090 d7 8f ea bb 5a c5 03 3d be 47 05 bd 35 a2 81 3b
       -0.0071582603 0.03217063 -0.03253912 0.003956104
0000a0 7f 7c f8 bc 12 68 09 3b 01 63 75 3c 4e c5 e0 39
       -0.030332802 0.0020966572 0.014977218 0.00042871613
0000b0 a7 8f 10 3d 25 14 bb 3c 1f f0 29 bd c7 dc f9 bb
       0.035293248 0.022836754 -0.041488763 -0.0076251957
0000c0 7c 7a dd 3b c0 3b c4 bc 78 3f e1 3c fd 31 26 bd
       0.006758986 -0.023954272 0.027496085 -0.040575016
0000d0 ab 34 16 3d ac ea 0d bd 52 39 05 3d f3 d5 a1 bb
       0.03667132 -0.03464763 0.032525368 -0.004938835
0000e0 3f f6 57 bc 54 0b a1 bc 4d c7 63 bc e3 c5 36 3c
       -0.013181268 -0.019658722 -0.0139024975 0.011155578
0000f0 a6 d4 7a 3c b5 1d f7 3c 3c bf 8f 3c e0 f9 9d bc
       0.015309488 0.030165533 0.017547242 -0.019284189
000100 b2 41 2b 3c a1 2e eb 3c 3c 8c 10 3d d9 07 eb bc
       0.010452675 0.028708758 0.035289988 -0.028690265
000110 e7 ae 10 3d ef 5a 1b bd 83 c0 d1 3c e8 17 1a bd
       0.03532305 -0.037928518 0.025604492 -0.037620455
000120 91 3e b4 3b 21 3c 15 3d 10 b1 38 3d e0 e0 27 3d
       0.0055006226 0.036434297 0.045090735 0.040985942
000130 03 e4 8c bc c4 1c 8d 3c 41 a2 00 3d f8 d2 3d 3c
       -0.017198568 0.01722563 0.031404737 0.011585943
000140 be 7c 92 3c 5f f7 05 3d 75 dc 6a bc b3 5c 12 3d
       0.017881747 0.032706615 -0.014334788 0.035732936
000150 65 77 04 bd 6d c4 9e bb 8f 9f 27 3d 07 33 cf 3b
       -0.032340426 -0.004845193 0.04092365 0.0063232216
000160 5e 13 06 bd f4 b7 a2 3c 54 3a d7 3c de 7b 94 3c
       -0.032733314 0.019863106 0.02627293 0.01812547
000170 02 20 3e bd 1f db 19 bc 30 46 d5 3b 18 a3 b5 bb
       -0.046417244 -0.009390621 0.006508611 -0.005543124
000180 6a 07 0c bd b8 8f 3f bc 06 78 07 bd 6f 2d d8 3c
       -0.034186758 -0.01169198 -0.033073448 0.026388852
000190 14 bd c8 3a ab 75 e9 3b 9f 8e ad 3c 67 b6 13 bc
       0.0015315139 0.007124623 0.021186171 -0.009015656
0001a0 d6 ec 7d 3c 7c 30 ec bb 30 a2 4c 3a 32 a8 31 3d
       0.015498361 -0.007207928 0.000780615 0.043373294
0001b0 da 39 5a bc fc 59 cb bc 23 64 b1 3c d2 bd 2b 3d
       -0.013319457 -0.024823181 0.021654194 0.041929074
0001c0 f6 a9 17 3d 56 8d 03 bd 62 76 a3 3b 85 b9 05 3d
       0.03702732 -0.03211721 0.0049884776 0.03264763
0001d0 4d 24 3d 3c 15 c9 91 3c 37 04 2a 3d a8 12 2f 3d
       0.011544299 0.017796079 0.041507926 0.0427424
0001e0 5d c3 ca bc f5 60 f6 ba dc 19 b4 bc ca c0 bf 3c
       -0.02475136 -0.0018797206 -0.021984987 0.023407359
0001f0 c4 9b 81 bc 93 31 2f bc 63 73 f4 3c 7e e5 cc bb
       -0.015821345 -0.010692972 0.029840177 -0.0062529435
000200 1b 70 03 3d f8 fc 08 bc 6f e0 84 3a 64 a4 0f bd
       0.032089334 -0.008361094 0.0010137687 -0.035068884
000210 bc 91 20 bb a7 c8 04 bd 66 15 e2 3c 4a 5d aa 3c
       -0.0024500927 -0.03241792 0.027598094 0.020796437
000220 03 65 53 bc 3c 73 19 3d 67 72 bf b7 14 8b 06 bd
       -0.012902501 0.03746341 -2.2822247e-05 -0.03284748
000230 92 cf 1e bd 36 36 80 3c 38 cb e0 3c da 09 1b bc
       -0.038772173 0.01565085 0.027440652 -0.009462798
000240 de 97 c9 bc 7c e6 20 bb ed 10 84 bc 8d cc 43 bc
       -0.024608549 -0.0024551442 -0.016121352 -0.011950624
000250 15 29 d9 3b cf e6 01 bd e4 d1 ac 3c 9d ef d4 bc
       0.006627212 -0.031714257 0.021096177 -0.025993163
000260 5c b3 f9 3b 7f 62 81 3c 58 72 ab 3b b9 17 29 3d
       0.0076202583 0.015794037 0.0052321367 0.04128239
000270 99 2e af bc b1 ab f4 bc 00 87 26 3d 9e 7d e5 bc
       -0.021384524 -0.029867025 0.04065609 -0.028014
000280 e7 16 1d 3c a9 8e 21 3c 09 99 89 bc 4f 6b 7b bb
       0.00958798 0.009860673 -0.016796606 -0.0038363521
000290 c8 1b e7 bc 35 91 14 bd b8 96 19 bd 64 03 e5 ba
       -0.02821149 -0.036271293 -0.037497252 -0.0017472324
0002a0 8d 71 37 3b 6b 02 19 3d c3 8e ec 3c 0b 23 00 bd
       0.0027991266 0.03735582 0.028876668 -0.03128342
0002b0 79 22 8d 3c 8c a8 29 bd 27 bc 83 bb 74 e2 bb 3b
       0.017228352 -0.041420504 -0.0040202322 0.0057337824
0002c0 c1 4f 1f bd bc 16 94 b9 39 60 a6 3b f8 ba f0 3c
       -0.03889442 -0.00028245698 0.0050773886 0.029386029
0002d0 e3 46 b7 3c ed 26 7a 3c ee 30 2d 3b 3d 38 38 3d
       0.022372669 0.01526807 0.002642687 0.044975508
0002e0 80 40 14 bd 9e ba ae 3b 87 6a bf 3b e3 fe 63 3c
       -0.036194324 0.005332305 0.0058415565 0.01391575
0002f0 b2 c0 1b bd a5 f9 43 3b 6b bd f9 bc 89 77 dc bc
       -0.038025565 0.0029903438 -0.03048583 -0.026912468
000300 71 53 cd 3b 08 9c 24 3d 8f 79 a3 3c 18 df 95 3c
       0.0062660505 0.040187865 0.019955425 0.018294856
000310 ea 76 f7 bc 52 f7 30 bb 42 4b a3 3c 03 3b 3c 3d
       -0.03020807 -0.0027002883 0.019933347 0.045954715
000320 ff 58 0c 3c 48 73 66 3c 96 c2 24 3d 58 c8 92 ba
       0.00856614 0.014065571 0.040224634 -0.0011198623
000330 2f f1 f0 bb ac d0 4c bc 3f ed 02 bd d6 21 a0 3b
       -0.00735297 -0.012500923 -0.031964537 0.004886846
000340 aa f7 02 bb a3 76 09 3d 58 24 ea bc 01 67 4b bb
       -0.0019984045 0.033560406 -0.028581783 -0.0031036737
000350 83 9d 9f 3c 29 ad b6 bc 22 7d 76 3a 5f 71 bf bc
       0.019484287 -0.022299366 0.00094028015 -0.02336949
000360 f5 e8 a1 3c d0 9d 19 bb cc 83 e7 3c 4a 4f c0 3c
       0.019764403 -0.002344001 0.028261088 0.023475308
000370 dd 2e 67 3c e5 dd b5 bc 2d f2 9b bc 28 82 77 bb
       0.014110294 -0.022200534 -0.019036377 -0.0037766788
000380 1c a0 ab 3b 7e 51 08 3b f8 0d 9a 3c 93 46 4f 3c
       0.0052375924 0.0020800526 0.018805489 0.012651104
000390 8d 5b 1b 3d 5e bf 9e bc c7 4c 93 bb 04 e5 33 3d
       0.037929107 -0.01937836 -0.0044952366 0.04391958
0003a0 c7 92 7d 3c 83 8a 20 bc 8d 95 d3 39 1d 52 cb bc
       0.015476889 -0.009798649 0.0004035648 -0.024819428
0003b0 cd 55 1b 3d c7 30 2d 3d 51 53 f9 bb 73 34 02 3d
       0.037923623 0.042282846 -0.007608809 0.0317883
0003c0 85 06 0d bd b8 a3 d1 bc c5 70 eb 3c 5e c8 33 3d
       -0.034430046 -0.025590762 0.028740296 0.043892257
0003d0 ec 76 a9 3b d8 1f 0c 3d 16 d3 1f 3d 73 93 0f 3c
       0.0051716473 0.034210056 0.039019667 0.008763182
0003e0 9b b9 e0 bc e7 5a 83 bc cb 57 f3 3c 24 b1 ed bc
       -0.027432254 -0.016034557 0.029704949 -0.029015131
0003f0 27 5a 01 bc 1f af a6 3c 0f da 2c 3c 0b f3 3c 3c
       -0.007895029 0.020347176 0.010550036 0.011532555

convolutions.2.bias f4 [64]
000000 39 81 2a bc 39 13 34 3d 6c 72 05 3d bd b7 e2 3c
       -0.010406786 0.043963645 0.032579824 0.027675504
000010 24 48 ac 3c c9 91 8b 3d 44 a7 9d bc e5 3d 4e bb
       0.021030493 0.06814916 -0.019244798 -0.0031469997
000020 0e 0d 32 3b 75 6f de 3c 05 7b b9 3c 3e 71 30 bb
       0.0027168426 0.027152756 0.022641668 -0.0026922966
000030 53 a6 36 bd 53 6f 35 bd 33 49 2e 3c c4 03 08 bd
       -0.044592213 -0.04429562 0.010637569 -0.033206716
000040 19 02 2b bd 46 5c 62 bd ca cf db bc e2 70 78 3d
       -0.041750047 -0.05526378 -0.02683248 0.06065453
000050 68 95 de bc b7 5e d9 3c db bb c9 bc 18 15 08 3a
       -0.027170852 0.026534421 -0.02462571 0.00051911315
000060 54 4f 1c bd 27 07 0d 3c 2d 78 b0 bc a2 20 99 3c
       -0.03816159 0.008607662 -0.02154168 0.018692318
000070 32 b8 d3 ba b8 41 52 bc 53 7d e5 3c 22 6e b3 bc
       -0.0016152917 -0.012833051 0.02801386 -0.021903101
000080 28 56 52 bb 6c 5e 6b bd 2d 43 2c bd 21 bd 93 3c
       -0.003209481 -0.057463095 -0.04205625 0.01803452
000090 5d ad 91 3a 0d c1 80 3d 7c 93 2b bd 4d 32 99 3d
       0.0011114288 0.062868215 -0.0418887 0.07480297
0000a0 14 9f e9 bc f9 56 fb bc 1c 31 06 bd e9 50 80 3c
       -0.028518237 -0.03068112 -0.032761678 0.015663581
0000b0 0f 00 3e 3d ae 8d 2f 3c 27 03 cc bb 06 3d db bb
       0.046386775 0.010714931 -0.0062259617 -0.006690624
0000c0 ed 67 01 bd e0 37 04 3c f6 5c db 3c b7 18 00 3b
       -0.031593252 0.008069962 0.026777726 0.0019545981
0000d0 73 68 da bc 72 79 ff bc c6 8c 55 bd e3 9c 10 3a
       -0.026661133 -0.03118584 -0.052136205 0.0005516542
0000e0 92 ed 12 bd 2f b0 fa 3b c7 24 88 bc 55 27 80 ba
       -0.035871096 0.0076503973 -0.0166191 -0.0009777347
0000f0 f7 7e 02 bd 31 5f 66 3b d4 a3 7e 38 66 33 38 3d
       -0.031859364 0.0035151953 6.0710896e-05 0.044970892

convolutions.4.weight f4 [64, 64, 3, 3]
000000 09 5a 3f bc 16 fe 95 bb 3c ca 5e bc 25 5a db bc
       -0.011679181 -0.0045774085 -0.013598021 -0.026776383
000010 e1 95 f4 3c 21 86 9d 3c f9 90 2d bc 9f 8a 1d 3d
       0.029856624 0.019228997 -0.010593646 0.038462278
000020 74 fa ca 3a 4b da ec 3c eb 3f e2 3c 36 98 75 bc
       0.0015486018 0.028912684 0.02761837 -0.014989903
000030 60 8a ce bc c1 15 16 bd 68 cb 20 3d 07 57 d1 bb
       -0.025212467 -0.03664184 0.039256483 -0.0063885483
000040 57 e3 24 bb fa 38 38 bc 7b 27 15 3d 76 36 6a 3b
       -0.002515992 -0.011244053 0.036414605 0.0035738028
000050 13 20 36 3d 9a 83 1a 3c 8e d5 ae 3c f5 d0 0e 3d
       0.044464182 0.00943079 0.021342065 0.034867246
000060 d5 81 fd 3c d2 3b e6 bc 07 5c 30 3c 93 1c f2 bb
       0.030945698 -0.028104696 0.0107641285 -0.00738866
000070 4c cb 94 3c e9 8b e7 bc 12 ff 1e bb c1 bd 5d 3b
       0.018163346 -0.028264957 -0.002426092 0.0033835026
000080 e8 cf 4a bc d3 d3 cd bc 8e 42 b4 3c 9e 2e 87 3b
       -0.01237867 -0.02512542 0.022004392 0.0041254302
000090 eb 05 88 bc ff 4d 44 bc 1e 57 d6 bb 35 0f fb bc
       -0.016604384 -0.011981486 -0.006541147 -0.0306469
0000a0 4a d9 b8 b9 a6 49 03 3d 50 fe cb bc 12 5b a3 bc
       -0.00035257108 0.03205266 -0.02490154 -0.019940887
0000b0 4f 6c 13 3d 32 c0 d2 3c 00 8b e2 3c 2e f2 ce 3c
       0.035991963 0.025726411 0.027654171 0.025261965
0000c0 dc e2 1f 3d ff b2 3e 3d 7f a0 a0 bc f8 eb 2d 3c
       0.03903471 0.046557423 -0.01960778 0.010615341
0000d0 27 12 db 3c 39 5e 72 3c 1b 63 ee bc 11 76 4e 3c
       0.026742054 0.014792972 -0.029099992 0.012601391
0000e0 ec 54 f4 bc 77 a5 4b ba 35 c3 89 bc 24 11 71 bc
       -0.02982565 -0.00077684916 -0.016816715 -0.014713559
0000f0 1c 50 20 bd 52 e9 9e 3c 87 f1 36 bb f1 77 bc bc
       -0.0391389 0.019398365 -0.0027914958 -0.023006411
000100 74 38 34 bd bf d1 02 3c 12 3b 03 3d 12 64 60 bc
       -0.04399915 0.007984578 0.032038756 -0.013695734
000110 4e 84 fa bc b2 7c 24 bd e3 80 df bc b7 82 5d 3c
       -0.030580666 -0.04015798 -0.027283138 0.013519934
000120 b6 e9 30 3d 4f 0c d9 bc 8c d3 83 bc c4 d0 39 3d
       0.043191634 -0.026495127 -0.016092084 0.04536511
000130 33 ee 5b bc a3 6e c2 bc 4f 36 40 3d df 9b 98 3c
       -0.01342349 -0.023734396 0.046926793 0.018629013
000140 ac af 9e bc 38 eb 10 3c be 02 58 3c 2c 07 c3 bb
       -0.019370876 0.008845143 0.013184248 -0.0059517827
000150 da d6 b1 3c 57 82 03 3d 9d c2 d5 bb 85 57 00 bd
       0.021708895 0.032106724 -0.006523444 -0.031333465
000160 f5 33 24 3d 97 bd 12 bc bc 6f e9 bc 62 c7 28 3c
       0.040088613 -0.008956335 -0.028495662 0.010301443
000170 3d d1 75 bc 05 9e f3 bc 0b ed 31 3c 75 68 07 3d
       -0.0150035 -0.029738436 0.010859738 0.033058602
000180 11 d7 05 3d 5d db c2 bc 08 9c b6 bc 08 81 9e bc
       0.032675806 -0.023786241 -0.022291198 -0.019348636
000190 11 dc bf 3c ff 8a e2 bc 5b 6f 1c 3b 34 c4 31 3d
       0.023420366 -0.02765417 0.0023870084 0.043400005
0001a0 38 47 3c 3d 0b 98 ad 3c e0 16 31 3b 0b 71 ca 3c
       0.045966357 0.021190664 0.0027021691 0.024712106
0001b0 ca a2 e8 3c 45 3b 19 3d 1c 4a 39 3d 17 1c 5f bc
       0.028397936 0.03741004 0.04523669 -0.013617537
0001c0 c5 cb 2c 3d 95 13 3e 3c d4 7e 71 bc 95 74 0c bd
       0.042186517 0.011601348 -0.014739711 -0.03429087
0001d0 b6 14 39 3d 2e 80 d6 3c 04 d6 14 3d 30 72 9f bc
       0.045185767 0.026184168 0.036336914 -0.019463629
0001e0 52 27 0f bc 52 a4 42 3c 51 b5 88 bc 1c c8 02 3d
       -0.008737402 0.011879997 -0.01668802 0.03192912
0001f0 11 cb 21 3a 09 7f e3 3c f4 b0 d7 3c d8 3b 45 3c
       0.0006171922 0.027770536 0.026329495 0.012038194
000200 a0 c1 42 bb af ac 25 3b 9e 16 21 3c 47 9d 29 bc
       -0.002971746 0.002527993 0.0098320525 -0.010352439
000210 a2 54 fa 3c 45 00 17 3d aa 77 49 bc 6a ad be bc
       0.030557934 0.03686549 -0.012296597 -0.02327605
000220 c9 39 15 bd ce 75 88 bc 53 d7 54 3c d6 69 c5 bb
       -0.03643206 -0.016657736 0.01299079 -0.0060245795
000230 42 aa ce bc d4 d2 51 3c f7 02 21 bd d2 09 fa 3c
       -0.02522767 0.012806613 -0.039309468 0.03052226
000240 6b 30 3e 3c a0 32 b2 3c 97 1b b0 3c 4e c3 15 3d
       0.011608223 0.021752656 0.02149753 0.03656321
000250 1b 54 3f 3d 14 c9 88 3c e6 45 96 bc 2a a0 f4 3c
       0.04671107 0.016697444 -0.018343877 0.029861528
000260 ac 26 2e bc 97 f9 3a 3c 95 6a 13 3d 48 fb 82 3c
       -0.010629337 0.011412046 0.035990316 0.01598896
000270 db 54 56 3b 38 20 e1 39 4e b3 11 3b 63 c6 07 3c
       0.0032704386 0.0004293935 0.0022232118 0.008287045
000280 0f 2f 85 3c 75 86 09 bb 9c fd 0b bd 4b 26 d7 bc
       0.01625779 -0.0020984684 -0.034177408 -0.026263377
000290 42 d3 ab bc 18 15 18 3d 01 f0 61 3c 0f fe 86 3c
       -0.020974759 0.03712949 0.013790132 0.016478566
0002a0 d5 ae d1 bb 5e 1e 84 bc c8 1f 44 bc 28 d4 cf 3c
       -0.0063990154 -0.016127761 -0.011970468 0.025369719
0002b0 d0 18 51 3c c9 e5 0e 3d 74 e8 dc 3b 03 98 db 3c
       0.012762263 0.03488711 0.0067415778 0.026805883
0002c0 5e e6 03 3d c0 a1 03 bd 40 7d cd 3c 68 bd df bb
       0.032202117 -0.03213668 0.025084138 -0.006827999
0002d0 5d b9 1e bd 88 80 a9 3a bf 35 0f 3d 91 82 10 bd
       -0.038750995 0.0012931982 0.034963366 -0.035280768
0002e0 1d 0f 19 3d 16 64 2d bd 05 8e b4 3c ff f9 26 bd
       0.03736793 -0.042331778 0.022040376 -0.04076576
0002f0 2e 59 4a bb f2 8c a3 bc 8d 55 7f 3c e4 fd c1 bc
       -0.003087591 -0.019964669 0.015584362 -0.023680635
000300 ad b1 00 bd dc 6a 72 3c 6c 29 be 3c 0c 33 69 bb
       -0.031419445 0.014795985 0.02321311 -0.0035583405
000310 94 9c 7b bc f1 d1 19 3d 8d f0 3a 3d df d5 98 3c
       -0.015357155 0.03755373 0.045639563 0.01865667
000320 ed fd b6 3c d4 cb c4 bc d3 0c da bc 48 93 2b 3d
       0.022337878 -0.024022974 -0.026617443 0.041888505
000330 be 0a b5 bc c5 ee f3 3c d0 ff 3b ba cc ff 22 bd
       -0.022099849 0.02977694 -0.0007171603 -0.03979473
000340 76 f8 a7 bc 8f 8b fa 3b 28 09 09 3d 28 0a 4b bc
       -0.020504218 0.007646031 0.033455998 -0.012392558
000350 e5 71 b1 3c a4 fe 1b 3c 94 69 a9 3c c6 90 72 3c
       0.021660754 0.00952116 0.020680226 0.0148050245
000360 22 a5 0f bd db 3b 12 3d e4 87 00 bb 06 66 47 bc
       -0.035069592 0.035701614 -0.0019612247 -0.01217032
000370 e3 eb 01 3c db 08 31 3d 76 e0 7d 3c 0d a1 53 bc
       0.007929775 0.043221336 0.01549541 -0.0129168155
000380 96 eb aa bc b0 b1 ff bc 95 a7 a2 3c 87 9e 1a bc
       -0.02086429 -0.031212658 0.0198553 -0.00943721
000390 81 66 99 bb 79 c8 1b 3d 27 55 75 bc d8 33 05 bd
       -0.004681409 0.038032982 -0.014973915 -0.032520145
0003a0 e1 41 41 bb f0 ec bf bc 98 99 e4 3c f7 91 d3 3a
       -0.002948873 -0.02342841 0.02790527 0.0016141523
0003b0 9b 87 f4 bc e7 a3 a5 bc 21 86 ef 3c 18 fa af bc
       -0.029849818 -0.020219756 0.029238762 -0.021481559
0003c0 fb 22 2a bd 9a e4 07 3a 79 28 15 3d c3 41 7c 3c
       -0.041537266 0.00051839056 0.03641555 0.015396538
0003d0 b2 67 80 bc 1c 38 96 3c be be c9 3a 29 35 2a bc
       -0.015674446 0.018337302 0.0015391929 -0.010388651
0003e0 e4 c5 aa bb 64 7f 81 bc 91 14 81 bb e4 10 94 bc
       -0.0052115787 -0.015807815 -0.0039392193 -0.01807446
0003f0 26 0a 05 3d 66 a7 f7 bb fe d5 c9 bc 58 a3 c8 3c
       0.03248038 -0.0075577972 -0.024638172 0.02449195

convolutions.4.bias f4 [64]
000000 46 d7 b5 3a 75 8a 34 3d 25 1c ef bc 72 be 53 bd
       0.0013873361 0.044077355 -0.029188225 -0.051695295
000010 aa c3 4b 3c d8 d6 24 bd f2 98 a6 3c 4f a1 4e bd
       0.012436787 -0.040243953 0.020336602 -0.050446805
000020 37 22 19 3d 81 03 3e 3c fb 77 4b bd d8 33 c1 3a
       0.037386145 0.011597515 -0.04967497 0.0014740182
000030 d6 69 f7 bb 4a 2a 5c 3c b0 58 1f bd ea f9 34 bd
       -0.0075504584 0.013437817 -0.03890294 -0.04418365
000040 45 b8 31 3d 11 66 5f 3b 2d b5 05 3d 14 21 b9 bc
       0.043388624 0.0034087936 0.032643486 -0.02259878
000050 d7 70 8f 3d 2c 70 4a bc 67 27 da 3a b1 6f 24 bc
       0.07003944 -0.012355845 0.0016643823 -0.010036395
000060 6f 47 ae ba 9c ca c8 bc 23 05 7b bc 4e a9 58 bb
       -0.0013296435 -0.024510674 -0.015321049 -0.0033059898
000070 4e 86 58 bd 83 72 fc 3c 78 0c 80 3d fb 74 a3 3c
       -0.052862458 0.030816322 0.06252378 0.019953242
000080 64 22 31 bc b3 c8 ad bc 2d 19 7c bc 91 0c 41 3d
       -0.010811422 -0.021213865 -0.015386862 0.047131125
000090 3b bb b0 bc 67 59 4c bd 96 a0 59 3d 38 68 28 bd
       -0.021573653 -0.04988995 0.053131662 -0.041115016
0000a0 97 31 6b 3c fe 8d 14 bd e3 0c 6e bd 97 8b 98 3b
       0.014355085 -0.036268227 -0.05811776 0.0046553123
0000b0 78 18 b9 3c 4b 1b 89 bc 17 eb f2 3b 27 f4 57 3d
       0.022594675 -0.016736647 0.007413279 0.052723076
0000c0 13 8d 22 bd 92 28 bc bc ca de 0c 3d 7c 34 f1 3a
       -0.03968532 -0.022968564 0.034392156 0.0018402482
0000d0 53 38 28 3d b9 6b 8f 3b 10 5a 25 bc d3 e0 60 bc
       0.04106934 0.004376855 -0.010092273 -0.013725477
0000e0 c7 57 0a 3c 27 48 e2 3c 4d b1 17 bd 32 f3 4b 3d
       0.008443779 0.027622296 -0.03703432 0.049792476
0000f0 c0 25 0a 3d fd 03 be 39 3b 82 17 bc 6a 45 92 bc
       0.033727407 0.00036242596 -0.009247358 -0.017855365

convolutions.6.weight f4 [64, 64, 3, 3]
000000 ee c9 0b 3d 46 3e f8 3c 4a 49 62 3c 58 29 fc 3c
       0.034128122 0.030303132 0.013811419 0.030781433
000010 af c4 2b bc d6 9f 02 bd 83 5c 3f 3c c4 fb 3a 3d
       -0.010483905 -0.031890713 0.011679771 0.04565026
000020 a0 d8 6b 3b 21 d4 fa bc 09 43 11 3d bf ea d5 bb
       0.0035987273 -0.03061873 0.03546432 -0.006528228
000030 92 27 d6 3c 2a 45 6c bb 7e ac 7c 3c 45 75 b8 3c
       0.026141915 -0.0036051967 0.015421985 0.022516856
000040 74 29 92 3c 33 24 36 3d 48 e0 28 bd b1 8f 39 bc
       0.017842032 0.044468116 -0.041229516 -0.011325763
000050 b7 b5 bd bb ba 03 a1 3c 54 08 b6 3c 28 3c 8c 3c
       -0.0057894844 0.019655097 0.022220768 0.017118528
000060 d3 97 bf bc 55 f7 b1 3c d8 83 11 3d 33 04 50 3b
       -0.023387825 0.021724382 0.035526127 0.0031740784
000070 07 e6 01 bd 19 9e 83 3c 0d dc ac bb d9 db bd 3c
       -0.03171351 0.016066598 -0.0052752555 0.02317612
000080 4a 90 87 3c 88 f0 0a bd 2b 38 12 3d 3c dc f4 bc
       0.016548295 -0.033920795 0.035698097 -0.029890172
000090 83 84 fc bb 82 46 b8 3c fe c5 13 3d 02 55 27 bd
       -0.0077062263 0.022494558 0.036077492 -0.040852554
0000a0 d9 3d 5e bc 7d 3e 0f 3d b9 4c 6b bc 2b b2 f6 bb
       -0.01356455 0.034971703 -0.014361554 -0.0075285635
0000b0 0b a6 21 3c 2f d2 53 3c f3 4e 2b 3c 2e 24 af bc
       0.009866248 0.01292853 0.010455835 -0.021379557
0000c0 92 f5 47 3c 76 89 46 bc ed 87 18 bd 8c 0f f4 3c
       0.012204545 -0.012117734 -0.037239004 0.02979257
0000d0 ab 64 b4 bc cf a0 71 bc 2c 6e 93 3c 02 f6 43 3c
       -0.022020658 -0.014747812 0.01799687 0.011960508
0000e0 3b 1e 81 bc d6 0a 1b bb 91 98 0a 3d d2 32 00 3c
       -0.015761485 -0.0023657582 0.033836905 0.0078246165
0000f0 41 2e 20 bd c6 bd 8b bc 5f 65 0b 3d 97 e8 3f 3c
       -0.03910661 -0.017058264 0.034032222 0.011713169
000100 68 72 2b 3d dc 5c 33 3d cd 59 f0 bc 7b 32 06 bb
       0.041857153 0.04378973 -0.029339695 -0.0020476866
000110 96 17 25 3c ae 40 ac 3c d8 bf eb 3c b1 39 f5 bc
       0.010076424 0.021026935 0.028778002 -0.029934736
000120 b4 fe b9 bc d3 97 0e bd 36 21 d3 bc b7 e1 3c bc
       -0.02270446 -0.03481276 -0.025772672 -0.011528424
000130 eb 3a 74 bb d0 cf 11 3d aa 5d 13 3d 78 19 21 3d
       -0.0037266563 0.035598576 0.035977997 0.03933093
000140 5b 42 e9 3b 13 fe 18 3a 50 82 08 bc 32 03 e6 bb
       0.007118506 0.00058362 -0.00833185 -0.007019424
000150 4c 36 e7 3c 3c 77 2f 3d e5 93 01 3d e2 21 eb 3c
       0.028224133 0.04283832 0.031635184 0.02870268
000160 c3 c7 e7 3b 8d 1f fe 3c 27 28 94 bc 25 aa fd bc
       0.007073374 0.031020904 -0.018085552 -0.03096492
000170 2d f2 0d bd c1 51 23 3d 2b 97 09 bd ec e6 a5 3c
       -0.034654785 0.03987289 -0.03359143 0.020251714
000180 6e fa ce bc f6 9e 14 3d 05 9d a7 ba 5d c3 d3 bc
       -0.025265899 0.03628441 -0.0012787884 -0.025849992
000190 2c 28 e2 3c 9a 9c 13 bc 53 f1 b0 bb 61 c7 14 bd
       0.027607046 -0.009009505 -0.005399862 -0.036322955
0001a0 77 f4 0f bd 62 a7 5b 3c 9e d8 18 bd cb 5b b2 3b
       -0.03514525 0.013406606 -0.037315957 0.0054430715
0001b0 07 5d 53 3a f2 47 8f bb bc bf bc 3c d6 1a 36 3b
       0.00080628734 -0.00437259 0.023040645 0.0027786992
0001c0 cd 0d 25 3d 70 89 0b bc e5 c5 0f bd e5 ea 39 3d
       0.040296365 -0.008516654 -0.035100836 0.04539003
0001d0 3e 7b 6e 3c 46 c2 43 bc 8f ad ec 3c aa 72 07 3d
       0.01455575 -0.011948174 0.028891353 0.033068337
0001e0 39 e7 b5 bc 2d 6a dd bc 02 db b7 3a 80 4a 4e 3b
       -0.022204982 -0.027028168 0.0014027061 0.003147751
0001f0 1a 43 02 3d 9c 3b f2 3c dd b8 30 3b 55 ca 97 3c
       0.031802274 0.02956944 0.0026965656 0.018529097
000200 9c 5c c0 bb 8f 9f 22 bc 82 66 f6 bc d1 87 4c 3c
       -0.005870415 -0.009925737 -0.030078176 0.012483553
000210 9c 2d 6a 3c 24 a3 16 3d 98 36 f5 3c 9b 2f d5 ba
       0.014293101 0.036776677 0.029933259 -0.0016264798
000220 ae a8 83 3c be 94 eb bb b9 c7 2d bc b4 f9 cc 3c
       0.016071644 -0.0071893623 -0.0106067 0.025021411
000230 8c aa e2 3c ef f7 a5 3c 5a 2d d1 3c 56 d4 c0 3c
       0.027669214 0.020259826 0.02553432 0.02353875
000240 15 7c 92 3a 00 cd 5d 3d a8 f6 87 bc 28 21 60 bb
       0.0011175895 0.05415058 -0.016597107 -0.003419945
000250 e1 c3 3d 3d 6d c0 0b 3d 80 e1 3a 3d c9 7e 9d bc
       0.046329383 0.03411906 0.04562521 -0.019225495
000260 44 42 85 3c 10 6c 40 3c 33 8a b0 bc ea ff 9b 3c
       0.01626695 0.011744514 -0.021550274 0.019042928
000270 e5 12 0b bd 26 80 8e bc 4c d7 18 bd 42 cf 20 bd
       -0.033953566 -0.01739509 -0.037314698 -0.039260156
000280 f3 6c 99 bc 88 d1 b0 3c 33 fb 31 bc a1 99 91 3c
       -0.018728709 0.021584287 -0.010863113 0.017773451
000290 4e 64 04 3c 0c 25 63 ba 3a 7a 00 bd 89 2f 97 3c
       0.008080555 -0.0008664883 -0.031366564 0.018455284
0002a0 d2 04 21 3d 62 a3 f8 bb fa 2a bf 3c 16 33 f7 bc
       0.039311238 -0.007587836 0.023335923 -0.030175727
0002b0 28 59 a1 bc eb 47 a0 3b f4 15 75 3c 1c b5 4e 3a
       -0.019695833 0.004891386 0.014958847 0.0007885264
0002c0 f7 be f0 bc c0 e6 f0 bc 50 29 21 3b 61 0c a7 3c
       -0.029387934 -0.029406905 0.0024591275 0.020391645
0002d0 a2 40 11 bd d9 3f 22 bd fc a3 08 3d eb 13 30 bd
       -0.03546203 -0.03961167 0.033359513 -0.042987745
0002e0 0e e4 00 3d fc 8b 12 bd 11 a6 28 bd 24 02 ed bb
       0.03146749 -0.03577803 -0.041174 -0.007232921
0002f0 8d dc 00 bd 7b d7 f1 bc c2 2d 47 bc 80 ce a5 bc
       -0.031460334 -0.029521694 -0.012156906 -0.020240068
000300 16 cb 3c 3c 50 9d a6 3c 95 57 2f 3a 88 6b 12 bb
       0.011523029 0.020338684 0.0006688771 -0.0022341926
000310 07 0f ef bc 48 31 a9 3a 5b 67 dc bc 6b c7 02 3d
       -0.02918197 0.0012908364 -0.026904752 0.03192846
000320 f0 91 63 3c 27 d9 99 3c 61 c1 57 3b da 60 b8 bc
       0.013889775 0.018780304 0.003292166 -0.02250712
000330 3e 6b 0f 39 06 b1 a7 3c d5 d3 d8 3c fd 85 9d 3c
       0.00013677494 0.020470154 0.026468197 0.01922893
000340 a1 17 d0 3c 32 3c 96 bb 1f ae cc 3c 83 2e 1e 3c
       0.025401892 -0.0045848126 0.024985371 0.009654644
000350 23 14 46 3c d4 ee 0d bd f6 80 35 bc 51 6c 04 3d
       0.012089762 -0.034651592 -0.01107811 0.03232986
000360 e9 5e 28 3c f6 fb cc b9 12 f9 1f 3d 40 20 20 3d
       0.010276535 -0.00039097638 0.03905589 0.039093256
000370 fd 25 e0 3b 5e f8 9c bc 14 66 14 3d 1a b1 18 bd
       0.006840466 -0.0191614 0.03623016 -0.037278272
000380 b0 94 0e bb 64 49 a1 bc e8 ac db bc 89 c0 fa bc
       -0.0021756105 -0.019688316 -0.026815847 -0.030609386
000390 00 5c 65 3c 1e bd 1e bd 8c 8c 96 bc 10 79 16 bc
       0.013998985 -0.038754575 -0.018377565 -0.009184137
0003a0 ce 49 79 3c bd 83 66 bc 2e 90 16 3d 5c 25 b0 bc
       0.01521535 -0.014069495 0.036758594 -0.02150219
0003b0 e4 97 08 bd 5e 9d 1a 3d e2 f7 d9 bc 6f db cf 3c
       -0.03334798 0.037747733 -0.026607458 0.025373189
0003c0 5e ce 34 bc 14 e5 2e 3d df 46 d5 bc f5 5f fb bc
       -0.01103553 0.042698935 -0.02603477 -0.030685404
0003d0 1d 0f 59 3b ad 0a df bc 0b 21 45 3c e5 f2 90 bb
       0.003312058 -0.02722677 0.012031804 -0.0044234865
0003e0 f7 5d f9 bc 18 08 c7 bc a5 86 00 3c 38 e3 05 bc
       -0.030440314 -0.024295852 0.007844602 -0.008171849
0003f0 a0 7a 2c bb a1 35 16 3d 2d 33 e3 3c 75 30 0d 3d
       -0.0026318207 0.03667224 0.027734363 0.03447004

convolutions.6.bias f4 [64]
000000 0b f8 40 ba df 9c d3 3a 17 5c 14 bd 31 39 8f 3c
       -0.000736118 0.0016144774 -0.036220636 0.017483326
000010 d1 3f 5f 3d 60 f9 20 bd 89 39 eb 3c c7 77 8c bc
       0.05450422 -0.039300323 0.028713958 -0.017146958
000020 6f c1 47 bd 7c 04 18 3d 68 10 62 3d d4 1f 98 bb
       -0.048768457 0.03711365 0.055191427 -0.004642466
000030 9d e5 0a bc dd 6d 1c bd d4 eb 9c ba 7b ed f3 3b
       -0.008477596 -0.03819071 -0.0011972138 0.0074440814
000040 82 87 5f bc 27 9b 9d bc e4 28 3b 3d 06 53 ad bc
       -0.013643147 -0.019239021 0.045693293 -0.021157753
000050 16 5e 77 bd ba 10 50 bd ad b7 24 bd a5 26 05 3d
       -0.06039246 -0.0507972 -0.04021423 0.032507557
000060 5a 75 16 bd 37 8d 19 bd e1 e5 91 ba c3 e5 9a bc
       -0.03673301 -0.03748819 -0.0011131131 -0.018908387
000070 bb 99 82 3c 74 d6 0a 3c bb c7 1f bd 6a 73 b4 bb
       0.015942445 0.008473981 -0.039008837 -0.0055069225
000080 f6 d8 d7 bc e9 89 fe bc ef 45 b7 3c 90 3a 55 3c
       -0.026348572 -0.03107162 0.022372214 0.013014451
000090 f2 c7 99 3c 4d 06 a2 3c c0 f0 24 3d 89 9f c1 3c
       0.0187721 0.019778395 0.04026866 0.023635643
0000a0 5e 7a 4a 3d 6a 2b 2b 3d c0 0c 1d bd 24 c6 17 bd
       0.049433105 0.04178945 -0.038342237 -0.037054196
0000b0 40 90 20 3d cd 64 98 bc f9 74 ba bc e6 64 a5 bc
       0.039200068 -0.018602753 -0.022760855 -0.020189714
0000c0 d5 61 e9 ba 48 56 58 3d b6 ad 20 bd a3 54 1c bd
       -0.0017805645 0.05281666 -0.039228164 -0.038166653
0000d0 d2 10 2f bd f6 fe 16 bd 45 da 73 3c 54 b7 83 3c
       -0.04274065 -0.036864243 0.0148835825 0.016078629
0000e0 38 f8 8c bc 88 c1 20 bd cc b4 58 bd 37 57 79 bb
       -0.017208204 -0.039247066 -0.052906796 -0.003804637
0000f0 cc 2f eb bc 28 96 5e bd e6 29 f9 3c 1c fe 6b 3c
       -0.028709315 -0.05434242 0.030415487 0.014403846
