decomposition/simple_retinex_model/weights_last.pt (torch, 668167 bytes, 24 tensors)

feature_extraction.weight f4 [64, 3, 9, 9]
00000000: 387c e93b b7b8 76bd fc0c 79bd 74f6 f3bc
00000010: e455 febc 02af c0bc c577 6f3d 8ed4 5e3d
00000020: e42d 7d3d 3cb9 823d ee2a 99bc 658b 30bd
00000030: d0ae a83b b255 2a3d bd66 3d3c d303 853d
00000040: a168 363d 1e08 963c d9a1 823d 71ae a5bc
00000050: db5c 04bd 17ae 17bd c338 1bbc a862 dd3c
00000060: d70c 5ebd d0c5 27bd 7681 423d a1af 09bd
00000070: f0bc 673d b919 ac3c 12f8 0abd 3703 813d
00000080: b214 daba 08e8 66bd b5f6 7bbd c6ae f93c
00000090: 083b 033d fb2b ba3c 549b 84bc 3274 163d
000000a0: 8fdc 4fbd 6d8b b63c 987c 0ebc f209 21bd
000000b0: ebb1 103d 8bee 5f3d 48b3 0f3d a6ea 2d3b
000000c0: ec4f 11bd 9d55 163d e20e 61bc 2da0 39bd
000000d0: 05a7 4bbd 93fd 593d 1b5e 1cbd edf3 dfbc
000000e0: 1f38 c23b ed1f 6a3d 89e0 63bd b3b8 0e3c
000000f0: 3044 8e3c d64a ab3c 3dc3 b7bb ae22 acbb
00000100: 77a4 643d 996b 18bd 937e fb3c c440 aabc
00000110: 62bd 86bc c426 e2bc b2da 65bd 33a8 df3b
00000120: 7724 393d 2dbf f23c 99a4 273d 9609 6bbd
00000130: 55b0 58bd 0cd1 a1bc 6a54 f4bb 5f2a 8dbc
00000140: 928b 103d 8b4e 0bba 2e4b 15bd 3d67 173d
00000150: b66d 5cbd 3661 36bd aaa8 af3a 7180 e83c
00000160: e3db 34bd 451b 2d3d 9952 593d fc95 733d
00000170: 678a 443d 0c20 5b3d b7be 123d 4e08 03bd
00000180: 3be4 4c3d 04aa ebbc 4169 523d 0fa4 53bd
00000190: 7cdd c7bc d718 363a c6f7 403d ecca c83c
000001a0: c395 8dbc 520b ae3c 280e d23c c10e 613d
000001b0: b545 173c 3e16 183d b38d 42bd 533b 6bbd
000001c0: b5df 343b 5ba9 803d db4c c239 19c9 74bd
000001d0: 3f79 5c3d 6f15 5cbd f9a4 74bd a942 5d3d
000001e0: 7f3d 1dbd 2630 4b3d 2c2c 77bd f9b2 00bd
000001f0: edd0 45bd 9154 c93b 2f25 ee3c 5b00 62bd
00000200: 4f04 35bb 31f1 5f3c df3d 5cbd 7a28 793d
00000210: 346e 14bc 29d9 1a3d d10e 97bc b53b 2bbc
00000220: bd1b 00bc 3c6c a83c 02a9 30bd 3174 153c
00000230: e779 ff3b 3c88 163d 15f1 bc3c afb5 613c
00000240: be74 3dbd 8a57 983c 79da 47bd e9ef 863d
00000250: c6eb 0abd f345 f33c 7949 f9bc 3555 05bd
00000260: e273 a93c 6c12 6fbc edf5 87bc 8da9 a8bc
00000270: de2a dbbc 0b4a 9d3b a158 0fbd f96d 823d
00000280: 4faa 343d c0d2 5a3d b85a 65bd 9300 05bd
00000290: 2bbf 103d da79 cfbc 4381 813d 64f7 063d
000002a0: b87d 29bb 909a 563d f368 05bd d94b a53c
000002b0: c05e d1bc 7eac 59bd 4a70 883c 2bcf 673d
000002c0: e090 61bc 3fa4 1e39 38d7 03bd acce 953c
000002d0: 9db0 1abd 3a6d 1b3d 6456 08bd d05c 243c
000002e0: d4e5 2d3c 48c2 713d fcea 32bd 6a43 88bc
000002f0: 197c 60bd 775b a0b9 bf5f b339 370d df3c
00000300: 1a7d aebc 953a 54bb 05d3 f63c 96a4 26bc
00000310: 3395 923c 63f8 47bd fa03 3fbd 6154 b13b
00000320: 7faa 773d 7f3f 223d 0f27 afbc 11f0 75bd
00000330: 59a6 583d fa06 da3c 5781 eeba e560 373c
00000340: 7edf 783c 1106 283c 7f06 1cbd 0bcf c33c
00000350: e597 553d 00a1 96bc 17cf 063c bce2 e4bc
00000360: 4603 833b ea85 403d c128 d73c 5c1d 07bd
00000370: d0f0 01bd f4a0 173c d3ab 08bd 420d 413d
00000380: 8301 c43c 85f6 97bc 448f 373a da26 f13c
00000390: c414 543c 3890 163d 80de 16bd dc97 35bd
000003a0: 6022 5bbd 0284 5cbc f7d6 cc3c 4354 193d
000003b0: 7c6e ec3c 8558 1cbc 8bdf 2dbc ee18 9ebc
000003c0: 2e1d aebb 8970 db3c 935f 323d f3a5 3bbd
000003d0: 7adb d93b c077 593d 7cf5 823d c2ce 3ebc
000003e0: 6b52 513d 5337 3fbd 3647 0abc aba6 293c
000003f0: 5672 523d 37cf c3bc 084a 9bbc 4aab 7cbc
0.0071254037 -0.06023475 -0.0608034 -0.029780604 -0.031046815 -0.02352095 0.05846383 0.054401927
0.061811343 0.06382987 -0.018697228 -0.043101687 0.0051477924 0.04158563 0.011560139 0.0649487
0.044533376 0.018314417 0.06378526 -0.020224782 -0.032315116 -0.03703126 -0.009473982 0.027024582
-0.054211464 -0.040960133 0.047486745 -0.03361476 0.05657667 0.02100836 -0.033927985 0.06299441
-0.0016638248 -0.056373626 -0.061514575 0.030478846 0.03203872 0.02272605 -0.016187347 0.036731906
-0.05074745 0.02228328 -0.008696698 -0.039316125 0.035325926 0.05467085 0.035083085 0.0026537566
-0.03547661 0.03670274 -0.0137364585 -0.04531877 -0.04971983 0.053220343 -0.038175683 -0.027337993
0.0059271003 0.057159353 -0.055634055 0.008711028 0.017366499 0.020909708 -0.005607991 -0.0052531576
0.05582091 -0.037211988 0.030700004 -0.020782836 -0.016447727 -0.027606376 -0.056116767 0.006825471
0.04520079 0.029632175 0.040928457 -0.05738219 -0.05290254 -0.019753002 -0.007456352 -0.017232118
0.035289355 -0.0005314133 -0.03644865 0.03696369 -0.053815566 -0.0445263 0.0013401706 0.028381558
-0.044155013 0.042262334 0.053057287 0.059469208 0.047983553 0.05349736 0.03582641 -0.03199034
0.050022345 -0.028767593 0.05136991 -0.05167013 -0.024397604 0.00069464504 0.047111295 0.024510823
-0.017283326 0.021245632 0.025641516 0.05494571 0.009232928 0.037130587 -0.047498416 -0.057429623
0.002759916 0.06282302 0.00037059825 -0.059762094 0.053826567 -0.05373138 -0.059727643 0.05401865
-0.038388725 0.049606465 -0.06034486 -0.03142068 -0.04829495 0.0061441143 0.029070465 -0.05517612
-0.0027620976 0.013668344 -0.053769942 0.060829617 -0.009059478 0.037804756 -0.018439682 -0.010451247
-0.007819113 0.020559423 -0.04312993 0.0091219405 0.0077965143 0.036751017 0.023064176 0.013776227
-0.046253912 0.01859643 -0.048792336 0.06588728 -0.033916257 0.02969644 -0.030430542 -0.032551963
0.02068514 -0.014591794 -0.016596759 -0.02058866 -0.02675384 0.0048000864 -0.034996632 0.06368632
0.04410773 0.053423643 -0.05599472 -0.03247125 0.035338562 -0.025326658 0.06323483 0.032950774
-0.0025862288 0.052393496 -0.03257079 0.020177769 -0.025557876 -0.053143017 0.016655106 0.056594055
-0.013767451 0.0001512924 -0.03218767 0.018287025 -0.037766088 0.037945963 -0.033285514 0.010031894
0.010613877 0.05902317 -0.04368113 -0.016633708 -0.05480585 -0.00030585725 0.00034212877 0.027227981
-0.021299887 -0.003238355 0.030129919 -0.010171076 0.01789341 -0.048820864 -0.04663465 0.00541167
0.060465332 0.039611336 -0.02138093 -0.0600434 0.052893016 0.026614655 -0.0018196505 0.011192535
0.015190003 0.010255353 -0.038092133 0.023902437 0.05214681 -0.018387318 0.008228085 -0.027940147
0.003998193 0.04700271 0.02626455 -0.032986984 -0.031723797 0.009254683 -0.03336699 0.047131784
0.023926502 -0.018550167 0.0007002244 0.029437471 0.012944404 0.03675863 -0.036833286 -0.044334278
-0.05349958 -0.0134592075 0.025004847 0.037433874 0.028861277 -0.009542589 -0.010612379 -0.019298997
-0.005313537 0.02678706 0.043548178 -0.04581256 0.006648478 0.053092718 0.06394479 -0.011645975
0.05110399 -0.04668362 -0.00843983 0.010354678 0.05137857 -0.023902519 -0.0189562 -0.015421698

feature_extraction.bias f4 [64]
00000000: 03e5 1e3d 862f 0e3d 9311 8ebd a802 16bd
00000010: 6b2a 7fbd 8eff b0bc edd5 aa3c aa14 3bbc
00000020: dd63 dabc 4b47 233d 2109 153d 8649 903d
00000030: 4c05 72bd d2bf 0bbd 3538 44bd f4e8 4abd
00000040: 2bc6 2b3c d3fe 1e3d 6be2 943d c0fa 6cbc
00000050: 92ad 6e3d 01fb 89bd 65a9 1dbd e330 4e3d
00000060: a35b d9bc 1ee0 c0bc 5a19 b63c 77e1 4e3d
00000070: f208 32bc 1e00 f9bc a3e6 f93c 9178 87bd
00000080: 5c60 34bb 2d8e 89bd 2bf4 023c b4cd 053b
00000090: 94dc d9bc cb42 76bc 07fa f93c 72e9 1ebd
000000a0: b870 7ebd 0010 79bd 026a 38bd ed77 bf3c
000000b0: 5342 203d b578 423d 2f94 79bd 55f5 6e3d
000000c0: fbe0 2ebd 33e5 073d 3523 6c3c 0259 78bc
000000d0: 4acb 39bd 9995 02bd 8a16 8f3d e1e5 4c3d
000000e0: 69f4 03bd e71a d13c 822f 183d 253e 7abd
000000f0: 6b89 cabc 1164 b33c d9f7 19bb 5b64 8dbd
0.03879262 0.03471329 -0.06936946 -0.036623627 -0.062296312 -0.021606233 0.02085396 -0.011418501
-0.026658947 0.039862912 0.03638566 0.070452735 -0.059087083 -0.03411848 -0.047905166 -0.049538568
0.010484259 0.038817238 0.07269748 -0.01446408 0.058271 -0.06737328 -0.038491625 0.05033959
-0.026532954 -0.023544367 0.022228885 0.05050799 -0.010866391 -0.030395564 0.030505484 -0.06614793
-0.0027523255 -0.06716571 0.0079927845 0.0020416798 -0.026594438 -0.015030573 0.03051473 -0.03879685
-0.062119216 -0.060806274 -0.045022972 0.023372615 0.03912575 0.047478396 -0.060932335 0.058339436
-0.042695027 0.033177566 0.014412691 -0.01515794 -0.045359887 -0.03188095 0.06986721 0.050023917
-0.03221551 0.025525523 0.037154682 -0.061094422 -0.02472373 0.021898301 -0.0023493676 -0.06903907

convolutions.0.weight f4 [64, 64, 3, 3]
00000000: 61b8 843c 32c9 ac38 1293 79bc a7a2 f63b
00000010: 45b2 fdbc 4f2e 80bc 33dd 3f3d 206a e3bc
00000020: 9ebf 04bd 8bfb ba3c e6b5 e23b 707e 463c
00000030: 4177 10bd d3c7 d93b d29b 113b 3433 0ebd
00000040: 75a8 5dbc c6a2 b4bc c9cb 1bbd 8e12 3dbd
00000050: 4ce2 d73c 6712 e5bb 049f 863c 969e d93c
00000060: 0de8 9d3b 208d 40bc 621f 15bd 3026 dbbc
00000070: 0f92 23bd 205f af3c bec5 cabc 6b42 733c
00000080: 72a8 10bd 772d 8f3c a2f1 703a d075 7b3c
00000090: 1730 033d 230a 113d 5065 a83c 221e 093c
000000a0: d58b 08bd d2a6 04bd d752 88bc 953b 413b
000000b0: 1957 e13b 4d28 6bbc adb8 1bbd 859f a5bc
000000c0: 31c7 ff3a 2fe1 8a3c cebd 3a3b 0164 8ebc
000000d0: 5ebe 733c 1ffe a4bc b4b8 b2bc f843 bebc
000000e0: 4abd a9bc 26e0 0a3d 4d9b 6ebb cb9b c23c
000000f0: 967d 8d3b b936 1a3d 265f 0f3d cca3 a2bc
00000100: 2394 05bd 2f1a 393d 3920 b1bc fb62 653c
00000110: 4e4f b8bc af7f 8f3c fc0e 63bb 4733 cebc
00000120: c482 e73c 7ba1 e03c 50ba c4bc c92a 15bc
00000130: aa44 0c3b bd30 2cbd 73c3 cc3c a7ed f9bc
00000140: c343 0abd d63f 02bd 8051 0dbd dbf0 c33c
00000150: e8a8 0d3d 8eb2 f23c d755 3ebc 022e f1bc
00000160: 41e3 e2bb 1ed1 4ebc 4fe6 0fba 29b9 913c
00000170: ff07 a8bc 2e02 d73c 9ef1 cbbc 6ed1 633b
00000180: 5c42 b2bc fa13 1e3d 8bc5 9c3c 1072 54bc
00000190: 9e6a 1fba 3de1 383c d60b 933c 46a1 ab3c
000001a0: c90b 0cbc d3bc b13c e176 1abb acd0 a33a
000001b0: ab9f 27bd b9c5 93bb 2b1a d13c 7f85 f6bc
000001c0: 8f17 d6bc 1a6c 38bd 4fdd dc3c e211 31bd
000001d0: 5746 2abd 4604 1bbd dcc9 a03b d338 be3b
000001e0: c4e8 433c c497 92bb a96b 8cbc e95d 593b
000001f0: d540 103d b9cb 47bc b86f 27bd d019 a4bb
00000200: 0f48 1fbd 5057 0dbd 5eeb 7d3c 5ae3 22bd
00000210: 31ef 9dbc 32bb 043d b85c a4bb e0a3 71bb
00000220: 5890 9c3c b5e1 033c 89ea c63b eef7 91bc
00000230: e29c cd3c d688 823b 4d85 38bd 61f8 05bd
00000240: 8997 373c 02eb 1a3d 4a4c be3b b83a a6bc
00000250: c2e7 063b dfc9 133d d861 cc3c 8501 6a3b
00000260: 675b 2b3c bde9 d4bc ad15 d73c 3e61 063c
00000270: 8137 8bbc 8b9b b8bb 679a 89bc ec7b 1c3d
00000280: 42f5 68bc 72e9 733c a136 cd3c e5ec b63c
00000290: 34af b13c 781b a7bc bb24 363d 6ee3 5ebc
000002a0: 705e 023c b85f ff3c 8fd8 063d 8336 7abc
000002b0: 8831 80bc e18c 1c3c 5307 823c f8ab 9f3b
000002c0: cd0e 9e3c 5c76 073d d454 34bd ee5f c73c
000002d0: c92f ccbc 88a3 753b d48c 80bc 2b5e 0abd
000002e0: 38d5 2f3d 0287 1b3b 06b7 01bd 9076 50bc
000002f0: aba7 7eb9 87eb 75bc 3e8c 22bd 93ee 41bc
00000300: 66e1 7fbc 5190 00bd e7a0 8ebc 25f2 f5bc
00000310: ef34 9fbc e44c c03c 4625 8d3c d5f6 8ebc
00000320: f3d6 0f3c 7732 b2bc be0c 0bbb 242f 82bc
00000330: 79d9 0abd 3621 3abd a16b 94bc d914 0dbc
00000340: d5af 103d af4e af3c 5624 40bc ac2d 063d
00000350: 50d1 193c 344a b03c 8fb3 0fbd bad0 d53c
00000360: ab1f fd3c 8133 35bd 6652 30bd 49c3 19bc
00000370: 8d38 84bb 5888 953c 2929 efbc 6fc2 13bc
00000380: b5b4 a13c 097f 6dbc a4c8 25bd acfa 8c3c
00000390: 9e60 13bd 8f95 a6bc 85e1 2b3c e075 f03c
000003a0: cd4e f0bc 39ee 933c bda3 853c 2094 1c3c
000003b0: c60a 6cbc 3342 ccbc 8424 c9bc 2a65 1a3d
000003c0: 37cf bf3b d604 b83c 33f7 5cbc e909 373d
000003d0: 7615 d03c 9253 f73c 6078 b7bb dcfa c6bb
000003e0: 8d28 a4bc 4356 9d3b e88b 013d ce86 fc3c
000003f0: 2ceb 87bb 54fa 8b3b 54e2 673c b51c 35bd
0.0162012 8.239075e-05 -0.015232818 0.007526714 -0.030968795 -0.015647082 0.04684181 -0.027760565
-0.032409303 0.022825023 0.0069186566 0.012115106 -0.03526998 0.0066461354 0.002221812 -0.0347168
-0.013528933 -0.022050273 -0.03803614 -0.046160273 0.026353024 -0.006990719 0.016433246 0.026564877
0.0048189224 -0.011752397 -0.036406882 -0.026751608 -0.039934214 0.021407664 -0.024752494 0.014847378
-0.035316892 0.017477734 0.00091912795 0.015347913 0.032028284 0.035410058 0.020556122 0.008369001
-0.03333648 -0.032385655 -0.016641064 0.0029484977 0.006876838 -0.01435287 -0.038017917 -0.020217666
0.001951432 0.016953079 0.002849448 -0.01738167 0.01487693 -0.020140706 -0.021816589 -0.02322577
-0.020720143 0.03390517 -0.0036408484 0.023755929 0.0043179495 0.037649844 0.03500285 -0.019853495
-0.032611977 0.045190986 -0.02162181 0.01400065 -0.022498753 0.017516939 -0.0034646383 -0.025170935
0.028260596 0.02742075 -0.024014622 -0.009104439 0.0021403232 -0.042038668 0.024995541 -0.03050883
-0.03375603 -0.03179916 -0.034501553 0.02391856 0.03458491 0.029626157 -0.0116171455 -0.029440884
-0.0069240634 -0.0126231 -0.0005489336 0.017788487 -0.020511625 0.026246157 -0.024895485 0.003476228
-0.021760158 0.03859327 0.019137165 -0.012966648 -0.0006081256 0.01128417 0.01794998 0.020950925
-0.008547732 0.021696484 -0.0023569393 0.0012498102 -0.040923756 -0.0045096544 0.025525173 -0.030092953
-0.02613428 -0.04502497 0.026960997 -0.043229945 -0.041570988 -0.037845872 0.004906876 0.005805114
0.011957351 -0.0044736583 -0.01714118 0.0033167547 0.03521808 -0.012194567 -0.040878028 -0.00500796
-0.03888708 -0.034507096 0.01549801 -0.0397676 -0.019279094 0.032405086 -0.0050159357 -0.0036871359
0.019111797 0.008049418 0.0060704392 -0.017818417 0.025099222 0.0039835973 -0.045049 -0.032707576
0.011205562 0.037821777 0.005807434 -0.020291671 0.0020584916 0.03608119 0.024949 0.0035706472
0.010458804 -0.025990361 0.026255453 0.008201895 -0.01699424 -0.0056337765 -0.016797258 0.03820412
-0.01421863 0.014887201 0.025050463 0.022329757 0.021689989 -0.02039884 0.044468623 -0.013604028
0.007957086 0.031173572 0.03292137 -0.015271786 -0.015648618 0.0095550725 0.015872633 0.004872795
0.019294167 0.03307186 -0.04402621 0.024337735 -0.02492513 0.0037481505 -0.015692152 -0.03378121
0.04292795 0.0023731594 -0.031668685 -0.01272358 -0.00024285789 -0.015009767 -0.039684527 -0.011836666
-0.015617704 -0.03138763 -0.017410709 -0.03002269 -0.01943442 0.023474164 0.017229687 -0.017451683
0.008779275 -0.02175258 -0.0021217312 -0.015891619 -0.033898804 -0.04544183 -0.018117728 -0.0086109275
0.035323936 0.021399824 -0.011727413 0.0327584 0.009388283 0.021519758 -0.03508335 0.026100505
0.03089889 -0.04423857 -0.04304733 -0.0093849385 -0.0040350617 0.01825349 -0.029194431 -0.009018525
0.019739488 -0.01449562 -0.04047455 0.017209373 -0.035980813 -0.020334987 0.01049078 0.029353082
-0.02933445 0.01805793 0.016313428 0.0095568 -0.014406865 -0.02493391 -0.024553545 0.037694134
0.0058535594 0.022463243 -0.013486671 0.044687185 0.025400858 0.030191217 -0.0055990666 -0.0060723852
-0.020038867 0.004801543 0.031627566 0.030825999 -0.0041479077 0.004271785 0.014153082 -0.04421683

convolutions.0.bias f4 [64]
00000000: c36a 023d 31c5 b63c 54a6 0bbd 5a12 403d
00000010: 388e d33c 7967 c7bc aa48 3a3c d75b 0bbc
00000020: 9eb6 cb3c 3bdc fcbc bb5f 0d3d 476f 093d
00000030: aa24 893b ddcd e0bc 3d85 553d 82d3 dc3c
00000040: 156c 9fbc c772 e7bc a6c8 9c3c fb13 403d
00000050: e616 b53c 52bf dabc f031 fb3c c9f6 a13c
00000060: 0611 3dbc 48d3 073d b018 36bc 7f0d 05bd
00000070: f91d 2cbd c6cc 093d 0718 5e3b ed06 9ebc
00000080: d59e dcbc 522b 3b3c 1111 acbc e042 e53c
00000090: e08b ff3b ef7d e6bc 6dcd 393d f3bd 0f3d
000000a0: acef 273c 280f 80bc df56 093b 4841 d9bc
000000b0: 61dc 07bc 5aaa c83b d83a fd3c 344e 09bd
000000c0: bfa2 d73b 4f02 163d b259 18bd 9769 0dbd
000000d0: 807a 3abb 7cfc aabc 0db7 33bb a44d fc3c
000000e0: ab11 c23c 0460 bcbc 0295 68bc 1443 d23c
000000f0: 2ff2 0f3c 8adf 893b de1f 9ebc 59fe fab8
0.031840097 0.022310825 -0.03409417 0.0468925 0.025824651 -0.024341332 0.0113698635 -0.008505783
0.024867352 -0.030866733 0.034515124 0.033553388 0.004185279 -0.027441913 0.05212902 0.026956324
-0.019460717 -0.028252972 0.019138645 0.046894055 0.022105645 -0.026702557 0.03066346 0.019770997
-0.011539703 0.033160478 -0.011114284 -0.032483574 -0.04202077 0.033642553 0.0033888833 -0.019290412
-0.026931206 0.011423903 -0.021004232 0.02798599 0.007798657 -0.028136222 0.045361925 0.03509326
0.010250013 -0.015632227 0.002095632 -0.026520386 -0.0082922885 0.006123823 0.030911848 -0.033521846
0.00658068 0.036623295 -0.037194915 -0.034524526 -0.0028454363 -0.020872347 -0.002742234 0.03079874
0.023690065 -0.022995003 -0.0141956825 0.025666751 0.008785768 0.004207556 -0.019302305 -0.00011968305

convolutions.2.weight f4 [64, 64, 3, 3]
00000000: 8081 9a3b b04c 313d be4a 0a3d 5422 033d
00000010: a8e1 cc3b 5689 9fbc b495 473c 21e6 003d
00000020: 8624 a43c 3db1 1c3c 82eb 8b3c ef5f 07bc
00000030: c2a7 b8bc 6d9c 00bd 99bf dd3c 98ca 253d
00000040: 5471 983c c679 093d ed37 893d 7d81 283d
00000050: c0bb ec3c 6ad4 a23d 5c40 e03c 0090 6e3d
00000060: 3400 ac3c 3a79 dd3c 522c 513b 9a7a 3c3d
00000070: 6818 f23c a7f0 ebbc 1657 683c 09ba b93c
00000080: ae5c 213d 82d8 3fbc e1bd a93c 0f57 04bd
00000090: ba18 393d 08e9 833c e47d 7c39 dfe6 ddbb
000000a0: 94ac 673c 01a3 2bbc 137e f43c 57ce db3b
000000b0: d1eb c13c 56ec 5bbc 52ec 68bb 7ddf 17bc
000000c0: 9f5d 653c 3cd4 31bc fadd 70bc 3a6e 06bd
000000d0: 6a84 e93c 0d3f acbc b984 05bd 223b 05bd
000000e0: 11f7 18bd e2c1 663b 9e03 b63b 94f7 18bc
000000f0: 085e 1bbd 0ab7 04bd 7378 ffbc e19b 50bc
00000100: dce5 fc3b 31ff 363d f195 823c 6e49 6cbc
00000110: 34ef 383c 876d 0fbd 6078 363d 0f33 293d
00000120: 5c4e 4b3a f95f 18bd bf59 87bc 13d4 023d
00000130: 004d cb3c 84a7 8ebc 1b90 0abd 288e 6a3a
00000140: aa6e d6bc 64d3 063c 0dc5 213d 077e 5dbc
00000150: 21af c2bb ca1d 89bc 7722 243d 83b6 c63c
00000160: 59ae 99bb fb7c ccbc 760e 0bbc 2abc e43c
00000170: 5e91 cf3c 5015 35bc be4c 1bb9 1796 6e3d
00000180: 874d 173d e21a 9ebc 0b90 bb3b 2c7e 70bc
00000190: fed7 cfbc 95c3 0d3c 9e56 d93c 5d84 04bc
000001a0: 7b55 e73c 3143 72ba 1f25 513b df54 df3c
000001b0: 93b7 703c b523 a1bc e08d f8bc 0247 063d
000001c0: 293d 00bd 7872 273c 4c75 3cbc bf64 11bd
000001d0: 036e 743b 957c 1b3d 2290 0d3b de1e 063c
000001e0: 2cde 16bd 8c0f 8bbc 188f df39 cce8 58bc
000001f0: 60dd 14bd f21b 1b3d f0d5 b8bc b653 093c
00000200: 88ea f33b 194d 82bc 5847 7dbc 2f5c c83c
00000210: ba5b f33b 7bc1 103d e1fe aebc ba9e 0c3b
00000220: d230 8bbc 0938 85bc fb4e 5ebc 0ab1 8b3a
00000230: 732a 9fbc 0018 283c 3771 1e3d a952 bb3c
00000240: 7548 12bc bb27 e5bc 26d1 583c 41ea 04bd
00000250: ce63 f739 cf76 463a 2f0b 003c 1fa4 abbc
00000260: 73c7 033d e2b4 823c 79ec ecbc e375 aabc
00000270: 567a f03b ffe6 1abd 5c6f e43c 6db9 22bd
00000280: 194e 27bc 1286 253d d169 e3bc 1463 adbc
00000290: 1ecf 9abc ba1f debc 82b3 00bd ea91 443c
000002a0: c2d7 293c f3ca 1c3d c503 963c 358a 173c
000002b0: d294 e03c 544b e63b 9d78 943c c1fb e8bb
000002c0: 7ac7 01bd d2b5 81bc eaa5 f93c 8a76 283d
000002d0: c5a1 c53c 266b 06bc 9f0c b33b abcd bd3b
000002e0: 353d e9bc cce8 03bd 1003 0d3d 6f51 99bc
000002f0: 50f7 0d3c 98d7 aa3c 2b23 16bd bb74 85bc
00000300: f518 333c e001 7bbc 8ee2 173a 62cc 73bc
00000310: 574d dfbc b726 603c 0a6f 17bb 2e9e 243d
00000320: bd07 00bd eb69 54bc 188a a4bc 8b8c 6e3c
00000330: 38ae 0abd 5016 e7bc b139 07bc 95f4 233d
00000340: c88a afbc 53a8 d4bb df8b d33b 22f2 a73c
00000350: 17c9 4dbb 5b3a 843c 8d2f 133d de65 53bc
00000360: edcc f63c da18 38bc e531 a1ba d9a5 273d
00000370: d3cb dcbc 4d38 103d a2f1 0a3d a735 0ebd
00000380: f77f 0f3d bc74 0e3c 0ffb f93c 82db cbbc
00000390: 45bf f3bc 4ee6 9ebc d820 cc3c 7c58 04bd
000003a0: 7b1a 4fbb 9e56 9ebc 5731 af3c d77f 033c
000003b0: 07f8 32bc 3460 eabc 9e77 283c a0d0 a5bc
000003c0: 633a a53c bd05 053d b4ec 9d3b c75a fc3c
000003d0: f0c8 0cbd 8227 5a3c a553 6f3c 1a63 23bd
000003e0: 74a3 9bbc b48a 0aba 2322 0abc 516e d1bb
000003f0: de11 f73c d50f fbbc 9fd3 28bc 69e0 b8bc
0.0047151446 0.043286026 0.033762686 0.03201516 0.0062524863 -0.019474667 0.012181688 0.031469468
0.020036947 0.009563741 0.017080072 -0.008262618 -0.02254093 -0.03139918 0.0270689 0.04047641
0.018608727 0.033563398 0.0670012 0.041139115 0.02889812 0.07950671 0.027374439 0.058242798
0.02099619 0.027035344 0.0031917286 0.04601536 0.029552653 -0.028801275 0.014180919 0.022671716
0.039395027 -0.011709334 0.020720424 -0.032309588 0.045189597 0.016102329 0.0002407949 -0.0067719067
0.014140267 -0.010475875 0.029845273 0.0067079472 0.023672016 -0.013423046 -0.0035541249 -0.009269592
0.013999372 -0.010853823 -0.014701361 -0.032819964 0.028505523 -0.021026159 -0.032597277 -0.032527097
-0.037344996 0.0035210778 0.0055546304 -0.009336371 -0.037931472 -0.032401122 -0.031185364 -0.012732477
0.007717831 0.044676963 0.015940638 -0.014421804 0.011287499 -0.035016563 0.044548392 0.04130846
0.0007755512 -0.0372009 -0.016522286 0.03194053 0.02481699 -0.017413862 -0.033828836 0.00089475745
-0.026175816 0.00822911 0.039494563 -0.013518817 -0.005941287 -0.016737837 0.04007193 0.02425695
-0.0046899733 -0.02496194 -0.0084873345 0.027921755 0.025337871 -0.011052445 -0.0001481054 0.058248606
0.03693917 -0.019299928 0.0057239584 -0.014678519 -0.025371548 0.008652587 0.02653056 -0.0080881985
0.028239002 -0.00092415797 0.0031912995 0.02726215 0.014692205 -0.019670347 -0.030341089 0.032782562
-0.031308327 0.010220163 -0.011502575 -0.03549647 0.0037297017 0.037960608 0.0021600802 0.00818607
-0.036832973 -0.016975187 0.00042640488 -0.013239097 -0.036343932 0.037868448 -0.02256295 0.008381775
0.00744373 -0.015905904 -0.015458904 0.024458019 0.007426706 0.035340767 -0.02136177 0.0021456913
-0.016991053 -0.016262071 -0.013568635 0.001065762 -0.019429421 0.010259628 0.03868219 0.022866564
-0.008928408 -0.027973047 0.013233459 -0.032449964 0.00047185872 0.00075708044 0.007815166 -0.020952282
0.03217263 0.015955392 -0.028921353 -0.020808166 0.0073388023 -0.03781795 0.027885132 -0.039727617
-0.010211491 0.040411063 -0.027760418 -0.021165408 -0.01889759 -0.027114738 -0.031421192 0.011997679
0.010366382 0.038279485 0.018312344 0.00924926 0.027414713 0.007028023 0.01812392 -0.0071100895
-0.031684376 -0.015833769 0.030474622 0.041128673 0.02412499 -0.008204257 0.005464151 0.00579234
-0.028471569 -0.032204434 0.03442675 -0.018715588 0.008664921 0.020854756 -0.036654633 -0.016291013
0.010931243 -0.015320271 0.0005793952 -0.014880272 -0.027258558 0.013681105 -0.0023106956 0.040189914
-0.03125738 -0.012964706 -0.02008538 0.014559875 -0.033857554 -0.028208882 -0.008253501 0.040028173
-0.02142848 -0.0064897924 0.006455883 0.0205012 -0.0031400376 0.016141107 0.03593402 -0.012902705
0.030127013 -0.011236394 -0.0012298195 0.04092965 -0.02695266 0.035209943 0.033921845 -0.034719136
0.035034146 0.008694824 0.030515222 -0.024884943 -0.02975429 -0.019396927 0.024918005 -0.032310948
-0.0031601477 -0.019328412 0.021385832 0.008026085 -0.010923392 -0.028610326 0.010282425 -0.020241082
0.020169443 0.032476176 0.004819477 0.030805005 -0.034371316 0.013315083 0.014607345 -0.039889432
-0.018998839 -0.00052849506 -0.00843099 -0.0063913246 0.030159887 -0.030647198 -0.010304361 -0.022567945

convolutions.2.bias f4 [64]
00000000: 4c7a 273d d7e9 013d 4480 82bc 17b1 083d
00000010: d81f 023a c820 e1bb e5ab 183d c727 09bd
00000020: a49f 01bc 9013 3b3d a7d7 b6bc 6b2b b4bb
00000030: 6481 203d ebb2 f53c 86fd 06bd af0c 053d
00000040: 758d 3b3a b680 55bc 583d a2bc 6c9d 17bc
00000050: ddfb e9bb e73e 2d3c cfab 2d3d e435 4bbc
00000060: d978 4bba b946 6cbc 9c6e d93c fb75 f3bc
00000070: b69e 0bbd 8bbd 903c 0953 093d c05f 0a3d
00000080: ef13 563c 2a61 1b3d 337b c73a ebef 273c
00000090: 025e 553c 6a1c 91bc 27c6 063d a060 3e3d
000000a0: 40e0 2bbc e5b0 b63c 31a8 a93b be54 263d
000000b0: 3c14 d1bb df08 d7bc d684 43bb 3b7a bd3c
000000c0: c31a 3b3d 5ec4 27bc 7523 3e3b 4de6 7b3c
000000d0: b582 a23c f402 3e3d e5ae 68bb 034e 6f3c
000000e0: e15d f13b eda2 0bbd 8cdb 573c d61e ed3c
000000f0: d85f abbc f1e7 06bd e9be a53c 8458 85bc
0.040888116 0.031717148 -0.015930302 0.03337201 0.00049638515 -0.006870363 0.037273306 -0.0334852
-0.007911596 0.045672953 -0.022319628 -0.00549834 0.039185897 0.029992541 -0.032956623 0.0324828
0.00071545626 -0.013031175 -0.019804642 -0.009253841 -0.00714062 0.010574079 0.042400178 -0.012402985
-0.0007761843 -0.0144211585 0.026542 -0.029719343 -0.034086905 0.017668506 0.033526454 0.03378272
0.013066276 0.03793446 0.0015219211 0.010250072 0.0130229015 -0.017713744 0.032903817 0.046478868
-0.010490477 0.022301147 0.0051775207 0.04060816 -0.006380586 -0.026249347 -0.0029833815 0.023129573
0.04567982 -0.010239689 0.0029012833 0.015374732 0.019837717 0.046389535 -0.0035504636 0.014606002
0.0073659276 -0.034090925 0.013174903 0.028945368 -0.020919725 -0.03293604 0.020232635 -0.01627756

convolutions.4.weight f4 [64, 64, 3, 3]
00000000: bf17 c03c aa90 1f3d 59da b73c 438c 4b3d
00000010: ed35 b33c 6376 1d3d 585f 573c 82bf 0cbc
00000020: 39b8 633c 727d 1d3d 4b57 0a3d 2373 ffbc
00000030: 8795 4c39 50ab d4bc 32e7 a6ba bc13 d53c
00000040: e989 293d 9069 0a3d 5242 e83b e8f1 703c
00000050: e61f 473d f65c 2f3d a162 cc3c c47c 323b
00000060: 7273 053d bdc7 5e3d 56fe 743c dc65 9c3c
00000070: 9586 beba decf 0e3d 98d0 9b3b 18fa 2e3d
00000080: 33e0 8bba bf58 4ebc 2dbd 09bd 58ef 06bc
00000090: 9d5f 0c3d a946 903b 3ecb 3d3c 43df d23b
000000a0: 3e67 bebc 8a8f 993b 77b0 1dbd 961e c5bc
000000b0: 891a 583c 629e aa3a 8169 823c 999f 4fbc
000000c0: 6ec8 9bbb 347d 813c 82c8 9e3c f0a3 5e3b
000000d0: e5e2 843c 7c61 443b 4c2d 07bd ef1a 183d
000000e0: b382 fc3c 7a22 e3bc 66ed 85bc 6a6b 343a
000000f0: c104 4a3c 3282 153d 8e85 8d3c 33d4 8cbc
00000100: 2b4f debc 9cc6 4abc b8f7 923c a040 3b3c
00000110: c4a3 c8ba f64d e53c 85b8 d8bc 757b a73b
00000120: b9f3 1dbd 63a7 273d db05 cc3c 3ff3 923c
00000130: 3b78 443c 2229 f63c 842c 203d 01a0 063d
00000140: 2f93 53bc 250b 9c3a 9c0d d6bc ee14 3f3c
00000150: 50db a2bc fcfd fbbc 08d2 a23c e549 db3c
00000160: 08b1 a53c b58e 233d 9680 0c3c 9eaa 0f3d
00000170: c864 8a3c 4b17 7b3c 4651 12bc b365 cb3c
00000180: 8aef db3c 76ed 96bc 4222 173d 63b4 b13c
00000190: cd20 f6bc 76ee 1cbd 73be 2bbc 7de6 543b
000001a0: e996 8abc 0965 29bd c1f5 1c3d f08d 5bbc
000001b0: 4051 da3b 0ea0 823c 46f1 c23c 852e bc3c
000001c0: 60d7 b6ba a2e9 6d3c 9ae1 c43b 520d e33c
000001d0: aba8 e53c 5eea c53b ec2b 03bd d50d f6bc
000001e0: fcb3 363d db5d a0bc 4767 bcba 4666 a2bc
000001f0: 748a e6bc 2ee9 81bc 5f55 dbb7 99f1 3a3c
00000200: 9d33 203d 77f8 be3c 1ff1 d9ba 78df 193d
00000210: c1c3 20bd 12cf 973c 98ea 243d 63fc fa3c
00000220: 4838 edbc 2fcb 1fbb 41ad f9bc 0341 133d
00000230: 1fec 87bc ef1b e2bb 6a4d 723b ed79 aeba
00000240: 1449 06bc 8be9 ebbc 9066 0c3d d890 4fbb
00000250: fe24 0bbd 9663 9abc 0440 da3c b41e 02bd
00000260: 9b7f fe3b 1ed0 dabc 6f28 aabc eb9d febc
00000270: 13de dbbc fd28 5fbc dc0b c83b c986 793b
00000280: fc80 a1bc c949 423c 879a febb 0ff7 b43b
00000290: 951c cd3a 04c2 52bc 9147 af3b b5f0 5b3c
000002a0: 8d3c f53c 9268 e63c fa92 de3c a51c 97bc
000002b0: 30db e43c f62d 2dbc cb3e 1d3d 3dfe aebc
000002c0: 37f0 68bc e766 f7bc 54cd e23c 5f54 0dba
000002d0: 665d 2b3d be4e 8d3b ba93 fb3c a421 88bc
000002e0: d012 bb3c f4ad 7b3b 15fa a63c c3ea 0fbd
000002f0: b984 b7bc f9e1 2a3c 6e06 083d bb6b 0abd
00000300: 2049 9ebc a257 ed3c 22bc d03c abdd 1e3c
00000310: a755 11bd 4904 103d 4f59 f8bb 3cfb c23c
00000320: ac47 2f3d 5694 0b3c ec31 f43c 656f ddbb
00000330: c465 c03c 9f53 363c 5442 273d 0976 16bd
00000340: ef22 53bc 00fd de3c ca84 a1bc 9620 cd3c
00000350: f48e b3bb 0746 9a3c 2524 81bc 3a28 f63b
00000360: 5116 123d 6b06 263c 95b0 06bd b5b2 92ba
00000370: ec3a ecbb e2b1 fbbc dcf3 00bc fe5e 083d
00000380: e4de ae3c cb28 1dbd 1e67 0bbd 81c1 93bc
00000390: f276 03bd c819 dc3c 7f98 31bc e605 8bbc
000003a0: 9e3f 183d d102 13b9 7d17 333c 2d30 b5bc
000003b0: 6452 673b 95f5 92bc 258d c1bc 30e4 8e3b
000003c0: 3b1d e5bc b7f7 9d3c cf46 87bc 8a34 0ebd
000003d0: 7c3d 853b 737c da3c 0946 bc3a 40f0 f2bc
000003e0: 9607 8c3c a260 393c 3bef e83c 2e52 cabb
000003f0: 034d 913c 9ab3 80bc 2c2a 2bbd 9b43 f33b
0.023448823 0.03895632 0.022442983 0.04969431 0.0218763 0.03844298 0.01314529 -0.008590581
0.013898903 0.038449712 0.033774655 -0.031182831 0.0001951066 -0.025960594 -0.0012733696 0.026010387
0.041391287 0.03379208 0.007087984 0.014706112 0.048614405 0.042813264 0.024949374 0.002723501
0.0325808 0.054389704 0.014953217 0.01909154 -0.0014535958 0.034866206 0.004755091 0.042718977
-0.0010671675 -0.012594401 -0.033627678 -0.008235775 0.03427087 0.0044029546 0.011584101 0.0064353063
-0.02324259 0.0046863006 -0.038498368 -0.024062436 0.01318992 0.0013017172 0.015919449 -0.012672328
-0.0047541177 0.015806772 0.019382719 0.0033972226 0.016221473 0.0029965332 -0.033002183 0.03713506
0.030824041 -0.0277264 -0.016348552 0.0006882461 0.012330235 0.036501117 0.017275598 -0.017191028
-0.02713736 -0.012376454 0.017940387 0.011428982 -0.0015307595 0.027991276 -0.026455173 0.005111153
-0.03856251 0.040931117 0.024905136 0.017938254 0.011991556 0.03004891 0.039104953 0.032867435
-0.012913509 0.0011905177 -0.026129536 0.011662705 -0.019879967 -0.030760758 0.019875541 0.026768634
0.020226017 0.039931018 0.008575579 0.035074823 0.01689376 0.015325378 -0.00893051 0.024828767
0.02684762 -0.018423777 0.036897905 0.02169246 -0.030044938 -0.03831335 -0.010482418 0.0032486015
-0.016917663 -0.04135612 0.038320307 -0.01340054 0.006662518 0.01594546 0.023796689 0.022971401
-0.0013949685 0.014521034 0.006008339 0.027716313 0.028034529 0.0060399016 -0.03202431 -0.030035893
0.04460524 -0.019576004 -0.0014374041 -0.019824158 -0.028142191 -0.015858259 -2.6146588e-05 0.01141014
0.039111722 0.023311837 -0.0016627646 0.037566632 -0.039249185 0.018531356 0.04026279 0.030637925
-0.028957501 -0.0024382581 -0.030478122 0.035950672 -0.016592083 -0.0069003026 0.0036972412 -0.0013311483
-0.008196134 -0.028797885 0.0342775 -0.0031672027 -0.033970825 -0.018846314 0.026641853 -0.031767562
0.0077666766 -0.026710566 -0.020771233 -0.03108116 -0.026839292 -0.013620612 0.0061049294 0.0038074723
-0.019714825 0.011858412 -0.007769886 0.0055226157 0.0015648777 -0.01286364 0.0053491076 0.013424088
0.0299361 0.028126035 0.027169693 -0.018446276 0.027936548 -0.01057004 0.038389962 -0.021361465
-0.014217428 -0.030200435 0.027685799 -0.00053912954 0.04183712 0.0043123653 0.03071009 -0.016617604
0.022836119 0.0038403245 0.02038292 -0.035135996 -0.022402154 0.010429853 0.033209257 -0.033794146
-0.019321978 0.02897245 0.025480334 0.009696404 -0.035482075 0.035160337 -0.007579006 0.023801439
0.04279296 0.008519253 0.02980896 -0.006757664 0.023486026 0.011128335 0.04083474 -0.03673366
-0.012886747 0.02722025 -0.01971664 0.025039952 -0.005479688 0.01883222 -0.015764305 0.0075121196
0.035665814 0.010133366 -0.032883245 -0.0011192175 -0.0072091725 -0.03072447 -0.007870641 0.033293717
0.021346517 -0.03836898 -0.034033887 -0.018036606 -0.032095857 0.026867762 -0.010839581 -0.016970586
0.037170045 -0.00014020062 0.010930893 -0.022117699 0.0035296911 -0.017939368 -0.023626873 0.004360698
-0.02796804 0.019283159 -0.016513256 -0.034718074 0.0040661674 0.02667067 0.0014364134 -0.029655576
0.017093461 0.011314543 0.028434386 -0.0061743474 0.017736917 -0.01571064 -0.041788265 0.0074238307

convolutions.4.bias f4 [64]
00000000: 4c69 23bc c41b dbbc 4127 3a3c 8d81 463d
00000010: ea8c 2b3d 2e0a c1bc a7fb 80bc b3ff b5bc
00000020: 5f56 583c d069 b9bc 87a6 c93c fcea a6bc
00000030: 114c 15bc 5fce 073d 9345 93bc 4c36 5ebc
00000040: 626f f6bb cf55 78bc 0525 1cbd cff4 173b
00000050: 1fd8 bcbb 1d65 143d d7ca 063d 2785 283c
00000060: c685 10bd d6da f1bc 02e5 28bd 0653 0ebd
00000070: 36e8 d73c 50b5 c13c 9050 1ebd e573 853c
00000080: fe84 bebc 839b 993b 0a3d aebc afea 503d
00000090: 5f4d 443d 2419 193c f901 013d a599 093d
000000a0: f28c 8cbc 6c07 cb3b a71c 01bd 6745 aeb9
000000b0: 1db3 bb3c 82ce a63c 79dd 81bc 508f 183d
000000c0: 0c0e c1bc b0bf acbc 5450 88bc bb15 843c
000000d0: 6e0c b8bc 82ca f33c ee3d 8a3c fde3 88bc
000000e0: 99a0 033b 2175 933c da63 25bd 6172 86bc
000000f0: 49de 54bc d324 3fbc af6e aebc 2210 bcbc
-0.009973835 -0.026746638 0.011361898 0.048463393 0.041882433 -0.023564424 -0.015744997 -0.022216653
0.013204186 -0.022633463 0.02461554 -0.020375721 -0.009112374 0.033155795 -0.017977512 -0.01356275
-0.007520602 -0.015157177 -0.038121242 0.0023186689 -0.0057630683 0.03622924 0.032908287 0.010285652
-0.035283826 -0.029523294 -0.041234024 -0.034747146 0.026355844 0.023646027 -0.03865105 0.016290614
-0.023256775 0.004687728 -0.02126934 0.05100506 0.04792535 0.009344373 0.031496022 0.033593792
-0.017157052 0.006195953 -0.031521466 -0.00033239575 0.022912556 0.020362142 -0.015852677 0.03724605
-0.023566268 -0.021087497 -0.016639866 0.016123643 -0.022466864 0.02975965 0.016875234 -0.016710276
0.0020084737 0.018000187 -0.04037843 -0.016411962 -0.01299245 -0.011666494 -0.021293012 -0.022956911

convolutions.6.weight f4 [64, 64, 3, 3]
00000000: 2b47 0cbd dc4b 0c3d 8f6d b13c 0dc5 0ebc
00000010: 8d10 153d 35a9 223d e251 c5bb de89 1c3d
00000020: 95a5 57bc 0553 0bbc 81ea d13c df08 1c3d
00000030: 939a e3bc eb71 7cbb dbbe 473c dee2 13bd
00000040: fa58 12bc 5de1 abbc c5e4 1ebd 2c80 ee3c
00000050: 9190 b1bc 18dc fbbb a63f 873b e8f4 25bc
00000060: 80bc 1c3d 89fc 263d d955 933a d230 8a3c
00000070: fdc2 9abc 846a 063d 35a4 943c f356 ff3c
00000080: f528 ea3c 04cb 343c 8b42 bd3c 502f 2839
00000090: 20c3 9bbc 549f e1bb 2c0b ae3b 05d8 41bc
000000a0: 6780 803c 704b 073d bb74 94ba d71a 17bd
000000b0: bd53 46bc 2d79 fabc b24f 1f3b ba20 c2bc
000000c0: fe46 563c 1b0a dabb 0ee1 c3bc 7856 0fbd
000000d0: 6a4f 183c f9dc 123c 0f2c 7e3c 58f6 5a3c
000000e0: 12d5 f5bc 6b20 0cbd 055d efbb 4fbc 0b3b
000000f0: 4212 bc3c 059c 09bd 0f7e 12bc 38f2 f63c
00000100: 5417 12bd 6e4c 9bbc 1be4 8cbc fbb5 be3c
00000110: 9760 0d3d 0e26 1bbd 132c f83c b3c1 f63c
00000120: 6318 db3c 86f9 fabc 332e ed3c 3e98 efbc
00000130: 46bc fabc 8bde 993b eac5 06bd 46ad 24bc
00000140: 5b31 2a3d f755 633b c8f3 c6bb a934 bc3b
00000150: d954 fabc 41db 203d cb1f 14bd 9192 f53c
00000160: d9da 883c d82b a4bc bcdd a63c c23f edbc
00000170: 8bc1 383c 423c 29bc 7511 a43c bca3 fc3c
00000180: b2a3 26bc 33fe 58bc e0f6 a0bc ab6c b4bb
00000190: 98eb 153d 0bac d23c b6da 623c 6f9d 233d
000001a0: 667e 2a3c 9639 153b 3b44 2bbc 0b3f 50bc
000001b0: 1fab c0bc da64 ae3b 4314 22bd bf48 acbc
000001c0: 689d 2a3c 3886 3dbc 3da2 0abb 0e2f 1e3d
000001d0: 8afc 7c3a 2654 0b3d 0913 983b c6c5 d6bc
000001e0: f9f8 f0bc 0878 03bb 2b14 623b b6e4 b7bc
000001f0: a453 19bd 9e29 123c 4036 7ebc f8db ff3c
00000200: b6c3 cb3b b642 9f3b e65d 593c 7bac 9abc
00000210: a063 f93c b680 6fbc 961c 2c3b 203f 243d
00000220: 60aa 1f3c 3070 943c b664 f7bb ee94 98bc
00000230: 76be d4bb ab92 6bbc 38f9 153d 0b8e 003c
00000240: cefa a2bc 3a49 193d 4016 90bb 2bd3 e8bc
00000250: 9b4a 253d 869a f03c 1079 6bbc ab2b 253b
00000260: b8e0 1abd c68b 49bc a016 503c 43d5 8f3c
00000270: 4b0b 003d 0b52 973b 4b40 8dbb cbe3 a5bc
00000280: dbf0 a03c e891 ce3c 9384 b43c 1796 443c
00000290: aa89 2a3c 1f60 193d 01ad b8ba fcd5 b13c
000002a0: 2d26 a53b b0ee 11bb 671b 1abc f663 9d3c
000002b0: f686 243c aae8 0dbd a8b2 0a3d e239 1fbd
000002c0: fbc8 bc3c ee03 24bd 76a9 d33b 6f09 053d
000002d0: f69a 853c 504a 1a3b a126 693c bcee ccbc
000002e0: 53d7 ad3c df6d 0b3d 8682 90bc c9fe 3a3c
000002f0: ec92 05bd 5140 21bd a254 09bd f10c cc3c
00000300: e8c9 1e3d 948f 19bd 32bc 763a 294f e23c
00000310: ef29 1abd 8f9c 0b3d 924f 98bc 9e78 8f3c
00000320: 0771 23bd b3e0 d73c 8155 ecbc 6493 53bc
00000330: 7ff3 97bc 654f ab3c 0e07 c33b 902b 633b
00000340: 2bcc 8abc 10ad 1d3c 8caf 0c3d 42c0 1e3b
00000350: ba51 883c ddd4 bc3b 46ae 0f3d d327 91bc
00000360: 73d4 8a3c 3b92 dbbc 103d d83c 06e7 95bc
00000370: 4096 5cbc 46d5 a73c 4e88 e93c 9660 a63c
00000380: d07f a1bc 22fd 1abc 9cff 4ebc 0b24 f2bb
00000390: 8bb3 c6bc 9f78 ddbc 1b6f a43b 9aac 5bbc
000003a0: a15a d73c a62a fc3a 21af 0a3d 749a 193d
000003b0: 8dd9 17bc 4430 533c e905 f6bc d14a 2fbc
000003c0: 363e e5ba da60 b03c f39b 8fbc 6610 7c3c
000003d0: 66e0 253d 4abe 25bd 20c0 fbbc abcb 5cbc
000003e0: bb51 3cbc fc4d 153d e855 eabc 5e20 e43c
000003f0: e19e d5bc 3e50 f23b 4f0f a53b f084 29bd
-0.03424756 0.034252033 0.021658687 -0.008713973 0.036392737 0.03971215 -0.006021724 0.038217418
-0.013162036 -0.00850368 0.025624515 0.038094398 -0.027783668 -0.003852005 0.0121915 -0.03610503
-0.0089323465 -0.020981485 -0.03879239 0.029113851 -0.02167538 -0.0076861493 0.0041274605 -0.010129191
0.038265705 0.04076818 0.0011240795 0.016868982 -0.018891806 0.032816425 0.018144706 0.03116939
0.028583983 0.011034731 0.02310302 0.00016039354 -0.019013941 -0.0068854485 0.0053113904 -0.011831288
0.015686227 0.033030927 -0.0011326292 -0.03689083 -0.012104926 -0.03057536 0.0024308977 -0.023697246
0.013078449 -0.0066540367 -0.023911025 -0.034994572 0.009296278 0.008963817 0.015513434 0.013364397
-0.030008826 -0.034210604 -0.00730479 0.0021321957 0.022957925 -0.033596057 -0.0089411875 0.030144796
-0.03566678 -0.018957343 -0.017198613 0.023280134 0.034515943 -0.03787809 0.030294454 0.03012166
0.026745027 -0.03063656 0.028952694 -0.0292474 -0.030607354 0.0046957186 -0.03290359 -0.010051077
0.041550975 0.003468869 -0.0060715415 0.0057435823 -0.030558037 0.039271597 -0.036163133 0.029977115
0.016705917 -0.020040438 0.020369403 -0.028961066 0.011276613 -0.010329308 0.020027855 0.030839793
-0.010170864 -0.0132442 -0.01964897 -0.0055061183 0.036601633 0.025716802 0.01384609 0.039945062
0.010406112 0.002276992 -0.010453279 -0.012710343 -0.023519097 0.005322081 -0.039570104 -0.021030782
0.010413505 -0.011567645 -0.002115383 0.038619094 0.00096506684 0.034015797 0.004640941 -0.026217353
-0.029415594 -0.0020060558 0.0034496884 -0.022447925 -0.03743328 0.008921055 -0.015515864 0.031232819
0.006218399 0.0048602475 0.013267016 -0.018881073 0.030443013 -0.014618089 0.0026262156 0.040099263
0.00974521 0.018119901 -0.0075498475 -0.018625703 -0.0064924313 -0.01437823 0.036614627 0.007846366
-0.019894984 0.03742335 -0.0043971837 -0.028421005 0.040354352 0.029370558 -0.014372125 0.002520303
-0.037811965 -0.012301391 0.012700707 0.017557746 0.03126077 0.0046179346 -0.004310643 -0.020250222
0.019646099 0.025216058 0.022035873 0.011998675 0.010408798 0.037445184 -0.0014089645 0.021708481
0.0050399513 -0.0022267513 -0.009405947 0.019212704 0.010041943 -0.034645714 0.033861786 -0.03887356
0.023045054 -0.04004281 0.0064594103 0.0324797 0.016309243 0.002354283 0.014230401 -0.025016181
0.021220839 0.034040328 -0.017640363 0.011413285 -0.03261082 -0.039367978 -0.033527978 0.024908515
0.03876677 -0.037490442 0.00094121986 0.027625637 -0.037637647 0.034084853 -0.01859263 0.01751357
-0.039902713 0.026352262 -0.028849365 -0.012913559 -0.018548725 0.020911882 0.0059517687 0.0034663416
-0.016943058 0.009623781 0.034347102 0.0024223481 0.016640533 0.00576268 0.03507831 -0.017719185
0.016947007 -0.026803127 0.026396304 -0.018298637 -0.013463557 0.020487439 0.028507378 0.020309728
-0.019714266 -0.009459766 -0.012634184 -0.0073895506 -0.024255535 -0.027035056 0.0050181276 -0.013407851
0.026288332 0.0019238784 0.033858422 0.037500814 -0.009268177 0.012889925 -0.030032115 -0.01069899
-0.0017489854 0.021530557 -0.017530417 0.015384769 0.040497206 -0.040464677 -0.03073126 -0.013476293
-0.011494095 0.036451325 -0.028605416 0.027847465 -0.026076736 0.0073948195 0.0050372253 -0.041386545

convolutions.6.bias f4 [64]
00000000: 65e0 8bbb 6511 b6bc b5f9 12bc 3140 24bc
00000010: 7592 813c cac5 aabc 8924 90bb e9eb 023d
00000020: e4f5 d43a 07d1 04bc 7bef 6fbc e14e b6bc
00000030: cb6d 893b 1d68 d2bc 32c9 80bc b5e0 183d
00000040: 4632 57bc f48d ecbc fba4 13bc 90ca 363d
00000050: a42d 153d 33b8 e6bc d768 adba 201f 0ebd
00000060: 691d 1a3d 99ed a9ba 40f6 2a3c 06fe 2f3d
00000070: 6c48 15bc 2466 7bb9 dd7d 043c 2000 493c
00000080: f9c5 9f3c 3180 06bd aa0d 60bb 1ebe a6bb
00000090: 968b 0fbb b253 00bd 6e02 5bba 692a ecbc
000000a0: 187b 9fbc 13f2 87bc bf0f 023c 2957 07bd
000000b0: 32f0 9e3c 38e7 183d f879 d23c bcfe 0a3d
000000c0: 76f8 b83c d6fd 00bc 3caa 7abc 34f9 f33c
000000d0: c565 94bc c112 1cbd 27bc 83bc 64d0 08bd
000000e0: cf64 d63c 3068 1abc 827f 29bd bdfd aabc
000000f0: 4217 57bc 3d48 b5ba 9b6b 603b fbb5 84bc
-0.0042686933 -0.022225091 -0.008970668 -0.01002507 0.015816906 -0.020846266 -0.0043988866 0.031963263
0.0016247598 -0.008106477 -0.014644499 -0.02225441 0.0041939965 -0.02568441 -0.015720937 0.037323672
-0.013134545 -0.028876282 -0.009011502 0.044626772 0.03642048 -0.028164005 -0.0013230097 -0.034697652
0.037625704 -0.0012964486 0.010434687 0.042966865 -0.009111505 -0.00023975276 0.008086649 0.012268096
0.01950358 -0.032837097 -0.0034187832 -0.0050885817 -0.0021903268 -0.031329818 -0.0008354549 -0.028828816
-0.019467875 -0.016594922 0.0079383245 -0.033042107 0.019401643 0.037329882 0.025692925 0.03393434
0.022579413 -0.007873019 -0.015299376 0.029781915 -0.018114934 -0.038103823 -0.016080929 -0.03340186
0.026171116 -0.009424254 -0.041381367 -0.020872945 -0.013128104 -0.0013830733 0.0034243825 -0.016200056

reconstruction.weight f4 [4, 64, 3, 3]
00000000: 47a7 bb3c 5c5e b93c 4f43 93ba b7a2 aa3c
00000010: ecf8 023c 5727 80bc 419c dabb e035 cabc
00000020: 6912 2f3b 2e70 f6bc 85a7 26bc 0fff be3b
00000030: 90c1 c6bb 144c e8bc e069 aa3c 595e 283d
00000040: d287 4c3b 7e72 fc3c e219 9d3c 47ec ecbb
00000050: cd43 a3bc 4c2c 8b3c 744d 0e3c 26c7 95bc
00000060: a042 d33c f085 f73c f4bf bb3c 30c0 96bc
00000070: 21ea ad3c c4ef 2f3d 4522 a2bc 69fe 20bd
00000080: 804c 37bc a687 163d 1d29 58bb 96ad c13b
00000090: 42a0 b8bc a9e5 6ebc a305 84b9 a91e c2bc
000000a0: 3cb0 36bc 5981 ed3c 3cf6 d33b 92b1 d7bc
000000b0: 25f4 ce3c 3795 08bd 93c9 0d3a 8039 293d
000000c0: c1f1 09bd 0dee 083d 1b91 bc3a 3582 5b3c
000000d0: e59f f5bc d13a a03c 2a45 bdba 4770 91bc
000000e0: 2973 043d a1ae 10bb e665 c63c e25e f5bc
000000f0: 8893 a1bc 7aba 96bc 509b acbc 58f4 c9bc
00000100: 5512 303d 373e 76bc 4db0 773c 6b7c 35bc
00000110: a84d 6a3c d55e 153d d1d8 563b 869d bcbc
00000120: 42b9 143d 4a06 983c f0b4 a4bc 8882 91bb
00000130: d79f 37bb 740f f1bb f7e8 063d a7a4 cc3b
00000140: 3a44 9cbc 5a94 5fbb be20 a8bc 0459 9fba
00000150: 9988 b4bc bda9 40bc 5b43 02bd 31fe e43c
00000160: 648b 693c 387f 13bd 15a9 aa3c b1fc 7cbc
00000170: d267 5ebc f219 0fbd 0f33 0b3d 1612 083d
00000180: 7487 8bbc c224 0eba 01a0 01bd 8d19 03bd
00000190: 1ee4 fd3b 8581 a83c 4477 033d d013 f83c
000001a0: fc4e 16bc 9c11 43bb f988 833c e0d5 1dbb
000001b0: 7027 b3bc 756c 7d3b 1c41 c1bc fcd0 44bc
000001c0: 906c 54bb 0f03 e23c 683b 7ebc 251b d63c
000001d0: 2b75 b53c f8ec cebc 3e27 4fbc 7b2d f93c
000001e0: 16de 903c 8e2c cd3c d873 22bd 4744 003d
000001f0: cc9c dd3c 36f0 0cbc f8a5 1b3d 04ff 253d
00000200: 2696 a7bc f4cd bb3c b299 173c 4046 04bd
00000210: 5229 f53b de12 2c3d 0596 103b bdb5 8a3c
00000220: 4290 003c 5843 30bd ee7e 09bb 12ac bc3c
00000230: d9ba babc 2777 0e3d 8d0d 5fbc 4698 0c3d
00000240: 127b b2bc fe6d 0fbd 3811 0c3d 05df 2fbd
00000250: 1840 dc3b bebd 2bbd 6c43 92bc 0151 1abd
00000260: b728 94bc 0d1a 233d e827 b13c 0ce0 5cbc
00000270: 8834 873a 0261 693c 4a61 2dbd 40dc 8b3b
00000280: 1119 b7bc e8c5 fe3c bc4a 0abd ec0c dc3c
00000290: cedf 1a3d e91c b2bb 7fcb 32bd 2d86 08bd
000002a0: 9371 96bc e538 74bb 74eb 0abd d2ee 1d3c
000002b0: bf04 95bc 520c 963c 82d6 873c 368d 6c3c
000002c0: 91ef ab3c 0b79 31bd 5777 5bbc 8b96 0dbd
000002d0: 8cac 173d 083d ac3a be81 033c 7c2e d9bc
000002e0: 209d 85bc 8de0 613b 56ce 9e3c b5ab 673c
000002f0: cb44 afbc 7ff6 21bd 1eb1 fabc 6a89 eb3c
00000300: b111 8a3c 38b8 b73c 37fd 813c eb94 c13c
00000310: 80a2 eb3b d72c bbbb 2297 603c a95e 583d
00000320: 3d74 843d 32ec 983c 8ecf b43b 1e8e 103d
00000330: da98 ad3d 6bb1 793d 9225 cc3b ebd5 66bc
00000340: 0b98 c03b 6b48 b93b 1708 1cbd 8b42 e03c
00000350: 78a8 11bd 4bb9 ce3c 8bd4 903b 3b96 3ebc
00000360: 4d90 2a3d cb84 0bbc d234 7e3c 814e 89bc
00000370: 63d4 d53c e439 a6bc 88bf 24bc 3400 813c
00000380: 34a5 93b9 e0e7 1a3d 7a0e 123c 6c2e edba
00000390: 96e1 86bb 772e e53c 50a1 003d d00f cbbc
000003a0: 74fb 2b3d 1b5b e03c d120 0d3d 6946 2c3d
000003b0: ac01 2cbc aaeb b93c 6d57 243c 4d4e 0c3d
000003c0: 0010 0cbd 6684 283d 985b f3bc 119c 533c
000003d0: a095 9a3b 63d3 c63b 5e4e 82bc 1d0f f83a
000003e0: 44ca f4bc f0be 1b3d 6b4c e43a e247 73bb
000003f0: f1d5 1bbd 13de e3bb 9870 16bd f4a4 17bc
0.022906912 0.022628002 -0.001123527 0.020829542 0.007993918 -0.015643759 -0.006671459 -0.024683893
0.0026713854 -0.030082788 -0.010171776 0.005828745 -0.006065555 -0.02835659 0.020802438 0.041105602
0.0031208885 0.030816313 0.019177381 -0.007230315 -0.01992979 0.016988896 0.008685458 -0.018283438
0.025788605 0.030215234 0.022918679 -0.018402189 0.021229805 0.042953268 -0.019791732 -0.039305124
-0.011187673 0.03675046 -0.003298349 0.0059105856 -0.022537354 -0.014581122 -0.00025181202 -0.02369626
-0.011150416 0.028992342 0.0064685624 -0.02632979 0.025262902 -0.033345427 0.000540876 0.041314602
-0.03367782 0.033430148 0.0014386507 0.013397743 -0.02998347 0.019559296 -0.0014440168 -0.017753733
0.032336388 -0.0022076743 0.02421851 -0.02995247 -0.019723669 -0.018399466 -0.021070153 -0.024652645
0.042986233 -0.015029482 0.015117717 -0.011077027 0.014300741 0.036467392 0.0032783041 -0.023024332
0.036309488 0.018557686 -0.020105809 -0.0044406094 -0.0028018856 -0.0073565785 0.032937016 0.006245214
-0.019075502 -0.0034115524 -0.020523425 -0.0012157266 -0.022037791 -0.011759219 -0.031802516 0.02795324
0.014254425 -0.036009997 0.020832578 -0.015441106 -0.013574557 -0.034936853 0.03398424 0.033220373
-0.017032363 -0.00054223475 -0.031646732 -0.03200679 0.007748141 0.020569572 0.032096162 0.030282885
-0.009174105 -0.0029765135 0.016056525 -0.0024083778 -0.021869391 0.0038669382 -0.023590617 -0.012012716
-0.003241334 0.02758935 -0.015517093 0.02613599 0.022150597 -0.02525948 -0.012643633 0.030417195
0.017684024 0.02504566 -0.03966126 0.031315114 0.027052306 -0.008602193 0.038000077 0.040526405
-0.020457339 0.022925355 0.009252952 -0.032293558 0.0074817324 0.04201018 0.0022062075 0.016932363
0.007846894 -0.043032974 -0.0020980197 0.023031268 -0.022794174 0.0347816 -0.013614071 0.034324907
-0.0217872 -0.035017006 0.03419611 -0.042937297 0.0067215078 -0.041929 -0.017854415 -0.037674908
-0.01808582 0.039819766 0.021625474 -0.013481151 0.0010315338 0.01424432 -0.04232911 0.004268199
-0.02235082 0.031100228 -0.03376268 0.02686163 0.037811093 -0.0054355753 -0.0436511 -0.033331085
-0.018364703 -0.0037265357 -0.03391595 0.009639459 -0.01819074 0.018316422 0.016581777 0.014437964
0.020988258 -0.043328326 -0.013395152 -0.034567397 0.037029788 0.0013140747 0.008026538 -0.026511423
-0.016310275 0.0034466118 0.019385498 0.014140059 -0.021395108 -0.039541718 -0.030602034 0.028752048
0.016854139 0.02242671 0.015867813 0.02363058 0.0071910024 -0.0057121324 0.013707908 0.05282465
0.06467483 0.018667314 0.0055179065 0.035291784 0.0847642 0.060960215 0.0062300647 -0.014089088
0.0058775 0.005654385 -0.038093653 0.02737548 -0.035561055 0.025234839 0.0044198683 -0.011632497
0.041641522 -0.008515547 0.015515523 -0.016761066 0.02610225 -0.020291276 -0.01005543 0.015747167
-0.0002816111 0.03781879 0.008914584 -0.00180955 -0.0041162474 0.027976258 0.03140384 -0.024787813
0.04198785 0.027387192 0.034455124 0.042059336 -0.0104984455 0.022695381 0.01003061 0.03425436
-0.034194946 0.04114189 -0.029706761 0.012915627 0.0047175437 0.0060676797 -0.015906509 0.0018925403
-0.029881604 0.03802389 0.0017417794 -0.0037121703 -0.038045827 -0.0069539635 -0.03672847 -0.0092556365

reconstruction.bias f4 [4]
00000000: 79db f23c a41e 02bc ab92 e6ba 1dfb 90b9
0.029645668 -0.007941876 -0.0017591318 -0.00027652914
