decomposition/simple_retinex_model/weights_last_1.pt (torch, 668167 bytes, 24 tensors)

feature_extraction.weight f4 [64, 3, 9, 9]
-0.046701923 -0.04434963 0.06019913 -0.024914818 -0.026936917 -0.012639945 0.06448782 0.017451828
-0.028679654 -0.017701201 -0.030266708 0.02694775 0.057449117 0.04676234 -0.025641384 -0.042384356
-0.012881147 -0.023155244 -0.04009017 -0.0017748325 0.03247681 -0.023699824 0.009450075 -0.009603291
-0.0018931237 -0.058076944 0.020836351 0.03558965 -0.046058353 -0.009460752 -0.018522961 -0.046029255
0.046081502 -0.033623368 0.05754506 0.03418502 -0.00044596588 -0.0053447983 0.0062022805 0.058405165
0.04236333 -0.02074826 0.050301004 0.033795055 0.005791375 -0.033639375 0.0028381438 0.05519008
-0.027082846 0.03568349 0.009560753 -0.021741798 -0.049679097 0.008433947 0.031553347 -0.031278066
-0.033199247 0.05886392 0.05441855 0.04992247 -0.010914382 -0.026890172 0.025872143 0.039735276
0.060239367 0.06587682 0.022537323 0.022214156 0.006518915 -0.037925396 0.0034115976 0.062538706
0.037750207 0.05994408 0.008745655 0.004892185 -0.05858318 0.05943455 -0.053881515 0.024293244
-0.055480532 0.0045478297 0.055831768 0.016885655 0.04567948 -0.020369748 0.05701852 -0.020039259
-0.010697318 -0.011341518 -0.02469562 -0.040237833 0.022127606 -0.0150943445 0.04679022 -0.022287969
0.025107872 -0.012118342 -0.022067653 -0.05895903 0.03069159 0.017493458 0.03229712 -0.033252247
0.017005267 0.012301228 0.06200593 0.05777067 -0.05490604 -0.03727015 -0.040303517 -0.04947681
-0.029843707 -0.025858164 -0.05780371 0.03254571 -0.025689907 0.015401474 0.030198604 -0.011121444
-0.044644214 -0.027860997 0.046429444 -0.010708017 -0.049728356 0.00068628753 -0.048944663 -0.0035462412
0.055323113 0.013855969 0.010544207 -0.007141842 -0.03170913 0.04409921 0.0013935772 -0.032936975
0.064626575 0.012603381 0.017295452 0.06520174 0.012176592 0.029356172 -0.024373557 -0.061733395
-0.040595833 0.004955483 -0.032986376 -0.04990179 -0.024671141 -0.053008497 0.028778361 0.02836986
0.031206204 0.030814013 0.011721157 0.063941695 0.033980783 -0.018108824 0.027549235 0.04342742
-0.057103086 0.02199866 -0.0322898 0.049289517 -0.061820805 0.015285256 0.058208317 -0.027970253
-0.05633288 -0.031766843 0.058173828 0.04087119 -0.038056657 0.034734562 -0.011872384 0.013538099
-0.022252837 0.0025030277 -0.053534515 -0.03975021 -0.06029021 -0.05667869 -0.01199721 0.010237942
-0.061105553 -0.04965969 0.0013347181 -0.018133232 0.034951158 -0.021044085 0.052049126 0.04826499
0.038895894 0.033025615 -0.013760677 0.06086064 0.024272682 -0.02638316 0.038251247 -0.008470012
0.0012562182 -0.03644493 -0.012213178 0.01098398 0.006505271 0.008813625 0.002826835 0.0034301719
-0.03433951 0.057567485 0.040945068 0.059887398 -0.0023615272 -0.005438524 0.051835276 -0.035839804
-0.006277244 0.04175949 -0.03767043 0.010941031 -0.013745391 0.046696555 0.021973435 -0.039475456
0.0115333665 0.06172967 0.023017824 -0.062780336 -0.015554728 -0.013483301 -0.028416118 0.052380312
0.062012773 0.056821343 0.022225367 0.0142214885 0.008283176 -0.018887753 0.051400773 0.025494967
-0.06349278 -0.04758721 0.02900156 -0.0035295552 -0.018828336 0.035088204 -0.022883961 -0.03195832
-0.056762185 -0.01933549 2.507302e-05 -0.04386939 -0.0076084053 0.018702868 -0.05222513 0.0067694746
00000000: 844a 3fbd f5a7 35bd 5d93 763d 291a ccbc
00000010: cfaa dcbc c617 4fbc 3112 843d 23f7 8e3c
00000020: 98f1 eabc 1c02 91bc e3f1 f7bc 87c1 dc3c
00000030: c44f 6b3d de89 3f3d e10d d2bc 389b 2dbd
00000040: 720b 53bc 11b0 bdbc 9735 24bd 7fa1 e8ba
00000050: 6706 053d 2226 c2bc 7dd4 1a3c 1f57 1dbc
00000060: b122 f8ba 17e2 6dbd ffb0 aa3c 74c6 113d
00000070: afa7 3cbd 4501 1bbc 77bd 97bc 2c89 3cbd
00000080: f5bf 3c3d a8b8 09bd 5eb4 6b3d 9705 0c3d
00000090: 87d0 e9b9 6b23 afbb 803c cb3b 413a 6f3d
000000a0: 2c85 2d3d 41f8 a9bc 6d08 4e3d af6c 0a3d
000000b0: 93c5 bd3b 71c9 09bd 2700 3a3b fe0e 623d
000000c0: d8dc ddbc da28 123d b4a4 1c3c db1b b2bc
000000d0: 4f7c 4bbd 8a2e 0a3c 153e 013d 6e1d 00bd
000000e0: effb 07bd 4b1b 713d fce5 5e3d 817b 4c3d
000000f0: 3cd2 32bc c748 dcbc d1f1 d33c 75c1 223d
00000100: 8ebd 763d 6dea 863d 31a0 b83c 76fa b53c
00000110: 9f9c d53b a957 1bbd 1c95 5f3b 4b14 803d
00000120: f69f 1a3d ec87 753d f049 0f3c 9f4e a03b
00000130: ebf4 6fbd a571 733d ddb2 5cbd a002 c73c
00000140: 8e3f 63bd f605 953b daaf 643d c953 8a3c
00000150: 681a 3b3d 75de a6bc 408c 693d 5f29 a4bc
00000160: ce43 2fbc c6d1 39bc 784e cabc 6dd0 24bd
00000170: f444 b53c 454e 77bc 1aa7 3f3d 4295 b6bc
00000180: 06af cd3c 038c 46bc 39c7 b4bc 067f 71bd
00000190: ee6c fb3c 714e 8f3c fc49 043d 8233 08bd
000001a0: a14e 8b3c 178b 493c eef9 7d3d f0a0 6c3d
000001b0: 28e5 60bd 96a8 18bd 4d15 25bd 32a8 4abd
000001c0: ca7a f4bc 80d4 d3bc 95c3 6cbd a74e 053d
000001d0: a473 d2bc 7756 7c3c 1063 f73c b836 36bc
000001e0: dadc 36bd bf3c e4bc cd2c 3e3d ae70 2fbc
000001f0: f6af 4bbd fae7 333a 337a 48bd 0e68 68bb
00000200: 7d9a 623d 2504 633c 9cc1 2c3c 1d06 eabb
00000210: 6fe1 01bd 60a1 343d b1a8 b63a ece8 06bd
00000220: f05a 843d 697e 4e3c 31af 8d3c 7d88 853d
00000230: 5480 473c 5b7c f03c 0eab c7bc 28dc 7cbd
00000240: d147 26bd 9b61 a23b b91c 07bd d265 4cbd
00000250: 221b cabc 701f 59bd 99c0 eb3c e967 e83c
00000260: 27a4 ff3c ab6d fc3c 180a 403c ddf3 823d
00000270: 6f2f 0b3d f558 94bc efae e13c f3e0 313d
00000280: ede4 69bd 8936 b43c 4f42 04bd cee3 493d
00000290: d037 7dbd 036f 7a3c d86b 6e3d df21 e5bc
000002a0: 4ebd 66bd f31d 02bd ae47 6e3d 8d68 273d
000002b0: 4ce1 1bbd d445 0e3d 6384 42bc e7ce 5d3c
000002c0: 954b b6bc d609 243b 0247 5bbd 1ed1 22bd
000002d0: def2 76bd ea27 68bd f28f 44bc 0bbd 273c
000002e0: d149 7abd f667 4bbd b5f1 ae3a 258c 94bc
000002f0: f228 0f3d a564 acbc 7731 553d 83b1 453d
00000300: 4d51 1f3d de45 073d 7674 61bc 0249 793d
00000310: 81d7 c63c 7f21 d8bc 57ad 1c3d cec5 0abc
00000320: b0a7 a43a 4747 15bd c819 48bc 27f6 333c
00000330: 2b2a d53b 0667 103c 6c42 393b bccc 603b
00000340: 96a7 0cbd e2cb 6b3d 04b6 273d 7d4c 753d
00000350: dac3 1abb a535 b2bb 3a51 543d c2cc 12bd
00000360: 57b1 cdbb 000c 2b3d 4f4c 1abd 0342 333c
00000370: 5934 61bc e344 3f3d a201 b43c 04b1 21bd
00000380: 72f6 3c3c 40d8 7c3d e08f bc3c fa92 80bd
00000390: 42d9 7ebc 10e9 5cbc ebc8 e8bc bd8c 563d
000003a0: 1b01 7e3d 7fbd 683d f911 b63c 3f01 693c
000003b0: 29b6 073c 7dba 9abc 9e89 523d d2da d03c
000003c0: 8108 82bd ceea 42bd ae94 ed3c 1c50 67bb
000003d0: e23d 9abc a6b8 0f3d 2577 bbbc bae6 02bd
000003e0: 777f 68bd 7665 9ebc e753 d237 64b0 33bd
000003f0: ee4f f9bb c236 993c 05ea 55bd 78d2 dd3b

feature_extraction.bias f4 [64]
-0.065577954 0.011284996 -0.018967584 0.039297026 -0.026493033 0.025245033 -0.06687828 0.07914122
0.001201194 -0.03465836 0.04549008 0.058180165 0.04332257 0.022203865 0.0513083 0.060028158
0.07142729 0.050523728 -0.05054226 -0.033259403 0.025378266 0.009357372 0.050353393 -0.03971761
0.08008862 0.03366245 -0.059851255 0.01256862 -0.07887592 0.062168237 -0.06712994 -0.064449936
-0.046380226 -0.0036358694 0.040442754 0.016235653 -0.068141885 -0.0012611749 -0.059652198 -0.06339674
0.039785143 -0.0017996803 0.056259744 0.031829484 -0.01048589 0.040498886 0.022481982 -0.0023778898
0.06237135 -0.05003852 -0.058069292 0.0014814081 0.03599398 -0.0030522963 -0.00036282637 -0.027991926
-0.014144569 0.066732116 -0.03682149 0.048929334 -0.07180795 -0.049054146 0.016927952 -0.008827832
00000000: bc4d 86bd b4e4 383c e861 9bbc ebf5 203d
00000010: eb07 d9bc acce ce3c 7bf7 88bd cb14 a23d
00000020: 6271 9d3a edf5 0dbd ce53 3a3d 534e 6e3d
00000030: 0273 313d e1e4 b53c a728 523d 16e0 753d
00000040: 7948 923d f8f1 4e3d 6705 4fbd 033b 08bd
00000050: 15e6 cf3c aa4f 193c 5c3f 4e3d efae 22bd
00000060: 8105 a43d a3e1 093d 9726 75bd 9dec 4d3c
00000070: b389 a1bd 1fa4 7e3d 6c7b 89bd 54fe 83bd
00000080: 31f9 3dbd c447 6ebb 4da7 253d a200 853c
00000090: f98d 8bbd 024e a5ba dd55 74bd 26d6 81bd
000000a0: bff5 223d 40e3 ebba 9e70 663d a25f 023d
000000b0: 03cd 2bbc 29e2 253d 222c b83c 5fd6 1bbb
000000c0: 1a79 7f3d 31f5 4cbd 11da 6dbd cf2b c23a
000000d0: 6c6e 133d 0909 48bb bb39 beb9 534f e5bc
000000e0: 9fbe 67bc d9aa 883d 21d2 16bd 206a 483d
000000f0: 0c10 93bd 00ed 48bd 7dac 8a3c 9ca2 10bc

convolutions.0.weight f4 [64, 64, 3, 3]
0.008055656 -0.02898312 0.016783794 0.021911839 -0.0073468527 0.0073957723 -0.024094991 0.041416857
0.0007872362 -0.0020143117 0.0023023912 0.028424524 -0.008159514 0.0136239575 -0.021682834 -0.029498717
0.03829892 0.02761402 0.03614802 -0.027760064 -0.032562006 0.0031354518 -0.018805698 0.028622635
0.0023611845 -0.001545563 0.0044315625 -0.0013719252 -0.026524939 -0.006818717 -0.0353743 0.03833727
0.027479997 -0.010633092 0.015471479 -0.017982423 -0.023087345 0.022471026 0.0017475038 -0.027906643
0.026296789 -0.002918861 0.0062741255 0.035880998 -0.042360812 0.032036293 0.022824045 0.015384996
0.019430589 -0.023119936 -0.039992753 0.014339952 -0.028769793 -0.005297986 0.012953505 -0.0032846658
0.013119549 0.033240225 -0.01215312 0.015138807 -0.008732379 0.04202096 -0.003514924 -0.017207108
-0.006433468 -0.018167252 -0.026758725 9.620472e-05 -0.019337667 0.02294643 -0.03252656 -0.03326708
0.03822055 -0.02252188 -0.013064531 -0.020356487 0.018855866 0.013008425 -0.010315404 0.020968372
0.01640693 0.012405528 -0.0024068994 0.026007779 -0.040862 -0.019217772 -0.028863333 0.017207315
-0.0018370752 -0.013589527 0.040311445 0.019828802 -0.0010761349 -0.028636834 0.017054653 0.031391907
-0.018112967 -0.008044311 -0.014159783 -0.003055192 -0.022069069 0.021650596 -0.020361142 -0.033213213
0.026658941 -0.015702717 0.036815614 0.015430073 0.027675185 0.0011009407 -0.03028599 0.030137798
-0.031954512 -0.0306098 0.0025174983 0.030397998 -0.0083643785 0.031983305 -0.036325164 -0.011897818
-0.018145211 0.0041291355 -0.02788691 -0.021617096 0.02794 -0.03440948 -0.0059924526 -0.027951133
-0.014786126 0.020614227 -0.0064523583 0.011268932 -0.034390993 0.030357203 0.007405986 -8.570589e-05
-0.007398414 0.008455392 0.017676562 0.018880935 -0.009683123 -0.029651172 0.016040925 -0.005347489
0.023874326 -0.016580079 -0.0045911116 -0.02105943 -0.0061624497 0.0134620145 0.0066217096 -0.005192558
-0.0054196753 -0.02376529 -0.030661667 -0.02270007 0.012697913 0.011575425 0.015666537 0.02978092
0.012408006 -0.037678175 0.017153185 0.031150995 0.029030645 -0.010947771 0.004438718 -0.026405295
0.038373053 0.0013712357 0.004273429 -0.02467884 -0.009719016 0.04193683 -0.0007464427 0.0036756936
0.022314465 0.036145095 -0.032737583 -0.0062102885 -0.020767769 -0.0076004015 0.017135713 0.01669199
-0.019628853 0.031032264 0.023711368 -0.025875544 -0.032539006 -0.035597 -0.025697604 -0.021267407
0.016018055 0.0030432707 -0.013823908 -0.018137991 0.037706617 0.040368304 -0.010648418 0.02042269
0.011225394 -0.009943486 0.014922756 0.002493345 -0.001649208 -0.040584397 0.0070767608 0.019011581
0.03424646 -0.017257096 0.018604655 0.03816289 0.027736897 0.0020572555 0.029839432 -0.02857505
-0.027362978 0.0075466568 -0.029248161 0.042395033 0.04172266 -0.010685691 0.016564813 0.02308324
0.0015248274 0.021186046 -0.040993247 0.0025141707 0.008797761 -0.03297717 0.021958694 -0.013238239
-0.0020649282 -0.026247257 0.04044884 0.0146166645 -0.038374506 0.02396979 -0.014835179 0.01390021
0.046076093 -0.0065767244 -0.028534222 -0.012601658 -0.025540072 -0.022918263 0.040542476 0.013971333
-0.008467545 0.004090502 -0.024681766 0.001933971 0.002459466 -0.028939674 -0.03237145 -0.04096434
00000000: dffb 033c 026e edbc 2b7e 893c 7580 b33c
00000010: debd f0bb 3c58 f23b dc62 c5bc b9a4 293d
00000020: 875e 4e3a 8b02 04bb b7e3 163b 8cda e83c
00000030: 7baf 05bc 0537 5f3c 33a0 b1bc 4ba7 f1bc
00000040: 54df 1c3d cc36 e23c f20f 143d 1369 e3bc
00000050: bd5f 05bd 277c 4d3b 680e 9abc 047a ea3c
00000060: 1abe 1a3b 7d94 caba a436 913b 2cd2 b3ba
00000070: d44a d9bc 8b6f dfbb a4e4 10bd 8b07 1d3d
00000080: bb1d e13c 6c36 2ebc 167c 7d3c e04f 93bc
00000090: ac21 bdbc 2815 b83c 7f0c e53a 799c e4bc
000000a0: 5d6c d73c 5d4a 3fbb 2e97 cd3b f4f7 123d
000000b0: 8882 2dbd 7d38 033d 7ef9 ba3c 5a11 7c3c
000000c0: e62c 9f3c 0566 bdbc 71cf 23bd 1ef2 6a3c
000000d0: a1ae ebbc ba9a adbb f03a 543c 8c43 57bb
000000e0: 60f3 563c e726 083d e11d 47bc c208 783c
000000f0: 4112 0fbc 2c1e 2c3d a45a 66bb ecf5 8cbc
00000100: d7cf d2bb 7dd3 94bc 1d35 dbbc 84c1 c938
00000110: 076a 9ebc 27fa bb3c 923a 05bd 1043 08bd
00000120: 278d 1c3d ce7f b8bc 9d0c 56bc a6c2 a6bc
00000130: 9e77 9a3c 4a21 553c f101 29bc ddc5 ab3c
00000140: d367 863c 8e40 4b3c 12bd 1dbb 440e d53c
00000150: ea5e 27bd 976e 9dbc cc72 ecbc 5bf6 8c3c
00000160: 04ca f0ba 9ca6 5ebc 9d1d 253d 0370 a23c
00000170: 180d 8dba cb97 eabc 33b6 8b3c cd94 003d
00000180: a561 94bc 49cc 03bc 6ffe 67bc 9e39 48bb
00000190: 31ca b4bc 975c b13c 69cc a6bc 940a 08bd
000001a0: da63 da3c fca2 80bc f8cb 163d 6bce 7c3c
000001b0: 12b7 e23c 714d 903a 531a f8bc 8be3 f63c
000001c0: bce2 02bd 67c1 fabc 9dfc 243b 3905 f93c
000001d0: bf0a 09bc ed00 033d b2c9 14bd 11ef 42bc
000001e0: 44a5 94bc b34d 873b 1773 e4bc 5616 b1bc
000001f0: 6de2 e43c f4f0 0cbd 565c c4bb c6f9 e4bc
00000200: 8241 72bc 2bdf a83c 4e6e d3bb 54a1 383c
00000210: 92dd 0cbd abaf f83c eaad f23b 00bd b3b8
00000220: 656e f2bb 7c88 0a3c 70ce 903c 31ac 9a3c
00000230: f6a5 1ebc 04e7 f2bc 4268 833c fd39 afbb
00000240: 1794 c33c f2d2 87bc 0971 96bb d384 acbc
00000250: 60ee c9bb c88f 5c3c edfa d83b 5526 aabb
00000260: 8897 b1bb 6daf c2bc 2d2e fbbc 7ff5 b9bc
00000270: e80a 503c daa6 3d3c 1c57 803c 1ef7 f33c
00000280: f34a 4b3c 6e54 1abd d684 8c3c 5f30 ff3c
00000290: add1 ed3c 485e 33bc aa72 913b eb4f d8bc
000002a0: 102d 1d3d 09bb b33a 1f08 8c3b 472b cabc
000002b0: 823c 1fbc f4c5 2b3d ecac 43ba e8e3 703b
000002c0: d3cc b63c e10c 143d d817 06bd ad7f cbbb
000002d0: 2b21 aabc ca0c f9bb 3260 8c3c a4bd 883c
000002e0: b0cc a0bc 6037 fe3c 583e c23c f3f8 d3bc
000002f0: 9f47 05bd 29ce 11bd c883 d2bc fc38 aebc
00000300: 4c38 833c 9c71 473b ac7d 62bc 2096 94bc
00000310: 4172 1a3d 3c59 253d b476 2ebc 7c4d a73c
00000320: b7ea 373c 01ea 22bc 937e 743c 6367 233b
00000330: 3d2a d8ba d33b 26bd 2ce4 e73b 2dbe 9b3c
00000340: 0446 0c3d c15e 8dbc ca68 983c b150 1c3d
00000350: 7d38 e33c 05d3 063b d371 f43c 3916 eabc
00000360: 5328 e0bc f249 f73b d799 efbc 6aa6 2d3d
00000370: 61e5 2a3d 0913 2fbc eeb2 873c 1019 bd3c
00000380: b8dc c73a 5c8e ad3c 89e8 27bd c9c4 243b
00000390: 7c24 103c 1213 07bd b8e2 b33c 33e5 58bc
000003a0: bf53 07bb 7d04 d7bc afad 253d bc7a 6f3c
000003b0: 962e 1dbd 4b5c c43c 400f 73bc b5bd 633c
000003c0: 49ba 3c3d 9081 d7bb 9ac0 e9bc 2f77 4ebc
000003d0: 6a39 d1bc 15bf bbbc de0f 263d 05e8 643c
000003e0: 75bb 0abc 9e09 863b 6a31 cabc 4c7d fd3a
000003f0: fe2e 213b e512 edbc ed97 04bd 39ca 27bd

convolutions.0.bias f4 [64]
-0.045730412 -0.026569966 0.04032386 0.002635691 0.008704691 0.03262396 0.02174606 -0.022896903
-0.0073103854 -0.034979478 -0.04029787 0.05515379 0.021050518 0.030143462 -0.0039551947 0.042913172
0.02514036 0.032235097 0.020828402 0.013313023 -0.0049492787 -0.033608 0.044418324 -0.027008967
-0.02458186 0.01973887 -0.021074543 0.025556656 0.046615668 -8.5196436e-05 0.04760634 -0.03569511
-0.034133695 0.035353016 -0.0369131 0.044502027 -0.010299988 0.030560322 0.050352357 -0.024185149
0.022655621 -0.007923665 -0.032226752 -0.033323746 0.0463098 -0.038314205 -0.025512977 -0.042328887
0.040143047 -0.03897059 -0.024248254 0.030997796 -0.025251556 -0.00095262844 -0.01071242 0.025766421
-0.03893264 0.04289578 0.001560262 0.023300393 0.019613767 -0.014057896 -0.027838016 -0.032554984
00000000: d04f 3bbd 42a9 d9bc a22a 253d 8fbb 2c3b
00000010: 1f9e 0e3c b4a0 053d cb24 b23c 4992 bbbc
00000020: f58b efbb a446 0fbd 610f 25bd f1e8 613d
00000030: 2372 ac3c 6cef f63c 949a 81bb b9c5 2f3d
00000040: 28f3 cd3c f308 043d 53a0 aa3c de1e 5a3c
00000050: 8f2d a2bb 8ba8 09bd fdef 353d e941 ddbc
00000060: e65f c9bc 69b3 a13c 85a4 acbc 315c d13c
00000070: 12f0 3e3d 7dab b2b8 defe 423d 0935 12bd
00000080: c6cf 0bbd 53ce 103d 3132 17bd c247 363d
00000090: 48c1 28bc a459 fa3c 463e 4e3d ef1f c6bc
000000a0: 4898 b93c 43d2 01bc 3300 04bd 7b7e 08bd
000000b0: 58af 3d3d 5bef 1cbd 9700 d1bc 0e61 2dbd
000000c0: 096d 243d a09f 1fbd 46a4 c6bc 17ef fd3c
000000d0: 5adc cebc d0b9 79ba 2583 2fbc 1a14 d33c
000000e0: d577 1fbd 7cb3 2f3d b581 cc3a 77e0 be3c
000000f0: 0dad a03c 1753 66bc 8d0c e4bc 6058 05bd

convolutions.2.weight f4 [64, 64, 3, 3]
0.006852848 -0.030892039 -0.02963316 0.014023617 -0.0163478 0.010186162 -0.031175932 -0.026712026
-0.038664866 -0.038151603 -0.030632444 0.02066341 -0.04018977 -0.03183763 0.037882272 -0.034522343
-0.023121437 0.0006208912 0.043065026 0.0232562 -0.030652469 0.020742232 0.019849285 0.028003553
0.047388755 -0.014891284 -0.0062292595 0.01853051 0.017419754 0.027997281 0.028841197 0.024662696
-0.013396846 0.022828517 0.023812573 0.008262951 0.025610685 0.030822715 0.018124606 -0.020926269
0.018870791 0.032316536 0.014389411 -0.017658494 0.04102648 0.037803866 0.022830993 -0.0033099933
-0.030030457 0.03318559 0.007838559 0.024499256 -0.020813845 -0.008190147 0.030669086 0.026970575
-0.024514567 0.01714633 0.012312077 -0.032216024 -0.030997481 0.007476763 -0.0025261426 0.046985023
0.010651 0.017728247 0.03456739 -0.0026850859 -0.017789463 0.0011829305 -0.00072543777 -0.017593056
0.021968342 -0.0049976725 0.016401488 -0.015488508 -0.004553954 0.024329875 -0.0048267758 0.03888275
-0.017091978 -0.00029111851 0.017146137 -0.0013079935 0.025538167 0.025666352 -0.023709683 -0.022133028
-0.0033694697 0.004948621 0.0007833107 -0.026497046 -0.02114312 0.040147346 -0.03431558 -0.04059808
0.022840016 -0.02431978 0.016253224 0.0032834776 0.0133887725 0.023927849 0.035024635 0.021550251
0.03422456 -0.020763189 0.045118384 -0.010504897 0.01377838 -0.0015252427 0.038542513 0.03846567
-0.0074029355 -0.021462724 -0.0052354215 -0.0033608354 0.033020135 0.037117116 0.021682205 0.04649656
-0.019731194 0.043531835 0.04145688 0.04138039 0.010740782 -0.0064888676 0.039511364 -0.0020579477
0.002617472 0.033281635 0.0013096196 0.030271294 0.026380815 0.038274333 0.015940411 -0.02085775
0.015929807 0.0173157 0.010972338 0.024805564 0.022234485 0.0040597664 -0.020123115 0.01415174
0.037950613 -0.027558275 0.035391964 -0.007237806 -0.0038843846 0.030115653 0.020031596 -0.027399119
-0.02246972 0.058435816 0.024809573 0.008421174 0.060908455 0.057477415 0.054587547 -0.014430817
0.0033109847 0.04340056 0.016506324 0.013214623 -0.02132578 0.027700553 -0.013039715 0.034862604
0.02080867 -0.03140374 0.041847732 -0.033858582 -0.02301019 -0.012930051 0.03669373 -0.002834266
-0.031068046 0.027733503 -0.00089902646 -0.0057541626 0.025297524 0.025596209 -0.005882484 0.04687757
0.00273653 0.009564538 -0.032118976 0.042770382 0.029905891 -0.005143967 0.016603531 -0.012532935
-0.033429325 -0.018773245 0.0035659927 -0.0035730344 -0.005232631 -0.015421858 -0.032904252 0.0047004805
-0.0153198335 0.026369357 0.004511939 -0.005948546 0.017616987 0.041143652 0.04107029 0.034942582
0.026509648 0.015184447 -0.035846204 -0.009478627 -0.0028003107 0.027477203 -0.03600903 -0.034637306
-0.02909744 0.03391279 0.037571356 0.022115553 -0.013390596 -0.029909873 0.0047177845 0.01812601
-0.0031571486 -0.0069141244 -0.0011836432 -0.01980028 0.013833243 0.04554199 0.0080754785 0.0058281533
-0.0021091506 0.032434836 -0.027146513 -0.018288579 0.012437612 -0.021562586 -0.025356058 0.0074725603
0.037146192 -0.03731446 0.02553597 -0.016581051 0.01787323 0.015666924 0.03305749 0.009442517
-0.021730518 0.03751497 -0.00041652448 0.031854212 0.031639967 -0.008080317 0.03783231 -0.026124528
00000000: db8d e03b 4d11 fdbc 3ec1 f2bc 50c3 653c
00000010: d2eb 85bc dce3 263c ab64 ffbc 2ed3 dabc
00000020: 0d5f 1ebd db44 1cbd e4f0 fabc 5046 a93c
00000030: 079e 24bd 2d68 02bd 712a 1b3d 4d67 0dbd
00000040: 2b69 bdbc 4ec3 223a f464 303d c983 be3c
00000050: e31a fbbc 9deb a93c f89a a23c b567 e53c
00000060: b61a 423d 92fa 73bc d11e ccbb 4ccd 973c
00000070: dfb3 8e3c 8e5a e53c 6044 ec3c 6c09 ca3c
00000080: 727e 5bbc df02 bb3c 9612 c33c 5461 073c
00000090: 80cd d13c eb7f fc3c 0e7a 943c 916d abbc
000000a0: eb96 9a3c 585e 043d 90c1 6b3c 8ca8 90bc
000000b0: 620b 283d 3ad8 1a3d 1008 bb3c 79ec 58bb
000000c0: 6f02 f6bc 9ded 073d 4d6d 003c aab2 c83c
000000d0: cc81 aabc f72f 06bc bc3d fb3c 65f1 dc3c
000000e0: c6d2 c8bc 7676 8c3c 98b8 493c f3f4 03bd
000000f0: 6eee fdbc a2ff f43b a48d 25bb 5e73 403d
00000100: 8881 2e3c d43a 913c 8996 0d3d 44f8 2fbb
00000110: 35bb 91bc 900c 9b3a 4e2b 3eba 501f 90bc
00000120: f4f6 b33c 84c3 a3bb 6a5c 863c 83c3 7dbc
00000130: 5639 95bb 724f c73c ee29 9ebb 8543 1f3d
00000140: 7a04 8cbc 44a1 98b9 0e76 8c3c fb70 abba
00000150: 6b35 d13c 3e42 d23c cf3a c2bc 5350 b5bc
00000160: 52d2 5cbb 0b28 a23b 1757 4d3a 5510 d9bc
00000170: 5634 adbc 8b71 243d 7e8e 0cbd 2c4a 26bd
00000180: fc1a bb3c 463a c7bc 7b25 853c 9d2f 573b
00000190: 955c 5b3c 5604 c43c fe75 0f3d 278a b03c
000001a0: 0d2f 0c3d 9017 aabc 0ece 383d bb1c 2cbc
000001b0: b7be 613c a7ea c7ba c1de 1d3d 2e8e 1d3d
000001c0: 5394 f2bb 98d2 afbc e68d abbb 7641 5cbb
000001d0: 1f40 073d 1e08 183d e19e b13c 2d73 3e3d
000001e0: 50a3 a1bc 704e 323d b0ce 293d 7c7e 293d
000001f0: 1bfa 2f3c 91a0 d4bb abd6 213d a2de 06bb
00000200: e589 2b3b 5352 083d 8ba7 ab3a 81fb f73c
00000210: 941c d83c 8cc5 1c3d 7795 823c dfdd aabc
00000220: 3a7f 823c a8d9 8d3c 52c5 333c 0a35 cb3c
00000230: 1825 b63c ca07 853b 3bd9 a4bc b3dc 673c
00000240: 1a72 1b3d e4c1 e1bc 2af7 103d 1e2b edbb
00000250: 2991 7ebb 1ab5 f63c 4d19 a43c 1e74 e0bc
00000260: 6b12 b8bc 655a 6f3d 723d cb3c f7f8 093c
00000270: 257b 793d 706d 6b3d 3197 5f3d 3c6f 6cbc
00000280: 1bfd 583b c9c4 313d 4538 873c 2582 583c
00000290: 67b3 aebc 45ec e23c 87a4 55bc 17cc 0e3d
000002a0: f276 aa3c 35a1 00bd 8768 2b3d 4caf 0abd
000002b0: de7f bcbc 91d8 53bc 2a4c 163d 18bf 39bb
000002c0: 6a82 febc 5f31 e33c a5ac 6bba 6a8d bcbb
000002d0: c13c cf3c 24af d13c dac1 c0bb b202 403d
000002e0: 5b57 333b 94b4 1c3c 308f 03bd ff2f 2f3d
000002f0: 33fd f43c b98e a8bb 2104 883c f056 4dbc
00000300: 30ed 08bd 59ca 99bc 6eb3 693b 9229 6abb
00000310: 7e76 abbb f6ab 7cbc 9cc6 06bd 7d06 9a3b
00000320: 0a00 7bbc 8d04 d83c e3d8 933b 05ec c2bb
00000330: 8051 903c 3f86 283d 5239 283d f41f 0f3d
00000340: c32a d93c 30c8 783c 78d3 12bd 3e4c 1bbc
00000350: 6b85 37bb df17 e13c 347e 13bd d9df 0dbd
00000360: c15d eebc 23e8 0a3d 6ce4 193d ad2b b53c
00000370: 3b64 5bbc 8d05 f5bc a597 9a3b 007d 943c
00000380: 2ae8 4ebb e18f e2bb 7a24 9bba 3234 a2bc
00000390: d4a4 623c 3d8a 3a3d 034f 043c 18fa be3b
000003a0: ad39 0abb 64da 043d 5d62 debc eed1 95bc
000003b0: 20c7 4b3c 05a4 b0bc 82b7 cfbc 61dc f43b
000003c0: 9b26 183d 0cd7 18bd d030 d13c fcd4 87bc
000003d0: e16a 923c ec57 803c 4a67 073d c9b4 1a3c
000003e0: 3304 b2bc 4ca9 193d f860 dab9 9079 023d
000003f0: e998 013d 4e63 04bc 0df6 1a3d 1b03 d6bc

convolutions.2.bias f4 [64]
0.026324939 -0.0054675206 -0.042003185 -0.02415829 -0.02541429 0.005948694 -0.030195666 -0.0451575
-0.013000339 0.0047665164 -0.012504216 0.02788661 -0.004540859 0.029899737 0.029250406 -0.03572148
-0.018030005 0.028247027 -0.026337445 -0.024545265 0.017215086 -0.03993761 0.014281807 -0.033112794
-0.027871326 0.030063342 0.042875916 0.013117087 0.023946794 0.00041710603 0.017945474 -0.013782256
0.016528694 -0.029287547 0.033639416 0.012013732 0.039275184 -0.0003375013 -0.005257785 -0.0030402585
-0.035320446 0.052136503 0.02385938 0.007618074 -0.0023218924 -0.009908101 -0.023558585 -0.020313922
-0.023511715 0.003242957 0.054167878 0.033582736 0.033294138 0.03300562 -0.017527176 0.0067063044
0.030731246 -0.005415999 -0.0046739527 0.017543767 0.012431588 -0.033806358 0.010928971 -0.030062424
00000000: 66a7 d73c e328 b3bb 880b 2cbd 9be7 c5bc
00000010: a131 d0bc 43ed c23b e75c f7bc 12f7 38bd
00000020: 60ff 54bc 7030 9c3b 7cde 4cbc 7672 e43c
00000030: 7ccb 94bb 4bf0 f43c 8c9e ef3c b050 12bd
00000040: a9b3 93bc 4f66 e73c a0c1 d7bc 2713 c9bc
00000050: a706 8d3c 9f95 23bd 3dfe 693c 48a1 07bd
00000060: 6852 e4bc 6647 f63c a89e 2f3d 0de9 563c
00000070: 112c c43c 06af da39 6302 933c f9ce 61bc
00000080: 2f67 873c 70ec efbc 7cc9 093d 3fd5 443c
00000090: 04df 203d a8f2 b0b9 7f49 acbb 133f 47bb
000000a0: 2cac 10bd 168d 553d bf74 c33c 09a1 f93b
000000b0: e42a 18bb 9655 22bc effd c0bc 6269 a6bc
000000c0: a49b c0bc ca87 543b 23df 5d3d 0d8e 093d
000000d0: 6f5f 083d e730 073d 2795 8fbc 8fc0 db3b
000000e0: 18c0 fb3c b178 b1bb f527 99bb f2b7 8f3c
000000f0: dcad 4b3c 8978 0abd 6d0f 333c 7945 f6bc

convolutions.4.weight f4 [64, 64, 3, 3]
0.00836712 -0.0017305892 -0.02403669 0.017848533 0.025389945 0.024266455 0.008222939 -0.007263304
-0.006255867 -0.0036647168 0.00014452008 -0.029563596 0.040164758 0.00193333 0.0022650664 0.03773907
-0.01338597 -0.0027949908 0.020297077 0.01661415 0.03931336 0.003978832 -0.012347033 -0.003067578
-0.03570668 0.04036421 -0.035277013 -0.03897647 -0.021906888 -0.026165066 0.026158728 0.023579
0.008182549 -0.027314954 0.03174277 0.001603848 -0.008661372 0.007353281 0.03595691 0.036680713
-0.023310434 -0.00941827 0.008937862 0.028477177 0.035008755 0.01044319 -0.037877824 0.01686252
0.0015381159 -0.008181138 -0.04033045 -2.8510902e-05 -0.02503732 0.030456591 -0.03373204 0.016597971
-0.040369414 -0.024072161 0.015438612 -0.039494842 0.03299306 -0.0181355 -0.0035321831 -0.039960258
0.0013458506 -0.0038884382 -0.024641816 0.025369905 -0.035129905 -0.02254896 -0.013976073 -0.002265576
0.039593343 0.00094572385 -0.016588196 -0.024040153 -0.022066804 0.0111586945 0.03948225 0.026068512
-0.014131278 -0.009029593 0.04079179 -0.0088862255 -0.03959887 -0.003854002 0.014048636 -0.0078080273
0.03668857 0.015228534 -0.027570875 0.019541519 -0.008388724 0.0032730356 0.010831501 0.027283186
-0.025014466 -0.0029736708 0.020516561 -0.0012346265 0.024050519 0.001218752 -0.030312771 -0.02586214
0.021200977 -0.041132905 0.03158869 -0.012498719 -0.03441581 0.0045904694 -0.03725589 -0.0014300353
-0.0103536155 -0.021804 -0.040078156 0.006522612 -0.013072135 0.010868661 0.03742844 0.03252231
-0.019914448 -0.031322047 0.026722599 0.027808234 0.026800314 0.014958541 -0.031320155 -0.022036022
-0.009706642 -0.018766513 0.020505598 -0.036965594 0.036925357 0.020990958 0.017704548 0.020396171
-0.01016147 0.022627646 0.020369312 -0.025661495 -0.0042054784 0.028694775 0.040483676 -0.036904223
-0.023561317 -0.021739226 0.011828465 0.009893421 0.0073426403 -0.037893884 0.0048003625 0.03283776
0.013821975 0.028027145 0.032479342 -0.016289402 0.0297462 0.02583623 0.029473392 -0.034304146
0.032220025 -0.02334459 0.041765183 0.020099312 0.01016393 0.04039037 0.04075069 0.04061124
-0.031959128 -0.012086148 -0.020325562 0.03600922 -0.033488426 0.0069056866 -0.017785816 -0.035847522
-0.029057331 -0.026853573 0.027986519 -0.041273415 -0.018145747 0.03394668 -0.0022716466 -0.011384279
-0.025517808 0.019054798 0.006195555 0.022891946 -0.009713676 -0.03424908 -0.03426011 -0.02599806
-0.014816392 0.014135323 -0.0074228845 0.010749119 0.022784632 0.0046276753 -0.019779282 0.013899225
-0.01767543 -0.008707648 -0.02749376 -0.037544142 0.025672639 0.012783443 0.0054648453 0.026853725
-0.013734026 -0.036393825 -0.017779965 0.026070138 -0.022434056 -0.012210493 0.022364995 -0.0029590488
-0.03264334 0.027484404 -0.034420867 -0.037914198 -0.033834554 0.0037824712 -0.01010768 0.0056028166
-0.005933909 0.015747637 -0.013195972 -0.026404608 -0.026990775 -0.011037701 0.025808677 -0.04183401
0.01671096 0.033809226 -0.030052839 -0.011654983 -0.041122302 -0.010167785 -0.012133077 0.039353635
0.01070324 0.033474453 -0.0058533284 -0.006446716 -0.041840795 -0.03403865 0.022003433 -0.03642843
0.03532187 0.02602656 0.011564308 -0.040401086 -0.03974716 0.021379853 0.0055298274 -0.030487157
00000000: 3f16 093c f0d4 e2ba 98e8 c4bc 1637 923c
00000010: 93fe cf3c 72ca c63c 82b9 063c 0301 eebb
00000020: 04fe ccbb bf2b 70bb 508a 1739 5b2f f2bc
00000030: cd83 243d ca67 fd3a 8271 143b 4894 1a3d
00000040: d450 5bbc 2a2c 37bb 0e46 a63c 661a 883c
00000050: 0c07 213d dd60 823b 364b 4abc 6b09 49bb
00000060: 2b41 12bd f154 253d a17e 10bd caa5 1fbd
00000070: 1376 b3bc 1f58 d6bc d44a d63c bf28 c13c
00000080: 1910 063c 9cc3 dfbc b504 023d 3538 d23a
00000090: 6de8 0dbc cbf3 f03b 8e47 133d 843e 163d
000000a0: 86f5 bebc 164f 1abc 1c70 123c f848 e93c
000000b0: 5765 0f3d ea19 2b3c c725 1bbd 4423 8a3c
000000c0: 9b9a c93a 2e0a 06bc 8b31 25bd b22a efb7
000000d0: 111b cdbc 1a80 f93c 9c2a 0abd 78f8 873c
000000e0: 665a 25bd fb32 c5bc 3bf2 7c3c 58c5 21bd
000000f0: bb23 073d e690 94bc 337c 67bb 5ead 23bd
00000100: 4167 b03a 2bd5 7ebb a2dd c9bc 8cd4 cf3c
00000110: 60e4 0fbd 99b8 b8bc e6fb 64bc 0f7a 14bb
00000120: a12c 223d 74ea 773a f8e3 87bc dbef c4bc
00000130: 71c5 b4bc f5d2 363c 24b8 213d a28d d53c
00000140: e086 67bc dcf0 13bc 4b15 273d 8897 11bc
00000150: 6d32 22bd 6d93 7cbb 402c 663c 7bda ffbb
00000160: c146 163d 1a81 793c 51dc e1bc 8915 a03c
00000170: dc70 09bc 6d80 563b 9c76 313c fd80 df3c
00000180: 23eb ccbc ebe1 42bb 5912 a83c 31d3 a1ba
00000190: 9805 c53c 88be 9f3a 7d52 f8bc d7dc d3bc
000001a0: acad ad3c fa7a 28bd 2463 013d 6dc7 4cbc
000001b0: 98f7 0cbd a66b 963b a299 18bd 0670 bbba
000001c0: 36a2 29bc 4d9e b2bc fe28 24bd a3bb d53b
000001d0: 822c 56bc 7812 323c 904e 193d 1d36 053d
000001e0: a023 a3bc 8c4b 00bd 5ae9 da3c 18ce e33c
000001f0: 558c db3c ab14 753c 9049 00bd e384 b4bc
00000200: 9b08 1fbc 3bbc 99bc 5bfb a73c 3c69 17bd
00000210: 0b3f 173d 3bf5 ab3c 2109 913c df15 a73c
00000220: 4b7c 26bc 9d5d b93c 8bdd a63c 0e38 d2bc
00000230: 1cce 89bb 4e11 eb3c 36d2 253d e228 17bd
00000240: aa03 c1bc 7616 b2bc 2ecc 413c 0418 223c
00000250: 889a f03b 9e36 1bbd 5c4c 9d3b e380 063d
00000260: 9175 623c 2f99 e53c 0f09 053d 5a71 85bc
00000270: 4eae f33c 80a6 d33c 2f72 f13c 8182 0cbd
00000280: 25f9 033d 273d bfbc f811 2b3d 50a7 a43c
00000290: 9d86 263c 5f70 253d 32ea 263d f957 263d
000002a0: 93e7 02bd fb04 46bc cb81 a6bc 677e 133d
000002b0: 292b 09bd 1949 e23b 8fb3 91bc dad4 12bd
000002c0: a409 eebc 06fc dbbc fc43 e53c 500e 29bd
000002d0: 64a6 94bc ad0b 0b3d e8df 14bb 2085 3abc
000002e0: b90a d1bc cf18 9c3c 1504 cb3b e487 bb3c
000002f0: 1c26 1fbc c348 0cbd 5454 0cbd e2f9 d4bc
00000300: 74c0 72bc d897 673c ab3b f3bb 131d 303c
00000310: d6a6 ba3c c1a3 973b 2908 a2bc 93b9 633c
00000320: 10cc 90bc 86aa 0ebc 983a e1bc e3c7 19bd
00000330: 6d4f d23c a571 513c 7212 b33b 58fc db3c
00000340: ae04 61bc b111 15bd 4aa7 91bc 0b91 d53c
00000350: a0c7 b7bc 850e 48bc cb36 b73c 9aec 41bb
00000360: 06b5 05bd f926 e13c e5fc 0cbd eb4b 1bbd
00000370: 1a96 0abd 56e3 773b af9a 25bc d597 b73b
00000380: 3d71 c2bb 3001 813c eb33 58bc 7a4e d8bc
00000390: c21b ddbc 79d7 34bc b86c d33c 245a 2bbd
000003a0: 6ce5 883c 8b7b 0a3d 5f31 f6bc 8bf4 3ebc
000003b0: dc6f 28bd c896 26bc d0c9 46bc 4731 213d
000003c0: a45c 2f3c 821c 093d 47cd bfbb f93e d3bb
000003d0: 4161 2bbd 1d6c 0bbd 8b40 b43c fa35 15bd
000003e0: aaad 103d a735 d53c 3978 3d3c 9c7b 25bd
000003f0: ebcd 22bd cd24 af3c 8e33 b53b 34c0 f9bc

convolutions.4.bias f4 [64]
-0.025716718 -0.0025226797 -0.018632386 0.031789847 -0.0052532605 0.018223967 0.024277143 -0.03963704
-0.006752686 -0.012209098 0.03001761 0.019431116 -0.022023931 0.024586996 -0.020093389 0.013025939
0.0056711314 0.050081123 -0.027346406 -0.03846869 -0.00322701 -0.006057037 0.024918158 0.043361075
-0.01075732 -0.05014072 0.0025408207 -0.037387107 -0.017218724 0.03291366 -0.025163826 0.045862734
0.01767869 0.0336493 0.050913926 -0.017338702 0.04996239 -0.025538117 -0.036308255 -0.03165691
-0.011693493 -0.0056031356 -0.03031233 3.8466525e-05 0.00022051364 0.051188566 -0.024861965 -0.006268764
0.006993771 -0.027407637 0.041958887 -0.037905894 0.042890888 0.04527333 -0.021349564 0.0026289565
-0.010408997 -0.0062735504 -0.029712116 0.02295561 -0.03992505 0.042997878 -0.047584247 -0.03594659
00000000: deab d2bc 8b53 25bb f2a2 98bc 1236 023d
00000010: 8b23 acbb 6e4a 953c dce0 c63c 735a 22bd
00000020: a345 ddbb ab08 48bc 7ee7 f53c 012e 9f3c
00000030: 886b b4bc ab6a c93c e49a a4bc c06a 553c
00000040: e6d4 b93b dd21 4d3d 9205 e0bc 5891 1dbd
00000050: 3e7c 53bb 1c7a c6bb 2a21 cc3c 629b 313d
00000060: 783f 30bc 5b60 4dbd e683 263b 3923 19bd
00000070: 480e 8dbc 79d0 063d 5e24 cebc 90da 3b3d
00000080: e6d2 903c d9d3 093d 1f8b 503d e509 8ebc
00000090: 5da5 4c3d 5035 d1bc f7b7 14bd adaa 01bd
000000a0: 1196 3fbc 829a b7bb 9051 f8bc 1e57 2138
000000b0: ae39 6739 1aab 513d 52ab cbbc 346a cdbb
000000c0: 012c e53b fb85 e0bc 15dd 2b3d 3643 1bbd
000000d0: 5bae 2f3d 8770 393d 48e5 aebc 924a 2c3b
000000e0: 7f8a 2abc 5b92 cdbb d366 f3bc 670d bc3c
000000f0: 7388 23bd 8b1e 303d b3e7 42bd bb3c 13bd

convolutions.6.weight f4 [64, 64, 3, 3]
0.03384935 0.02601742 0.03877547 -0.029230388 -0.016255455 0.033661034 0.023723368 -0.03391324
0.03768633 0.007881084 -0.008146402 0.009304803 -0.0018678319 -0.033107072 -0.036080968 0.035297588
-0.012800786 0.016242294 0.012703454 0.044888943 -0.015237398 0.028087968 -0.0004621675 -0.028354257
0.020320421 0.02515752 0.0017790252 0.0074836607 0.014702037 -0.034423735 0.012668264 0.007890008
0.013725278 -0.024699746 -0.025089877 -0.018786436 0.04267152 -0.03687786 0.028474085 -0.024295043
0.041658327 -0.005156432 -0.030708892 -0.03322358 -0.0024753218 0.018458467 0.024281902 -0.020990875
0.03912094 0.004122461 0.0013049118 0.0053949463 0.0028726447 -0.0026693349 -0.018373668 0.008887375
-0.031413984 0.022294555 -0.0054719024 -0.03766601 0.017585838 0.015620252 0.025244646 -0.014296549
0.014061818 0.04819181 -0.030058132 0.02818638 0.025724381 -0.015159459 0.041139 0.017325187
-0.009809283 0.032465223 0.0073473323 -0.02000121 0.016856967 0.03669365 0.035511173 -0.020469254
-0.0153809935 0.039712857 0.027512036 -0.038491927 0.009901154 -0.028512072 -0.022865942 -0.0037492772
0.02396681 -0.010689403 -0.02459545 0.024909243 -0.02095443 0.005441587 -0.0037340217 0.036924895
-0.0027319451 0.016843377 0.03939142 0.008944988 -0.015447887 0.0046230196 -0.041398365 -0.032119647
0.028493991 -0.00040814956 -0.04007325 -0.029798243 0.02805703 0.031779014 -0.025005206 -0.023955828
0.024197595 -0.027092205 0.03113117 0.03093989 -0.011342487 -0.0007488962 -0.027776707 -0.03348673
-0.03711431 -0.03912284 -0.034440573 -0.028101686 -0.039497185 -0.0009994636 0.025485277 0.019906567
0.026147323 0.01771366 -0.0029059923 -0.029329166 -0.01646112 -0.037326753 0.030192854 0.0017091926
0.021152379 0.03228158 -0.008431842 0.034092557 0.041128796 0.0040865503 -0.027886463 0.043949686
-0.005585499 0.0003540722 0.029516282 0.008832338 -0.034066327 0.034366574 -0.023923613 0.01981897
-0.008403387 -0.03410794 -0.0049866526 0.01942784 -0.010814565 -0.030441383 0.0135405585 -0.0020401077
-0.010055107 0.020144355 -0.029729431 -0.027005596 0.026845766 0.036397345 -0.0277766 -0.027872615
0.042770132 -0.015459456 -0.026815841 0.0347958 -0.026774628 0.014455808 -0.007104695 -0.03215957
-0.038620356 0.03857577 0.021898407 0.019542247 -0.028023263 -0.014697971 -0.037908304 0.011096171
-0.03038217 0.03688459 0.038905974 -0.0010486318 0.033633426 -0.02358985 0.034315206 0.03576394
-0.022302756 0.028741686 -0.004168724 0.028739156 0.039957408 -0.040595397 0.037588462 -0.031317465
0.003432154 -0.025624556 0.0046150363 -0.0066138743 -0.01966089 0.041143537 -0.003601941 0.021928694
-0.022547819 0.012767312 -0.032614917 0.005631561 0.025843682 -0.008810949 0.040128425 -0.02016375
0.016973253 0.028356798 -0.00018338033 0.035466783 0.025742209 0.031876072 0.031428143 0.039127886
0.02771314 0.022679223 0.00018661375 0.03697272 0.03282039 -0.027933393 -0.025279637 0.017945249
0.021807397 0.012899149 0.017117094 -0.01731487 0.014373739 0.009246348 0.024346316 0.037957974
-0.030403668 0.014836917 0.006582419 -0.0019099396 -0.032341175 0.04246769 0.012225448 -0.028975394
-0.009181154 0.0243748 0.02537313 0.0007931974 0.026066108 -0.00012463305 0.037562665 0.045393962
00000000: 9ea5 0a3d 7c22 d53c 07d3 1e3d 9174 efbc
00000010: 292a 85bc 27e0 093d 8257 c23c 9ce8 0abd
00000020: fb5c 1a3d aa1f 013c 7d78 05bc 2c73 183c
00000030: 0ad2 f4ba 489b 07bd a3c9 13bd 3494 103d
00000040: 63ba 51bc 8f0e 853c 2622 503c 78dd 373d
00000050: 48a6 79bc bd18 e63c 124f f2b9 3047 e8bc
00000060: 0377 a63c 2517 ce3c 2e2e e93a 7f39 f53b
00000070: d0e0 703c e7ff 0cbd 8d8e 4f3c 1845 013c
00000080: fddf 603c 1f57 cabc 4989 cdbc 03e6 99bc
00000090: 55c8 2e3d 3d0d 17bd 7c42 e93c 6606 c7bc
000000a0: eca1 2a3d 49f7 a8bb 3791 fbbc 7315 08bd
000000b0: 0239 22bb 3636 973c d7ea c63c 0ef5 abbc
000000c0: 473d 203d b615 873b 9309 ab3a 17c8 b03b
000000d0: fb42 3c3b 02f0 2ebb 6084 96bc 5a9c 113c
000000e0: f3ab 00bd 12a3 b63c a54d b3bb ad47 1abd
000000f0: 2d10 903c 16ec 7f3c dccd ce3c 133c 6abc
00000100: 8a63 663c c664 453d 793c f6bc 20e7 e63c
00000110: f0bb d23c 615f 78bc 5e81 283d 8ded 8d3c
00000120: 1db7 20bc 41fa 043d e4c1 f03b 94d9 a3bc
00000130: 9f17 8a3c 154c 163d 2a74 113d 23af a7bc
00000140: 9000 7cbc f3a9 223d ec60 e13c b6a9 1dbd
00000150: 7338 223c 2692 e9bc 5b51 bbbc 6fb6 75bb
00000160: 0b56 c43c 9b22 2fbc 667c c9bc 780e cc3c
00000170: a0a8 abbc 574f b23b 7db6 74bb 8f3e 173d
00000180: 6f0a 33bb 1ffb 893c e658 213d 008e 123c
00000190: 2219 7dbc b37c 973b 5591 29bd e48f 03bd
000001a0: 3b6c e93c e8fc d5b9 d923 24bd 721b f4bc
000001b0: dbd7 e53c b62a 023d b8d7 ccbc 033f c4bc
000001c0: 093a c63c 79f0 ddbc cc06 ff3c a775 fd3c
000001d0: d7d5 39bc 9351 44ba fa8b e3bc 6229 09bd
000001e0: 2d05 18bd 453f 20bd 8f11 0dbd 8235 e6bc
000001f0: cdc7 21bd 6f00 83ba 80c6 d03c 1913 a33c
00000200: e932 d63c 3d1c 913c 7672 3ebb b843 f0bc
00000210: 79d9 86bc f0e3 18bd 0157 f73c fd06 e03a
00000220: c147 ad3c b139 043d b525 0abc a3a4 0b3d
00000230: ab76 283d 78e8 853b 2772 e4bc 9604 343d
00000240: 9006 b7bb c4a2 b939 21cc f13c 83b5 103c
00000250: 2289 0bbd f7c3 0c3d 74fb c3bc 645b a23c
00000260: 5cae 09bc c4b4 0bbd 1367 a3bb 2227 9f3c
00000270: 932f 31bc 3560 f9bc 38d9 5d3c 54b3 05bb
00000280: 2dbe 24bc c605 a53c 238b f3bc d73a ddbc
00000290: a7eb db3c 6215 153d c18b e3bc 1c55 e4bc
000002a0: bc2f 2f3d a849 7dbc e5ac dbbc 0a86 0e3d
000002b0: 7756 dbbc 0ed8 6c3c 80ce e8bb c1b9 03bd
000002c0: 6130 1ebd a001 1e3d 4a64 b33c 1017 a03c
000002d0: 0b91 e5bc c2cf 70bc bd45 1bbd b7cc 353c
000002e0: 07e4 f8bc 4c14 173d df5b 1f3d 3f72 89ba
000002f0: 34c3 093d 803f c1bc 1a8e 0c3d 367d 123d
00000300: 45b4 b6bc af73 eb3c cb99 88bb 616e eb3c
00000310: 61aa 233d 5c47 26bd 5cf6 193d be46 00bd
00000320: fded 603b 97ea d1bc bb39 973b 33b9 d8bb
00000330: e00f a1bc 2086 283d 8b0e 6cbb cea3 b33c
00000340: 34b6 b8bc fd2d 513c 3897 05bd f588 b83b
00000350: 21b6 d33c cc5b 10bc b45d 243d 732e a5bc
00000360: 7e0b 8b3c 844c e83c c849 40b9 9e45 113d
00000370: 53e1 d23c 7c90 023d ccba 003d 9044 203d
00000380: ab06 e33c c7c9 b93c bfad 4339 b570 173d
00000390: ac6e 063d 92d4 e4bc 3e17 cfbc ea01 933c
000003a0: 6da5 b23c f456 533c 2639 8c3c ead7 8dbc
000003b0: d57f 6b3c ff7d 173c ed71 c73c d279 1b3d
000003c0: 1d11 f9bc 8a16 733c 55b1 d73b f056 faba
000003d0: 2e78 04bd 9af2 2d3d 3f4d 483c ce5d edbc
000003e0: 8d6c 16bc a9ad c73c 4fdb cf3c 94ee 4f3a
000003f0: 9788 d53c eeaf 02b9 4fdb 193d 05ef 393d

convolutions.6.bias f4 [64]
-0.011258482 -0.00087136205 -0.022415569 -0.037895303 -0.024879063 0.03698031 0.012110562 0.048377987
-0.041737355 -0.008575108 0.027913626 -0.019640543 -0.004245577 0.029336581 0.017831052 -0.019630909
0.032706432 -0.024505243 -0.015167866 0.023871861 -0.005670339 0.044203486 -0.016241357 -0.011398897
-0.0011164019 -0.039916843 0.0019502479 0.0143571375 -0.006469436 -0.02830604 -0.021568067 -0.027545372
-0.039134853 0.01382221 0.026701277 0.045343436 -0.009463482 0.036945283 0.03576598 -0.016570423
0.01814699 -0.0063947956 0.010221467 -0.031728603 -0.011467296 0.02925917 0.014243776 -0.020455247
-0.0060906135 -0.030059826 0.026756274 0.030809352 -0.038119942 -0.023429751 0.006015291 0.050997943
0.022885555 -0.02059202 0.04029175 0.026450863 -0.020949073 -0.0012211085 -0.016233584 0.009270817
00000000: 7f75 38bc 1e6c 64ba dba0 b7bc 1b38 1bbd
00000010: 2dcf cbbc aa78 173d 616b 463c ff27 463d
00000020: caf4 2abd 9c7e 0cbc 1eab e43c 34e5 a0bc
00000030: 7b1e 8bbb 4553 f03c 6d12 923c 00d1 a0bc
00000040: 2ef7 053d 38bf c8bc a482 78bc ec8e c33c
00000050: 40ce b9bb b70e 353d 980c 85bc 70c2 3abc
00000060: 3b54 92ba d87f 23bd 769f ff3a 333a 6b3c
00000070: 90fd d3bb 12e2 e7bc 84af b0bc d5a6 e1bc
00000080: de4b 20bd 8d76 623c a3bc da3c 0aba 393d
00000090: b80c 1bbc f053 173d 597f 123d b2be 87bc
000000a0: ffa8 943c 6f8b d1bb f177 273c daf5 01bd
000000b0: 53e1 3bbc edb0 ef3c ba5e 693c c391 a7bc
000000c0: c593 c7bb 0640 f6bc f92f db3c e563 fc3c
000000d0: a823 1cbd c0ef bfbc eb1b c53b 38e3 503d
000000e0: 7d7a bb3c 99b0 a8bc f608 253d 7baf d83c
000000f0: 649d abbc 9a0d a0ba 4bfc 84bc a0e4 173c

reconstruction.weight f4 [4, 64, 3, 3]
0.010920521 -0.018038748 -0.0063185403 0.039561186 -0.030815609 -0.03636762 0.028305344 0.014105494
-0.034324236 0.031914663 0.040976163 0.03383847 0.03647794 0.023881791 0.039376043 -0.020825282
-0.00386108 -0.01060592 -0.035220336 8.214152e-05 -0.030044505 0.01726925 0.023605319 -0.022893991
-0.012261707 -0.002415743 -0.006519033 -0.03825152 0.03979149 -0.04152375 0.023784444 -0.012179375
0.014017006 0.0007804632 0.0396861 -0.021510642 -0.01213821 0.0070293364 0.0072581703 0.036022164
-0.003791952 -0.010433621 0.01869296 0.017682789 -0.033148404 0.020361498 0.024919607 0.041511837
-0.029975114 0.028557967 0.021059388 -0.02312456 0.010037118 -0.019605389 -0.01353933 0.041277986
0.014737324 0.018724523 -0.034290116 -0.032526396 -0.029677605 -0.005395068 0.015856775 -0.004174962
0.025110953 -0.008275264 0.037570104 0.02460539 0.012624052 0.05507089 -0.025378456 -0.01015663
-0.027741265 0.022931227 -0.015037072 0.007114163 0.018873319 0.039750155 0.027680622 0.02173204
0.0057849255 -0.017314464 -0.026078787 -0.03676171 0.03524043 -0.020458424 -0.021856882 0.026128434
-0.0067518633 0.026777113 0.024741486 0.028606813 0.010053588 0.014155257 0.007886498 0.04787263
0.043526262 0.028864764 0.039893303 0.024127407 0.024697568 -0.0067527355 0.004238273 0.016574457
0.038130354 -0.008187146 0.04447613 0.004335124 -0.023235945 -0.03726821 0.027171029 0.01505267
-0.03151827 -0.035618186 0.018698035 -0.029731737 0.029742908 -0.03057614 0.042921707 -0.025510248
0.04117414 -0.022189345 -0.017456912 0.005193198 0.048466492 -0.031889845 0.042664237 -0.016488234
-0.030436711 -0.018428482 -0.029958053 -0.035630193 0.013262255 -0.009533558 0.02785905 -0.018521542
0.03366083 -0.033186644 0.031708606 0.009627178 -0.004639977 -0.030168353 -0.0313558 0.007143792
0.037967816 -0.03315796 -0.016332082 0.012351674 -0.0071073775 0.004540167 0.016499307 -0.026169382
0.028772408 -0.034790125 -0.016323721 -0.014126109 0.031595685 -0.02501002 0.040403955 0.019269455
-0.0363464 -0.023664659 -0.010105414 0.027209653 -0.010662936 0.017509438 0.008384209 0.004524618
-0.033045348 -0.022274548 -0.004407783 0.0024897468 0.0084244525 0.0031497024 0.009423586 -0.038464323
0.026181368 -0.026111394 -0.0004810928 0.025940057 -0.03649768 -0.035880513 -0.017169505 -0.033777356
-0.023066387 6.198883e-06 -0.005235662 0.025347825 0.037141915 -0.008707054 -0.027210943 0.005811923
0.010771357 0.00062021794 -0.027556457 -0.016735086 -0.018723102 0.010088957 -0.038777553 0.026397046
-0.011081687 0.01758665 0.03855448 0.01786763 0.031746246 -0.010907776 0.014019187 0.018049449
-0.017775834 -0.035893142 0.016563868 0.017148297 0.009196351 -0.020865183 0.0034817408 0.032292362
0.0122340005 -0.014419029 -0.028038343 -0.01698696 0.041663792 0.0018578648 0.043643758 0.013207646
0.0021208192 0.028628366 -0.031564355 -0.018697632 0.016934749 -0.03773726 -0.029064042 -0.03247596
-0.018362265 0.022255221 -0.026494578 -0.008424406 -0.041311234 0.041387755 0.03938598 -0.014031288
0.016885156 0.0058708685 0.025735497 0.03373134 -0.00023280382 0.033033006 0.034867525 0.036734976
0.03656256 -0.007916111 0.024894262 -0.0004641507 0.03276509 0.03190258 -0.025347143 0.002199111
00000000: fceb 323c ffc5 93bc c20b cfbb e90a 223d
00000010: 0471 fcbc 37f6 14bd 9ce0 e73c bb1a 673c
00000020: 9297 0cbd f3b8 023d 9fd6 273d 359a 0a3d
00000030: e469 153d bfa3 c33c c648 213d c899 aabc
00000040: 2c0a 7dbb 74c4 2dbc 3343 10bd 6543 ac38
00000050: e51f f6bc 3e78 8d3c f15f c13c 2e8c bbbc
00000060: 54e5 48bc 7151 1ebb 9d9d d5bb a0ad 1cbd
00000070: 67fc 223d cf14 2abd 98d7 c23c 008c 47bc
00000080: 96a7 653c 0098 4c3a e48d 223d 1637 b0bc
00000090: 58df 46bc 5956 e63b f2d5 ed3b fa8b 133d
000000a0: 6682 78bb c7f1 2abc fa21 993c 7fdb 903c
000000b0: 9fc6 07bd 28cd a63c 3424 cc3c 5108 2a3d
000000c0: 5f8e f5bc 66f2 e93c bd84 ac3c b86f bdbc
000000d0: b972 243c 7b9b a0bc 11d4 5dbc 1b13 293d
000000e0: d174 713c 2c64 993c cb73 0cbd 663a 05bd
000000f0: 731e f3bc 1cc9 b0bb 11e6 813c 1fce 88bb
00000100: 7cb5 cd3c f994 07bc 1ce3 193d 3e91 c93c
00000110: 1dd5 4e3c 0392 613d 7be6 cfbc fe67 26bc
00000120: a641 e3bc 45da bb3c 0d5e 76bc ed1d e93b
00000130: 389c 9a3c 0fd1 223d 79c2 e23c 6407 b23c
00000140: 798f bd3b 10d7 8dbc 2ea3 d5bc 7293 16bd
00000150: 4558 103d 6d98 a7bc 340d b3bc 4c0b d63c
00000160: bc3e ddbb ad5b db3c a8ae ca3c d658 ea3c
00000170: ceb7 243c 73eb 673c 5f36 013c 1716 443d
00000180: 9848 323d cc75 ec3c 2967 233d d7a6 c53c
00000190: 8e52 ca3c 0d46 ddbb 36e1 8a3b 28c7 873c
000001a0: 932e 1c3d 6123 06bc 9a2c 363d a80d 8e3b
000001b0: 4f59 bebc 8da6 18bd c795 de3c 799f 763c
000001c0: 4d19 01bd 60e4 11bd 9f2c 993c f98f f3bc
000001d0: 66a7 f33c d07a fabc acce 2f3d defa d0bc
000001e0: 37a6 283d 6ec6 b5bc cc01 8fbc b42b aa3b
000001f0: cd84 463d ed9e 02bd b2c0 2e3d 5512 87bc
00000200: 6956 f9bc 54f7 96bc 976a f5bc f7f0 11bd
00000210: ee49 593c a432 1cbc aa38 e43c 7dba 97bc
00000220: f0df 093d b8ee 07bd e2e0 013d 50bb 1d3c
00000230: f30a 98bb 9f23 f7bc f06e 00bd 7916 ea3b
00000240: 2484 1b3d a4d0 07bd dcca 85bc ad5e 4a3c
00000250: 01e5 e8bb aec5 943b 8e29 873c 2c61 d6bc
00000260: 1db4 eb3c 1780 0ebd 53b9 85bc 3271 67bc
00000270: 7a6a 013d d0e1 ccbc 9e7e 253d fada 9d3c
00000280: f6df 14bd 63dc c1bc 2e91 25bc c7e6 de3c
00000290: 98b3 2ebc f46f 8f3c ec5d 093c 3f43 943b
000002a0: 8f5a 07bd 1d79 b6bc 2a6f 90bb 052b 233b
000002b0: b706 0a3c 3d6b 4e3b 6265 1a3c c48c 1dbd
000002c0: 4f7a d63c 90e7 d5bc 2f3b fcb9 3e80 d43c
000002d0: 977e 15bd 72f7 12bd 10a7 8cbc 205a 0abd
000002e0: b8f5 bcbc 0000 d036 eb8f abbb 3ea6 cf3c
000002f0: 1f22 183d 08a8 0ebc 7ce9 debc f271 be3b
00000300: 597a 303c 1f96 223a 14be e1bc 0518 89bc
00000310: 3161 99bc 274c 253c 36d5 1ebd 9e3e d83c
00000320: f78f 35bc e111 903c 4deb 1d3d 235f 923c
00000330: 5a08 023d 87b6 32bc bbb0 653c 70dc 933c
00000340: a09e 91bc b004 13bd f3b0 873c 967a 8c3c
00000350: 4bac 163c 76ed aabc eb2d 643b ff44 043d
00000360: 1e71 483c ca3d 6cbc abb0 e5bc 3d28 8bbc
00000370: a7a7 2a3d 9983 f33a ccc3 323d e264 583c
00000380: 71fd 0a3b 0986 ea3c a049 01bd c72b 99bc
00000390: beba 8a3c 6392 1abd b717 eebc 8305 05bd
000003a0: 766c 96bc 9550 b63c 280b d9bc 8506 0abc
000003b0: f835 29bd 3586 293d 3253 213d 7de3 65bc
000003c0: bd52 8a3c 6a60 c03b 40d3 d23c e029 0a3d
000003d0: cd1c 74b9 9e4d 073d 40d1 0e3d 6a77 163d
000003e0: 9fc2 153d 93b2 01bc 0def cb3c 4159 f3b9
000003f0: b034 063d 48ac 023d d0a4 cfbc f61e 103b

reconstruction.bias f4 [4]
-0.004796829 0.0010624173 0.018105596 -0.03235236
00000000: b82e 9dbb cf40 8b3a 3052 943c e983 04bd
