decomposition/simple_retinex_model/weights_last.pt (torch, 668167 bytes, 24 tensors)

feature_extraction.weight f4 [64, 3, 9, 9]
00000000: ff56 88bc 58fb 29bd 2365 2d3d 683a 713d
00000010: 2d3b 753d e16d 7cbc a5eb e0ba a56f 823d
00000020: 4e00 1f3d f75e 5c3d 0362 7abd 519c 4ebd
00000030: 6752 6f3d cc51 0b3d f23a 81bd 38b9 0f3d
00000040: bbad 953c 11d7 4fbd 5ab9 6abd bfb0 b5bc
00000050: 6200 673d dd33 083c ca1e e0bc 2509 733d
00000060: 6d29 fd3c 9559 e33c ee64 4f3c 8573 5ebc
00000070: d831 8dbc 4e2f 1a3d d766 5b3d 6d97 cf3b
00000080: 5e6c 433d 48db d6bc d285 5c3d 8a2b 36bd
00000090: f091 e43c 1dbc 303c 9e00 233c d148 abbc
000000a0: 12b6 ba3c cc9d 4e3d a7a3 60bb 0a73 793d
000000b0: 2be6 0dbc 98e4 063b f24f 38bd e584 d83c
000000c0: 5bc6 09bd e0dc 803d 5eaf 773d 6671 02bd
000000d0: 2f6a 3f3d f365 5b3c e707 b53c 7569 74bd
000000e0: c0a6 083d 9145 67bd 3100 06bd d1a5 023d
000000f0: 3f2d 2d3d 88a8 3c3d d233 76bd da15 79bd
00000100: aedd 29bb 3843 673d a91e bd3b d15c 21bc
00000110: 909b 27bd b38e 283d 9295 77bd 14d8 40bb
00000120: fe60 03bc 98cd 463d c585 66bd a0cc 613d
00000130: 84eb dc3c 7630 4bbd a161 46bc 5687 6a3c
00000140: 2d4e 9cbb 8e05 203d cc60 d3bc 5e1f a23b
00000150: 233c 523d 50ad 863b 6c36 0a3d 1ef1 b0bc
00000160: 5c6a 0dbd 7874 2abb 9339 82bc 6147 bebc
00000170: 3b64 1d3d 494a 653c 23b8 5f3d 07e9 6b3d
00000180: b62f 7cbd ffdb 42bd bb04 113d bc72 9cbc
00000190: 2ece 633d 66fe 21bd 0a24 5cbd 1db0 c73b
000001a0: 9eee 363d c30a 8d3c 1679 d13c 93af 57bd
000001b0: 1e58 0fbc 74d9 c9bc 7ef7 4ebc c6cd f33c
000001c0: be29 8c3c c488 5abd 88fe 3a3d 404b 07bc
000001d0: 1976 45bd a6a9 173d 9bf1 c3bc 738e 3abd
000001e0: 3303 46bc 1ce8 733d 0fa2 8dbc fcb7 19bd
000001f0: 6fbf 40bc 5a3b 53bd 5082 efbc d3a6 453c
00000200: 9b67 6dbd dd55 213d 1cc2 ff3c e2e8 6a3d
00000210: c16a a1bc ba2c b33c faf8 6e3d c1bd 793d
00000220: d0ff c33c 9346 933b 6bc1 d53c 0674 e63c
00000230: b198 73bd 13d3 41bd 1bc4 5bbd df53 22bd
00000240: 88a8 e63c 26ae 763d 4de7 ed3c 69a3 853a
00000250: a3e9 103c 5c67 453d 6887 e73c 9916 683c
00000260: c53e 1dbc 932e 4d3d 19fd f43b c093 26bd
00000270: 4732 fc3c bd48 213d e922 b0bc 45c4 1c3d
00000280: d3f6 713b 4219 5dbd 4e25 f13c f368 8bbc
00000290: 06f7 26bb 6564 a7bc bc95 b2bc 68f7 5a3d
000002a0: 6483 d23c 1fd1 58bd c70c 4bbd a2fc 183c
000002b0: cae7 63bd 1a84 9ebc d6d5 3b3c 7071 44bd
000002c0: 04d7 e4bc 4c8e 2dbd a8df 7dbd 838c 243d
000002d0: e6e1 84bb 33fd a23b c447 f53c 3f59 4f3b
000002e0: 12aa 3d3d c930 493d 774b 49bd 83ce 173d
000002f0: 5d78 fe3b 2a0b 49bd 40d9 d93c c70d 8fbc
00000300: 161a d7bc 1b0d 273d c351 e4bc bf94 233c
00000310: b66b 7fbd fa04 8b3c 61d0 b63a cb90 4e3c
00000320: 4ea3 bebc ca36 5abc 51a6 9e3b 6c95 23bd
00000330: 4aee 82bd 1660 82bd 2225 183c ae37 13bc
00000340: 0ce0 c43c a6a9 3e3d 214f bcbc ce42 20bd
00000350: e48a e53c b105 5ebd 5345 523d eac8 d83c
00000360: c49d f6bc 7c14 413d bb4d d13c 9c31 85bd
00000370: 099e 0d3d 2ee1 d33c 446c c9bc a168 7f3d
00000380: 6620 333d 1039 67bc a980 4abd 2003 1bbd
00000390: d489 603d 23a8 bf3c 7afc 393c 4527 11bd
000003a0: ea0d 62bc 4c82 a9bc 0138 14bd 0407 463c
000003b0: 305d f73c ce81 31bd 5580 303c ce88 e7bc
000003c0: 4afb f9bc 3365 813d 84fa 2dbd fe26 50b9
000003d0: bd10 083d 4779 ee3c 0ef3 99bc 9b81 88bc
000003e0: 7ff2 153d 834c 413d 89bf ba3c 3f75 26bd
000003f0: 116a 403d 3470 3ebd d213 22bd 1b84 723c
-0.016643045 -0.041499466 0.04233278 0.05889359 0.059870888 -0.015407057 -0.0017160071 0.06368951
0.03881865 0.053801503 -0.061128628 -0.050442044 0.058428194 0.034013554 -0.06310071 0.035088748
0.018271318 -0.050742213 -0.05730567 -0.022179006 0.05639685 0.008313146 -0.027358431 0.059334893
0.030903542 0.027752677 0.012658341 -0.013577347 -0.017235681 0.03764277 0.053564873 0.00633519
0.04771077 -0.026227608 0.05383856 -0.044475116 0.02790162 0.010787037 0.009948878 -0.020908745
0.022791896 0.050443456 -0.0034277232 0.060900725 -0.008660833 0.002058303 -0.044998117 0.026430557
-0.033636432 0.062921286 0.060469978 -0.031846426 0.046732124 0.013391006 0.022098495 -0.059670884
0.03336215 -0.056462828 -0.032715026 0.031896416 0.04227948 0.04605916 -0.060108013 -0.060811855
-0.0025919485 0.05646059 0.0057714772 -0.009848789 -0.04091984 0.041151714 -0.060445376 -0.0029425668
-0.00801873 0.048535913 -0.056279916 0.055126786 0.026967771 -0.049606763 -0.0121082375 0.014314493
-0.0047700615 0.039067797 -0.025802992 0.004947587 0.051326882 0.004110016 0.033743307 -0.021599349
-0.03452526 -0.0026009362 -0.015896594 -0.023227395 0.038425665 0.013994762 0.054618966 0.05759528
-0.06156894 -0.047573086 0.035404902 -0.019097678 0.05561655 -0.039549254 -0.053745307 0.0060939924
0.044661157 0.017217046 0.025570434 -0.052657675 -0.008749036 -0.024639823 -0.012632249 0.029761206
0.017109748 -0.053353086 0.045652896 -0.008257687 -0.04820833 0.037027024 -0.023918917 -0.045546006
-0.012085724 0.05954753 -0.01728919 -0.037528977 -0.011764391 -0.051570274 -0.029236943 0.0120637
-0.057960134 0.039388526 0.031220488 0.057351 -0.019704225 0.021871913 0.05834291 0.06097198
0.023925692 0.004494497 0.026093205 0.028131496 -0.05947179 -0.047320437 -0.053653818 -0.039630767
0.028156534 0.060224675 0.029040957 0.0010195795 0.008844766 0.048194274 0.028262809 0.014165544
-0.009597485 0.050093245 0.0074764607 -0.04066825 0.030785693 0.03937601 -0.021501021 0.038273115
0.00369208 -0.053979166 0.029436734 -0.017017817 -0.0025476827 -0.020433614 -0.021799915 0.0534586
0.025697418 -0.05293381 -0.049572732 0.009337576 -0.055640973 -0.0193501 0.011464557 -0.047959745
-0.027934559 -0.042372033 -0.061980873 0.040173065 -0.0040552495 0.0049740314 0.029941447 0.0031638888
0.04630477 0.04911879 -0.049144235 0.03706218 0.0077658133 -0.049082913 0.02659285 -0.017462624
-0.026257556 0.040783983 -0.027871018 0.009984194 -0.06235858 0.016970146 0.00139476 0.0126077635
-0.02327123 -0.013318727 0.004841604 -0.03993742 -0.06393106 -0.06365983 0.009286197 -0.008985443
0.024032615 0.046548508 -0.02298695 -0.03912621 0.02802033 -0.054204646 0.051335644 0.02646299
-0.030104525 0.047138676 0.02554976 -0.06503603 0.034574542 0.02586421 -0.024587758 0.06235564
0.04373207 -0.014112726 -0.049439106 -0.037844777 0.054818943 0.023395604 0.011351699 -0.03543784
-0.013797263 -0.020692013 -0.036186222 0.012086634 0.030195802 -0.043336682 0.010772784 -0.028263476
-0.030515332 0.0631813 -0.04247524 -0.00019850952 0.033219088 0.029110564 -0.018792655 -0.016663363
0.036608215 0.047192108 0.02279641 -0.04063916 0.046976153 -0.046493724 -0.039569683 0.014802004

feature_extraction.bias f4 [64]
00000000: 8fd1 013d 436f ff3a 7f50 86bd 7939 993d
00000010: 7aa8 423d ff00 8ebd ffe3 e23b 03b7 573d
00000020: a75e 503d 0b41 10bd 5132 24bd 8eca 8f3d
00000030: 4c04 59bd eafa 5cbd 1208 55bd 3b8a 083d
00000040: 8923 493b cdaf 833d 60b7 3abd 77e5 863d
00000050: 9f2c 78bd 2464 3c3d 7c8d 8e3d c9f7 83bd
00000060: 96e1 21bc ce85 51bd dcb8 383d 7360 5dbc
00000070: 16d0 6ebd dfb8 91bd 1313 6abd 8d5a 773d
00000080: ad70 83bd 1f80 bdbc f884 823d b16e f4ba
00000090: 91bb f03c 8615 0bbd f6ef f13c a43b ca3c
000000a0: 181c 84bd af42 043d d805 6dbd 5c5c e13c
000000b0: 6f75 883d c666 cbbc af63 47bd c7b1 04bd
000000c0: 163d dfbc 6112 24bd 013e 203d 14d1 163c
000000d0: 199b 38bd 03fc 503d f642 8b3b a822 3d3d
000000e0: c20d 88bd 7110 90bb 559b 893c 873e 873d
000000f0: 96dd 153d 39ef 173d 469f dc3c 9e93 babc
0.03169399 0.0019488115 -0.06558322 0.07481665 0.047523953 -0.06933784 0.006924152 0.052664768
0.050871518 -0.03521828 -0.040087048 0.07021056 -0.052982613 -0.053950228 -0.05200965 0.03333495
0.0030691347 0.06430016 -0.045585036 0.06586736 -0.06058943 0.04599394 0.0696058 -0.06443746
-0.009880444 -0.051152997 0.04509817 -0.013511765 -0.058303915 -0.071153395 -0.057147097 0.06038909
-0.064179756 -0.023132382 0.06373018 -0.0018648711 0.029386314 -0.033956073 0.029533368 0.024686642
-0.06450671 0.032290157 -0.0578669 0.02750986 0.06663024 -0.02482928 -0.04867905 -0.032396104
-0.027250808 -0.04005659 0.03912163 0.009205122 -0.045069788 0.051021587 0.0042499257 0.04617563
-0.06643249 -0.004396491 0.0167977 0.06603723 0.036588274 0.037093375 0.026931416 -0.022775467

convolutions.0.weight f4 [64, 64, 3, 3]
00000000: c7e0 41bc 0624 033c b854 8a3b e0b5 243d
00000010: 8349 ddbb 3e23 9dbc 274c 373b 1b62 19bd
00000020: 0642 0a3c d658 15bd bcbc 8abc 2e1c 1abd
00000030: 986f 8b3c 0752 c23b 70b9 62bc 79d8 16bd
00000040: eaf0 adbc 2460 e9bb 9d98 923c 675d 77bc
00000050: 9e5c 99bc d33c 37bd 9eba 7a3c e2fb 06bc
00000060: 9903 33bc 1c9c c93b cb59 f2bc 40f3 0d3d
00000070: 4d16 fe3c ed40 d9bc 3d97 0c3d 3176 1e3d
00000080: 484f b73c a95d cabb 38a6 2b3d 6f61 0c3d
00000090: 91bf 913c 1588 e9bb ed2b 0dbd 8ebc 1dbc
000000a0: a0b0 f63c 0729 cabc b619 08bd 85aa 1dbb
000000b0: 785d 213d 778b 1cbd 09c1 b03c d2c8 813c
000000c0: 7608 853c f6bf 2e3c eca8 26bd 90a7 babc
000000d0: e9a3 7f3c fad8 e6ba 97d0 94bc 7808 22bb
000000e0: c310 bcbc 31cf 17bd 082d a73c 7be8 9dba
000000f0: 3a52 d5bc 0535 c73c 54d0 d83c 6240 1bbd
00000100: 4b89 bbbc c359 0fbd a2bc edbc 0c51 fcbc
00000110: c4c3 aebc 4249 9d3c ebae f0b9 99d6 0cbd
00000120: 6c7e f83c d753 f5ba b903 91bc f863 1b3b
00000130: 5aba 133d 0bc7 3fbc 6427 09bd fa0a 18bd
00000140: e76c 083d f4b2 53bd 3dac 91ba 6c0f 653c
00000150: 1cb8 b0bb e288 42bc b490 2cbd 5b71 39bd
00000160: 9824 a23b 7767 843c bf83 04bd 00e9 a23b
00000170: 76fc dc3c 77b1 59bc 38a5 aabc 0ee7 8ebc
00000180: f637 fbbc cbd0 86bc c9a9 b2bc a592 f8bb
00000190: 5310 4ebc 514f 023d d535 b6bb d05b ccbc
000001a0: d32c 0dbd 30c4 de3c 84d8 a93c a49b 673c
000001b0: eea3 3cbd 9abe 33bd fd9d 913c 9e04 423c
000001c0: 8bcd 68bd 9147 573b fe97 38bd d0bf 67bd
000001d0: b321 80bd 383c f63c dace c43b b94e d13c
000001e0: 71e3 0abd 8157 25ba 144a e43c dd6c b0bc
000001f0: bef9 e3bb 8256 cabc d011 e1bc 4a14 3d3a
00000200: 4c8a 123d 93af 04bd c951 4cbc 16a4 d3bc
00000210: 3981 2fbd 031f 21bc 685f 1dbd 326a 803c
00000220: bde3 48bb 4b46 04bd 69af 983c 5b29 0a3d
00000230: 879c 5d3c 245b ea3c 2e34 373c 1f20 0b3d
00000240: 0cde 2ebc 8218 0f3d ef51 c23c 0b24 f7ba
00000250: ad47 be3c b388 c6bc eada 0ebc 2eac b03b
00000260: fe90 32bc cace f23c e036 62bc a97e debc
00000270: 6430 253d 5e14 c0bb 6186 83bb 168f e3bc
00000280: 453a 153d 0f72 173c 5d42 d33c 8e18 d63b
00000290: 52fa 23bd f69f a83b 0c84 01bc e25e e0bc
000002a0: 6fc6 6e3c d7ac 18bd ead6 893c 9285 ddbc
000002b0: cc25 173d e3bc 1c3d aa94 38bc 015e e33c
000002c0: 2c05 2c3c dad6 053d 10a8 2f3d 8793 acbc
000002d0: 2dc4 d53c acdd 03bd ef1c 493c f863 1ebd
000002e0: 5900 253b aeed cdbc 213e ae3c 922d e2bc
000002f0: 0f48 a0bb fe39 80bc ec0b 383c 1ed0 9cbc
00000300: 2ec8 1dbc 677f 14bd daa2 fd3c 340c b1bc
00000310: 3435 1c3c 5299 08bd ebda 85bc 1619 abbc
00000320: 83e6 283d f90d 20bb 082b 77bb 2986 053d
00000330: 60e4 b4bb 2ec5 dd3b c4c8 933b b77f 61bc
00000340: 6927 babc a38d 843c 4250 ae3c d570 eb3c
00000350: 2dad 01bd 96a9 743c a3cc c1bb 3f05 3fbb
00000360: 9d0a 02bd 8ae7 0fbb c864 703b 58a3 1d3d
00000370: 80a1 f13c b844 553c d1e0 d4bb 9aac 96bc
00000380: 3dd4 1bbd da36 1f3d 0b3e 09bd 682d ecbc
00000390: 755b 043d 94c4 d8bc 7bd0 063d 844c 853c
000003a0: 10a9 0ebc 8051 a13b af01 083c 6863 1ebc
000003b0: 0f75 d6bc a0a3 133d b90a 2b3d 8c5d 293d
000003c0: ecf5 153d e5fa a03c 6bc9 47bc 17df dc3c
000003d0: eef5 c1bc 70b7 a43c 9889 1abc 3382 e4bc
000003e0: 6be8 f6bc 767b 84bb 5b62 9d3c 3708 c7bc
000003f0: dee2 213c 8510 963c d7e3 9e3c 966f 2ebd
-0.011833376 0.008004194 0.004221525 0.040212512 -0.006753148 -0.019181844 0.0027968974 -0.037447076
0.008438593 -0.036461674 -0.016935699 -0.03762453 0.017020985 0.0059301886 -0.013838157 -0.03682754
-0.02123304 -0.0071220566 0.017895037 -0.015097952 -0.018720921 -0.04473574 0.015303282 -0.0082387645
-0.010926151 0.006152643 -0.029583832 0.03465581 0.031016493 -0.026520217 0.03432392 0.038686935
0.022376671 -0.006175716 0.041906565 0.034272607 0.017791541 -0.007126818 -0.03446572 -0.0096274745
0.030113518 -0.024677766 -0.033227645 -0.0024057936 0.03939578 -0.03821894 0.021576421 0.015842829
0.016239386 0.010665884 -0.04068844 -0.022784978 0.015603044 -0.0017612271 -0.01816587 -0.0024724286
-0.022957211 -0.037062827 0.020407215 -0.0012047434 -0.026040185 0.024317274 0.026466526 -0.037903197
-0.022892615 -0.034997713 -0.029020611 -0.030800365 -0.021333583 0.019199971 -0.0004590669 -0.034384344
0.03033372 -0.0018717003 -0.01770197 0.002371071 0.03606639 -0.01170517 -0.03348483 -0.037119843
0.033306982 -0.051684335 -0.0011113953 0.013980728 -0.0053930413 -0.011873456 -0.042130187 -0.04527412
0.00494821 0.016162617 -0.032352205 0.0049716234 0.026975852 -0.01328694 -0.020830736 -0.01744416
-0.030666333 -0.016456982 -0.021809475 -0.0075858408 -0.012577134 0.031813923 -0.0055606165 -0.024946123
-0.034466576 0.027193159 0.020733126 0.014136229 -0.046054773 -0.043882944 0.01777553 0.011841921
-0.056836646 0.0032849053 -0.045066826 -0.05657941 -0.062564276 0.030058011 0.006006104 0.025550233
-0.03390831 -0.00063072896 0.027867354 -0.021536285 -0.006957262 -0.024699453 -0.027474314 0.0007212801
0.03577642 -0.032394003 -0.012470671 -0.025835078 -0.042847846 -0.009834054 -0.038421065 0.015675638
-0.003065332 -0.0322936 0.01863833 0.033730846 0.013526089 0.028607912 0.011181874 0.03396618
-0.010673057 0.03493548 0.02372071 -0.0018855346 0.023227537 -0.024235105 -0.008719185 0.005391619
-0.010898827 0.02963962 -0.0138070285 -0.027160006 0.040329352 -0.005861803 -0.004013822 -0.02777819
0.036432523 0.009243502 0.02578848 0.006533689 -0.040033646 0.005146022 -0.007905018 -0.027388994
0.014573677 -0.037274208 0.016826112 -0.02704123 0.03690128 0.038266074 -0.011265913 0.027754785
0.01049928 0.0326756 0.042884886 -0.02106644 0.02609452 -0.032193825 0.012274965 -0.038669556
0.002517721 -0.025137749 0.02126986 -0.02760962 -0.0048914026 -0.015652653 0.011233311 -0.019142207
-0.009630246 -0.036254313 0.030961443 -0.021612264 0.009534169 -0.033349343 -0.01633974 -0.020885985
0.041235458 -0.002442239 -0.0037714858 0.03259865 -0.0055203885 0.0067678904 0.004510017 -0.01376336
-0.02272387 0.016180819 0.021278504 0.028740326 -0.031659294 0.014933011 -0.005914287 -0.0029147414
-0.031748403 -0.0021958076 0.0036681164 0.038485855 0.029495955 0.013016872 -0.0064965268 -0.01839285
-0.038044203 0.03887067 -0.033506434 -0.028830245 0.032313783 -0.026460923 0.032913666 0.016271837
-0.0087073 0.0049230456 0.008301183 -0.009667255 -0.026178865 0.036044717 0.041758273 0.04134898
0.036611483 0.019650886 -0.012194018 0.026961846 -0.023676839 0.020107001 -0.009432219 -0.027894115
-0.030140122 -0.004043038 0.019211939 -0.02429591 0.0098807495 0.018318424 0.019395752 -0.042586885

convolutions.0.bias f4 [64]
00000000: 2bb0 4e3c 5358 60bc 7f83 853c 197d 27bc
00000010: 85a9 04bd a34a 423d 38a2 6f3c 8588 f4bc
00000020: a0aa 283d 7fd4 d4bc 4f33 593a 9a7f f03c
00000030: 5b7d 873c f1fb 263d 4648 0e3d 85c6 493d
00000040: cb1d 8cbc 1291 183d ffe5 f33a 0b86 113b
00000050: d772 dfbc 333b 423d 39c6 2dbc d52b 7c3c
00000060: e881 813c ecab 81bb 8758 6ebb ecfb 323d
00000070: 4c0c 533d 618d ec3a 6382 a4bb f5e4 223d
00000080: c9a2 4fbc 8fd6 9e3c 1ec8 0dbc fbfe bfbc
00000090: 6014 9d3c 4291 333d 9ea0 6c3c 63f9 a3bc
000000a0: 48ee 563c f9c5 93bb 616d ecbb 37cb 433c
000000b0: 71e4 273d 0484 3f3c 96aa d33c f708 a7bc
000000c0: 27c0 e93c 2388 653b fff5 123d 97b4 26bc
000000d0: 2771 903a 77ee 3f3d 2db6 fd3c 6b81 e3b9
000000e0: 2179 fd3c 3386 01bd 4e8c a03b a9e5 873c
000000f0: d4ec 12bc d2b3 c93c 19a6 dbbc ea21 9abc
0.012615244 -0.013692933 0.016298054 -0.010222697 -0.03238823 0.04743446 0.014626078 -0.029850254
0.041178346 -0.025980232 0.00082855386 0.02935772 0.016539266 0.040767614 0.034736894 0.04926159
-0.01710405 0.037247725 0.0018607973 0.002220514 -0.02727644 0.047419738 -0.010606342 0.01539131
0.015809014 -0.0039572623 -0.0036368684 0.043697283 0.0515254 0.0018047505 -0.005020426 0.03976913
-0.012673088 0.019389419 -0.008653669 -0.023437014 0.019174755 0.0438397 0.014442591 -0.020016378
0.013118334 -0.004509684 -0.0072151874 0.011950306 0.040989343 0.01168919 0.025838178 -0.020390017
0.028534008 0.003502377 0.03587913 -0.010174892 0.001102005 0.046858277 0.030970657 -0.00043393238
0.030941548 -0.031622123 0.004899538 0.016589003 -0.008967597 0.024621878 -0.0268126 -0.018815

convolutions.2.weight f4 [64, 64, 3, 3]
00000000: 757a abbc dd65 2fbd 7844 093d 4890 c83b
00000010: 6b1b 0a3c 7ab1 f3bc c8d2 06bd b3cb 153c
00000020: 91fd da3c a100 da3b c0da 9dbc 6f30 f73c
00000030: 9686 1cbd 94cc 0abd 3538 2dbb 0d4b 653c
00000040: fe99 b7bc e1b6 18bd ef5f 933c 1884 ff3c
00000050: 3fda 113d ef3f d6bc c06e 283c 8484 473c
00000060: e445 4c3c b3be 103d 7086 1cbd 8f1f ff3c
00000070: 1643 15bc de73 66bb 754c e6bc 7e62 49bc
00000080: a814 6f3c 18e7 e03c 3030 35bd 5d26 bb3c
00000090: 7ecc 213c 451b 00bd 41d1 b53c 7c66 97bc
000000a0: afdd b13c 98f4 5a3c 33f4 d93c c7fa 8fb9
000000b0: b85f 173d 6717 04bd 48a6 21bd cdc5 c43b
000000c0: 7028 853a 17fc 9fbc 853d 453c f38f 02bd
000000d0: 5710 debc 7112 23bd cd7d fb3c 884b e13c
000000e0: c09a 12bd 6ce1 73bc 7cfc 073c cd66 413c
000000f0: 6a1c e4bb 7528 19bd abf8 7d3c 7659 c3bc
00000100: b7b3 0ebd 6fa7 833b 996a dbbb 1e37 ba3b
00000110: 0f60 d93c f9ff debc c7a4 0dbd 6d41 0ebd
00000120: 134c 893b 2e95 26bd 1abe a43b b459 b53c
00000130: c825 043d 5c5d 0e3d 4109 0abd e567 43bb
00000140: 0381 1e3d cf1b a43c 9f2f 11bc eb01 6e3c
00000150: d02c 123c 4a3f 113d a615 20bc 2952 0b3d
00000160: ee33 c03c 240c debc 9c92 163d e89b f23b
00000170: f6cf 02bd b6d3 dc3c 837e a03a 0313 183d
00000180: ba56 883b 9cd6 0abd 801a 223c 658a 083b
00000190: bf20 443c 0bb9 923c 69b4 2bbd aa5c 1f3d
000001a0: 260a c63c 16f2 483c 920e 0cbc cb77 e0bc
000001b0: 7e68 9bbc e38b 9fbc 94b0 0cbd 99e9 b93c
000001c0: 1bb7 0abd 1c4c dcbc 1313 0c3d e708 113d
000001d0: 16ce 183d 11a2 233d d8aa e3bc 3b6d cbbc
000001e0: bb65 0cbd 5455 863c 640a 98bc d377 003d
000001f0: 4d83 c5b9 4829 7ebc 32dc 173c 1ec4 04bc
00000200: 0806 a53b 9020 e73c 6f0e 073d 7e8e 3bbb
00000210: 1a6f 1c3c e15a 0c3d 2305 413c 5f22 dc38
00000220: a659 0cbd 61fc 733c 3d75 31bd 6ea5 19bd
00000230: 63e0 143d 54f7 62bc d9f3 0f3d f1ef 00bd
00000240: 2a8f 77bc 7915 813c 824c 36bd f971 36bd
00000250: 25d5 1bbc ec06 b93b 99f3 3c3b 4540 8ebc
00000260: 37ba 583c a793 fabc 16b2 a23c 99db 9d3b
00000270: 9879 b03c ec10 bdbc bf9c fbbc 8d02 0bbd
00000280: 19cc 96bc 2c8b d03c ea6d 253d 38ee 00bd
00000290: ad03 e2bc e3d8 d53c 5af8 2fbc b02e 173c
000002a0: e12c a83c a55f a4bb ddc7 d83b 24b1 d6ba
000002b0: 51c5 2bbc 69f8 9b3c 38ce 0ebd 49c2 793b
000002c0: 54bf da3c ea01 023d 315d 97bc d15e 883c
000002d0: 9354 a6bc 3d1b b7bc 3129 cb3b 7e58 bcbb
000002e0: 5655 7bbc 05ff 563c 7a70 42bc b6dc 323c
000002f0: 3fc3 aabc 69aa e1bc 3be0 02bd 9d36 013b
00000300: 8c09 acbc be70 683c 8920 e53c 5164 a3bc
00000310: 8b57 a6bb 7d82 febc 879e 1ebc a86b 943c
00000320: bc88 e93c d0af 87bc 827c 04bc 6b99 0f3d
00000330: ae04 eb3c 3ca9 8cbb e80e 943c bdd5 ee3c
00000340: 0722 383c 65c9 f0bc 4076 a23a 9bd9 0c3d
00000350: 2780 153d f150 05bd ce14 883c d138 aabc
00000360: 43c1 edbc d6cf 3c3a a5af fd3c a260 a6ba
00000370: bfb4 09bc f09b 893c caa7 dc3c 61d9 8d3c
00000380: 33bd a4bc 3c00 9a3c d2fa c13c 9685 bf3c
00000390: 0c7f 9e3b ef35 35bd bcad 8ebc e788 06bd
000003a0: a413 1ebd a4ab 913c 81e9 d3bc b340 c23c
000003b0: 8bb0 dc3c c20b ff3c d051 0abd 6b04 f53c
000003c0: 5a7b ab3c 48f7 f3bb 2451 353b 7fc5 17bd
000003d0: f663 7f3c 8d9c d93c fd98 bc3c ac47 fa3b
000003e0: a17c ffbb e6ab 1bbd b317 e73b 0085 a9bc
000003f0: abb4 93bc a0e7 72bc 3204 813b 2cea 0ebb
-0.020932416 -0.042821754 0.033512563 0.0061207153 0.0084293885 -0.029747713 -0.03291586 0.009142804
0.026732238 0.006652907 -0.019269347 0.030174462 -0.03821429 -0.033886507 -0.0026431207 0.013994944
-0.022412296 -0.037283782 0.01799008 0.031190917 0.035608526 -0.026153533 0.010280311 0.01217759
0.012467835 0.035338115 -0.038214147 0.031142978 -0.009110233 -0.0035164277 -0.02811263 -0.012291549
0.014592327 0.027453944 -0.04423541 0.022845441 0.009875415 -0.031276006 0.022194507 -0.018481486
0.021712152 0.01336398 0.026605701 -0.0002746193 0.03695652 -0.03224888 -0.03946522 0.006005025
0.0010159146 -0.019529385 0.012038593 -0.031875562 -0.0271074 -0.03981251 0.030699635 0.027501836
-0.035792112 -0.014885288 0.008299943 0.011804295 -0.006961395 -0.0373921 0.015501182 -0.02384637
-0.03483936 0.0040177624 -0.006696057 0.00568284 0.026535062 -0.027221667 -0.034580972 -0.034730364
0.004189977 -0.040669613 0.0050275447 0.0221375 0.032262594 0.034757003 -0.03370023 -0.0029816565
0.038697254 0.020032791 -0.008861451 0.0145268245 0.008921817 0.035460748 -0.009770786 0.0340139
0.023462262 -0.027105398 0.03676091 0.0074038394 -0.03193661 0.02695642 0.0012244735 0.037127506
0.0041607292 -0.033896074 0.009894013 0.0020834443 0.011970698 0.017910501 -0.0419201 0.03890673
0.024174761 0.012264749 -0.008548396 -0.027400872 -0.018970724 -0.019475883 -0.034348086 0.022694396
-0.03386603 -0.02689176 0.034197878 0.03540888 0.037305914 0.03994948 -0.027791426 -0.024832359
-0.034276705 0.01639811 -0.018559642 0.031364273 -0.00037672595 -0.015512772 0.009268807 -0.008103399
0.0050361194 0.02821377 0.03297275 -0.0028618868 0.009547973 0.034266356 0.01178101 0.000104968196
-0.034265183 0.014891715 -0.043324698 -0.03751128 0.036346804 -0.013852913 0.03514466 -0.031478826
-0.015109817 0.01575731 -0.044506557 -0.044542287 -0.009511267 0.005646577 0.002883172 -0.01736463
0.013227991 -0.030587984 0.019860309 0.004817438 0.021542355 -0.023079358 -0.03071439 -0.03393798
-0.018407868 0.025456987 0.040388025 -0.031477183 -0.027589643 0.026104396 -0.010740364 0.00922744
0.020529212 -0.0050162845 0.0066156224 -0.0016379696 -0.010484056 0.01903935 -0.034864634 0.0038110188
0.02670256 0.031740107 -0.018477054 0.016646774 -0.020304 -0.022351855 0.0061999788 -0.005747854
-0.01534017 0.013122325 -0.011867637 0.010916879 -0.020845054 -0.027547078 -0.031952124 0.001971639
-0.021000646 0.014187036 0.027969616 -0.019945296 -0.005076354 -0.031068081 -0.009681351 0.01811774
0.028507583 -0.016563326 -0.008086326 0.03505842 0.028688755 -0.0042926352 0.018073514 0.029154653
0.0112385815 -0.029392907 0.001239486 0.034387212 0.03649917 -0.032547895 0.016611483 -0.020779045
-0.029022818 0.0007202601 0.030967543 -0.0012693594 -0.00840491 0.01679799 0.026935477 0.017315568
-0.020109748 0.01879894 0.02367917 0.023379128 0.0048369225 -0.04424089 -0.017416827 -0.032845404
-0.03859295 0.01778204 -0.02586818 0.023712492 0.026939651 0.031133536 -0.03376943 0.029909333
0.020932842 -0.0074452497 0.0027666772 -0.03705358 0.015587797 0.026563907 0.02302217 0.0076379385
-0.0077968393 -0.038005732 0.0070523857 -0.020693302 -0.018030485 -0.0148257315 0.0039372677 -0.0021807058

convolutions.2.bias f4 [64]
00000000: d38f 35bd ce98 c0bc dde7 393d 4868 1f3c
00000010: 736a eb3b 9840 8f38 b826 8db9 063d 3a3d
00000020: 0649 3e3d 5af5 18bd edb0 bd3c 9f98 ee3c
00000030: 778f 113d 6f94 823c 75da eaba 03a5 36bd
00000040: 1494 2ebd 25fa 783b 8e8a 9b3c b0c3 7cbc
00000050: a803 9d38 f59a cfbc 6013 2d3d 129e b4ba
00000060: 6b3a 943c ebf9 a2bc b616 173c d10a 913c
00000070: 8c32 97bc 0e27 02bd 3d10 853c 8e1d 8e3c
00000080: a5eb 093d 70a9 abbc 4b08 f5bc be6b 19bd
00000090: ce05 423d 46b3 0f3b e319 1dbd 68cf 303c
000000a0: 7b38 b8bb 9776 b4bc 3314 003d a4d0 13bd
000000b0: ec2a 283c 1c21 0abc fcc2 bbbc a566 48bc
000000c0: 3ad1 c9bc 11b5 7a39 8ef1 4d3c 3e59 c43b
000000d0: 897c 61bc eeae ad3c 7d9a 86bc e1d8 253d
000000e0: f43c 8a3c cb50 4e3d 706c 2d3c b528 c13c
000000f0: 06cc 4e3d 2d86 d1bc f596 0abd 7389 ddbc
-0.044326615 -0.023510363 0.045387138 0.009729452 0.0071843206 6.830803e-05 -0.00026922463 0.045468353
0.04645636 -0.03734336 0.023155654 0.02912551 0.03553721 0.01593992 -0.0017917888 -0.04459096
-0.042621687 0.0037990895 0.018986966 -0.015427515 7.4870244e-05 -0.025342444 0.042254806 -0.0013780019
0.018094262 -0.01989456 0.009221723 0.017705353 -0.01845672 -0.031775527 0.016243095 0.017348077
0.033671994 -0.020954818 -0.029911181 -0.037456267 0.047368817 0.0021926924 -0.038354766 0.010791637
-0.0056219674 -0.022029204 0.031269263 -0.036087647 0.01026414 -0.008430745 -0.022920124 -0.012231504
-0.0246359 0.0002390931 0.012569798 0.005992084 -0.013762602 0.021201577 -0.016431088 0.040490035
0.016874768 0.05037002 0.010584936 0.023578981 0.05048754 -0.025576675 -0.03383537 -0.02704308

convolutions.4.weight f4 [64, 64, 3, 3]
00000000: b748 7d3c 64de e0bc 5ee7 2a3b 8802 023d
00000010: f66c 8fbc a356 8dbc 0ae2 7e3a 7699 89bc
00000020: e3bb 58ba f69e 983c 0c72 fabc bbb5 123d
00000030: 8fe3 dd3b 59a0 a0bb 8217 09bd 1652 583c
00000040: 6c1e c1bc a6fa e23c f486 133d 88c6 0c3d
00000050: 8969 2e3d 95fe debc 3c6f 4fbc 3de6 67bc
00000060: 0653 0fba bc8f c2bc a4dd 00bc 9307 0a3d
00000070: 9877 5dbc 0a71 0f3d 7915 833b 4e60 51bc
00000080: cc84 213d 7f6e 333c 8985 093c a08c 003d
00000090: 07bf fa3a 977f d73c f4fa 2c3d 47e3 343d
000000a0: a0b7 41bc fae1 003d c123 1fbb 3ea0 8abc
000000b0: 4ccc 60bc 6b33 28bb c017 df3c b8cd 843b
000000c0: bf53 16bd 4084 81bc b34f d4b9 eab5 083d
000000d0: ea62 0a3d 79e9 2f3d a930 02bd 7611 083d
000000e0: e502 a43c a61e 123c 9e60 c5bc 390b ff3a
000000f0: b404 273d 0ce5 edbc 20cb 9a3c d955 17bd
00000100: bdba b9bc deb8 5abc f23d bcbb 220c 6b3c
00000110: e53b babc d3ff 253c 4317 3ebb ce41 2dbd
00000120: 4504 873b cbf3 4abb 8e84 393c 2200 7cbc
00000130: 837d 86bc ecbc f03c 67d6 f0bc 8a92 0ebd
00000140: 12be 9ebc 48ca bb3c a0e8 c63c 13b1 dbbb
00000150: 2abb 073d 3acd 8e3c 22a0 3fbb b346 163d
00000160: 7022 963c a16e fe3c a330 2b3c 7d97 c2bc
00000170: 3ad8 bc39 ffb0 19bd 6094 99bc f766 d7bb
00000180: b061 6b3c 3f7d d73b 3a9f f03a 4b25 ffba
00000190: c248 84bb 97c9 38bb d998 d53b 91f4 ca3c
000001a0: 879e bf3c f30b 4d3c a0c4 ee3c 4453 9cbc
000001b0: 3f3c 8ebc 2875 84bc fd1d febc 65d1 e53b
000001c0: 5e75 323c 72ef d7bc 01dd 13bc 0372 b13c
000001d0: 7e2c fabc f3a1 08bd 0e0d 0a3d b7cf cd3c
000001e0: 476b 5cba 502b 193d 3951 373d b552 f23a
000001f0: 16d7 833b aaa1 f7bc d475 21bd 3521 533c
00000200: edad b73c d442 53bb 86b6 463c 30e7 d13c
00000210: 759b c93b 1605 1cbd 1f8f 293d a12c d5bc
00000220: e8af b8bc 8d78 e5bc 81dc d9ba 7c38 93bb
00000230: 7bf1 f93b b341 133c 8d1c 233d 4262 813c
00000240: bcb3 a03b dabd 363d 6ee4 913c c5e9 013d
00000250: d4ba a53b c8f3 9fbc 410e 153d 662b ac3c
00000260: 146c dfba cd42 aa3c 374b 313c b280 14bb
00000270: 9c79 113d b0fd e9bb b9b5 273d 7903 1d3d
00000280: 0101 363d 01e4 273d 5fa1 1cbd 7b34 0b3d
00000290: 239e 2a3d 33c0 a6bc b4bb 433c bb54 aa3c
000002a0: 0f69 e3bc 9c5e 8ebb 3db6 c7bc efa6 db3a
000002b0: 7336 1bbc 7b53 e73c 7088 a73c d8e3 b33c
000002c0: 7d74 f6bc cb71 313c 0697 0cbd fb74 bcba
000002d0: 69e7 513c 44df 2c3d 3e24 9b3c 4f7c b53c
000002e0: f661 c53c cc62 2f3d 910e d8bc bd71 373d
000002f0: b1ae 75bb 40fd c1bb d9b0 853a 8d69 293d
00000300: d867 16bd 5a6e 2a3d acdd abbc 4262 053d
00000310: 069a d5bc 1b53 e33c cc74 1cbd a33e ac3c
00000320: bc9f 163d 33c1 99bc e7f1 003d b29c f03c
00000330: fc78 2e3b 33b9 343d 2c7e 983b adf4 e83c
00000340: c3e0 c7bc ed31 a1bb 8f17 233c 9fae 9b3c
00000350: 1298 ad3c 2803 bdbc e5f3 793c 098d 143c
00000360: 873c 2dbd afaa bdbc 774d 6ebc 188b b8bc
00000370: 5211 9fbc fcd3 183d 0678 bc3b 343e 14bb
00000380: 6914 ffbb 61e8 7c3c c166 03bd 1073 f8bc
00000390: 6e5f 9bbc 78d6 163d c73a cfbc 2a07 bc3c
000003a0: 68d7 2b3d b339 9fbc 7197 8cbc 1244 06bd
000003b0: 2dc5 d7bc b7ee cdbc f715 693c 7fed c1bc
000003c0: bea9 b7bc b3e6 853c 236c b23c f15c 123c
000003d0: 16ee fe3c 9dbc f2bc 3a8e 483c 92ea 8c3b
000003e0: 20e0 b43c a7f1 16bd defd d23c d37d fcbc
000003f0: 9f1e 9dbb b3bc 263d 5f26 5d3c 0d84 c8bc
0.015459231 -0.027449794 0.0026077847 0.031740695 -0.017508011 -0.017253226 0.00097230135 -0.016796809
-0.00082677434 0.018630486 -0.03057196 0.035817843 0.006771512 -0.0049019274 -0.033469684 0.013203165
-0.023574077 0.02770741 0.036017373 0.03436902 0.042581115 -0.027221004 -0.012660798 -0.014154014
-0.00054673885 -0.023750179 -0.007865343 0.03369863 -0.013517283 0.03501991 0.0040003625 -0.0127793085
0.039433286 0.010951637 0.008393654 0.03138411 0.0019130417 0.026305957 0.042231515 0.04416206
-0.011823565 0.031465508 -0.0024282786 -0.016922113 -0.013720583 -0.0025665413 0.027233005 0.004052844
-0.03670096 -0.015810132 -0.00040495172 0.03337661 0.033785738 0.042947266 -0.031784687 0.033219777
0.020020911 0.00891844 -0.024093922 0.0019458301 0.04077597 -0.029039882 0.018895686 -0.036947105
-0.022672052 -0.01334974 -0.005744689 0.014346154 -0.022733638 0.010131794 -0.0029005564 -0.042299084
0.004120382 -0.0030968066 0.011323107 -0.015380891 -0.01641727 0.02938696 -0.02939911 -0.03480772
-0.019377742 0.022923604 0.024280846 -0.0067044585 0.033137478 0.017431844 -0.0029239734 0.036688518
0.018326968 0.031058611 0.010448608 -0.023753876 0.00036019256 -0.037522312 -0.018747509 -0.0065735537
0.014366552 0.00657621 0.0018358 -0.001946607 -0.0040369937 -0.0028196329 0.006518465 0.024774821
0.023391021 0.012515056 0.029146492 -0.019082673 -0.017362712 -0.016169146 -0.031020159 0.007013487
0.01089224 -0.026359294 -0.009024859 0.02166081 -0.030538794 -0.03335757 0.033703856 0.02512346
-0.00084083196 0.03739482 0.044755194 0.0018487783 0.004023443 -0.030228455 -0.03941901 0.012886335
0.022421801 -0.0032235878 0.012128478 0.025622934 0.006152565 -0.038090788 0.041396257 -0.026022257
-0.022544816 -0.028011585 -0.0016621501 -0.0044928174 0.0076276637 0.008987832 0.03982215 0.015793923
0.0049042385 0.04461465 0.01780912 0.03171708 0.005057672 -0.019525424 0.036390547 0.021016788
-0.001704576 0.020783806 0.010821155 -0.0022659716 0.035516366 -0.0071408376 0.04094479 0.03833339
0.04443455 0.040988926 -0.038239833 0.033985596 0.041654717 -0.02035532 0.011946607 0.020792356
-0.027760057 -0.0043447744 -0.02437889 0.0016758124 -0.009473431 0.028238049 0.0204508 0.02195923
-0.030084843 0.010830353 -0.034323715 -0.0014378125 0.01281152 0.04220511 0.01893818 0.022154002
0.024094563 0.04281883 -0.026374133 0.044786204 -0.0037488157 -0.0059200823 0.00101998 0.041360427
-0.036720127 0.041609146 -0.020979725 0.03256441 -0.02607442 0.027749589 -0.038197324 0.021025961
0.03677343 -0.018768882 0.031480696 0.029371593 0.0026622405 0.044121932 0.0046537127 0.028436983
-0.024399167 -0.0049192817 0.009954347 0.019004164 0.021190677 -0.023072794 0.015255903 0.0090668285
-0.04229405 -0.023152677 -0.014544836 -0.022527263 -0.019417439 0.03731154 0.0057516126 -0.0022620084
-0.0077844155 0.015436263 -0.032080416 -0.030328304 -0.018966403 0.036825627 -0.025296582 0.022952635
0.041953474 -0.019436693 -0.017162057 -0.03277976 -0.026339138 -0.025138242 0.014226428 -0.023672817
-0.022419807 0.016345358 0.02178008 0.008933292 0.031119388 -0.029630953 0.012240941 0.004300424
0.022079527 -0.03685155 0.025755819 -0.030821716 -0.00479491 0.0407073 0.013497918 -0.02447703

convolutions.4.bias f4 [64]
00000000: c296 acbc 0024 ebbc b9fe 0e3d 9005 9e3c
00000010: 84e1 263d ebf7 52bb 3782 e3bc 6993 d43c
00000020: dd4d c53a f198 c6bc 6eb0 9d3c 0411 20bc
00000030: 870e 50bc 7bad 083c 04ab b5bc 98e2 a43c
00000040: 48c5 b0bc 2f6c 5cbb ad52 13bd 3ef3 0f3d
00000050: 1e54 333d a22f 8abc 26c1 fc3a 4b2d d03c
00000060: 3353 2b3c 190e 033d f255 63bc 3c5e 903b
00000070: 97cf 0f3d a670 163c cf50 0abd ac15 2ebd
00000080: f222 8abb 13e7 0bbb 5353 26bd 61ee ca3b
00000090: 9a49 aa3c 785e bdbc 5207 1cbd 2242 b0bc
000000a0: 99cf b43b d5d2 ee3c 47da 02bd eec4 cfbc
000000b0: 8363 14bd 8480 1d3d f4ec c0ba 0320 1fbd
000000c0: 0c54 153c fdbe 483d 66e2 493d 35e1 fa3b
000000d0: c8e3 7bbc 9f2a ccbc 3a91 da3c 32bf 1b3d
000000e0: 32f2 103c 38bc 86bc 6d38 b1bc d128 013d
000000f0: 5c8b 24bd 229f 43bc 668c 623c b5eb 06bd
-0.02106798 -0.02870369 0.03491089 0.019289762 0.040742412 -0.0032191228 -0.027772052 0.025949197
0.0015053112 -0.02424285 0.019249167 -0.009769682 -0.012698776 0.008342142 -0.022176273 0.02012758
-0.021578446 -0.0033633818 -0.035967518 0.035144083 0.043781392 -0.016868416 0.0019283637 0.025412222
0.010456848 0.031995866 -0.013875471 0.004405765 0.035110082 0.009182131 -0.03376847 -0.042501137
-0.0042155916 -0.0021347448 -0.040606808 0.0061929678 0.02078705 -0.023116335 -0.03809292 -0.02151591
0.0055179116 0.029153267 -0.031946447 -0.025362458 -0.036227714 0.03845264 -0.0014719055 -0.038848888
0.009114277 0.049010266 0.049288176 0.0076562413 -0.0153741315 -0.024922667 0.026680578 0.038024135
0.008846806 -0.016447172 -0.021633351 0.031533066 -0.040171966 -0.011939796 0.013827419 -0.03293963

convolutions.6.weight f4 [64, 64, 3, 3]
00000000: 8267 b33c 87d4 73bc 641c b8ba 62ff d03c
00000010: 0a48 31bc db8b c1b9 ec1d 0abd 76f1 043c
00000020: 96ee f8bc 9604 f3bb 7b7e 4c3c 40ba acbb
00000030: e86c 033d 1e52 113d 9027 f53c b04e 033d
00000040: d686 253d 02cb 13bd 13bd fdbc 3bac 19bd
00000050: 96b8 b93c a31d 123d c0d1 3ebc aa6f f93c
00000060: f807 0bbd 0f46 cc3c 077d 633c 6944 28bc
00000070: e92d 773c 07ad 25bd 42b8 12bd 24cc d8bc
00000080: 5dfb 0bbd d564 0bbd 2353 10bd d869 cd3c
00000090: 1b94 1b3c b3d6 233d 1ead 8dbc 84dc 54bc
000000a0: c779 b2bc efcd 7a3a 5742 adb9 1f00 0e3d
000000b0: 0a1a 9c3c 5230 8b3b 68db 173d cfad 02bd
000000c0: 22f3 f0bc 0510 113c 3170 20bc 694c 4fbc
000000d0: e230 35bc 0e4a 8fbc dbf4 003d 1504 d33c
000000e0: 54fe c0bb 6f7a ed3c 8ba1 b6bc d545 443c
000000f0: b510 39bc 382a 143d f537 25bd 08df a33c
00000100: d694 1a3c 0866 8ebc b3f2 b63c 3bf0 7dbc
00000110: 60a3 84bc be69 de3c be6d dd3c 76f5 3fbc
00000120: c721 873b 1dfc 123d dfb7 563c d15f ee3c
00000130: f919 a3bc a3b3 01bd fc82 edbc e020 e03c
00000140: 7720 b23c 43a8 eebc fcb3 093d 6b95 0dbd
00000150: 2b78 3bbb 7c3f 25bd 8bc2 1abd 9e47 e9bc
00000160: a810 903c 9ba2 043d ab0e c0bb 6b93 7a3b
00000170: afa9 18bd eb80 523c 032c ff3c cb64 e7bc
00000180: 5614 233d b367 06bd 6354 dfbc de2b d03c
00000190: a3ca a3bb 66a8 3dbc 17fd 193d 58d3 f0bc
000001a0: ac2c d03c 7d87 25bd fc78 26bd 770e 17bd
000001b0: 1bce 533b a8e6 09bd c8ea e53b f02a 243c
000001c0: d3e8 84bc bed7 1abd d346 e7bc 8ce3 31bc
000001d0: d046 1e3d d678 0d3d 7c31 1b3c 621b 833c
000001e0: ff9e cb3c 027c c73c 905e a7bb f9ca 02bd
000001f0: 0d4d 88bc fd44 8cbc 6152 a33b 6640 cebc
00000200: 72bb f6bb b539 9e3c a800 8f3b 83a7 1f3d
00000210: 200a ba3c 288f 873c 0d63 23bd 0ed0 ab3a
00000220: e386 6abb cd46 083d e995 16bd e4c9 c13c
00000230: d595 b93c bae2 23bc f9a1 853c 0ad6 5e3c
00000240: 2bb3 dc3c 48f5 c6bc 1699 cb3c cb7c 353c
00000250: 2bf8 e4bc 90d6 a0bc ae61 bbbc 6ec0 21bd
00000260: ae52 0a3d 9620 32bc 73cd dcbc 4368 7ebc
00000270: 5bb1 23bd ecac 1b3d ab49 c3bc 5367 093d
00000280: 999d 0dbb 94b7 d7ba fd67 a23b 1bb9 df3b
00000290: 50a7 0bbd 4c5a 23bc ac87 fd3c 2897 943b
000002a0: 7efc 083c 1064 04bc 2f2b 0a3d 565f 0a3d
000002b0: b8bd 1dbd 4271 24bc 5aab 0e3d 007d f8bc
000002c0: ae16 e33c 6303 e33b 360e 21bd 5288 873c
000002d0: ab09 063d cb03 a1bc 2d88 09bc 3b71 44bc
000002e0: 5c7d 18bd 2233 94bc 814d 223d 1e9b 993c
000002f0: 33aa ffbc 7c7c 743b c7c7 153d 8766 103d
00000300: e01a f83c ddff 2d3c 45ad 113d 841a 0e3d
00000310: 7cf9 29bd 9094 03bd 6b25 d7bb 18cd 993a
00000320: 650c 393b 038c 1cbc ee78 2f3c 6025 82bc
00000330: 3cfa 143d 7b94 6ebc 0b5d a5bc 8911 023d
00000340: f1d1 01bd 462c eb3c e3ac 32bb a879 e0bc
00000350: 3585 12bd fd1c 073a 895e fe3c eca2 d1bc
00000360: 61b0 f23c 336a 04bd 9ace 973c ff6d cf3c
00000370: 5bf1 c9bc 611d 56bc 729d 673c 86c0 c03c
00000380: 8376 0bbd f537 ec3b 65c2 a8bb 50bb 393c
00000390: db15 e53a 6ed1 85bc 298f 0b3c f9b5 e03c
000003a0: 902b 1cbb 6ff1 cfbb ca53 b6bc 2365 ee3c
000003b0: 4790 853a a7ad 103d 43d9 583c ef98 f4bc
000003c0: bcb3 f23c f179 fdbb 8803 5ab9 0bc9 cc3c
000003d0: 2372 c93c ebcf 513b aef9 a6bc 2bb4 82bb
000003e0: 2eeb 13bd d626 d8ba 0be9 ecbb 3654 b4bb
000003f0: 3e5d c2bb d7c1 873c 1ffe bfbc c4b2 f73b
0.021899942 -0.014882213 -0.0014046547 0.025512401 -0.010820398 -0.0003691603 -0.033719942 0.008114209
-0.030387204 -0.007416318 0.012481327 -0.005271226 0.032086283 0.035478704 0.029926091 0.032057464
0.040411793 -0.036082275 -0.030973947 -0.037517767 0.022671025 0.035672795 -0.011646688 0.030448753
-0.033943146 0.02493575 0.013884789 -0.0102702165 0.015086629 -0.040448215 -0.035820253 -0.02646453
-0.034175266 -0.034031708 -0.035235535 0.025074884 0.00949576 0.039999675 -0.017294463 -0.012992028
-0.021786584 0.00095674297 -0.00033046558 0.034668084 0.019055385 0.0042477036 0.037074476 -0.031904038
-0.02941281 0.008853917 -0.0097923735 -0.012652495 -0.011059018 -0.017491367 0.031483512 0.025758782
-0.0058896933 0.028989045 -0.022293827 0.01197954 -0.011295487 0.036173075 -0.040336568 0.02000381
0.009434899 -0.017382637 0.022332525 -0.01549917 -0.016191185 0.027150031 0.027029868 -0.011716237
0.0041238996 0.035884965 0.013105362 0.029098423 -0.019909846 -0.031665456 -0.028993122 0.027359426
0.021743996 -0.029132968 0.033618912 -0.034566324 -0.0028605561 -0.040343747 -0.037783187 -0.028476533
0.017586067 0.032381635 -0.0058611236 0.003823484 -0.037271198 0.012848119 0.031148916 -0.028246304
0.039814316 -0.03281374 -0.027261918 0.025411543 -0.0049985214 -0.011575794 0.03759488 -0.029397652
0.025411926 -0.040412415 -0.040642723 -0.03687903 0.0032318893 -0.033667237 0.0070165135 0.010020003
-0.0162243 -0.037803404 -0.028232014 -0.010857474 0.03864175 0.034539066 0.009472247 0.016004268
0.024856089 0.024351124 -0.0051077083 -0.03193185 -0.016638303 -0.01712274 0.0049841856 -0.025177192
-0.0075296694 0.019314626 0.004364092 0.03897811 0.022709906 0.016547754 -0.039889384 0.001310827
-0.0035785965 0.033270646 -0.03676406 0.02365584 0.022654453 -0.010002786 0.016312586 0.013600836
0.026940903 -0.024286881 0.02485327 0.011077116 -0.027950367 -0.019633561 -0.022873726 -0.039490156
0.033770256 -0.010872027 -0.026953435 -0.015527788 -0.03996406 0.038006708 -0.023838839 0.033545803
-0.0021608828 -0.0016457909 0.004956244 0.006827486 -0.03409511 -0.009970259 0.030948482 0.004534621
0.00836098 -0.008080497 0.03373259 0.033782326 -0.038511008 -0.010036768 0.034831382 -0.030333042
0.027720775 0.006927894 -0.039320193 0.016544495 0.032724064 -0.019655129 -0.008394283 -0.011989887
-0.037228927 -0.018090788 0.039624695 0.018750723 -0.031209087 0.0037305644 0.036567476 0.035254028
0.030286252 0.010620085 0.035565633 0.034693256 -0.041497692 -0.032124102 -0.00656574 0.0011734096
0.0028236147 -0.009554866 0.010709984 -0.015886962 0.036371455 -0.014561768 -0.020185968 0.031755004
-0.031694356 0.028707635 -0.0027263693 -0.02740176 -0.035771567 0.0005154161 0.031050937 -0.025590383
0.02962512 -0.032327842 0.018531132 0.025321005 -0.02465122 -0.013068528 0.014136659 0.023529302
-0.03404857 0.007208819 -0.0051501268 0.011336163 0.0017477827 -0.016335215 0.008518019 0.027430521
-0.0023829676 -0.00634592 -0.02225675 0.02910096 0.0010190093 0.035321858 0.013235393 -0.02985808
0.02962672 -0.007735484 -0.00020791416 0.024998209 0.024590557 0.0032014798 -0.020382728 -0.003988763
-0.036112957 -0.0016491066 -0.0072299293 -0.005503203 -0.0059315255 0.016571922 -0.023436604 0.0075591523

convolutions.6.bias f4 [64]
00000000: 7fc9 1bbd e0b2 d23c eca8 283d 9d90 843b
00000010: 5cad 22bb 977a 0d3d 2a69 293d 9d79 903b
00000020: c1a9 373d 99ef f9bc 71f7 933c dcdc e8bc
00000030: b39d 25bd 0b77 193d fe8c 1c3d 21cb cc3c
00000040: 9972 f93c bedd d53c a0e9 2abd b487 16bc
00000050: 2ca1 37bb f356 263d e6d0 043d d333 423d
00000060: 448d f93b d88e 0abc eb36 40bd 1ba0 1a3d
00000070: 62c1 84ba d981 cb3c 4da6 a03c 7d20 2b3d
00000080: 854e 543d 069f 3d3d 87a5 10bc 1255 d83b
00000090: b2bd f23c 6b76 163d edcc 8eba f8cd 8fbc
000000a0: 623c 6c3c 70b4 ff3c b45f a63c cae6 8abc
000000b0: ffc5 ca3b c939 1dbc 5e5f 3abc dcc7 08bd
000000c0: 1493 09bd 67c4 30bc 3374 03bd 78cf d8bc
000000d0: 3f67 cdbc c847 febc 6b27 b4bc 9575 833c
000000e0: 8ffc f53c e437 1dbc 3242 1c3c 96ca b3bc
000000f0: bb66 393c fd18 52bc d9e2 d7bc 5a4e 083a
-0.03803396 0.02572006 0.04117672 0.0040455596 -0.0024822569 0.03454074 0.041360058 0.0044090287
0.044839624 -0.030509757 0.018062325 -0.028425626 -0.040433597 0.037467044 0.038220398 0.024999203
0.030450152 0.026106711 -0.04172671 -0.009187628 -0.002801965 0.040610265 0.032425784 0.047412705
0.007615717 -0.008456908 -0.046927374 0.037750345 -0.0010128433 0.02484219 0.019610548 0.04177903
0.051832695 0.046294235 -0.008828527 0.006601938 0.02963147 0.036734026 -0.0010894813 -0.017554268
0.014418693 0.031213969 0.020309307 -0.016955752 0.0061881538 -0.009596297 -0.011375276 -0.033393726
-0.03358753 -0.0107890135 -0.032093238 -0.026466116 -0.025073646 -0.031040087 -0.021991452 0.016047278
0.030027656 -0.009595845 0.009537267 -0.021947186 0.011315997 -0.0128233405 -0.026353287 0.00051996636

reconstruction.weight f4 [4, 64, 3, 3]
00000000: 4f7e 903c 66ab 403c 1bdd 0dbd 952f 1a3d
00000010: c1b5 a33c 46b5 c5bc aef2 743c e4df 62bb
00000020: b8b9 febc c5c6 193c 0040 913b f794 debc
00000030: 1f1b 1fbc f12d 093d 9170 b4bc 5f24 58bc
00000040: 00de 243d 1479 1f3d 4202 b33c 3a1e 1f3d
00000050: d031 b1bc 42fe f73c b342 1d3d b67d abbc
00000060: 764c 82bc d6be 2cbb 80c0 203d 6134 bebc
00000070: fe16 76bc 9927 afbc 3b89 65bc 0b12 46bc
00000080: 66b0 2b3c 6f4a 15bd 8997 dc3c 9430 f03c
00000090: 691c 69bc d1e9 323c 8bed 5c3c 55a4 cd3b
000000a0: 156e 3d3d 823e 49bc b521 8b3c 7fc4 3f3d
000000b0: a25e 2f3d ee08 f63c 3b6f 953c 9593 323b
000000c0: f7a3 28bc 65cb 013b 6064 b33a 7720 d53c
000000d0: e6c8 02bb 699e 2f3b 8f6a 3cbb 568c e33c
000000e0: 4412 b43c b072 ebbc 2c94 14bd 0833 25bc
000000f0: 2b9a 0ebd 67f0 3f3d 328c 593c 1979 cb3c
00000100: 8f3d a3bc bdfb 67bc a584 3fbc ed8e 123c
00000110: 1a96 b1bc f3d4 7f3c 8f64 483c b4d7 a0bc
00000120: 9a2a f93c baab 3d3d 0432 303b 6472 413a
00000130: 982c 3e3d bd89 1cbc 8a73 88bc 274b 1b3d
00000140: 4b50 67bc 9aa9 18bd f837 2dbc b638 21bd
00000150: 4276 963b dffe b5bb c7c4 793c ba0b 22bd
00000160: 6073 fcbc e5a5 debc 53d9 303d eb6f 2e3d
00000170: 4c16 9b3c 5927 833c 4715 04bb 13e3 8dbc
00000180: 3b2c 423d 3ff6 8abc 092a 43bc 731a 8b3c
00000190: 0942 063d 3fa4 15ba 387a 0b3d 3d97 97bc
000001a0: 6999 283d 2d08 843a 0cdb 2e3d ba0c f83c
000001b0: fda4 ae3c ac49 963c 1a8d 90bc 0a92 003d
000001c0: de06 553c bd82 a73c be0b 11bd f056 b1bb
000001d0: 274f 173d e7e2 113b a94d 2b3c 35df 113d
000001e0: dad2 ffbc 7164 3b3b 4f22 b43c 2c58 7bbc
000001f0: c74e 133c b0db b9bc 74f4 c43c 85bb 97bc
00000200: afb4 1a3c 41fb 2d3d 17dc 04bc 16ec c03c
00000210: e3b2 8c3b e8cc e93c f856 c1bb f22e 233d
00000220: a347 283d 1c11 4bbc 7385 ca3c a9f5 1f3b
00000230: fc51 5d3c f93d 073d d2ca 1a3d 7153 1abb
00000240: 8802 153d 4717 13bc 68f6 c3bc cb5d 01bb
00000250: 8119 283d cc13 103d 508e d73c b367 7d3c
00000260: d8c9 b53c 41c5 b4ba 19f8 f5bc 6473 283b
00000270: 84a0 90bb 4eb9 b03c fe7d f83b f045 e6ba
00000280: 8cef 393a cee8 383c 308d 8c3b 5a40 28bc
00000290: 32b7 b23c c05c daba 9606 0bbd bfd4 153d
000002a0: 3f52 e6bc 82a3 04bd a66a a93c 0c4a 33bc
000002b0: 0ba5 e13c a9a6 d03c d9d3 013d 05bc c6bc
000002c0: 4488 bf3c ea5b bfbc 362a be3c 5a68 86bc
000002d0: 5f17 e6bc 1d8d fcbc 97ca 0f3d 5887 a73c
000002e0: afd7 52bc 8e08 153d 2d72 44bc fbbb f5bc
000002f0: 8f72 ad3c 825d b7bc 6500 873b a874 99bc
00000300: 1bdd 223d cc6d 043d d8ac 30bc ff0e 323d
00000310: 7ca9 1dbc b1af 513c dfc3 153d 6646 cfbc
00000320: 501a dfbc f63a 283d 0a1b f73c 8f78 3cbc
00000330: dac7 193d e783 d2bc fb69 f6bc 5e52 de3c
00000340: 2103 41bc 1f84 f23c 4d7a bbbc d9e9 3f3d
00000350: e2bc 483d c118 523c b6c8 e63c 1956 243d
00000360: c65a 03bd 51db 543c 2303 113d 02c2 da3c
00000370: d28b ba3b ea2f b93c 808d 8cbc 47b9 673c
00000380: fa33 1e3b 36b2 3a3d 1867 493c b8f4 eebc
00000390: ed4b 273d e0a5 c63c 7ff9 e33c 6ebb 703b
000003a0: 10e5 6c3c 8955 50bc 929f 803c c4e8 0a3d
000003b0: b20f 0e3d 6a8a 50bc efe9 f6bc a80e 8d3c
000003c0: 4bbc 383c 41c9 e43c bcf0 c23c ee63 a93c
000003d0: 74fe 633c 9ea4 8d3c c4a9 c63c 6243 35bc
000003e0: 58c0 b1bc e7f7 07bc d126 753c 33b1 2a3c
000003f0: acc3 75bc b139 7d3b ca5c 933c f454 983a
0.017638354 0.011759615 -0.03463469 0.037643034 0.019984128 -0.02413429 0.0149504375 -0.0034618312
-0.031094417 0.009385769 0.004432678 -0.027170641 -0.009711056 0.03349108 -0.022026332 -0.013192265
0.04025078 0.03893383 0.021851663 0.038847186 -0.021630198 0.030272607 0.038393687 -0.020933967
-0.0159056 -0.0026358864 0.039246082 -0.023218336 -0.01502013 -0.021381186 -0.014009769 -0.012089263
0.010479068 -0.03644794 0.026927726 0.029320039 -0.014227965 0.010920004 0.013484369 0.0062756934
0.04624756 -0.012282969 0.016983846 0.046818253 0.04281486 0.030033555 0.018241515 0.002724861
-0.0102929985 0.001980507 0.001368653 0.026016457 -0.001995617 0.00267973 -0.0028750037 0.027776878
0.021981366 -0.02874121 -0.03627412 -0.010082968 -0.034814995 0.046860125 0.013278054 0.024838017
-0.019926814 -0.01415914 -0.01168934 0.008945209 -0.02167802 0.015614736 0.012231006 -0.019634105
0.030415822 0.04630635 0.002688528 0.0007379411 0.046429247 -0.009554324 -0.016656656 0.037913468
-0.014118264 -0.03727112 -0.010572426 -0.039360724 0.004591734 -0.0055540646 0.015244669 -0.039561965
-0.030816734 -0.027178714 0.043176007 0.042587202 0.01893153 0.016009973 -0.0020154284 -0.017320191
0.047405463 -0.016963122 -0.011911877 0.016980385 0.03277782 -0.00057083735 0.034052104 -0.018504733
0.04116193 0.0010073237 0.042689368 0.030279506 0.021318907 0.018345676 -0.017645407 0.031389274
0.013002126 0.020448083 -0.03541159 -0.005411975 0.03694072 0.0022260488 0.010455527 0.035613257
-0.031228472 0.0028593803 0.021989016 -0.015340846 0.00899095 -0.022687763 0.024042346 -0.018522033
0.009442492 0.042475943 -0.008109114 0.023550075 0.004293786 0.02854009 -0.00590026 0.039839692
0.041083943 -0.012394216 0.024721837 0.00244079 0.013508316 0.033018086 0.03779108 -0.002354827
0.036379367 -0.008977718 -0.023921207 -0.0019739743 0.041039947 0.03517513 0.026312977 0.015466618
0.022190973 -0.0013791696 -0.030025529 0.0025703544 -0.004413666 0.021572735 0.007583379 -0.001756845
0.0007092885 0.011285974 0.004289292 -0.010269249 0.02181587 -0.0016659722 -0.033941828 0.036579844
-0.02811539 -0.032382496 0.020680737 -0.010942947 0.027544519 0.025470095 0.031696174 -0.024259577
0.023380406 -0.023359258 0.023213487 -0.01640718 -0.028087316 -0.030829007 0.035105314 0.02045028
-0.012868806 0.03638511 -0.011990112 -0.029996863 0.02117279 -0.022383455 0.00411992 -0.018732384
0.039761644 0.032331273 -0.010783397 0.043471333 -0.009622928 0.012798236 0.03656375 -0.025302123
-0.027234226 0.041071855 0.03016426 -0.011503353 0.03754411 -0.025697662 -0.030079832 0.027138885
-0.011780531 0.029604016 -0.022885466 0.046853874 0.049008258 0.012823285 0.028171878 0.04012117
-0.03206899 0.012991742 0.035403382 0.026703838 0.0056929374 0.022605855 -0.017157316 0.014143295
0.0024139867 0.04558011 0.012292646 -0.029169425 0.040843893 0.024249017 0.02782893 0.003673281
0.01445891 -0.012715706 0.015701089 0.03391339 0.034682937 -0.012728313 -0.030140845 0.017218903
0.011275361 0.027927997 0.023796432 0.020677533 0.013915647 0.01729041 0.024250872 -0.011063429
-0.021698162 -0.008298851 0.014962868 0.010418224 -0.015000265 0.0038639123 0.017988581 0.0011621998

reconstruction.bias f4 [4]
00000000: d189 e43c 8d46 c23b 62ed 1abc 8c5a 193c
0.027897747 0.0059288205 -0.009456011 0.009359967
