decomposition/simple_retinex_model/weights_last_0.pt (torch, 668167 bytes, 24 tensors)

feature_extraction.weight f4 [64, 3, 9, 9]
-0.0058236914 -0.027021635 -0.018487576 -0.018789666 0.0011181588 -0.036468692 0.007352176 0.011443969
-0.03489674 -0.058986325 0.033716183 0.020665705 0.056665085 0.007929217 -0.025319947 -0.014848741
0.014058503 -0.02549523 -0.032916196 0.01315884 0.0043932903 -0.05372213 0.005066864 -0.04090025
-0.018180545 0.023579933 -0.0006095765 -0.020094737 -0.06438847 -0.016040115 0.046487704 -0.056738477
-0.04518485 -0.02960902 -0.020952625 -0.0411142 -0.06369269 0.046289712 0.05731454 0.043434866
0.044539332 -0.05011113 -0.058535963 0.025594002 0.047104973 0.04309274 0.0581195 -0.015333443
-0.0021650263 0.049881496 0.052192975 0.02635037 -0.043373525 0.031216921 -0.061467845 0.015593501
0.05586479 -0.055579074 -0.005071545 0.037413735 0.03985469 -0.027935566 -0.02020072 0.022825735
-0.034172934 0.043546602 -0.046237193 0.004451173 0.050368264 -0.058304813 -0.012944281 0.0022194204
-0.027402695 0.029662453 0.016109545 0.00799132 0.051348995 0.028907467 -0.014502619 -0.03457681
-0.0042363903 0.025708498 -0.047873948 -0.043312643 -0.017070815 -0.049172115 -0.025691008 -0.0106145255
0.055273842 0.05967608 0.043954343 -0.051155653 -0.0051076873 -0.052245285 -0.022534803 -0.010932297
0.029934162 0.00747738 0.036106847 0.0029672403 0.00979195 -0.033958223 -0.057926573 -0.006137133
0.040581256 0.017891033 -0.040599674 -0.061984926 0.057201844 -0.061511543 -0.05622355 -0.0065361224
-0.0379782 0.04075602 -0.06476815 0.004446727 -0.039810322 -0.02548051 -0.014342437 0.04783395
0.0581554 -0.055677377 0.040536918 -0.03501156 -0.062053777 -0.061415482 -0.019332992 -0.036963094
-0.056194503 -0.05422287 -0.05998665 -0.013822443 -0.06001461 0.040956967 -0.008803639 0.029727928
0.012323241 0.015531765 -0.05695996 -0.04321403 0.048706055 -0.024835497 -0.036209457 0.0039260937
0.05354421 -0.038238052 0.00980318 -0.05542158 -0.038435146 -0.030420003 0.048286866 -0.06539392
-0.062227804 0.055546302 -0.04917891 0.032277778 0.0047658714 -0.046132248 -0.003216126 -0.050540987
0.059719253 -0.055389468 0.008105818 -0.022866143 0.0034878703 -0.043182097 0.019177038 -0.01041897
0.006525073 -0.05663652 0.043332804 -0.0047478834 0.02261365 -0.022714151 -0.058837682 -0.06334763
-0.05037112 -0.049754996 0.014487804 -0.008920733 0.059490263 -0.032237377 0.041309502 0.034279644
0.02460608 0.0055435826 0.013503363 -0.0030329179 -0.06405177 -0.0062170248 -0.06406165 -0.011575488
-0.05388797 0.012328629 -0.06678536 -0.06499204 0.035936408 0.030551901 0.032845754 -0.008365026
0.017329974 0.049668074 -0.0476899 -0.015641889 0.05039105 -0.01957687 -0.058997046 0.020633385
0.0019379557 0.0059411824 -0.008320209 0.032671884 0.030269675 0.007333357 -0.007638139 0.027126968
-0.010722877 -0.061394237 -0.031321455 -0.027287003 -0.0029707493 0.04128978 -0.035951294 0.05554865
-0.060662754 0.01628647 0.002425758 -0.024787912 0.022637092 -0.028363809 0.023814311 -0.042709637
-0.015688702 0.03146981 -0.009057387 -0.01407055 -0.0024308804 -0.060705878 -0.015840398 0.014063229
-0.04382217 0.012256987 0.03811878 0.064718165 0.013616021 0.030639926 0.053821377 -0.05927655
0.049176957 0.00044416846 -0.027790073 0.04041234 -0.060626272 -0.053943746 0.028280867 0.02144151
00000000: aad4 bebb 7a5c ddbc 4273 97bc c9ec 99bc
00000010: 2f8f 923a 3260 15bd 86ea f03b 7c7f 3b3c
00000020: e2ef 0ebd a59b 71bd fb19 0a3d 204b a93c
00000030: a619 683d 8ce9 013c c76b cfbc 2248 73bc
00000040: a355 663c 5fdb d0bc 22d3 06bd 2d98 573c
00000050: 97f5 8f3b bc0b 5cbd f007 a63b 0587 27bd
00000060: 5eef 94bc b42a c13c fdcb 1fba b89d a4bc
00000070: 1ade 83bd 8f66 83bc e469 3e3d 9b66 68bd
00000080: c013 39bd 9e8e f2bc d7a4 abbc 5d67 28bd
00000090: 5071 82bd 489a 3d3d a7c2 6a3d c2e8 313d
000000a0: e06e 363d 5441 4dbd 68c3 6fbd 83aa d13c
000000b0: 25f1 403d 0382 303d b60e 6e3d 1f39 7bbc
000000c0: 1de3 0dbb 8a50 4c3d 4dc8 553d bbdc d73c
000000d0: 70a8 31bd a1ba ff3c b5c5 7bbd e27b 7f3c
000000e0: 7ad2 643d e2a6 63bd 342f a6bb 253f 193d
000000f0: ac3e 233d 21d9 e4bc fb7b a5bc 09fd ba3c
00000100: ebf8 0bbd ec5d 323d 3663 3dbd 25db 913b
00000110: f44e 4e3d 07d1 6ebd 4014 54bc b273 113b
00000120: 9e7b e0bc acfe f23c 2af8 833c 07ee 023c
00000130: 5353 523d 5acf ec3c 659c 6dbc 6aa0 0dbd
00000140: 6bd1 8abb a19a d23c 7917 44bd 9968 31bd
00000150: 18d8 8bbc b368 49bd f375 d2bc 8ce8 2dbc
00000160: d366 623d e86e 743d 7809 343d 9788 51bd
00000170: 635e a7bb 27ff 55bd e89a b8bc 611d 33bc
00000180: 7d38 f53c cf04 f53b c6e4 133d 0876 423b
00000190: 6a6e 203c c717 0bbd 6a44 6dbd 011a c9bb
000001a0: 8838 263d 3790 923c d84b 26bd e8e3 7dbd
000001b0: 7b4c 6a3d 87f3 7bbd aa4a 66bd f82c d6bb
000001c0: 078f 1bbd c9ef 263d 2aa5 84bd dab5 913b
000001d0: 2610 23bd 81bc d0bc 8afc 6abc 88ed 433d
000001e0: 5b34 6e3d f60d 64bd 0a0a 263d 4868 0fbd
000001f0: 1a2c 7ebd cd8e 7bbd 3960 9ebc 9d66 17bd
00000200: 352c 66bd cd18 5ebd 90b4 75bd 8777 62bc
00000210: e1d1 75bd 7ec2 273d 233d 10bc fc87 f33c
00000220: 6be7 493c f278 7e3c d94e 69bd 3201 31bd
00000230: 0080 473d d073 cbbc 5e50 14bd 76a6 803b
00000240: 2c51 5b3d 819f 1cbd 849d 203c bd01 63bd
00000250: 2c6e 1dbd 5f33 f9bc 73c8 453d 3fed 85bd
00000260: 95e2 7ebd 8584 633d d36f 49bd b435 043d
00000270: 072b 9c3b 2bf5 3cbd a4c5 52bb 1104 4fbd
00000280: 2d9c 743d 11e0 62bd 44ce 043c c751 bbbc
00000290: c194 643b b6df 30bd 2a19 9d3c 54b4 2abc
000002a0: 48d0 d53b b2fb 67bd bd7d 313d 2294 9bbb
000002b0: 4340 b93c 0713 babc c8ff 70bd 67bc 81bd
000002c0: f351 4ebd e5cb 4bbd 415e 6d3c 4428 12bc
000002d0: 10ac 733d 570b 04bd 2734 293d d068 0c3d
000002e0: b192 c93c f1a6 b53b 363d 5d3c ebc3 46bb
000002f0: 932d 83bd 2fb8 cbbb c132 83bd 1ea7 3dbc
00000300: a2b9 5cbd 05fe 493c c3c6 88bd 8c1a 85bd
00000310: 0e32 133d fb47 fa3c 4589 063d 760d 09bc
00000320: 97f7 8d3c c070 4b3d 7c56 43bd 6b23 80bc
00000330: d866 4e3d ac5f a0bc e3a6 71bd 5807 a93c
00000340: 0103 fe3a 40ae c23b 7c51 08bc f4d2 053d
00000350: 1cf8 f73c a84c f03b 5b49 fabb 6039 de3c
00000360: 02af 2fbc 8678 7bbd ed4a 00bd fe88 dfbc
00000370: e7b0 42bb 791f 293d aa41 13bd fb86 633d
00000380: 8279 78bd 346b 853c 77f9 1e3b 0510 cbbc
00000390: 6c71 b93c 385b e8bc 3b16 c33c 4df0 2ebd
000003a0: 9885 80bc 7de6 003d 6f65 14bc 2a88 66bc
000003b0: 684f 1fbb baa6 78bd b9c3 81bc 7569 663c
000003c0: e07e 33bd 88d1 483c 7022 1c3d f58a 843d
000003d0: bb15 5f3c 9500 fb3c ce73 5c3d f8cb 72bd
000003e0: c76d 493d 48df e839 02a8 e3bc 6987 253d
000003f0: 4153 78bd 1ef4 5cbd 47ad e73c 1ba6 af3c

feature_extraction.bias f4 [64]
0.016913397 -0.04905678 0.0167301 0.067008875 0.012839849 0.020655787 0.025645914 0.0067458204
-0.037807744 -0.018253285 0.040986296 -0.016515573 -0.029414497 -0.04397063 -0.040488698 0.021223562
0.05056728 0.048753764 -0.07311873 0.00800655 -0.060389504 0.05647781 -0.054119345 -0.031395372
0.047446292 -0.0351664 0.04915998 0.0023815956 -0.0031433096 0.044167418 -0.042615794 0.05547218
0.051380184 0.05785699 -0.001838825 -0.0650733 -0.01413194 0.04180172 0.049371768 -0.0065796184
-0.053227007 -0.058355942 0.04471407 -0.043336526 -0.041115142 0.05601436 0.0405543 -0.050047204
-0.059529513 0.033395704 0.022270648 0.038804837 0.046959408 -0.037567567 0.022321558 -0.051516164
-0.024988139 -0.05380918 -0.034357883 -0.020790232 -0.038927477 -0.059843335 -0.048758566 -0.024036385
00000000: f78d 8a3c c3ef 48bd 900d 893c f33b 893d
00000010: 3b5e 523c 5336 a93c 6117 d23c 0b0c dd3b
00000020: 4bdc 1abd ea87 95bc 3fe1 273d ab4b 87bc
00000030: acf6 f0bc 8c1a 34bd 7ad7 25bd 09dd ad3c
00000040: a31f 4f3d 07b2 473d 46bf 95bd e82d 033c
00000050: fc5a 77bd 4755 673d 3fac 5dbd 6f98 00bd
00000060: 0b57 423d a50a 10bd fa5b 493d 8b14 1c3b
00000070: fcff 4dbb e5e8 343d e68d 2ebd cc36 633d
00000080: 0774 523d 73fb 6c3d ba04 f1ba 2645 85bd
00000090: a789 67bc 4838 2b3d 0d3a 4a3d d799 d7bb
000000a0: 9004 5abd a406 6fbd 1a26 373d a481 31bd
000000b0: 5a68 28bd 506f 653d 441c 263d 4cfe 4cbd
000000c0: 38d5 73bd efc9 083d ef70 b63c d2f1 1e3d
000000d0: 8258 403d 73e0 19bd b3db b63c 9d02 53bd
000000e0: edb3 ccbc 0467 5cbd daba 0cbd 4750 aabc
000000f0: 6b72 1fbd 491e 75bd 10b7 47bd f4e7 c4bc

convolutions.0.weight f4 [64, 64, 3, 3]
0.021182979 -0.009567523 0.040633205 0.010634755 0.039135627 0.009823114 0.00015104913 0.007440918
0.016058432 -0.020904962 0.019019058 -0.004991188 -0.03964281 -0.013074736 -0.024037736 -0.012650887
-0.022295408 0.029597372 0.038800526 -0.015289434 0.02658341 -0.033002302 -0.013046202 -0.031362943
0.03827652 0.026745407 -0.022470495 0.020291265 -0.0024999334 -0.0021035194 0.029897507 -0.013566525
-0.0044561 0.0016421598 -0.03963775 0.037772566 -0.03169626 0.012252527 -0.039478283 0.00507396
-0.0011312709 -0.005363763 0.03050504 0.038936887 -0.0026337623 0.0073698806 -0.005468001 0.01635338
0.0041012247 -0.035318773 0.025600756 -0.024081554 -0.0027148412 0.021779114 0.019749625 -0.0008449694
0.0028456794 0.032624617 -0.036918506 -0.03665536 0.024034318 0.010282559 -0.018123308 -0.024739342
0.017755711 0.001520211 0.030901369 -0.019809455 0.0109817395 0.03441991 -0.0152548645 0.02735515
-0.014364714 -0.009635221 0.013884623 0.0052098637 0.032351844 -0.0038516682 0.02060643 0.010160261
0.0398229 0.0150054125 0.03869249 -0.0010448603 0.0010126331 -0.016173888 -0.028756142 0.012874579
0.031047769 0.014656969 0.027634457 -0.0080860555 0.011720321 -0.013913513 -0.005800558 -0.013262791
0.0019153804 -0.017625133 0.02686626 0.019727888 0.020343838 -0.02203492 0.036084592 -0.04084252
-0.005074174 -0.019439189 -0.0011173576 -0.032282814 0.029729674 -0.032800633 -0.017036743 -0.030371463
0.028707918 0.039444115 0.0044276244 -0.032154582 -0.003292967 0.0001885525 0.028397566 -0.03745753
0.0041930433 -0.024198497 -0.00031928063 -0.022613795 -0.0017807832 -0.037751675 -0.007517963 0.013196262
-0.018928025 -0.0030512274 -0.011075133 0.014865098 -0.036955807 -0.018934706 0.031430427 0.040215645
-0.020229666 -0.013907055 -0.01380701 -0.030924361 -0.03978842 0.044392277 -0.001167211 0.006448098
0.0502478 0.014513415 -0.0009928177 0.02202422 -0.009285121 0.015526872 -0.0038343049 0.006396559
0.024770485 -0.019750794 0.018259464 -0.03280428 -0.028660556 -0.005420033 0.0015974699 -0.0106439935
0.03506269 -0.021547727 -0.041294217 -0.04117865 0.039196085 -0.033970613 0.0027537388 -6.2532126e-05
0.0063615963 0.031230988 -0.039280716 -0.0107334405 -0.008392165 -0.023500064 0.024330845 0.018601386
0.0008709623 -0.008679055 -0.036951 -0.012874006 0.018455602 -0.0414472 0.00083750865 0.026915975
-0.024791498 0.019124549 -0.030345568 -0.017786188 -0.008494682 0.02646391 0.009825052 -0.02459276
-0.037757687 0.037400484 -0.0044700257 -0.03857298 0.040089455 -0.008006728 -0.018377967 0.0060391445
-0.009712224 -0.031245358 -0.011781668 0.034293655 0.021827329 0.032479152 0.025825528 -0.013309893
-0.0012177137 -0.013182148 0.011579189 -0.04099919 -0.017803762 0.023597276 0.03938667 0.0060308552
-0.028825572 0.03083539 -0.03622588 -0.04168557 -0.019363072 -0.03381604 -0.0053176954 -0.041015025
-0.029150696 -0.030415572 0.03663047 0.001777118 -0.026973361 -0.004444972 -0.026772035 -0.033602647
0.027203612 -0.0114488825 0.0016105195 -0.030061552 0.03294091 0.032800343 0.020837622 0.017866584
0.026994513 0.013085456 0.0014061998 -0.015351166 0.017920421 0.03617336 -0.014872861 0.0038029053
-0.011740218 0.011166426 -0.02003768 -0.0092858765 -0.021404652 -0.002165736 -0.005710951 -0.020633228
00000000: ed87 ad3c 1ac1 1cbc 016f 263d 653d 2e3c
00000010: ae4c 203d 20f1 203c f162 1e39 f2d2 f33b
00000020: f98c 833c e240 abbc dbcd 9b3c 1f8d a3bb
00000030: 8060 22bd 6b37 56bc c9ea c4bc aa45 4fbc
00000040: dca4 b6bc 3076 f23c 4ded 1e3d 8980 7abc
00000050: 74c5 d93c 6c2d 07bd bdbf 55bc 6e76 00bd
00000060: d7c7 1c3d 2f19 db3c 0b14 b8bc de39 a63c
00000070: ecd5 23bb 33db 09bb 9eeb f43c 2146 5ebc
00000080: 7a04 92bb bd3d d73a 315b 22bd 68b7 1a3d
00000090: f0d3 01bd d3be 483c fbb3 21bd 7643 a63b
000000a0: 2747 94ba 81c2 afbb b5e5 f93c 497c 1f3d
000000b0: 339b 2cbb 0a7f f13b eb2c b3bb 86f7 853c
000000c0: 9163 863b 6baa 10bd adb8 d13c ae46 c5bc
000000d0: 7aeb 31bb 1d6a b23c f7c9 a13c f080 5dba
000000e0: 947e 3a3b 64a1 053d dc37 17bd ee23 16bd
000000f0: 9ee3 c43c 2e78 283c 5577 94bc 29aa cabc
00000100: 6d74 913c d141 c73a de24 fd3c 7047 a2bc
00000110: c1ec 333c e4fb 0c3d 8aef 79bc e817 e03c
00000120: fa59 6bbc 0cdd 1dbc 547c 633c 81b7 aa3b
00000130: 5e83 043d 456c 7cbb d1ce a83c 3977 263c
00000140: 561d 233d 43d9 753c 047c 1e3d b2f3 88ba
00000150: 54ba 843a 1a7f 84bc 0092 ebbc e6ef 523c
00000160: e457 fe3c c923 703c a861 e23c 607b 04bc
00000170: 9706 403c 81f5 63bc 9b12 bebb 2d4c 59bc
00000180: 800d fb3a 9562 90bc a216 dc3c 619c a13c
00000190: 1fa8 a63c 9482 b4bc 70cd 133d 7c4a 27bd
000001a0: 4245 a6bb ef3e 9fbc 4d74 92ba fc3a 04bd
000001b0: a58b f33c f559 06bd a490 8bbc 93cd f8bc
000001c0: de2c eb3c 2790 213d 9b15 913b 86b4 03bd
000001d0: d2ce 57bb 2db6 4539 03a2 e83c 116d 19bd
000001e0: cc65 893b ed3b c6bc 1f65 a7b9 9140 b9bc
000001f0: 2b69 e9ba 80a1 1abd 3f59 f6bb 2235 583c
00000200: f20e 9bbc 1af7 47bb 7a74 35bc bd8c 733c
00000210: f95e 17bd f51c 9bbc 31bd 003d 29b9 243d
00000220: afb8 a5bc 6bda 63bc cc36 62bc 1655 fdbc
00000230: 2ff9 22bd add4 353d 1afd 98ba 914a d33b
00000240: a3d0 4d3d adc9 6d3c 6f21 82ba 236c b43c
00000250: 9f20 18bc 6c64 7e3c f648 7bbb 3a9a d13b
00000260: 79eb ca3c 6bcc a1bc df94 953c c85d 06bd
00000270: 8bc9 eabc 889a b1bb 3262 d13a 2564 2ebc
00000280: e59d 0f3d dc84 b0bc 2024 29bd f2aa 28bd
00000290: 138c 203d c524 0bbd 1278 343b ae23 83b8
000002a0: f074 d03b 21d8 ff3c d1e4 20bd 50db 2fbc
000002b0: 4b7f 09bc 3583 c0bc 7b51 c73c ef61 983c
000002c0: 4a51 643a 9832 0ebc ef59 17bd 7fed 52bc
000002d0: 3430 973c 8ac4 29bd 418c 5b3a e47e dc3c
000002e0: 8a17 cbbc 16ab 9c3c 4597 f8bc 57b4 91bc
000002f0: 472d 0bbc d7ca d83c 41f9 203c c176 c9bc
00000300: cea7 1abd 4031 193d 4b79 92bb b3fe 1dbd
00000310: d734 243d a72e 03bc 648d 96bc 04e4 c53b
00000320: 0520 1fbc 44f6 ffbc e607 41bc 8177 0c3d
00000330: 3acf b23c dc08 053d 0f90 d33c bd11 5abc
00000340: b19b 9fba f0f9 57bc a4b6 3d3c c4ee 27bd
00000350: 32d9 91bc 134f c13c eb53 213d 7b9e c53b
00000360: 9b23 ecbc 809a fc3c 9761 14bd 7dbe 2abd
00000370: 4e9f 9ebc b082 0abd 1040 aebb 5fff 27bd
00000380: 71cd eebc 142a f9bc d509 163d 2fee e83a
00000390: 3df7 dcbc 21a7 91bb 0751 dbbc eea2 09bd
000003a0: 1cda de3c 1894 3bbc 1118 d33a a543 f6bc
000003b0: 0ced 063d a759 063d a9b3 aa3c f15c 923c
000003c0: 9923 dd3c 6164 563c 3c50 b83a 7583 7bbc
000003d0: d9cd 923c 842a 143d 4dad 73bc 2a3a 793b
000003e0: 0b5a 40bc 63f3 363c 1026 a4bc ca23 18bc
000003f0: cf58 afbc 05ef 0dbb ee22 bbbb 0407 a9bc

convolutions.0.bias f4 [64]
0.02968733 -0.035441175 -0.032375775 0.0081075635 0.018408922 -0.022429423 -0.034165982 -0.022018623
0.041538242 0.028630888 -0.023946792 -0.030447029 -0.04417407 0.03135674 -0.023080567 -0.0117336
-0.01668192 0.0378778 -0.03926412 0.032496765 -0.00867219 0.009809559 0.0010733984 0.03239271
-0.020178586 0.0147527335 -0.017902613 0.013918952 -0.005631883 0.004253966 0.024966363 -0.006926049
-0.01664311 -0.0057537914 0.04781983 0.036925193 0.027511733 0.05351755 -0.024979029 -0.00038739754
0.043334402 -0.00813433 -0.014710797 0.0048035695 0.05095116 0.027534975 -0.037480548 0.010870416
-0.024351263 -0.007475804 0.0048989174 -0.0032734317 0.024165861 0.036038943 0.022208253 -0.027919024
-0.0189185 -0.011548341 0.043633204 -0.032325834 0.007337672 -0.011785868 -0.039837267 -0.010934282
00000000: d832 f33c c42a 11bd 769c 04bd 96d5 043c
00000010: 4fce 963c e9bd b7bc a1f1 0bbd 6660 b4bc
00000020: 0124 2a3d 538b ea3c 102c c4bc 0c6c f9bc
00000030: dfef 34bd ed6f 003d 7513 bdbc 493e 40bc
00000040: 86a8 88bc c125 1b3d 6ad3 20bd 541b 053d
00000050: cd15 0ebc 46b8 203c 46b1 8c3a 38ae 043d
00000060: 904d a5bc 73b5 713c 80a8 92bc 510c 643c
00000070: a98b b8bb da64 8b3b 4286 cc3c e9f3 e2bb
00000080: 2257 88bc 4d8a bcbb bade 433d df3e 173d
00000090: 4960 e13c 3835 5b3d d2a0 ccbc 9e1b cbb9
000000a0: 6a7f 313d da45 05bc 8e05 71bc 4367 9d3b
000000b0: 2ab2 503d 0791 e13c 3485 19bd d419 323c
000000c0: 4d7c c7bc 97f7 f4bb 1987 a03b 1287 56bb
000000d0: 7cf7 c53c 929d 133d 15ee b53c 70b6 e4bc
000000e0: f8fa 9abc 4135 3dbc bbb8 323d 1868 04bd
000000f0: db70 f03b 8319 41bc 672c 23bd b425 33bc

convolutions.2.weight f4 [64, 64, 3, 3]
0.040986747 -0.031179486 -0.014803792 -0.0001708776 0.031533003 0.03173768 -0.0024736437 0.02605532
0.029016828 0.010649116 -0.025113137 0.04166377 -0.018752811 0.0011425299 -0.01009251 0.012831998
0.0079551935 -0.0053459634 0.03476869 0.019851722 -0.041682772 0.031040533 0.015410764 -0.034293275
-0.024605844 -0.030120147 -0.01213104 -0.015268008 -0.027871467 0.02307261 -0.013319211 0.021249563
0.02282075 0.0069112587 -0.00926734 -0.037960667 0.011290455 -0.0036054794 0.032703646 0.015248216
0.01884246 0.04021255 0.0042486107 -0.013950616 0.03311843 0.015909368 0.013416852 0.019398637
-0.037261344 0.0066969595 -0.0010894128 0.0413161 0.016656907 0.03858024 -0.0029217717 0.0030915148
0.037366286 -0.0075915465 -0.029960506 0.0053089797 -0.013363583 -0.029918129 -0.040273193 0.0067817857
0.02545245 0.005020371 -0.006416548 0.024107145 0.0066477284 -0.03443201 -0.01599739 0.0105932
0.010275175 0.027209997 0.030882362 -0.035674658 -0.029005712 0.022017876 0.012798346 -0.022600373
-0.03865829 -0.002490826 -0.031916376 0.018346867 -0.006722345 -0.028978154 -0.025309827 -0.006274996
-0.0050302967 -0.029016564 0.029583167 -0.03750882 0.008374653 -0.028679853 0.039419778 -0.034946557
0.009659792 0.0058057853 -0.008823912 -0.036130007 -0.03011629 0.011619637 -0.010752947 -0.014008435
-0.035929725 0.011490901 -0.021475393 -0.02217577 0.015417748 -0.029641578 0.03817413 -0.033213384
0.007293405 0.04074241 -0.024680942 -0.03822349 -0.007326087 -0.03517117 -0.016042894 0.023184204
0.040344715 0.010903694 -0.038199455 0.0056438 -0.0149389375 -0.0021327585 0.0349474 0.010753144
0.017589904 0.014051616 0.035022028 0.017566886 0.015998093 0.032942057 0.005804144 -0.026327536
0.018069264 -0.006699239 0.039732866 -0.028344374 -0.03537454 -0.0051379576 -0.01503201 -0.00905766
-0.019066427 0.03885443 0.028521257 0.026684644 0.014751194 -0.036445763 0.01897702 0.0077838204
0.017817855 -0.009384152 0.0044703716 0.009065067 -0.039094254 0.008540551 -0.022608347 0.019112743
0.001759629 -0.02108768 -0.026492042 0.034099784 -0.036356293 0.034308285 0.03236503 0.03854429
0.024737025 -0.014753855 -0.00039177953 -0.006448339 0.007260707 -0.028313287 0.025386844 -0.012076145
-0.038771905 -0.018309543 0.034974597 0.010586951 -0.019268358 -0.0383502 -0.009049176 -0.0029948757
-0.009764638 -0.028377501 -0.019150112 0.027055329 -0.009216759 -0.0007274211 -0.014843353 0.021886222
0.020491662 -0.04120053 -0.025477929 -0.015951864 -0.03593435 -0.0093491245 -0.035983298 0.006400343
0.038181648 0.0012503591 0.037884317 0.032492857 -0.030300751 -0.029326832 -0.02313601 0.024103621
-0.004952193 0.006324962 0.0033702252 0.008831166 0.0042291186 -0.023477923 -0.035408624 0.036832597
-0.037132647 -0.005506437 -0.029035814 0.014127915 -0.022891108 0.030462317 -0.0068630376 0.01798589
0.032990515 -0.023422996 0.01399567 -0.003152323 -0.019291105 -0.009354927 -0.0054990053 0.032752935
0.011071957 0.015514203 -0.026099587 -0.01074915 -0.023182934 0.029830586 0.02640532 -0.016808549
0.038425796 0.0066529745 -0.024644498 -0.038197566 -0.0019793736 -0.005848988 0.015673686 0.01839873
0.004463471 0.027839327 -0.013259473 -0.022221992 0.003858634 -0.038492452 0.02352151 0.009392963
00000000: b8e1 273d 1f6c ffbc 9b8b 72bc 9b2d 33b9
00000010: c028 013d 5fff 013d db1c 22bb f771 d53c
00000020: b3b4 ed3c a179 2e3c 11ba cdbc a1a7 2a3d
00000030: 7f9f 99bc f1c0 953a 0e5b 25bc 4d3d 523c
00000040: 8056 023c 312d afbb 9d69 0e3d 14a0 a23c
00000050: 8ebb 2abd b748 fe3c 6e7d 7c3c 1b77 0cbd
00000060: 3292 c9bc 87be f6bc 45c1 46bc ab26 7abc
00000070: b452 e4bc c502 bd3c d238 5abc 9013 ae3c
00000080: 95f2 ba3c d777 e23b 0bd6 17bc a57c 1bbd
00000090: 9afb 383c e849 6cbb 42f4 053d a7d3 793c
000000a0: 815b 9a3c eab5 243d ee37 8b3b 2091 64bc
000000b0: 31a7 073d 5d54 823c 5bd2 5b3c e4e9 9e3c
000000c0: 5a9f 18bd 2b72 db3b a1ca 8eba 123b 293d
000000d0: 1174 883c 5006 1e3d 327b 3fbb 039b 4a3b
000000e0: 640d 193d 82c2 f8bb bc6f f5bc f3f6 ad3b
000000f0: eef2 5abc dd16 f5bc 81f5 24bd be39 de3b
00000100: a881 d03c ed81 a43b e841 d2bb 597c c53c
00000110: 30d5 d93b 9408 0dbd f50c 83bc 1a8f 2d3c
00000120: 3559 283c 80e7 de3c 02fd fc3c 971f 12bd
00000130: 639d edbc d55e b43c 27b0 513c 6b24 b9bc
00000140: 2858 1ebd 203d 23bb bfba 02bd 2b4c 963c
00000150: 1e47 dcbb 9863 edbc 8e56 cfbc 7b9e cdbb
00000160: 30d5 a4bb 25b4 edbc 6658 f23c d9a2 19bd
00000170: d735 093c 03f2 eabc a276 213d 1f24 0fbd
00000180: 1b44 1e3c 753e be3b 2b92 10bc 0ffd 13bd
00000190: 70b6 f6bc 4a60 3e3c 212d 30bc a383 65bc
000001a0: 0c2b 13bd 5544 3c3c 2aed afbc f6a9 b5bc
000001b0: b99a 7c3c e5d2 f2bc 7a5c 1c3d c20a 08bd
000001c0: 84fd ee3b 83e1 263d b02f cabc 3c90 1cbd
000001d0: ac0f f0bb a50f 10bd 636c 83bc cdec bd3c
000001e0: 8040 253d 68a5 323c 0877 1cbd a0ef b83b
000001f0: 72c2 74bc c0c5 0bbb 0125 0f3d f42d 303c
00000200: b418 903c c038 663c 4273 0f3d 6ee8 8f3c
00000210: 6f0e 833c 40ee 063d b030 be3b d8ac d7bc
00000220: fe05 943c 4a85 dbbb eebe 223d 7632 e8bc
00000230: e5e4 10bd 505c a8bb d248 76bc 9466 14bc
00000240: 3231 9cbc d325 1f3d 69a5 e93c c199 da3c
00000250: feae 713c 2748 15bd b275 9b3c 6b0f ff3b
00000260: c0f6 913c fcbf 19bc 327c 923b a685 143c
00000270: 4c21 20bd abed 0b3c 2435 b9bc 5492 9c3c
00000280: 5aa3 e63a 12c0 acbc d705 d9bc 37ac 0b3d
00000290: 56ea 14bd d886 0c3d 3291 043d 9ee0 1d3d
000002a0: 4da5 ca3c 27ba 71bc c267 cdb9 974c d3bb
000002b0: 3aeb ed3b 44f1 e7bc 12f8 cf3c 06db 45bc
000002c0: 4acf 1ebd e5fd 95bc 8641 0f3d e474 2d3c
000002d0: add8 9dbc 1915 1dbd ff42 14bc ad45 44bb
000002e0: dcfb 1fbc ef77 e8bc b2e0 9cbc 23a3 dd3c
000002f0: e401 17bc 67b0 3eba 8931 73bc bc4a b33c
00000300: 21de a73c e3c1 28bd 17b7 d0bc 7cad 82bc
00000310: e62f 13bd 122d 19bc 3963 13bd f8b9 d13b
00000320: 5c64 1c3d 17e3 a33a 962c 1b3d 3b17 053d
00000330: 4839 f8bc d33e f0bc bb87 bdbc f574 c53c
00000340: 0146 a2bb a041 cf3b ffde 5c3b 98b0 103c
00000350: 6b94 8a3b c654 c0bc a208 11bd c7dd 163d
00000360: 6718 18bd 576f b4bb 84dc edbc c578 673c
00000370: 2286 bbbc 1c8c f93c 55e3 e0bb 2557 933c
00000380: 1021 073d 95e1 bfbc 184e 653c 3497 4ebb
00000390: 6108 9ebc 6845 19bc 0031 b4bb f127 063d
000003a0: 2767 353c 492f 7e3c cdce d5bc 341d 30bc
000003b0: 23ea bdbc 465f f43c f84f d83c 15b2 89bc
000003c0: 5e64 1d3d 3201 da3b 42e3 c9bc 0d75 1cbd
000003d0: 61b8 01bb dea8 bfbb 1a66 803c efb8 963c
000003e0: 4f42 923b 4d0f e43c 433e 59bc e50a b6bc
000003f0: 23e1 7c3b 43aa 1dbd 2fb0 c03c f1e4 193c

convolutions.2.bias f4 [64]
-0.037900865 -0.03172616 -0.041199632 -0.040856726 0.000831565 -0.004385599 0.004429221 -0.044632908
0.020701054 -0.01867994 0.026771868 -0.03284745 0.038347304 0.045601033 0.011530704 0.033477254
0.03240115 -0.0256146 -0.03997826 -0.026085382 0.017772546 0.0033829147 0.03799009 0.036065526
0.0065107043 0.021882987 0.021114005 -0.033200044 0.00049479184 -0.022678547 0.021644676 0.023851464
-0.014048132 0.017088303 0.015467026 0.004253224 -0.0007279854 0.017409682 -0.015491604 -0.041235592
0.010649859 0.023268443 0.014186215 -0.03228517 -0.0015937851 -0.00036659196 -0.020131428 0.011416181
0.0159353 0.0282997 -0.007295901 0.006679306 -0.021352658 0.003309691 0.008603606 -0.0010609878
0.044963244 0.03443787 0.017698266 0.033579834 0.0020009428 0.03635578 -0.024786385 -0.019962592
00000000: f03d 1bbd 4af3 01bd f2c0 28bd 6259 27bd
00000010: 62fd 593a 12b5 8fbb 0023 913b ffd0 36bd
00000020: 4295 a93c ac06 99bc ad50 db3c 0c8b 06bd
00000030: 1012 1d3d 26c8 3a3d 47eb 3c3c 721f 093d
00000040: 11b7 043d b6d5 d1bc 3ec0 23bd 03b1 d5bc
00000050: bb97 913c e4b3 5d3b 7f9b 1b3d 72b9 133d
00000060: bf57 d53b f343 b33c 47f7 ac3c c5fc 07bd
00000070: ebb4 013a 5cc8 b9bc 2d50 b13c 2564 c33c
00000080: 232a 66bc c5fc 8b3c 6969 7d3c a15e 8b3b
00000090: 46d6 3eba c09e 8e3c 7fd0 7dbc a7e6 28bd
000000a0: bf7c 2e3c 769d be3c 4c6d 683c 743d 04bd
000000b0: 8ee6 d0ba 2433 c0b9 aaea a4bc ef0a 3b3c
000000c0: bf8a 823c c6d4 e73c 7412 efbb 14de da3b
000000d0: c5eb aebc 67e7 583b 24f6 0c3c d810 8bba
000000e0: 612b 383d b90e 0d3d f4fb 903c 028b 093d
000000f0: 4022 033b cce9 143d d10c cbbc 9788 a3bc

convolutions.4.weight f4 [64, 64, 3, 3]
0.0076298956 0.00717875 -0.013135433 0.013103638 0.0024661617 -0.0016285355 0.0037928317 0.029215503
-0.04214309 -0.018780597 -0.036930665 0.017613467 0.017396146 -0.02620969 0.03293998 -0.0042300345
0.027385324 -0.03306993 0.035568234 -0.019156095 -0.035721093 0.026298782 -0.03827499 -0.015931841
-0.039005976 -0.027757986 -0.028678186 0.035532348 -0.00068496057 0.03248604 -0.008066469 0.00807504
-0.0065566376 0.035484824 0.032257926 -0.021900522 -0.0010724546 0.033593513 0.028545618 0.034006193
-0.0042017153 0.038330954 -0.010365042 0.007671755 -0.023255244 0.023112947 -0.03498735 -0.003006491
-0.037700653 -0.0072972984 0.009117852 0.027406726 -0.010636547 0.033467837 0.0041345763 -0.037470814
-0.020853022 -0.019212566 0.015751816 0.043576498 0.015293428 -0.006149651 -0.019593973 -0.036248483
-0.009768596 0.0022937134 0.021736033 0.031315785 -0.034555923 -0.02714671 -0.035989348 0.044854905
-0.0054578027 -0.0033323378 0.022277325 0.032837044 -0.0024523917 0.024749931 -0.00677394 0.011554442
-0.021107163 -0.02973009 -0.0046983156 -0.024813537 -0.008311999 0.03882152 0.0046357573 0.028835759
0.029761234 -0.03091848 -0.025810301 0.0023094283 0.02256702 -0.015197211 0.00096879015 0.019448254
0.029006904 0.034085933 -0.03589022 0.03984198 -0.011903523 0.040299576 0.039516486 0.00072408107
0.021341197 -0.009001142 -0.022692086 -0.035334688 -0.012337907 0.010962175 0.024280958 0.0050164135
-0.0102807265 0.033455376 0.0035349503 0.029480152 0.0061460435 0.028541889 -0.0027037929 -0.013417531
-0.02405412 -0.030580439 -0.04015192 0.015188636 -0.034559928 0.018218534 0.020373475 0.006323716
-0.0002773199 -0.0309139 -0.01790774 0.0071268175 -0.030051589 -0.0057879887 0.009088336 -0.007840035
-0.034464695 -0.028083088 -0.013062226 0.00021089923 -0.032176785 -0.0055329474 0.015780581 0.019447995
0.01694943 -0.020306502 0.0051078605 -0.004615192 0.004045511 0.011128061 -0.012562159 -0.0038174272
-0.017517256 -0.026782772 -0.02915061 0.034237534 -0.019584667 0.02506944 -0.010180705 -0.036147352
0.028758008 -0.0001411043 0.0039872224 -0.0037113489 0.0397782 0.010598262 -0.020229533 0.00993332
-0.02985094 -0.026147231 -0.040930666 -0.014615773 -0.034927044 -0.025346797 -0.03359252 0.034226343
-0.0059851543 -0.0101319505 0.0018061483 0.0153090395 0.022720793 -0.018876709 -0.04098425 -0.016317649
0.015809212 0.008719739 -0.0053043594 -0.012630811 0.033680473 -0.00023786128 0.005687223 -0.038510058
0.017798612 -0.0067016105 -0.012295578 -0.03986082 -0.017322376 -0.020286104 -0.022715984 0.027716165
8.057462e-05 0.02626245 0.014604915 0.014605263 0.016086323 0.016026646 -0.0032308958 0.023306865
-0.0045769997 -0.0017564949 -0.023236465 -0.00201786 0.013663675 -0.035569828 0.01014988 0.0093928855
0.03948727 0.022427287 0.0069277454 0.013677308 0.019190669 -0.03297685 -0.033584256 -0.0408571
-0.01562204 -0.015281053 0.0046251505 -0.023839884 0.03399677 -0.022478161 -0.039953537 0.035775464
-0.019590734 -0.021016786 0.0029922717 -0.019081691 -0.027419837 -0.031092698 0.013370867 -0.019581618
-0.022775894 0.01678119 0.0315698 0.042382892 -0.0075625614 -0.024582108 0.017774222 0.028734945
0.040765032 0.032957427 0.031020187 0.04467592 0.018917851 0.03792172 0.018933035 0.033040132
00000000: 3404 fa3b b83b eb3b 0036 57bc a4b0 563c
00000010: 549f 213b 9574 d5ba 2891 783b 5a55 ef3c
00000020: 3c9e 2cbd c4d9 99bc 9c44 17bd 1e4a 903c
00000030: 5d82 8e3c b4b5 d6bc 13ec 063d 1a9c 8abb
00000040: 3057 e03c 5674 07bd ffaf 113d 3eed 9cbc
00000050: 4850 12bd 8b70 d73c 3cc6 1cbd 7e83 82bc
00000060: bbc4 1fbd b764 e3bc 84ee eabc 5e8a 113d
00000070: ed8e 33ba 1510 053d 3929 04bc 2c4d 043c
00000080: 10d9 d6bb 8958 113d e320 043d b968 b3bc
00000090: 9b91 8cba 5a99 093d 80d8 e93c 144a 0b3d
000000a0: 8bae 89bb eb00 1d3d 23d2 29bc 5863 fb3b
000000b0: c881 bebc 5d57 bd3c e54e 0fbd 8d08 45bb
000000c0: 006c 1abd 2d1e efbb 0b63 153c 1284 e03c
000000d0: e944 2ebc 9215 093d 577b 873b ff7a 19bd
000000e0: f5d3 aabc ac63 9dbc f409 813c 457d 323d
000000f0: 4991 7a3c 0383 c9bb 8a83 a0bc 4a79 14bd
00000100: 760c 20bc 2052 163b c40f b23c fb44 003d
00000110: 838a 0dbd c762 debc 9169 13bd c7b9 373d
00000120: 5ed7 b2bb 5a63 5abb f07e b63c 2380 063d
00000130: 4eb8 20bb 5ec0 ca3c edf7 ddbb d84e 3d3c
00000140: eee8 acbc 858c f3bc 54f4 99bb c245 cbbc
00000150: 0d2f 08bc 5003 1f3d 8de7 973b f838 ec3c
00000160: d5cd f33c c148 fdbc 2070 d3bc c759 173b
00000170: 79de b83c b9fd 78bc 68f6 7d3a f251 9f3c
00000180: e39f ed3c b19d 0b3d a001 13bd 5831 233d
00000190: fe06 43bc 2b11 253d 0adc 213d 42d0 3d3a
000001a0: bcd3 ae3c 8779 13bc c1e4 b9bc 1bbb 10bd
000001b0: ef24 4abc b29a 333c dce8 c63c ba60 a43b
000001c0: 7e70 28bc 8108 093d a0aa 673b 5c80 f13c
000001d0: c064 c93b aed0 e93c 1e32 31bb 34d5 5bbc
000001e0: 250d c5bc d483 fabc 5776 24bd c2d9 783c
000001f0: b68e 0dbd 093f 953c 46e6 a63c 2d37 cf3b
00000200: 3f65 91b9 263f fdbc 41b3 92bc 1488 e93b
00000210: c02e f6bc 2ba9 bdbb 3ee7 143c 7d73 00bc
00000220: da2a 0dbd 810e e6bc f202 56bc d524 5d39
00000230: cecb 03bd ba4d b5bb 4746 813c 6751 9f3c
00000240: 88d9 8a3c d259 a6bc d75f a73b 093b 97bb
00000250: 3590 843b 7952 363c 84d1 4dbc cd2d 7abb
00000260: 5980 8fbc 8b67 dbbc 43cd eebc a83c 0c3d
00000270: 0670 a0bc 6d5e cd3c f9cc 26bc 3f0f 14bd
00000280: ea95 eb3c 66f5 13b9 3fa7 823b 1a3a 73bb
00000290: 77ee 223d 55a4 2d3c 68b8 a5bc 5dbf 223c
000002a0: f589 f4bc b832 d6bc eaa6 27bd ff76 6fbc
000002b0: a90f 0fbd 16a4 cfbc 4f98 09bd ec30 0c3d
000002c0: 1d1f c4bb 7b00 26bc 48bc ec3a c4d2 7a3c
000002d0: f520 ba3c 54a3 9abc 1adf 27bd 97ac 85bc
000002e0: 5282 813c 3cdd 0e3c 31d0 adbb 76f1 4ebc
000002f0: 89f4 093d 676a 79b9 e25b ba3b b9bc 1dbd
00000300: 65ce 913c 2f99 dbbb 6473 49bc 1945 23bd
00000310: a8e7 8dbc 0b2f a6bc df16 babc 030d e33c
00000320: 2bfa a838 5924 d73c 7449 6f3c ea4a 6f3c
00000330: 77c7 833c 504a 833c 70bd 53bb 0aee be3c
00000340: a8fa 95bb 303a e6ba 665a bebc 133e 04bb
00000350: 9bdd 5f3c abb1 11bd af4b 263c 9ee4 193c
00000360: 67bd 213d 6eb9 b73c 2402 e33b ca16 603c
00000370: c035 9d3c bc12 07bd a58f 09bd c659 27bd
00000380: 96f3 7fbc 625d 7abc 938e 973b dc4b c3bc
00000390: 3240 0b3d 1f24 b8bc 52a6 23bd 4b89 123d
000003a0: bf7c a0bc 652b acbc fd19 443b 3551 9cbc
000003b0: 919f e0bc 1db6 febc 7b11 5b3c a169 a0bc
000003c0: 8394 babc b578 893c 564f 013d af99 2d3d
000003d0: 5dcf f7bb 6b60 c9bc 3f9b 913c 8c65 eb3c
000003e0: 3cf9 263d 5efe 063d 0c1e fe3c 19fe 363d
000003f0: 9cf9 9a3c ce53 1b3d 7419 9b3c 1755 073d

convolutions.4.bias f4 [64]
0.032212883 -0.0068077636 -0.02052899 -0.0051413584 -0.000198566 -0.03340934 -0.022266788 -0.0416141
-0.028769774 -0.005455187 0.020208588 -0.040440407 0.012263612 0.030749716 0.020401072 -0.026891254
0.0036339858 0.041122165 -0.013742492 0.026009629 -0.006312053 0.018230414 -0.006274261 -0.040370606
-0.018146163 -0.016101662 0.025748894 -0.039954484 -0.04035949 -0.025874512 0.03367679 -0.0010795182
-0.012170733 -0.0017814438 0.017999515 -0.0207626 0.03704674 -0.038892806 -0.0035306434 -0.026357919
0.006640812 -0.021737216 -0.02778292 0.010600322 0.02824961 -0.0046669217 -0.028647708 0.029882347
0.019954028 0.017888365 0.011485957 0.0248187 -0.025548445 -0.029757377 -0.033065133 -0.030439854
0.039864138 0.030877814 0.037652645 0.0022990159 0.042449027 -0.024828074 -0.022269452 -0.0068037524
00000000: a8f1 033d a913 dfbb 6a2c a8bc d778 a8bb
00000010: 2836 50b9 3bd8 08bd d768 b6bc 8c73 2abd
00000020: 97ae ebbc 6dc1 b2bb 7b8c a53c d7a4 25bd
00000030: 51ed 483c d4e6 fb3c 2620 a73c 0c4b dcbc
00000040: 2a28 6e3b b76f 283d 3028 61bc 2512 d53c
00000050: 57d5 cebb f357 953c 5198 cdbb a65b 25bd
00000060: 43a7 94bc a2e7 83bc 58ef d23c 50a7 23bd
00000070: fe4f 25bd c9f6 d3bc acf0 093d 9f7e 8dba
00000080: c167 47bc 567f e9ba b873 933c 5416 aabc
00000090: 53be 173d 104e 1fbd 5e62 67bb 90ec d7bc
000000a0: 2b9b d93b 3f12 b2bc 0299 e3bc f9ac 2d3c
000000b0: ba6b e73c faec 98bb 99ae eabc d3cb f43c
000000c0: a176 a33c 9f8a 923c 982f 3c3c 9650 cb3c
000000d0: f94a d1bc bec5 f3bc 4e6f 07bd 005d f9bc
000000e0: 9448 233d 78f3 fc3c a939 1a3d 16ab 163b
000000f0: 08df 2d3d 3f64 cbbc 6d6e b6bc 03f2 debb

convolutions.6.weight f4 [64, 64, 3, 3]
-0.024482697 0.03249187 0.03734343 -0.002264164 -0.02357256 -0.016313307 0.009566209 0.04443728
-0.029791472 0.006309923 0.018567089 -0.032471742 -0.03173624 0.012176567 -0.019246032 -0.0025556905
-0.016924992 0.0007199671 0.026820518 0.018671343 0.009581364 -0.015480434 -0.031864025 -0.023278162
0.02417506 -0.03359401 -0.017883422 0.015342778 0.041343406 -0.0338839 0.017607357 -0.013174417
-0.018417174 -0.040288266 -0.0029992564 0.020449108 -0.023387913 -0.013349635 0.032065906 0.026389457
-0.021081973 0.034991667 0.0064013326 0.023822725 0.01629894 -0.008286388 0.03618093 0.032167457
0.03392297 -0.021093829 0.017477551 -0.01839536 -0.016594749 0.016757257 0.04030547 0.038521476
-0.0012115813 -0.03330436 -0.01992626 -0.015683565 -0.014443283 -0.030129798 -0.01303659 -0.019334504
-0.026130175 0.036039654 -0.034609914 -0.028030049 0.0184123 0.020312043 0.03144449 0.022128267
-0.022094125 -0.022113988 -0.004746873 -0.012041749 -0.027515236 0.02806888 -0.017021054 0.0038976162
-0.023855938 -0.02521737 0.008970796 -0.013327235 -0.013642054 0.0038865977 -0.02959549 0.044733804
0.02132932 -0.021680366 -0.001440357 0.02010076 -0.007932529 -0.0070426073 0.018186629 0.0106315855
-0.023398848 0.01976634 0.0072584976 0.032669917 0.041945595 -0.025218526 0.03944883 -0.028939407
0.001770211 0.029182928 0.0008249652 0.014805542 0.03652474 -0.009631621 0.008668022 -0.042578235
-0.033977766 -0.01710334 0.004306808 -0.044830624 -0.013943949 -0.029269628 0.02984587 0.036992032
-0.00012652352 0.042829942 0.014557011 -0.019054502 0.024225269 0.031065095 -0.034262143 0.012406246
0.004813473 0.0037681533 0.024718743 0.03585443 -0.039558116 -0.028735466 -0.014753854 -0.030940965
-0.0066491053 0.023188135 0.029035421 0.006098048 0.041536223 0.0003324081 0.018321367 0.00784838
0.02795027 0.007217266 -0.0060434565 -0.034007717 -0.009969063 -0.0013311611 -0.016383277 0.03548186
0.012502288 0.009627567 -0.010377592 -0.039991666 -0.02752282 0.031070743 -0.020578511 0.009189837
0.0064573316 -0.040885698 -0.0023235145 0.011185827 -0.010413623 -0.0025251007 -0.03333903 0.006947968
-0.013312756 0.0315515 0.029005209 0.0107367 0.034777682 0.029915586 -0.013270084 -0.01759901
0.024681304 -0.037409347 0.036813702 0.03135709 -0.025324972 0.03684568 0.0032235764 0.024237987
0.028408565 0.03141837 0.00022811054 -0.0032584576 0.007247268 0.031128379 -0.037760757 0.0007347189
-0.03282609 -0.037136894 0.022344701 0.012136986 -0.009210203 -0.028370647 0.03235526 -0.026849624
0.005204124 -0.026469616 -0.031432826 -0.009826324 -0.04147094 0.037757777 -0.034793768 0.015664315
0.015950596 0.022946239 -0.022900596 0.022553101 0.033734642 -0.025236279 0.04146374 -0.03323176
-0.03550409 0.009277596 0.029766593 -0.03444388 -0.0150645375 0.027464459 -0.008611755 -0.03321393
0.01656132 -0.03329969 -0.022195943 0.023292203 0.015174734 -0.039709166 -0.0127287945 0.030037463
0.036632758 -0.017164366 -0.04604133 0.01456937 0.0020055121 -0.028766956 -0.015662089 0.03330809
-0.040937256 0.030866703 -0.0078357775 0.020467188 0.004911691 0.037261616 -0.04075598 -0.0387536
0.0350846 0.009759173 0.028232917 -0.021927059 -0.017273437 -0.03846134 0.0014101685 -0.0067262067
00000000: f08f c8bc 3216 053d 6df5 183d 5e62 14bb
00000010: 3e1b c1bc 7ca3 85bc 97bb 1c3c de03 363d
00000020: 3f0d f4bc 78c3 ce3b 021a 983c 1701 05bd
00000030: dcfd 01bd 3980 473c dba9 9dbc 5f7d 27bb
00000040: 48a6 8abc 2dbc 3c3a b4b6 db3c a5f4 983c
00000050: 27fb 1c3c a5a1 7dbc da83 02bd d8b1 bebc
00000060: c70a c63c df99 09bd 4180 92bc 4660 7b3c
00000070: b457 293d d8c9 0abd 4e3d 903c 83d9 57bc
00000080: 9ddf 96bc 4f05 25bd 2c8f 44bb e384 a73c
00000090: 0298 bfbc 6db8 5abc 8a57 033d b42e d83c
000000a0: 1ab4 acbc 6c53 0f3d 45c2 d13b e027 c33c
000000b0: 5b85 853c a1c3 07bc 7432 143d 06c2 033d
000000c0: d0f2 0a3d f7cc acbc 152d 8f3c deb1 96bc
000000d0: b6f1 87bc 8446 893c 5917 253d b2c8 1d3d
000000e0: eccd 9eba 276a 08bd 653c a3bc d27a 80bc
000000f0: 85a3 6cbc c4d2 f6bc 6c97 55bc 6563 9ebc
00000100: f30e d6bc 519e 133d 20c3 0dbd 469f e5bc
00000110: 64d5 963c 7165 a63c f0cb 003d 5746 b53c
00000120: bdfe b4bc 6528 b5bc a88b 9bbb c24a 45bc
00000130: a267 e1bc b5f0 e53c bd6f 8bbc 266f 7f3b
00000140: 876d c3bc a894 cebc 3ffa 123c 7a5a 5abc
00000150: ec82 5fbc 4ab6 7e3b 3e72 f2bc cb3a 373d
00000160: d3ba ae3c 069b b1bc 5cca bcba 59aa a43c
00000170: 70f7 01bc acc5 e6bb 20fc 943c 1a30 2e3c
00000180: f1ae bfbc 05ed a13c b1d8 ed3b e4d0 053d
00000190: 25cf 2b3d 1597 cebc 1995 213d 5612 edbc
000001a0: 6d06 e83a 0911 ef3c 7a42 583a f292 723c
000001b0: f79a 153d f2cd 1dbc 5204 0e3c 8466 2ebd
000001c0: 452c 0bbd 4e1c 8cbc 2020 8d3b 51a0 37bd
000001d0: 2975 64bc dcc6 efbc 537f f43c f584 173d
000001e0: 66ab 04b9 736e 2f3d 8880 6e3c 3018 9cbc
000001f0: 1274 c63c 3a7c fe3c 7656 0cbd 9143 4b3c
00000200: 57ba 9d3b 1ff3 763b f67e ca3c 18dc 123d
00000210: b107 22bd a466 ebbc 26ba 71bc e877 fdbc
00000220: bde0 d9bb 0bf5 bd3c b1db ed3c 22d2 c73b
00000230: e321 2a3d 0f47 ae39 b116 963c 7e96 003c
00000240: f7f7 e43c d17e ec3b 3008 c6bb ad4b 0bbd
00000250: 4855 23bc 5b7a aeba 3936 86bc 6d55 113d
00000260: 66d6 4c3c f1bc 1d3c c706 2abc 4dce 23bd
00000270: 8977 e1bc 1288 fe3c 4494 a8bc f890 163c
00000280: 0698 d33b c377 27bd 1b46 18bb c244 373c
00000290: e79d 2abc 297c 25bb 828e 08bd c8ab e33b
000002a0: bf1d 5abc 253c 013d 559c ed3c fce8 2f3c
000002b0: 0b73 0e3d 8811 f53c c46a 59bc cd2b 90bc
000002c0: 7230 ca3c 8b3a 19bd f7c9 163d 4b70 003d
000002d0: 5176 cfbc 7feb 163d a342 533b be8e c63c
000002e0: 14b9 e83c 8cb0 003d f530 6f39 d98b 55bb
000002f0: 7e7a ed3b f100 ff3c 06ab 1abd 279a 403a
00000300: a674 06bd db1c 18bd 3c0c b73c 35da 463c
00000310: 64e6 16bc 8f69 e8bc f386 043d bef3 dbbc
00000320: 5b87 aa3b cfd6 d8bc b5bf 00bd 97fe 20bc
00000330: 6fdd 29bd e6a7 1a3d e983 0ebd 7352 803c
00000340: d3aa 823c c0f9 bb3c 089a bbbc 48c1 b83c
00000350: 562d 0a3d 50bc cebc e2d5 293d 071e 08bd
00000360: bd6c 11bd 0f01 183c 12d9 f33c 0715 0dbd
00000370: 40d1 76bc 25fd e03c 5218 0dbc 540b 08bd
00000380: 9bab 873c 4165 08bd 44d4 b5bc 4acf be3c
00000390: 739f 783c 14a6 22bd 6f8c 50bc 2011 f63c
000003a0: 3b0c 163d 499c 8cbc d595 3cbd 5eb4 6e3c
000003b0: e96e 033b aea8 ebbc c84d 80bc 106e 083d
000003c0: d3ad 27bd 2bdc fc3c a261 00bc ceaa a73c
000003d0: 40f2 a03b a39f 183d beef 26bd 18bc 1ebd
000003e0: dfb4 0f3d f0e4 1f3c b848 e73c 60a0 b3bc
000003f0: 0681 8dbc a389 1dbd 67d5 b83a 8367 dcbb

convolutions.6.bias f4 [64]
-0.012332106 0.03495488 -0.041984167 0.018967949 0.00952254 -0.007236637 0.033446867 -0.010444971
0.004623129 0.0055900933 0.0029985474 0.010834626 0.03539649 -0.013978047 -0.0005770733 -0.029610392
-0.024610575 0.017958188 -0.027983429 -0.04349176 -0.03735839 0.009794262 0.011499237 0.04251771
0.03580858 -0.02255722 -0.025360089 0.008898839 -0.017643824 -0.034531917 -0.013640215 -0.017597586
-0.0005728781 0.0145222405 -0.023716982 -0.030204007 0.033596702 -0.030883228 -0.0334347 0.027884888
-0.02577364 0.012303342 0.025971323 -0.0035822461 -0.039342366 -0.033639852 0.0065853223 -0.028666144
-0.033047825 -0.034757517 0.027015405 0.016165774 0.008684779 0.039454274 0.021291096 0.008468663
-0.0356196 -0.029351706 0.010316643 0.021533068 -0.029503537 0.012267607 0.013082546 0.02709132
00000000: 9a0c 4abc d92c 0f3d 97f7 2bbd ac62 9b3c
00000010: 6d04 1c3c 5021 edbb 95ff 083d 6221 2bbc
00000020: 9e7d 973b 1a2d b73b 4783 443b b783 313c
00000030: e9fb 103d 2e04 65bc bc46 17ba 7e91 f2bc
00000040: 1e9c c9bc 0d1d 933c 813d e5bc 6a24 32bd
00000050: 1c05 19bd 1d78 203c 4c67 3c3c 0d27 2e3d
00000060: 05ac 123d ebc9 b8bc f6bf cfbc 70cc 113c
00000070: c889 90bc 5771 0dbd 357b 5fbc d028 90bc
00000080: 332d 16ba b1ee 6d3c 1e4a c2bc 656e f7bc
00000090: b29c 093d d3fe fcbc d3f2 08bd d96e e43c
000000a0: 3e23 d3bc f593 493c d0c1 d43c 1ec4 6abb
000000b0: 7625 21bd f1c9 09bd b0c9 d73b 43d5 eabc
000000c0: 285d 07bd e65d 0ebd 694f dd3c 166e 843c
000000d0: 9a4a 0e3c ce9a 213d aa6a ae3c 26c0 0a3c
000000e0: dce5 11bd fd72 f0bc 2307 293c 1e66 b03c
000000f0: 67b1 f1bc 13fe 483c 2d58 563c 9eee dd3c

reconstruction.weight f4 [4, 64, 3, 3]
-0.015491812 -0.009655852 0.043834 -0.0017578553 0.025723789 0.039533697 0.031906053 0.024233157
-0.034292653 -0.027219541 -0.04131538 0.008352701 -0.013620415 0.0029319765 -0.017419962 0.0022340328
0.031946797 0.018122852 0.030355036 -0.010352 0.038753834 0.039233014 0.036455378 0.015932009
0.03639812 0.0140210455 -0.029255122 -0.034157906 -0.033177514 0.015277091 0.008708105 -0.017969696
0.011504644 -0.03626254 0.0078393 0.0070352345 0.038598925 -0.0014308804 0.0027490375 0.035855416
-0.014929214 -0.009412888 0.041672356 0.011155413 0.025913125 0.0010023981 0.024201648 -0.00530313
0.028923875 0.020402167 0.017575253 0.034359176 -0.002805435 0.00063683523 -0.013967946 -0.0215358
0.028105834 -0.0054172054 -0.004007967 -0.034361377 -0.027604172 -0.023871768 -0.008882967 -0.030592022
-0.0060883895 0.028559338 -0.00037097296 -0.02620259 -0.0020071224 -0.0283182 -0.024435934 -0.032399654
0.0034469867 -0.013567678 -0.012927139 -0.0377753 -0.020642878 0.040242184 -0.02384698 -0.012836814
0.008195622 0.035621434 0.0205116 -0.034600656 0.007962345 0.03393758 -0.0063097053 0.01011208
-0.004193929 -0.037007067 0.029362239 0.03727553 0.021539198 0.023260344 0.0070937546 -0.024629142
0.011645155 -0.012685379 -0.039896082 -0.0042639403 0.0058340165 0.037114527 -0.0014645348 -0.014872364
0.038693596 0.0023157906 -0.008222535 -0.009257963 0.021770367 -0.029996952 -0.037333965 -0.030430356
-0.00237813 -0.005338787 -0.027290199 0.03422476 0.011163487 -0.02180785 -0.01669603 0.0076369494
-0.020345144 -0.0077546844 0.033122614 0.03725536 -0.027544042 -0.019854113 0.014584185 -0.007545771
0.02764232 0.04286416 -0.015548237 -0.016277386 0.014865828 0.034090713 -0.02805911 0.0055414317
-0.006588455 0.0011568301 0.031026233 -0.034367595 -0.038264215 -0.005730379 0.0018345112 -0.031081209
0.022317428 0.030621149 -0.006892587 0.028031211 -0.02037177 -0.012231572 0.018570594 0.022457479
0.016263388 -0.03710713 0.0249437 -0.025406577 -0.00572957 0.031546287 -0.0035448205 -0.00887026
0.03129811 -0.013495208 -0.03423596 0.03888629 0.0065994486 0.040842824 0.00028201265 -0.031592347
0.014384517 0.032192364 0.013794245 -0.017947499 0.028733937 -0.019600462 0.0036913203 -0.029213492
0.02053117 0.0014598361 -0.009913714 0.026063807 -0.009632066 0.022793846 0.03129435 -0.016872795
-0.028046703 0.021356285 -0.012371499 -0.002296573 0.018627793 0.014449829 0.026578287 0.02232875
0.04047806 0.023203297 0.00703855 0.043422334 0.02253942 -0.017309837 0.014824512 0.038217667
0.014225097 -0.02483278 0.030544454 0.035281252 0.018725574 0.01774808 0.030479236 -0.02356737
-0.016538724 0.010582352 -0.0022215429 -0.038270827 -0.029888535 0.031170439 -0.026602082 -0.005788714
-0.026172748 0.030278 0.03670181 0.031642724 -0.034453683 -0.029917622 -0.022907304 0.027986225
-0.03162622 0.035875943 0.02018564 -0.0022043288 0.013889005 -0.022044605 0.0002583812 0.013490126
0.007362932 -0.033479296 0.0147859305 -0.036440462 0.04236896 0.018130876 -0.028630106 0.004433554
-0.003799986 0.011266322 -0.003634233 -0.045128256 0.010932288 0.013055416 -0.045707166 -0.014041737
0.030772293 -0.037530337 0.018503668 -0.010242761 0.04085522 -0.023504956 -0.017048022 0.0019074351
00000000: 5ed1 7dbc 9433 1ebc 488b 333d d667 e6ba
00000010: b2ba d23c 16ee 213d ecaf 023d 9d84 c63c
00000020: 7476 0cbd 84fb debc 513a 29bd c4d9 083c
00000030: 2928 5fbc 6726 403b 4fb4 8ebc da68 123b
00000040: a5da 023d 6076 943c 20ab f83c 6f9b 29bc
00000050: 57bc 1e3d ccb2 203d 3c52 153d d883 823c
00000060: 3216 153d 87b8 653c 70a8 efbc 29e9 0bbd
00000070: 25e5 07bd c44c 7a3c 71ac 0e3c 2f35 93bc
00000080: f97d 3c3c 0788 14bd 6870 003c d387 e63b
00000090: e819 1e3d 618c bbba 3229 343b 21dd 123d
000000a0: a999 74bc 8438 1abc a2b0 2a3d 32c5 363c
000000b0: c347 d43c e662 833a 8942 c63c e1c5 adbb
000000c0: c3f1 ec3c 7222 a73c faf9 8f3c 35bc 0c3d
000000d0: 64db 37bb 4af1 263a d0d9 64bc d96b b0bc
000000e0: 353e e63c d082 b1bb 4455 83bb 84be 0cbd
000000f0: 2522 e2bc ba8e c3bc dd89 11bc 1f9c fabc
00000100: 1d81 c7bb 46f5 e93c 267f c2b9 d0a6 d6bc
00000110: ed89 03bb 92fb e7bc de2d c8bc 80b5 04bd
00000120: d7e6 613b f74a 5ebc 5acc 53bc 46ba 1abd
00000130: 411b a9bc fdd4 243d be5a c3bc 8051 52bc
00000140: ee46 063c c8e7 113d f107 a83c 6bb9 0dbd
00000150: 7f74 023c 2202 0b3d a5c1 cebb 23ad 253c
00000160: 3a6d 89bb b994 17bd 1489 f03c 3aae 183d
00000170: f972 b03c 7a8c be3c ba72 e83b 0ec3 c9bc
00000180: 52cb 3e3c 56d6 4fbc 136a 23bd 86b8 8bbb
00000190: 472b bf3b 6705 183d a2f5 bfba 37ab 73bc
000001a0: 2d7d 1e3d 85c4 173b d0b7 06bc b6ae 17bc
000001b0: c557 b23c 2bbc f5bc 80eb 18bd 1549 f9bc
000001c0: 67da 1bbb fef0 aebb b28f dfbc 432f 0c3d
000001d0: 0fe7 363c 60a6 b2bc 1dc6 88bc 603f fa3b
000001e0: dcaa a6bc 021b febb 94ab 073d 1499 183d
000001f0: 0ba4 e1bc 18a5 a2bc 81f2 6e3c 8442 f7bb
00000200: 2672 e23c 5492 2f3d 08be 7ebc 2758 85bc
00000210: cd8f 733c b4a2 0b3d 38dc e5bc e694 b53b
00000220: f7e3 d7bb c7a0 973a ba2a fe3c 09c5 0cbd
00000230: f0ba 1cbd e7c5 bbbb fb73 f03a 059e febc
00000240: 0ad3 b63c 34d9 fa3c 36db e1bb b6a1 e53c
00000250: b3e2 a6bc ee66 48bc 5c21 983c bff8 b73c
00000260: cc3a 853c a5fd 17bd bb56 cc3c 7421 d0bc
00000270: 1ebf bbbb ae36 013d 3850 68bb 9154 11bc
00000280: 7232 003d 011b 5dbc 023b 0cbd 3b47 1f3d
00000290: 3040 d83b ce4a 273d 19db 9339 fa66 01bd
000002a0: 0aad 6b3c 24dc 033d 4201 623c a206 93bc
000002b0: 6f63 eb3c 2691 a0bc 14ea 713b 2251 efbc
000002c0: fc30 a83c f957 bf3a 216d 22bc c483 d53c
000002d0: d0cf 1dbc 29ba ba3c 812e 003d d138 8abc
000002e0: 33c2 e5bc 60f3 ae3c d4b1 4abc 1a82 16bb
000002f0: 5099 983c fabe 6c3c b5ba d93c c8ea b63c
00000300: 52cc 253d d714 be3c a3a3 e63b 9edb 313d
00000310: 97a4 b83c 5ccd 8dbc 83e2 723c 218a 1c3d
00000320: 6210 693c 1d6e cbbc 5d38 fa3c 1383 103d
00000330: 6066 993c 6c64 913c 97af f93c 5b10 c1bc
00000340: 387c 87bc 9a61 2d3c 4e97 11bb dfc1 1cbd
00000350: cdd8 f4bc 2659 ff3c 9cec d9bc 41af bdbb
00000360: 3b68 d6bc 9109 f83c a354 163d cd9b 013d
00000370: 4e1f 0dbd cd15 f5bc 19a8 bbbc 5e43 e53c
00000380: 7f8a 01bd a7f2 123d 5b5c a53c 8076 10bb
00000390: b68e 633c e396 b4bc 5677 8739 b005 5d3c
000003a0: c044 f13b 9621 09bd b040 723c 9842 15bd
000003b0: 138b 2d3d 3487 943c af89 eabc 5947 913b
000003c0: 3009 79bb 6196 383c 502c 6ebb 68d8 38bd
000003d0: 571d 333c 62e6 553c 7037 3bbd 500f 66bc
000003e0: 2d16 fc3c 69b9 19bd 0195 973c 41d1 27bc
000003f0: ce57 273d 778d c0bc 4ba8 8bbc e702 fa3a

reconstruction.bias f4 [4]
-0.010024128 -0.01774184 0.016713565 0.014471527
00000000: 3d3c 24bc 5657 91bc e3ea 883c fc19 6d3c
