decomposition/simple_retinex_model/weights_last.pt (torch, 668167 bytes, 24 tensors)

feature_extraction.weight f4 [64, 3, 9, 9]
000000 17 60 97 3c 7d bd 7f bd 24 89 a1 bb 98 89 91 bc
       0.018478436 -0.06243657 -0.0049296785 -0.017765805
000010 8c 3b 24 3d d5 90 70 3d 0c 57 65 bd 00 0b 6d bd
       0.04009585 0.058731873 -0.055991217 -0.05787182
000020 d7 19 a9 bc 8c 39 06 3d 9f b8 72 bd 66 74 59 bd
       -0.020642204 0.032769725 -0.0592581 -0.05308952
000030 ca 92 68 bd c3 3c 0c bd 61 d4 51 3d a0 4f 50 3d
       -0.056780614 -0.034237634 0.05122793 0.050857186
000040 b3 87 c5 3c 82 74 9b bb 74 51 fa 3b 1c 02 bf bc
       0.024112558 -0.0047441134 0.0076391045 -0.023316436
000050 d8 4d 6c 3d 28 25 02 3d 89 69 84 bd 4a fd a4 3c
       0.057691425 0.031773716 -0.06465442 0.020140309
000060 d6 24 4e bd 1d 68 36 bd a8 21 77 3d 9a 5a 18 bd
       -0.0503281 -0.044532884 0.06033483 -0.03719578
000070 c0 17 70 3d 73 e1 16 bd 11 66 0d bd 6f be 2c bc
       0.0586164 -0.0368361 -0.034521166 -0.01054345
000080 8e eb 41 bc 74 69 f0 bc 21 aa 63 bc d0 f2 ee 3a
       -0.011835946 -0.029347159 -0.013895542 0.0018230323
000090 59 96 ed bc 8d 00 b6 3c fa e3 21 bd a0 ec 1f bb
       -0.029002355 0.02221706 -0.039524056 -0.0024402514
0000a0 dc ac 73 3d ea 4d 5e bc a1 fd 07 3d 7b 67 25 3c
       0.059491023 -0.013568381 0.033200864 0.010095472
0000b0 4a 63 01 3d 2a ce f6 bc 28 54 a2 3b 13 ab 7c 3d
       0.03158883 -0.030127604 0.00495388 0.061686587
0000c0 94 50 63 bb 7a 2c da 3c 00 2f 04 bd 5d b1 3c b9
       -0.003468548 0.026632536 -0.032271385 -0.0001799515
0000d0 6e 07 32 3d f6 71 bb bc 1e 80 0d 3d 7e a0 ed 3c
       0.043464117 -0.02288149 0.03454601 0.029007193
0000e0 9b 44 03 bd f3 96 10 bd f2 e9 15 bd dc 1a c6 3c
       -0.03204785 -0.035300206 -0.03660006 0.02418273
0000f0 9c ff 01 3d a7 74 08 bc af 52 03 3d a8 d3 0c 3d
       0.03173791 -0.008328593 0.032061275 0.03438154
000100 13 fe 82 bd 27 2d 43 bd 72 8a 20 3c 9c 3d 68 bd
       -0.06396117 -0.047650483 0.009798633 -0.05669938
000110 9f bf 61 bd d0 cc 80 bb 4f 58 21 bc 54 89 58 3c
       -0.055114385 -0.0039306656 -0.009847715 0.013216335
000120 3e fd 35 3d c5 f3 45 bd 4e 37 5e bd 14 98 cc bc
       0.044430964 -0.04832818 -0.05425196 -0.02497486
000130 b6 38 5b 3d 2a e5 0a 3d 32 76 a2 bb 09 89 7f bd
       0.05352088 0.033909954 -0.0049579376 -0.062386546
000140 07 ea 13 bd dd 43 4f bc 0a 71 10 bd 9a 0d 33 3d
       -0.036111858 -0.012650457 -0.035264052 0.043714143
000150 f3 cc 3e bd 4d 04 38 bd b3 42 1f 3c a2 fc 6d bc
       -0.046582174 -0.044925977 0.009720492 -0.014525564
000160 b2 0d 3d bc 94 e7 83 bd 66 ce 59 3d ac 17 35 3d
       -0.01153891 -0.064406544 0.053175353 0.04421203
000170 2d 3b 38 bd 6b b2 21 bd 7c 11 63 3d f3 12 ba bc
       -0.04497831 -0.039476793 0.055436596 -0.022714114
000180 e3 e7 2e 3d ca 18 56 3d d7 48 68 bd f2 6e b8 bc
       0.042701613 0.052269734 -0.05671009 -0.02251384
000190 85 fa c4 bc 43 70 c0 3c 36 48 fe 3b 74 e3 65 3d
       -0.024045238 0.02349103 0.007760073 0.05612512
0001a0 cd 64 76 3d 77 59 63 bd 7c a2 c8 3c ff 3e 72 bc
       0.060154725 -0.055505242 0.024491541 -0.014785527
0001b0 bc 35 6d 3d c5 9f ec 3c 2f ea 68 bc 56 0d 27 bd
       0.057912573 0.028884778 -0.01421599 -0.040784203
0001c0 a7 6c be 3c bd b8 3b 3d 40 8e cd bc 1a 44 71 bd
       0.023245169 0.045830477 -0.025092244 -0.058902837
0001d0 72 a8 39 3d fe 2e 2d bc 92 1a 57 bd cb cd ac 3c
       0.045326658 -0.010570286 -0.052515574 0.021094223
0001e0 ca 33 12 3d 47 3e 65 bd f7 31 4a bc 43 8b 02 3d
       0.03569392 -0.055967595 -0.012341014 0.03187109
0001f0 d2 4c 6a 3c fd ad 0b bb 09 34 c9 3c 73 1a 58 3d
       0.014300542 -0.0021313422 0.024560945 0.0527596
000200 ea 47 4a bd 2e a7 56 3c 2f 79 33 bd ca 6e 9e bc
       -0.04938499 0.013101382 -0.04381674 -0.019339938
000210 65 49 b1 bc 98 86 72 3d 66 91 af bc be 51 31 bc
       -0.021641443 0.05921039 -0.021431636 -0.0108227115
000220 58 e4 a0 3c 46 e8 ae 3c 64 65 33 3d ef 97 85 3c
       0.019640133 0.021350991 0.043797866 0.0163078
000230 97 33 1b 3d 5e bc 44 3d 0b b4 e5 bc 5f eb 44 bc
       0.037890997 0.048031203 -0.028039953 -0.0120190075
000240 14 ce 3b bd 4c 67 0b 3c 05 1a f6 3a 10 31 a5 3c
       -0.04585083 0.008508515 0.0018776065 0.020164996
000250 90 b4 38 bd d2 9d 5c 3d 94 49 f1 3c db 80 d8 bc
       -0.045094073 0.053861447 0.02945403 -0.02642863
000260 ed 95 29 3d 6f 98 f5 ba 68 d9 03 3c 4b 94 22 ba
       0.041402746 -0.0018737445 0.008047439 -0.0006201907
000270 0f 88 d2 3b c5 ca aa bc bf 93 1b 3d 54 02 18 bd
       0.006424911 -0.020848641 0.0379827 -0.037111595
000280 95 4b fb bc be d5 58 bd 26 2c 3d 3d 23 db 3e 3d
       -0.030675689 -0.052938215 0.04618468 0.046595704
000290 c1 fe 09 3d 1b 9d 1b bc c6 ca 67 3d 6d 4b 42 3d
       0.033690218 -0.009497906 0.056589864 0.047435213
0002a0 ca 7f 55 bc b1 bb 97 bb a0 a8 f1 3c d1 e5 25 bd
       -0.013030956 -0.004630529 0.029499352 -0.040502373
0002b0 27 f8 4e 3c d0 26 17 3d af 15 52 3c 92 8b 7e 3d
       0.012632406 0.03690225 0.012822553 0.062144823
0002c0 7e 66 a7 3c af f9 79 bd 28 9f 15 ba a1 d8 df bc
       0.020434614 -0.061029132 -0.0005707615 -0.027324976
0002d0 7b bb 37 3d 46 24 f3 bc 84 07 63 bd 6a b1 00 bc
       0.04485653 -0.029680382 -0.05542709 -0.007854799
0002e0 00 c4 13 3d 4d c0 9a ba 62 3a 79 3d 44 79 02 bd
       0.036075592 -0.0011806578 0.060846694 -0.03185393
0002f0 2e 4d 3e bd e5 99 2d bd ef c7 6c bd c4 46 49 bb
       -0.046460323 -0.042383093 -0.05780786 -0.0030712346
000300 df cc 4a bd e7 f0 4f 3d b2 48 90 3b 07 6c 83 bc
       -0.049511787 0.05076685 0.004403197 -0.016042722
000310 d0 43 ff 3c d6 fa ce bb 8c a0 07 bd 7a 97 8f 3a
       0.031160265 -0.006316523 -0.033112094 0.0010955178
000320 45 30 86 bc 36 92 6d 3d cd 48 e1 39 64 e4 56 bd
       -0.016380439 0.058000766 0.00042969585 -0.052463904
000330 d9 27 23 3c 02 07 b7 bc 40 40 d1 bc e3 f3 49 bd
       0.009958231 -0.022342209 -0.025543332 -0.049304854
000340 2f 33 62 3d f3 68 40 bd 70 d8 79 3d c7 d4 14 3d
       0.055224594 -0.046975087 0.060997427 0.036335733
000350 ad 03 94 3c e9 d7 85 bd 85 83 01 3b a1 b3 a2 bc
       0.018068159 -0.06535322 0.001976223 -0.019861044
000360 db 99 02 3d b5 e5 9c 3b 2a 6c 72 3d 92 5f 5a 3d
       0.03188501 0.0047881254 0.059185185 0.0533138
000370 dd 53 80 bd 16 f0 cc 3c 3d 06 03 bc 10 a3 ac 3c
       -0.06265996 0.025016826 -0.007997093 0.021073848
000380 1d da 94 bc b0 66 4d 3d fd de 5a bd 85 fb de bb
       -0.01817041 0.05014676 -0.053435314 -0.006804886
000390 45 a8 81 bc ed 75 91 bc 83 47 c1 bb 8c b3 bf 3c
       -0.015827307 -0.017756427 -0.0058984174 0.023401044
0003a0 d1 d1 18 3d 68 86 3b bd f5 66 0f bd 03 6e 22 bd
       0.03730947 -0.045782477 -0.035010297 -0.039655697
0003b0 52 d7 7a 3d 27 16 7c 3c c6 3a bf 3c 23 02 97 bc
       0.0612405 0.015386141 0.023343455 -0.018433636
0003c0 d3 61 5f bd 01 dd fe bc 87 e7 ed 3c f7 03 7d 3d
       -0.05453665 -0.031111242 0.029041065 0.06177136
0003d0 d8 5d 62 bd 8c 64 d7 3c e2 ff 02 3d 60 b8 01 3d
       -0.055265278 0.026293062 0.03198231 0.031669974
0003e0 14 33 21 bd 22 58 2d bd 33 6d 2d 3d d9 a3 3f bc
       -0.039355353 -0.042320378 0.04234047 -0.011696779
0003f0 8c 36 cd bc bc f7 98 3c a9 31 51 3b 0a 3f af bc
       -0.025050424 0.018672816 0.003192047 -0.021392364

feature_extraction.bias f4 [64]
000000 ce 56 68 3d 58 67 02 3d 91 64 8c 3d 99 8d bf bc
       0.05672341 0.031836838 0.06855119 -0.023382949
000010 fc 49 0b bd 3c 5e 84 bd 8a 4a 3f bd 36 8b 64 bd
       -0.034006104 -0.06463286 -0.046701945 -0.055796824
000020 0e ed 69 bd 79 94 2c bd d7 6c 29 3d 03 41 cd 3c
       -0.05711084 -0.042133782 0.041363563 0.025055414
000030 fa d2 e4 bc b3 41 90 bd a9 7c 5a 3d bc 9e f2 bc
       -0.027932633 -0.07043781 0.05334154 -0.029616706
000040 c7 a3 91 3d 17 99 70 3c 09 1d 79 bd d5 07 53 bd
       0.07111316 0.014684937 -0.060818706 -0.05152114
000050 06 8d 36 bd fb eb ba 3c 90 5d 29 bc 02 5e bd bc
       -0.044568084 0.022817602 -0.010337248 -0.023116115
000060 67 1f 14 3c 5a 74 0c 3c 80 7a f8 3c 66 86 80 bd
       0.00904069 0.008572662 0.03033185 -0.062756345
000070 9c e4 88 3d b6 ca 6d 3d 13 e6 78 3d d4 d7 7e 3b
       0.06684229 0.05805465 0.06076629 0.0038885968
000080 1d 6e c9 3c 9e 95 8f bc 6d 89 67 bd d6 a5 84 3d
       0.024588639 -0.017527398 -0.056527544 0.06476943
000090 11 58 05 3d 16 c9 8e bc bd 68 fb bb f1 56 01 3d
       0.03255469 -0.01742987 -0.007672398 0.031577054
0000a0 f2 2b 32 bd 32 a3 95 bd 87 c5 6e 3d 22 61 13 3d
       -0.04349894 -0.07306518 0.058293846 0.035981305
0000b0 62 55 7f bd 2f 71 84 bd d6 5d 53 bd 4b b4 54 bd
       -0.062337287 -0.064669006 -0.05160316 -0.051929753
0000c0 77 01 44 ba 70 1a 0c 3d 64 f9 88 bd 86 a0 d9 ba
       -0.0007477025 0.0342049 -0.066881925 -0.0016603626
0000d0 8f 6b ed 3c 8d c1 24 3d 01 d6 d1 3c 9e a5 7e bd
       0.028981952 0.040223647 0.02561474 -0.062169664
0000e0 c7 5c 54 3d 8c 92 22 3d 8f 55 e4 3b c2 d8 4d bd
       0.051846292 0.03969054 0.006968207 -0.050255544
0000f0 9c b0 e9 3c a4 a3 2e bd 1d b0 ac bb 8d 4a 99 3c
       0.028526597 -0.04263653 -0.005270018 0.018712306

convolutions.0.weight f4 [64, 64, 3, 3]
000000 3e ff 44 bd 66 77 9c bc fa 17 7e ba 8b 6b 14 bc
       -0.04809498 -0.019099902 -0.0009692904 -0.009058843
000010 c7 b5 c8 bb 5e 97 f1 bc de 42 1d bd 3f 87 99 bc
       -0.006125185 -0.029491123 -0.038393848 -0.018741248
000020 b7 b9 2a bc 38 05 18 3c 41 89 dd 3c 54 7e 8e 3c
       -0.010420254 0.009278588 0.027042987 0.017394222
000030 cb 25 33 bd c0 67 0e bb 26 93 32 3c 15 9f 9c 3c
       -0.043737214 -0.002172932 0.010899341 0.019118825
000040 6d aa 18 3c 87 20 df bc 21 25 16 3c 7a 32 29 3d
       0.009317976 -0.02723719 0.009164126 0.041307904
000050 65 c7 20 3c b9 89 72 bc cd cf d3 3c 09 61 d6 ba
       0.009813164 -0.014803343 0.025855923 -0.0016355823
000060 3a 74 2b 3d bb 06 2e 3d 29 9c 16 bd b3 49 7e 3c
       0.04185889 0.042486887 -0.03677002 0.015520501
000070 56 aa 0e bd 4c c1 4f bc 1e c2 67 bb 72 ac 8a bc
       -0.034830414 -0.012680363 -0.0035363506 -0.016927931
000080 94 23 09 bc 78 98 cf bc c9 5b b1 3c e2 59 14 3d
       -0.008370299 -0.025341257 0.021650212 0.03621853
000090 b7 ed e4 3c 93 ce 1c bd 08 19 90 bc f0 19 f7 3c
       0.027945383 -0.038282942 -0.01759006 0.030163735
0000a0 80 d4 fa ba f3 32 e1 bc 5f 15 4d 3c 3d 0f 0c 3d
       -0.0019136816 -0.027490115 0.012517302 0.03419422
0000b0 23 7f 0b bd 46 b6 0d 3d 00 d2 32 bd fd 3c 74 ba
       -0.034056794 0.034597658 -0.043657303 -0.0009316949
0000c0 54 1e 02 3d 3b 3e b5 bc 3b 75 20 bc ed 4f db 3c
       0.031767204 -0.0221244 -0.009793575 0.02677151
0000d0 79 de b5 39 75 ad 27 bd 48 fd 81 3c 14 32 85 bc
       0.00034688765 -0.040936906 0.015867844 -0.01625923
0000e0 42 5b 8d bc a8 a5 d5 bc 0d cc 02 3d aa 06 ed 3b
       -0.01725543 -0.026079968 0.03193288 0.0072334604
0000f0 62 f1 02 3d f7 d7 64 3c 08 17 83 bc 99 fd 8e 3c
       0.03196848 0.013967506 -0.016002193 0.01745491
000100 45 dd 26 bd 4f e5 82 bc 3d 1b 43 bc 14 c2 aa 3c
       -0.040738363 -0.015978483 -0.01190835 0.020844497
000110 9e 8b 10 3d f3 74 6a 3c 0b 2e fb 3c 06 2a 83 3c
       0.0352894 0.014310109 0.030661603 0.01601125
000120 bd 3c cd bc 1d dd 74 3c b6 e4 e1 ba 8b c7 c3 bc
       -0.025053376 0.014945296 -0.0017234299 -0.02389886
000130 72 ec 8e 3b 0e 77 e8 b9 2c 85 1b bc 5b 70 70 bc
       0.0043616826 -0.0004433919 -0.0094922 -0.014675225
000140 00 e5 85 3c 58 75 6d 3c 1d 2c a4 3c 13 ce 1e 3d
       0.016344547 0.014493309 0.020040566 0.038770746
000150 01 44 19 bb fb 64 1d 3d 1a 3c d6 3a 68 c7 15 bc
       -0.002338648 0.03842638 0.0016344816 -0.00914178
000160 a3 82 56 3c de 81 07 bd fd 8e 9c 3a e8 be 11 bd
       0.01309267 -0.033082835 0.0011944469 -0.035582453
000170 a4 3b 1c bd e3 71 a5 bc ba 36 23 bc 5a d7 78 bb
       -0.038142815 -0.020195907 -0.009961778 -0.0037970156
000180 83 2b 70 3c 38 86 a6 ba 2d aa 34 3c 71 ae 69 3c
       0.0146588115 -0.0012704795 0.011026901 0.0142627815
000190 c0 97 e8 3c de c9 dc 3c 93 67 9a 3c de a1 13 3d
       0.028392673 0.026951727 0.018848216 0.03604304
0001a0 69 32 06 bc f1 3b 18 bd ba 95 07 bc eb ae 2a 3c
       -0.00819073 -0.03716654 -0.008275444 0.01041768
0001b0 81 d6 33 3c cc 71 37 bd e4 0c 25 bd 76 d0 dc 3c
       0.010976435 -0.04478626 -0.040295497 0.02695487
0001c0 5c 82 df 3c 88 76 b2 3c d0 c3 46 bc d5 37 c1 bc
       0.02728384 0.021785036 -0.012131646 -0.023586193
0001d0 0b 26 9c bc d3 99 58 bc 7e 0d 2c bc db 8a de bc
       -0.019061109 -0.013220268 -0.010501264 -0.02716582
0001e0 ae c4 46 bd 17 5d 9e 3b 65 cd 8e 3c 08 2b 58 bd
       -0.048527412 0.0048328745 0.017431924 -0.052775413
0001f0 e8 04 ae 3c 99 ed 0a 3b 44 ad 98 3c 25 06 fa 3c
       0.021242574 0.0021198748 0.018637307 0.030520508
000200 ec 02 a3 bb 74 30 0e bd 78 5b 30 3a 87 ef 04 bd
       -0.0049747135 -0.034714177 0.0006727497 -0.032454994
000210 5c fd 11 3d 6f d6 f1 3c b5 60 94 3c 48 b9 af bc
       0.035642013 0.029521195 0.01811252 -0.021450654
000220 04 20 28 3c 8b ff d0 3c 1a d5 dc 3c 34 09 4a 3c
       0.010261539 0.025512477 0.026957083 0.012331296
000230 3e d9 c9 3b 71 a5 00 3d c8 6b 26 bd 16 e2 ba 3c
       0.0061599305 0.031407777 -0.040630132 0.022812884
000240 38 28 ad bc ab c9 8a bc b5 73 fc 3b e1 5c 97 3c
       -0.021137342 -0.016941866 0.007704223 0.018476905
000250 5a 01 23 3d 1b 92 c5 3c f6 9e df 3a 83 65 25 bd
       0.03979621 0.02411752 0.0017060924 -0.040380012
000260 5b 81 ad bc 51 d8 1d 3d ee c1 d0 bc 0d e7 58 bc
       -0.021179846 0.038536374 -0.025483098 -0.013238681
000270 f3 1f 4a 3c a6 e6 1a bd 9f f7 99 3c bd fa c6 bc
       0.012336719 -0.03781762 0.018794833 -0.024289483
000280 c1 cf 0c 3d 00 80 d0 3b 73 c6 c3 3c 1b c6 a8 38
       0.034377817 0.006362915 0.023898339 8.047764e-05
000290 06 39 54 bb 76 a4 14 3d a2 df dd 3c 88 c9 8d 3c
       -0.0032382621 0.036289655 0.027084175 0.017308012
0002a0 88 9f 81 3c c8 81 18 bb bd be 9b bc d4 25 f4 bc
       0.01582314 -0.0023270715 -0.01901185 -0.029803194
0002b0 b7 b9 8b 3b eb a0 dc 3c 06 1e c3 bb 73 5a 76 bc
       0.0042640823 0.0269322 -0.005954507 -0.015036213
0002c0 27 ed e3 3c 38 1d 18 3d c2 a7 89 bc cd 17 a1 b9
       0.027823044 0.03713724 -0.016803626 -0.00030726046
0002d0 fa c8 fe bb 75 99 c9 bb 20 1b 7f 3c 67 2a bb bc
       -0.007775423 -0.0061523267 0.015570432 -0.022847367
0002e0 be 7a 81 3b d4 fb 49 bb b8 47 e4 bb 7c 80 d4 bc
       0.0039513996 -0.0030820267 -0.0069665574 -0.025940172
0002f0 d0 06 a6 bc 1f 71 95 bc c8 ec ad 3b e8 82 14 3c
       -0.02026692 -0.018242417 0.0053077675 0.009064414
000300 a9 de 37 bc ae 4c 2b 3d 43 e8 a1 bc d2 91 d2 3c
       -0.01122252 0.041821174 -0.019764071 0.025704298
000310 ac a3 28 3d d6 42 44 bc ee cd 83 bc cf d6 c0 3b
       0.041171715 -0.011978826 -0.016089406 0.005884982
000320 25 03 d3 3c fa 7b 26 bd ee 08 e1 3c 4e 19 75 bb
       0.025758335 -0.040645577 0.027470078 -0.0037399116
000330 37 b5 a5 3c a7 d2 23 3d b8 84 b3 3c ae 44 18 bd
       0.020228012 0.039995816 0.021913871 -0.037174873
000340 9c f8 86 3c e1 c8 15 bd ab 84 13 bc 1e 9c 96 3a
       0.016475968 -0.036568526 -0.0090037985 0.0011490618
000350 ea 8b ae bc 11 aa 88 bb 97 21 fa 3c f6 90 d0 bc
       -0.02130695 -0.004170664 0.030533595 -0.025459748
000360 ed da 54 bd 52 b7 d8 3c 01 7d 2d 3c c4 24 48 bd
       -0.051966596 0.026454601 0.010588885 -0.048863187
000370 47 50 98 3c 59 a7 f8 bb c6 0a 5b bd 09 2a 17 bd
       0.018592967 -0.007588309 -0.05347707 -0.036905322
000380 f1 42 0a 3c 7c 2a 08 bc a4 af 01 3d a5 8e 8f 3c
       0.008438812 -0.00831091 0.031661645 0.017524073
000390 4c c7 36 bb b1 b8 65 3c 6f 46 12 3c c4 05 24 3d
       -0.0027889786 0.014021085 0.0089279255 0.04004456
0003a0 02 08 7f 3c a8 66 63 bb 3b cf 26 3d e2 ed 74 3c
       0.015565874 -0.003469864 0.040724974 0.014949294
0003b0 ce 7c 0b ba 08 4a a3 3b bf 81 0f 3c ee a8 a2 3b
       -0.00053210265 0.0049831904 0.008758961 0.0049639856
0003c0 e6 e2 3e bc 4b ca 07 3b 44 53 25 3d 2d 45 c6 3b
       -0.0116507765 0.0020719941 0.04036261 0.006050727
0003d0 f3 ec e7 3c 33 1c 85 3c 38 57 b1 3c 1e c8 21 bd
       0.028311228 0.016248798 0.021648034 -0.039497487
0003e0 ca bc 4a b9 bf f1 d0 bb a0 0c a8 bc 1e 71 c7 bc
       -0.0001933455 -0.0063764746 -0.020513833 -0.02434593
0003f0 4c 44 41 bb 19 b0 71 bb 14 b3 10 3c f6 83 89 3c
       -0.002949017 -0.0036878644 0.008831758 0.016786557

convolutions.0.bias f4 [64]
000000 9c d9 a4 bc c5 34 d7 bc cd d9 41 3d 7c 77 d8 3c
       -0.020123295 -0.02627028 0.04732685 0.026424162
000010 fe 3b 1c 3d 0f c3 a3 bc cd ec e6 bb 86 22 40 bc
       0.03814315 -0.019990472 -0.007047272 -0.011726981
000020 13 8a 3a bc 44 03 1c 3d b0 c6 c5 bb 9c ac ce 3c
       -0.0113854585 0.03808905 -0.0060356483 0.025228791
000030 c9 68 38 3c 22 12 33 3d ef 2d 12 3d d8 08 25 3d
       0.0112554515 0.043718465 0.035688337 0.040291637
000040 91 32 de 3c 1b 59 a7 3b cd 20 82 bb fc 1a de 3c
       0.027123721 0.0051070577 -0.0039711953 0.027112477
000050 23 80 ce 3c 79 16 04 3d 6b 0c 04 bd 4f b6 21 3d
       0.025207585 0.032247994 -0.032238405 0.039480504
000060 d7 6e 27 3d e4 02 a9 3c 9d 43 c6 bc b4 7d 36 bc
       0.04087719 0.020631261 -0.024202162 -0.011138368
000070 3e 56 01 bd c6 67 ed 3c 06 27 d6 3c eb 69 95 3b
       -0.031576388 0.028980147 0.026141655 0.0045597455
000080 73 e4 59 bc c7 e8 49 3d e0 1f 11 3d e6 26 e6 3c
       -0.013299095 0.04929426 0.03543079 0.02809472
000090 c1 db 8c bc 57 ff 10 3c b3 6b 1e bd 3f 1f 44 3c
       -0.01719463 0.00884994 -0.03867693 0.01197034
0000a0 48 5f 12 bb 33 0f 3a bc 7b 50 9c 3c 8d 45 e8 3c
       -0.0022334624 -0.011356163 0.019081345 0.028353477
0000b0 9c f4 04 3d 7b f8 89 3c 0e 1f 98 3c 4c 44 20 bb
       0.03245984 0.016842118 0.018569496 -0.002445477
0000c0 6a 74 cf 3c 9e 9c d5 bc 20 c1 a6 bc 46 f5 15 bb
       0.025324065 -0.026075657 -0.020355761 -0.002288179
0000d0 74 e3 48 3c cf 8f 64 3b 44 45 f5 bb 51 d6 fb 3c
       0.01226126 0.0034875756 -0.0074850637 0.030741842
0000e0 d4 34 ac 3c a3 5c df bc 18 fa ed bc c2 c3 25 3d
       0.021021284 -0.027265852 -0.029049918 0.040469892
0000f0 ca d0 b3 bc f6 05 6c 3b 1b bd dd bc d3 e0 05 3b
       -0.021950144 0.0036014295 -0.027067712 0.0020428195

convolutions.2.weight f4 [64, 64, 3, 3]
000000 5b f5 b3 bc c5 8d 44 3c ab 18 31 bc 4d d9 68 3c
       -0.02196758 0.011996691 -0.010809104 0.014211965
000010 8a 22 d3 bc f6 34 8e 3b b0 c7 1b bc 2b 09 fb 3c
       -0.025773305 0.0043398095 -0.009508058 0.03064402
000020 c9 8f cf 3b 03 ab 00 bd c9 8e 1b bc 27 58 03 bc
       0.006334279 -0.03141309 -0.009494492 -0.008016623
000030 6a 04 c6 3c a1 0d b8 3c a9 28 6f bc 0a 01 08 bc
       0.024172027 0.022467436 -0.0145970965 -0.008301029
000040 75 75 ee bb 63 5a bf bc 0f 9e bd 3c 7c 1c 1d bd
       -0.0072771856 -0.02335853 0.023146657 -0.038357243
000050 0b f7 96 3b 80 36 8b 3c 7b 5a 05 bd a0 7d b1 bc
       0.0046070865 0.016993761 -0.032556992 -0.021666348
000060 89 30 cc ba 06 78 88 bc 5e d1 0c bd 74 df f4 3c
       -0.001557843 -0.016658794 -0.034379356 0.029891707
000070 88 6f 1e bd 0b 62 0c bd 6c b2 c9 3c c3 3d 75 3c
       -0.038680583 -0.03427319 0.024621211 0.014968338
000080 73 6a 7e bc eb 27 15 3d e7 7f ec bc 35 5b b7 bc
       -0.015528309 0.036415022 -0.028869582 -0.022382358
000090 7a 2d c9 bc 71 e5 28 3c 85 18 13 bd 32 15 10 bd
       -0.024557818 0.010308609 -0.035912056 -0.035176463
0000a0 56 67 c1 3a ef e5 e5 3c 73 da ef bb bb ea 22 bd
       0.0014755528 0.028063742 -0.0073197423 -0.039774638
0000b0 18 7e bc 3b 63 5b 1b bd 72 16 10 3d 9d 44 f7 3c
       0.0057523362 -0.03792895 0.035177656 0.030184085
0000c0 57 09 5a bc f6 6f b5 bb 1f 35 15 3d ad 79 f6 bb
       -0.013307891 -0.0055370284 0.036427613 -0.007521829
0000d0 80 69 f7 3c d6 bb 9c 3c 9f 20 00 bc 58 b8 d9 3c
       0.030201674 0.019132536 -0.0078202775 0.02657716
0000e0 03 31 17 bd 2a 3d 7c 3c f4 c8 03 bc 5c 85 dc 3b
       -0.036911976 0.015395442 -0.008043516 0.006729765
0000f0 f4 40 d7 bc 1b 46 17 3d e7 3c 2b bd 5a 40 d3 3b
       -0.02627609 0.036932092 -0.041806128 0.0064468803
000100 60 60 07 bd 6c a9 f3 3c 91 a6 25 3c 44 14 0b 3d
       -0.033050895 0.029743873 0.010110513 0.033954874
000110 bf b8 87 bc 12 d9 02 3d 9e e3 89 3c 6e a8 c9 3c
       -0.016567586 0.031945296 0.01683217 0.024616446
000120 0f eb 34 3c 6c 63 14 3c bc 41 e4 bc a3 b0 f4 bc
       0.01104237 0.009056907 -0.027863376 -0.029869383
000130 7c a3 ec bc 13 0a 2e bc a6 b1 25 3d cf 14 ff 3c
       -0.02888655 -0.010622519 0.040452622 0.031137852
000140 01 de b5 bb b4 8a 20 bd 49 bb 1f bd d6 01 75 bc
       -0.0055501466 -0.039194778 -0.03899697 -0.014954051
000150 d0 27 2a 3c e8 fe d9 3c 6a de ae bc 70 53 6b 3c
       0.010385469 0.026610807 -0.02134629 0.014363155
000160 c6 83 01 3c 3c 0c 07 3d 66 45 29 bb e8 aa c8 bc
       0.007904952 0.032970652 -0.0025828718 -0.024495557
000170 36 22 0e 3c 42 0c 3d 3c 8b 81 cf 3b e5 8d 66 3a
       0.008675149 0.011538567 0.0063325814 0.00087949476
000180 3e 05 9a bc 8c e8 59 3c 5c 0e cd bc a3 b0 ae 3c
       -0.018801328 0.013300072 -0.025031261 0.021324461
000190 c0 d6 17 bc 1c f8 8e 3b 14 17 4c bc 94 19 dd bc
       -0.009267509 0.004363073 -0.012456674 -0.026989736
0001a0 96 53 5b bc 1a 14 a3 3c 20 14 17 3d e4 4c 7f 3c
       -0.013386628 0.019907046 0.036884427 0.015582297
0001b0 83 34 10 bd 97 c2 f6 3c dc 15 20 b8 b7 ae 99 bc
       -0.03520633 0.030122085 -3.816733e-05 -0.018760068
0001c0 69 4a 11 bd 79 02 e2 3c da 6d 2b 3c 9a cd 1e bd
       -0.035471354 0.02758907 0.010463202 -0.038770296
0001d0 1d 7a 91 bb be 53 9d 3b c0 97 05 bd 78 82 0c bd
       -0.004439606 0.0048012426 -0.032615423 -0.034304112
0001e0 40 e0 06 3d 9a f2 86 bc ec 2a 21 bd b1 83 5a bc
       0.032928705 -0.016473103 -0.039347574 -0.013337062
0001f0 be 46 d2 3c 80 3d 24 bd b2 26 ff bb 6e 04 17 bd
       0.025668498 -0.040097713 -0.0077865953 -0.03686946
000200 af 9b 15 bd 24 f7 04 3d 70 cd ef bc 80 59 31 3a
       -0.036525425 0.032462254 -0.029272765 0.00067653507
000210 1a 51 12 bd cf 69 be 3c 3a 39 75 3c 05 f3 b7 3c
       -0.035721876 0.023243813 0.014967257 0.022454748
000220 7d 58 8d 3c 2a 28 52 3c 89 25 17 3d 5a f4 da 3c
       0.017254109 0.012826959 0.03690103 0.026727844
000230 51 7a 35 3b d5 ad 41 bc 69 34 ea 3c d0 96 71 3c
       0.0027691314 -0.01182123 0.028589444 0.014745429
000240 03 15 7a bc 45 b7 18 3d 33 a6 d4 bc 13 f9 85 3c
       -0.015263799 0.037284154 -0.025958156 0.01635412
000250 74 a3 93 3c 59 d5 8b 36 0a bc 0e 3c b9 6e d5 bc
       0.018022276 4.1673597e-06 0.008711824 -0.026053773
000260 f1 0a 1f bd 38 dd 8c 3b 2c 24 05 3d 45 e5 e2 bc
       -0.038828794 0.0042988323 0.0325052 -0.027697215
000270 c5 1b 9f 3c 06 8b 46 bc e0 cd 51 bc 20 95 ed 3c
       0.019422421 -0.012118107 -0.012805432 0.029001772
000280 21 51 a8 3c b1 87 80 3b 89 81 04 bc 10 85 3a bc
       0.020546498 0.0039224257 -0.008087524 -0.011384264
000290 33 03 5f bc 2f cf 30 3b f9 8e db 3c a5 05 2b bd
       -0.013611603 0.002697896 0.026801573 -0.04175343
0002a0 40 37 20 bd 97 80 56 bc c2 51 08 bd 01 0f 0b bd
       -0.03911519 -0.013092182 -0.033281095 -0.033949856
0002b0 bc 80 29 3c 01 d0 de bc df 8d ca bb 82 b2 11 bd
       0.010345634 -0.027198793 -0.006181463 -0.03557063
0002c0 fa 41 0b 3c b0 0b 95 3c 69 d6 72 3c da 93 dc 3b
       0.008499617 0.01819405 0.014821627 0.0067314925
0002d0 78 ba b5 bb c9 35 b0 bc a8 d3 4d bc 85 b1 21 3d
       -0.0055459104 -0.021510022 -0.01256267 0.039475936
0002e0 7b 40 03 3c a1 2d 00 bd 8b 87 0a bc 2d a1 07 bd
       0.008010979 -0.031293515 -0.0084551675 -0.033112694
0002f0 eb 7c 04 bd ef 65 5b 3b 19 14 37 bc a7 c6 62 bc
       -0.032345694 0.0033477505 -0.011174225 -0.013841308
000300 37 df 03 bd cb 50 e6 3c 7a 61 05 bd c4 e3 a8 bc
       -0.032195296 0.028114697 -0.032563664 -0.02061642
000310 f8 c0 0d 3c 3a 03 d2 3c ea bf 19 3d 24 71 06 bd
       0.008651964 0.025636304 0.03753654 -0.032822743
000320 9c 1c a9 3a 6a 45 5a 3b 08 34 ba bc 1a 76 2e bc
       0.0012902203 0.0033305534 -0.022729889 -0.010648275
000330 73 e3 83 3c 42 00 01 bd 5a 0c 70 3c a4 af 04 bc
       0.016099667 -0.031494386 0.014651382 -0.008098517
000340 ae 6f 2d bb 85 bb 1b 3c e9 d6 2a bd 2d 5d e6 bb
       -0.0026464271 0.009505157 -0.04170886 -0.0070301504
000350 b0 bd 89 3c ba 99 fe 3c ae 76 51 ba 89 cc 21 3d
       0.016814083 0.031079162 -0.0007990402 0.0395017
000360 dc 9e 23 3d bb ae c7 3c 69 bb 1d bd f5 41 bd bc
       0.039946422 0.02437531 -0.038508806 -0.02310274
000370 0e 6b 8d 3c c5 0a 4f bc 13 60 a4 bb 66 86 71 3c
       0.017262962 -0.012636845 -0.0050163358 0.014741516
000380 fc a6 9b 3c d9 42 db 3c 1d 8c 1b bd 5e 34 dc 3b
       0.019000523 0.026765274 -0.03797542 0.00672011
000390 ed 50 16 3d 3c 11 fb bc 9b 89 22 3d 94 d8 05 3d
       0.03669827 -0.030647866 0.039682012 0.032677248
0003a0 c2 ee 0e bd 22 bf 79 ba ac f4 ae ba fa ca be 3c
       -0.034895666 -0.0009527077 -0.0013348064 0.023290146
0003b0 f4 ce 7c bc d6 fa a6 3b 23 4f 1b bd 35 a3 c5 bc
       -0.015430201 0.00509582 -0.037917268 -0.024125675
0003c0 45 16 0f 3d 41 a1 8f bc bb 9c 12 3d 0e 98 09 bc
       0.034933347 -0.017532947 0.035794 -0.008398069
0003d0 95 6b 24 bd 15 a5 eb ba ee 88 24 3d cf 2b eb bc
       -0.04014166 -0.0017978275 0.04016965 -0.028707413
0003e0 59 93 eb 3c f4 47 1c 3d 67 81 0f bd ed d6 01 bd
       0.028756784 0.038154557 -0.035035517 -0.03169911
0003f0 23 dc dd 3a a6 df 07 bd 77 1e f3 bc 98 90 20 bd
       0.0016926568 -0.033172272 -0.029677613 -0.039200395

convolutions.2.bias f4 [64]
000000 77 2f 24 bd 2d b4 df 3c 83 17 49 3d 5b d1 dc 3c
       -0.04008433 0.027307594 0.04909469 0.026955297
000010 a7 0d 8d 3c 66 a5 f7 bc b5 29 bd bc c5 67 86 bc
       0.017218424 -0.030230235 -0.023091177 -0.016406903
000020 57 2a 01 3d 06 8a 89 3c 75 6c da bb 9c 76 5c bc
       0.03153452 0.016789448 -0.006665761 -0.013456013
000030 eb c7 a6 bc e9 ef af 3c 4b 04 e8 ba d5 29 11 3b
       -0.020359 0.021476703 -0.0017701475 0.0022150178
000040 1b d3 d5 bc 79 5d 74 bb 14 7a a1 bb 3c cc 00 bd
       -0.02610164 -0.003728716 -0.004927883 -0.031444773
000050 39 0d c8 3c b1 b1 dd bc 69 6a dd bb 41 ca 38 3d
       0.024420368 -0.027062269 -0.00675707 0.04511476
000060 44 f8 a1 bc d0 c6 cc b9 bd 28 ec 3c 62 7c be bc
       -0.019771703 -0.0003905804 0.02882802 -0.02325267
000070 ff d8 12 bd fa 6e ab bc 07 20 09 3c 10 90 e9 bc
       -0.035851475 -0.020926941 0.008369452 -0.028511077
000080 08 d1 90 3b 53 b9 fd 3c 4e c4 4d 3c 66 00 6d 3c
       0.0044194497 0.030972159 0.01255901 0.014465427
000090 c5 e1 9a b9 b0 ab 18 3c d5 e8 d7 bc 6b d4 6b 3d
       -0.0002954138 0.009318277 -0.02635614 0.057575624
0000a0 31 b8 6e bc 19 fe dc bc 55 4b e6 bc ca e6 fd 3a
       -0.014570282 -0.026976632 -0.028112093 0.0019371149
0000b0 00 ed bb 3c 68 9b 0b bb 7d eb ee 3c 0b d2 9b 3c
       0.022940159 -0.0021302346 0.029165024 0.019021055
0000c0 cd f5 e8 bc 70 1f 0c bd 7d 6e ef bc 12 4b 1e 3c
       -0.02843752 -0.03420967 -0.02922749 0.009661453
0000d0 57 c8 0a bc d7 8a 0e 3d 27 0a b1 bc 2b 48 e5 bc
       -0.008470616 0.034800377 -0.021611286 -0.027988514
0000e0 28 b5 55 3c 89 73 00 3c 24 1b e2 3b 19 d0 91 3c
       0.013043679 0.007840046 0.006900208 0.017799424
0000f0 2c 2c ec 3c 27 e2 16 3c 0d 51 3d 3d cf 9a 3f 3d
       0.028829657 0.009209192 0.046219874 0.046778496

convolutions.4.weight f4 [64, 64, 3, 3]
000000 d5 94 c6 3c e4 9a 22 bd cb 5c 99 3c 6c 86 c0 3c
       0.02424089 -0.039698496 0.018721005 0.023501597
000010 1e 6c db bc c0 99 18 3d 37 be c3 3c 12 0d 0e 3d
       -0.026784953 0.037256002 0.023894412 0.034680434
000020 82 cb 73 bb 77 73 39 3c 81 9c 20 bc 22 92 09 3d
       -0.0037200158 0.011319033 -0.009802938 0.03358663
000030 36 16 f0 bc fa d7 d2 3c a0 28 14 3d 3d 10 a9 bc
       -0.029307466 0.025737751 0.036171556 -0.020637626
000040 32 84 f3 3b 18 88 5b bc ae 38 aa 3c 93 e0 85 bc
       0.0074315304 -0.0133991465 0.02077898 -0.016342437
000050 8e 55 dc bc 80 a7 16 3d 63 ee a3 3c e3 92 5c 3b
       -0.026896264 0.036780834 0.020011133 0.0033656887
000060 fb 52 3c bc 3d 2d e4 bc 7c 99 45 bb 37 81 b5 bc
       -0.011494393 -0.027853603 -0.0030151298 -0.022156341
000070 32 93 a6 3c 57 32 a7 bc 83 6d aa bc 1c 28 f5 3c
       0.02033386 -0.020409746 -0.020804172 0.029926352
000080 96 3c 91 3c 74 bc e2 3c 25 01 16 3c 03 b7 e0 bc
       0.017729085 0.027677752 0.009155546 -0.027431017
000090 d3 79 2c bd 86 f2 f8 39 6e d6 28 3c 59 de ef 3c
       -0.042108368 0.0004748294 0.01030503 0.029280828
0000a0 80 f9 b5 3a e4 48 05 3d 4c 9b 01 3d 93 ad 28 3c
       0.0013883561 0.032540217 0.031642243 0.01029529
0000b0 41 f5 4a bd 0e 61 fc 3b 50 c5 84 bc 37 90 42 bc
       -0.0495503 0.0077019995 -0.016207367 -0.011875204
0000c0 75 1c 1b 39 ac 3c 7d 3b 1e da c0 3c 24 be cd bc
       0.00014792553 0.00386409 0.023541506 -0.02511508
0000d0 8e 42 48 3b 64 35 b2 bc 20 2e fb 3b f8 1a 08 bd
       0.0030557248 -0.021753974 0.0076654106 -0.033228844
0000e0 f3 ab 77 bc 48 51 13 3d 13 1d 61 bc 02 e4 79 3b
       -0.0151166795 0.035966188 -0.013739842 0.0038130288
0000f0 97 d0 fb bc 4c 56 0e bd 84 c8 26 3b 51 94 4f bc
       -0.030739112 -0.034750268 0.0025449106 -0.012669639
000100 8b a0 f0 3c b1 f5 0d bc 8f 00 6f 3a 06 34 d6 bc
       0.029373428 -0.008664534 0.00091172097 -0.026147854
000110 da 10 5f bc 5a 83 0b 3d 7d 27 a5 3c f7 9d 5a bc
       -0.013614858 0.034060813 0.020160431 -0.013343326
000120 92 e3 b9 bc a9 73 56 bb 98 e7 47 3a d0 46 6f 3d
       -0.022691522 -0.0032722747 0.0007625758 0.05841714
000130 25 71 d5 3b fb 51 6b 3c d1 b3 5d bb e9 ae 09 3d
       0.006513732 0.014362807 -0.0033829103 0.033614073
000140 0a 95 25 3d 71 f2 2a bd 56 ce 9e 3c 0d 8c da 3c
       0.040425338 -0.041735116 0.019385498 0.02667811
000150 59 58 0f bd 5a 6f 16 bc eb 95 11 bd 7c 2b 5d 3c
       -0.034996364 -0.009181822 -0.035543364 0.013499137
000160 06 2e 58 3b 93 a5 2b bd 8c 17 32 bd c7 12 79 3c
       0.0032986416 -0.04190595 -0.043479487 0.015202231
000170 ec 69 29 bc b7 86 9d 3c d8 a3 8b bc fc 4c 21 bd
       -0.010340195 0.019229276 -0.0170459 -0.03938006
000180 ce a6 79 bc 3b 86 ec 3c ac 54 6e 3b 11 93 0a bd
       -0.015237523 0.0288726 0.0036366386 -0.03383166
000190 5c bb 0e 3d 78 79 d1 3c 30 3b 2a bd 28 d1 55 39
       0.03484665 0.025570616 -0.04156035 0.0002039118
0001a0 2b 13 0e bc 86 a7 a5 3a b7 52 cb 3c 21 21 f8 bc
       -0.008671562 0.0012638427 0.024819715 -0.030289235
0001b0 96 19 08 3d d2 c0 05 3d eb 33 a7 3c d6 4c 06 3b
       0.033227526 0.03265459 0.020410499 0.0020492575
0001c0 13 61 99 bc 70 a3 61 3c 1f db 14 bd a0 2f 16 3d
       -0.018723046 0.013771877 -0.036341783 0.036666512
0001d0 00 e8 69 3a 82 88 23 3d e2 91 29 3d ce 4a 86 bc
       0.00089228153 0.039925106 0.04139889 -0.016393092
0001e0 fc 51 12 3c f4 81 1b 3d 98 c8 84 3c 53 45 f8 bc
       0.008930679 0.03796573 0.016208932 -0.030306494
0001f0 e2 fc 1b 3d 87 d1 6e ba f8 dc e1 3a 8b e4 00 3d
       0.038082965 -0.00091102015 0.0017231992 0.031467956
000200 cc 56 0e bd 58 a9 07 3d a9 67 86 bb 19 fc 88 bc
       -0.034750745 0.033120483 -0.0041017127 -0.016721772
000210 bb ae 26 bd cc df 84 3c d5 9b ae bc f2 05 2a bc
       -0.04069398 0.016219996 -0.02131454 -0.010377394
000220 e2 10 2d bd 71 d5 b7 bc 87 8f e1 3c 45 c9 81 3c
       -0.04225243 -0.022440644 0.02753426 0.015843043
000230 a9 7a 43 bc eb 64 b0 bc 66 fd 0e bd 68 92 cc bc
       -0.0119311 -0.021532496 -0.03490963 -0.024972156
000240 b4 21 0d 3c 01 d9 e5 3c 4f 6c 0b 3a 4b 82 f8 3c
       0.0086139925 0.028057577 0.00053185684 0.030335566
000250 3f 5a 88 3c 05 d1 a8 bb 02 a9 76 3c 8a ec ee bc
       0.016644595 -0.00515187 0.015054943 -0.029165525
000260 e1 11 1e 3d ed 6a 86 bc b2 91 0b bd d6 ee 27 3d
       0.03859127 -0.016408408 -0.034074493 0.040999256
000270 88 32 a3 bc a7 1c 0c 3d 7d 1a ee bc 68 af 75 3b
       -0.019921556 0.034207013 -0.029065365 0.0037488583
000280 f7 22 1d 3d ac 5f 1f 3c 9c 46 33 3d cf a1 db bc
       0.038363423 0.0097274 0.04376851 -0.026810555
000290 76 70 09 3c ae 28 14 3d dd f0 98 3c 5c 06 1a 3d
       0.008388629 0.036171608 0.01866954 0.03760372
0002a0 9f ba 36 3d b8 05 4b 3d b4 ef 22 3d c9 9a d1 3b
       0.04461157 0.049566 0.03977938 0.0063966257
0002b0 67 fe 27 3d c7 d0 e7 bc 38 5d bb ba c7 a9 72 3b
       0.0410141 -0.028297795 -0.0014294749 0.0037027465
0002c0 fe d0 18 bd 83 08 18 bd fe 33 26 bd a5 c5 0a bd
       -0.037308685 -0.037117492 -0.040576927 -0.033879895
0002d0 e8 ae 2f 3c 92 3c 25 3d 2e eb 63 3d b0 02 ab bc
       0.010722853 0.040340967 0.055644207 -0.020875305
0002e0 fc 6c 4d bc 36 25 90 bc 1c 58 31 3d ad 11 b8 3a
       -0.012538191 -0.017595869 0.04329692 0.0014043354
0002f0 b8 01 3e 3d 58 b9 6e bc dc 80 b0 3c 19 99 3e 3c
       0.046388358 -0.014570557 0.02154582 0.011633181
000300 df 27 da 3c e1 91 f6 3b 94 08 9d bc bc 16 c2 3c
       0.02663034 0.0075247143 -0.01916913 0.023692481
000310 da a3 70 bc 76 88 e6 3c 70 f6 18 3d 8d f6 0e 3c
       -0.014687503 0.028141242 0.037344396 0.0087257745
000320 ac 93 90 bc 93 6d 87 3c b6 51 d4 3c 45 e1 0b 3d
       -0.01764854 0.016531741 0.025917869 0.03415038
000330 c3 bd 2a bd 76 79 14 bd e9 dd fe bc 29 a4 5a 3c
       -0.041684877 -0.036248647 -0.031111674 0.013344803
000340 ec f5 4c bc 4f 06 fc 3c 61 9d 9c bc 17 d7 43 3d
       -0.012509804 0.030764727 -0.019118013 0.047812548
000350 f4 de 2b bc 6e fe 6a 3d 92 7d c1 bb a1 bf 33 3d
       -0.010490168 0.05737155 -0.0059048617 0.043883923
000360 63 ae 45 bb 69 2b a5 bc ec 95 ab bc 0c 39 18 3d
       -0.0030163757 -0.020162301 -0.020945512 0.03716378
000370 77 e2 b0 3c ed 78 88 bc e8 6a 4d 3c 0a e4 f3 3b
       0.021592362 -0.016659224 0.0125376955 0.007442956
000380 50 fe db bc 86 3b e8 b9 8f 0a 4d bc f1 45 0c bc
       -0.026854664 -0.00044294837 -0.012514724 -0.008561597
000390 b9 97 ea 3c 0a 6c 2d 3d 2f 10 74 3d 6b ba 4c b9
       0.0286368 0.042339362 0.059585746 -0.00019524402
0003a0 3e 45 5d bb 1d c9 18 3d 23 e7 7b bb 3d 77 c8 3c
       -0.0033763195 0.03730117 -0.0038437329 0.02447092
0003b0 eb 4d fd 3b 41 68 75 3c 69 94 95 3c 4e 39 23 3c
       0.007730236 0.014978469 0.018259244 0.009962393
0003c0 d7 d1 56 3d 23 0b 3d bb 43 fe 6b 3d ba 1b 1e bd
       0.052446213 -0.002884575 0.05761553 -0.03860066
0003d0 d6 19 7c bb eb 26 9b 3c 66 db 9c bc 9b 90 00 3c
       -0.0038467548 0.018939456 -0.019147586 0.007846977
0003e0 7c b1 0f 3d 50 ab a7 3c 56 b2 15 ba 6b b1 79 3c
       0.03508137 0.02046743 -0.0005710473 0.015240054
0003f0 30 1f c5 3c 20 45 df bb c0 6f 73 bb e4 de 1f 3d
       0.024062723 -0.0068136603 -0.0037145466 0.039030924

convolutions.4.bias f4 [64]
000000 a2 40 b5 bc 4c 1f df ba 16 a6 51 3c be 05 e2 bc
       -0.022125546 -0.0017022877 0.012795946 -0.027590629
000010 3f a6 2e 3d 99 2a d4 bc 12 09 e1 3b b1 63 2f 3c
       0.042639013 -0.025899218 0.0068675363 0.010704921
000020 69 56 73 bc 1d 7e 95 3c 11 9d 0d 3d 58 9e 04 3c
       -0.014852145 0.018248612 0.03457362 0.008094393
000030 e0 5d a4 3c 87 f1 d0 bc b0 b8 a2 bc d1 ca 16 3d
       0.020064294 -0.025505794 -0.019863456 0.036814515
000040 00 6c 92 3c 71 1a 28 bd 3d 0e c2 3b 30 d3 1c 3d
       0.017873764 -0.04104084 0.0059221075 0.03828734
000050 ab 68 dc bb 56 3a 64 3c e4 3a da 3c f8 71 0a 3c
       -0.0067263446 0.013929924 0.02663941 0.008450024
000060 df f5 ab bc d8 0f 8b 3c fd de ce bc 59 83 fa 3b
       -0.020991264 0.016975328 -0.025252813 0.0076450524
000070 00 33 00 bd 09 62 e0 3c ee ee 42 3c a3 3c a1 bc
       -0.031298637 0.027390497 0.011897786 -0.019682234
000080 d5 99 03 bd bc 31 10 bd c9 76 8b 3b dc f3 60 bc
       -0.032129128 -0.03520368 0.0042561037 -0.013730016
000090 e5 59 06 3c e4 35 da 3c 94 83 4d bc 90 a9 d4 bc
       0.008200143 0.026637025 -0.012543578 -0.02595976
0000a0 bc 2a 12 bd f5 30 10 bd c9 2c 6c 3c 55 5e b1 3c
       -0.035685286 -0.03520294 0.0144149745 0.021651426
0000b0 f5 2a 04 3d 59 e4 d1 3b ff 32 53 bc 29 59 8d bc
       0.03226753 0.006405395 -0.012890576 -0.017254429
0000c0 65 ba 94 bc 10 c1 14 bc 50 ec 65 bc f7 4b 14 bd
       -0.018155286 -0.009079233 -0.014033392 -0.03620526
0000d0 d4 14 33 3d bc c5 95 39 86 e3 c3 bc 9f 46 43 bb
       0.043721035 0.00028566818 -0.023912203 -0.0029796732
0000e0 45 f4 07 3d 5d 58 6d 3c 33 16 09 3d 8f 9c 72 3c
       0.033191938 0.0144863995 0.033468436 0.014807834
0000f0 76 84 67 bb f7 79 30 3c 06 02 a8 3b 87 e9 f7 3c
       -0.0035326756 0.010771266 0.0051271943 0.030262722

convolutions.6.weight f4 [64, 64, 3, 3]
000000 a2 0b 05 3d 08 e8 d4 3c 17 98 9e 3c ff e8 25 3c
       0.032481797 0.025989547 0.019359631 0.010126351
000010 31 53 18 bc 51 c4 54 3c 31 62 c8 3b a8 d8 d7 bc
       -0.009297178 0.012986259 0.006115221 -0.026348427
000020 9c 13 09 bd 00 cf fd 3c ce cc e1 bc a2 5c bf 3a
       -0.033465967 0.030982494 -0.027563479 0.001459975
000030 bf 11 a7 bc 07 74 1b 3d 7c f0 47 3c cc 14 a8 bc
       -0.020394204 0.03795245 0.012203332 -0.02051773
000040 cb b8 07 3b 83 a9 e5 3c 4d cd e5 bb d6 68 fc 3b
       0.002070951 0.028034931 -0.007012999 0.007702927
000050 bb 4a 78 bc 40 fb eb ba 54 1b 95 3c 19 ac 1d 3d
       -0.015154536 -0.0018003955 0.018201508 0.038494203
000060 00 86 d0 bc b3 9f 03 3d 6a 62 2e bc 66 a3 f8 3c
       -0.025454521 0.032134723 -0.010643581 0.030351352
000070 33 61 e7 bc 66 a1 02 3d 90 13 df 3c e3 8f d0 bc
       -0.02824459 0.031892203 0.027231008 -0.025459236
000080 68 74 10 3d b2 88 1d bd 96 37 0c bb 6b 38 c4 bc
       0.035267264 -0.03846044 -0.0021395436 -0.023952683
000090 46 e6 9b 3c 9f a9 20 bd 43 f3 13 bd 96 33 fc bb
       0.019030701 -0.039224263 -0.036120664 -0.007696579
0000a0 9c bb 23 bd 07 40 b4 bc aa ec fa bc e3 53 34 3c
       -0.03997384 -0.022003187 -0.030630428 0.011006328
0000b0 f9 fc 39 ba 8b 5a 19 bc ee f3 c7 3c cb c7 0f 3d
       -0.0007094886 -0.009359966 0.024408307 0.035102647
0000c0 56 63 9c 3c 4b 11 95 bb 47 9d 00 bd ab 38 6f 3c
       0.019090336 -0.0045491806 -0.03139999 0.014600913
0000d0 76 89 c5 3b 33 3c a8 3c 5e aa f4 3c 0c a0 0c 3c
       0.0060283495 0.020536518 0.029866394 0.00858308
0000e0 09 eb ee 3b 65 11 9e 3b d5 de 32 bc 45 8b 73 bb
       0.007291202 0.004823851 -0.010917385 -0.0037161869
0000f0 2e 97 bb 3c 91 43 31 3c 5c ad ec ba a6 33 90 3c
       0.022899237 0.010819332 -0.0018057036 0.017602753
000100 3d 25 90 bc 7f 97 45 3c 5e 8d 21 3d 94 7f c7 bc
       -0.017595882 0.012060045 0.03944146 -0.024352826
000110 41 19 26 bd 6e ab d0 3c 8c dc a8 bc 7b 3d 0e bd
       -0.040551428 0.025472369 -0.020612977 -0.0347266
000120 38 ef 02 3c 58 b0 8c bc 34 6c 13 3c 9f fa 8d 3b
       0.0079916045 -0.017173931 0.008997966 0.004332855
000130 a9 b5 21 3d 28 1e 1f bd fe f5 ad bc 91 ea 3b 3b
       0.039479885 -0.03884712 -0.021235462 0.0028673748
000140 4d 31 0a bd 9a 25 95 bc 7a 33 22 bd e5 3e 65 3b
       -0.033738423 -0.018206406 -0.039599873 0.0034980115
000150 0c 3e 15 bc cd 6e 30 bd 05 b5 36 bc 24 ca 09 bc
       -0.009109031 -0.043074418 -0.011151557 -0.0084100105
000160 88 18 5d bc 4c 5b 0c 3d b7 46 15 3d 44 ec 29 bd
       -0.013494618 0.034266755 0.036444392 -0.041485086
000170 99 2f cd 3c 8c dd 1a bd 9b 91 bd bc b2 02 b5 3c
       0.02504711 -0.03780894 -0.02314072 0.022096012
000180 06 ae 2a bd a4 d8 ae 3c 52 73 0e bd 52 d0 55 3c
       -0.041669868 0.021343537 -0.034777947 0.013050156
000190 40 76 49 bb 3d 43 1e bd a0 e3 4c bc bb 37 ab 3c
       -0.0030740649 -0.038638342 -0.012505442 0.020900598
0001a0 b9 87 28 3b 87 2d 0e bd 53 9b 77 3c ee cf de 3c
       0.0025715663 -0.034711387 0.015112716 0.027198758
0001b0 52 d7 f9 bc bb 78 79 3c a3 bd 87 bc 1b 06 22 bc
       -0.03049818 0.015226538 -0.016569918 -0.009889151
0001c0 5f de 0e 3d 89 99 b8 3a cd 94 d9 3c 95 78 4f 3c
       0.03488004 0.0014083843 0.026560212 0.012663026
0001d0 6a 90 10 3d a4 e0 85 3c 9a 5d 02 bd 6f 96 48 bb
       0.035293974 0.016342469 -0.031827547 -0.0030607244
0001e0 53 16 27 bc f2 9d bd bc 23 42 ca 3c 43 bb 09 bc
       -0.010198194 -0.023146603 0.02468974 -0.008406463
0001f0 c8 23 1b 3d cd fd f3 bc 8f a6 a6 3b 94 89 9b 3c
       0.03787592 -0.029784108 0.0050857733 0.0189865
000200 c1 5c 97 3c 99 ed b4 bc 78 c2 c8 3b cc 04 96 3c
       0.018476846 -0.022085952 0.006126698 0.018312834
000210 6b b9 13 3d ac 9e 7e bb 59 ac d9 bc 16 fe a8 bc
       0.0360655 -0.00388519 -0.02657144 -0.02062897
000220 a8 80 89 3c 58 dc 26 39 0b 9a 82 bc 97 e1 0c 3d
       0.01678498 0.00015913078 -0.015942594 0.034394827
000230 aa 3a bd 3c 64 2d 2d bd f0 c6 72 3c 9d 94 12 bb
       0.023099262 -0.042279616 0.014817938 -0.0022366412
000240 fb ae 08 bd f6 c0 1c bd 59 83 7a bc 16 56 d9 3c
       -0.03337 -0.03826996 -0.015290105 0.026530307
000250 4a 97 3c 3c e3 01 4f 3b 7d b9 cb 3c 97 6c 14 3c
       0.0115106795 0.0031586818 0.024868721 0.009059093
000260 ec 4a c5 3c 42 4f 3e 3c 97 9b 18 3d c6 91 cc 3c
       0.024083577 0.011615576 0.037257757 0.024971854
000270 71 a5 2a bc 59 8d 59 bc 7e 9b 0c 3c 14 91 54 bb
       -0.010415421 -0.013278329 0.008581994 -0.0032435106
000280 08 cf c5 bc ee a3 b9 bc 85 3f d5 bc 84 b9 c0 3c
       -0.024146572 -0.022661176 -0.026031265 0.02352596
000290 17 63 1b bc c2 8d 61 3c f6 ad e6 3a 55 19 45 3c
       -0.009484074 0.013766708 0.0017599452 0.012029965
0002a0 da 96 73 bc 6e 93 1f 3d b6 2f 1a 3d dc 43 37 bc
       -0.014867509 0.03895896 0.037643157 -0.0111856125
0002b0 dd 22 ed 3c ac 31 97 3c bf 0f fd b9 79 34 a9 bc
       0.028947288 0.018456303 -0.00048267652 -0.020654904
0002c0 9a ca be 3c cb c1 05 b9 29 cf 8a 3b 88 a0 74 3c
       0.023289967 -0.00012756062 0.004236121 0.014930852
0002d0 0e 76 1a bd 14 c6 33 b9 31 44 f6 3c 7d 2a b6 bc
       -0.037710242 -0.0001714456 0.030061813 -0.022237057
0002e0 50 d9 18 3d 37 cf 1f 3d ee c2 e3 3c 03 5c d4 bc
       0.03731662 0.039015975 0.02780291 -0.02592278
0002f0 2f da 98 bc 68 0e 64 3c d9 65 ea bb aa f5 21 3d
       -0.018658726 0.01391945 -0.0071532545 0.039540924
000300 76 d3 20 bd c1 e6 80 3c 8c 14 3e ba c8 8b 7b 3c
       -0.039264165 0.015735032 -0.00072509865 0.015353151
000310 0b 4b b1 3b 28 17 47 3c 22 a5 88 3b fe b4 1b 3c
       0.005410557 0.012151517 0.004170076 0.009503601
000320 32 89 06 3c 6b f0 ec bc 36 f7 29 bd 67 b3 24 bd
       0.008211421 -0.028923234 -0.041495524 -0.040210154
000330 a4 fe 77 3c 4f e9 9f 3b 30 49 17 bd 5b 9c 96 bc
       0.015136395 0.0048801075 -0.03693503 -0.018385103
000340 07 ef 40 bc d3 a4 bf 3c 71 29 9b 3c 72 e2 d1 bc
       -0.011775739 0.023394024 0.01894066 -0.025620673
000350 00 3f 17 bd 1c 43 00 3d f0 c6 20 3d f7 65 92 bc
       -0.036925316 0.031314 0.03925222 -0.017870886
000360 cc 1e 3e b8 3d 78 97 3b bb 30 05 3d 8d 07 bc 3b
       -4.5328212e-05 0.004622488 0.032517176 0.005738205
000370 09 ef f4 bc e9 45 7a bc f6 30 83 3c f6 15 1a 3c
       -0.029899137 -0.015275457 0.016014557 0.00940465
000380 11 03 1e bd 91 24 35 3c 3f ac f2 bc 42 5a a5 ba
       -0.038577143 0.011056081 -0.029623149 -0.00126154
000390 a4 f9 22 bd 12 b2 14 bd 8a e4 9e bc 39 46 76 3c
       -0.039788857 -0.036302634 -0.019396085 0.015031391
0003a0 24 c9 45 bb 86 b4 de bb 4d df db 3c 6e 00 21 3d
       -0.0030179704 -0.0067964224 0.026839877 0.03930705
0003b0 d1 8d 92 3c 0e 52 96 3c 53 3f b0 3c c3 b7 1e bd
       0.017889889 0.018349674 0.02151457 -0.038749468
0003c0 7f 73 9a bb da 59 11 3d 4c b4 73 bc 9b 0f 0e bd
       -0.0047134752 0.03548608 -0.014874529 -0.03468285
0003d0 05 9c e2 bc d3 f5 02 3d f6 13 fa 3b 7a 33 07 bb
       -0.027662287 0.031972717 0.007631774 -0.0020630048
0003e0 bf d0 bf bc 86 9a b0 3c fe 99 28 bd d1 8e 0d bc
       -0.023414968 0.021558058 -0.041162483 -0.008640007
0003f0 16 9a cc bc 09 8b 17 3d 2f 89 ab 3c cc 94 3b 3c
       -0.024975818 0.03699783 0.020939438 0.01144905

convolutions.6.bias f4 [64]
000000 10 69 a1 bb 34 3b 41 3c 66 4c d9 bc 54 8d 5f 3c
       -0.0049258545 0.0117939 -0.026525687 0.013644535
000010 b2 16 2a 3c 5f aa 17 bd 8c 6f 10 3d 14 15 b1 bc
       0.010381388 -0.037027713 0.03526263 -0.021616496
000020 c2 b9 21 bd 43 6b 95 bc ed df f2 3c b2 e5 19 3d
       -0.039483793 -0.018239623 0.029647792 0.03757257
000030 6d 2e 32 3c 11 4e d9 bc 9d b0 2f 3c e3 cb a1 3c
       0.010875327 -0.026526483 0.01072326 0.019750541
000040 15 82 8c bc 5a 20 f7 bc 65 e5 1f 3d bc 08 d8 3c
       -0.017151872 -0.030166794 0.039037127 0.026371352
000050 18 41 05 3d bd 0e 16 3d d6 fc 55 ba 36 51 8e bc
       0.03253278 0.03663515 -0.00081629807 -0.017372709
000060 ac 56 97 bc 1c 58 38 3c 9a b2 55 3d 63 73 82 bc
       -0.018473946 0.011251476 0.05217228 -0.015924161
000070 bd 62 29 3c 7a 87 f5 3a 98 55 bc bc 77 87 18 3d
       0.010338482 0.0018732392 -0.022990033 0.037238564
000080 09 b6 15 bb fc 17 8d bc 3c 6a 54 bc 6e a9 c7 3c
       -0.0022844097 -0.01722335 -0.012964781 0.024372783
000090 d0 ef 95 bc f4 d3 7d bc 9a e5 40 3b dd 42 57 bc
       -0.018302828 -0.015492428 0.0029433728 -0.0131385
0000a0 45 70 0b 3d d3 1f 40 3d 96 e7 24 3b d7 20 17 bd
       0.034042615 0.04690535 0.002516245 -0.036896553
0000b0 f9 b0 05 bd 87 07 5d bc f3 df a5 bc 9b e8 a1 bc
       -0.032639477 -0.013490564 -0.020248389 -0.019764235
0000c0 d3 2b a5 3c df 84 b9 3a 3c f7 28 bd f7 a7 91 3c
       0.020162499 0.0014153979 -0.041251406 0.017780287
0000d0 7b 88 9a 3b 55 81 2c 3d d7 01 d1 bc 68 1d 35 3b
       0.004715977 0.042115528 -0.025513573 0.0027635936
0000e0 06 63 08 3d ed 44 48 3d 1d ff 2c 3b ce 93 64 3b
       0.03329756 0.048893858 0.0026397177 0.0034878138
0000f0 7d 6a 1d bd cf e0 3d 3d d7 29 3b 3d 19 08 d7 bc
       -0.038431633 0.046356972 0.0456942 -0.026248978
