decomposition/simple_retinex_model/weights_last.pt (torch, 668167 bytes, 24 tensors)

feature_extraction.weight f4 [64, 3, 9, 9]
00000000: 724a 5a3c 9d1a 633d 9ff4 913c 8c35 ca3c
00000010: ffe3 c4bc 7104 debc 5281 1cbc cd5b b53c
00000020: d273 953c 3d89 273d 3994 5cbd 8b70 4f3c
00000030: bb93 443b b69a 7bbd fcca 7abd 13e0 3fbd
00000040: 3f6f 413d 0eb1 57bc 2cea 533d 6ed7 023d
00000050: 8f1d ec3c 9831 833d 53b9 08bc e6b9 7d3d
00000060: edff 14bd 008c 35bd 7fc7 653d 2941 27bd
00000070: 05b6 4d3c 4f26 623d 5c14 8a3a 6f3a a8bc
00000080: 2f21 bb3c 43cf 823d a839 573d f0ee 5bbd
00000090: dec9 983b b20a 3d3d 3c7f fa3b 945c 363c
000000a0: 6310 08bd f040 ca3c 33a1 d5bb 0978 35bd
000000b0: d054 19bd b3e0 00bd fa5e 333d adbd ba3c
000000c0: ff98 3abc 9b4b 8e3d 7b47 67bd e2ea c53c
000000d0: 32de d43c 7779 6c3d e642 31bd 5565 c9bc
000000e0: 4a35 08bd e2ae 2fbd 96b6 833d af41 403d
000000f0: ef2d ad3c 8297 4cbd d759 06bc 0dbb b9bb
00000100: 6c7f 63bd a347 c5bc 3f1a b2bc 31d2 74bc
00000110: 44a3 213d 5c9d dd3c 7a97 943c 2571 d73c
00000120: dc85 783d cf28 323c b667 133d ff60 163d
00000130: 580d 01bd 0d64 ee3c 8051 3f3d ae07 843d
00000140: dfd0 f53c c92b 4abd 06ff 243c e95d 133c
00000150: 956d 3fbd bfc1 1e3d 77bf 95bc 6011 9b3b
00000160: 3ae3 dfbc 465a 77bd c052 1f3c 11d5 39bd
00000170: 9d8d 0cbd 535a f6bc ff7b ba3a 1565 73bc
00000180: 9a8e eb3b 365b 66bd 31c0 32bd 68a3 acbc
00000190: 457a 11bd fc1f 1dbb 69d6 f83c 011a 493c
000001a0: 62d7 a6bc 4b0f 083b fcca c63b 2e1a 65bc
000001b0: 3973 843d a45b 4d3d 3b18 fc3c 08e6 18bd
000001c0: 8a97 6cbc f0b2 f13b 6a8f 43bc 84fb 86bb
000001d0: 9f3f 2d3d 1e48 3fbc b2e8 653d 0351 613d
000001e0: 0a46 03bd f8d4 cbbc 9bdc 823d 63a0 44bc
000001f0: 884a 8fbc 9695 3d3d a489 33bd 048b 893b
00000200: 0c41 01bd bf8b 113c 7a69 ef3c f31c 673d
00000210: f3fd 663d 2f16 f03c d09b d7bc c571 843d
00000220: 1b83 d1bc d8c8 a8bc 9c0d c63c 1351 33bc
00000230: 45b5 8abc f4ff 1abd 0d5a 7bbc 328e 2f3c
00000240: 675f d33c 487e d53c d59f 313d e326 833d
00000250: 0a00 04bd 35fa 34bd 85b5 323d 4d8d 4d3d
00000260: d530 bebb d30a 4c3d 8f03 713d f510 d03c
00000270: 0034 463d 9f04 14bd e913 4ebd 1367 00bd
00000280: 9130 55bd 23fd 13bd 083c 783d 56b6 58bc
00000290: 70d6 2bbc bbd3 37bc f354 553d db8c f9b9
000002a0: 1713 2b3b 7461 543d 0b51 103d 5b3f 61bc
000002b0: 6920 243d 5237 af3c ff41 abbc 9f51 b33c
000002c0: 1c13 2cbd fef2 103c 7679 c2bc bcb9 fe3c
000002d0: 1b38 3cbc 4b4a 8e3d 4f7e 903d 2d68 64bc
000002e0: 5e84 f0bc ce1a 8e3d 612a 0b3a ae0d 40bd
000002f0: 7998 cf3c 1102 683d 9427 bdbc abe1 283d
00000300: 445c efbc 3ad3 f1b9 a6bb 383c 4ad8 d9bc
00000310: 073c e43c afee 18bc 5a45 1b3c 2ac8 413d
00000320: 6393 c33c 6e43 6a3d 670b 41bd 5297 d4bc
00000330: 1b7c 50bd a628 28bb a66a 2a3d e9dc f3bc
00000340: fc7d 3cbd d4ca e43c 8901 a03c c415 ce39
00000350: 894a 673d 3eeb da3b cff5 52bc abe2 f93c
00000360: 457c 863b d75c 5ebd cddc f73c e445 afbc
00000370: e412 833d 2558 333a efc1 f73c 366f 35bc
00000380: 2198 30bc 8677 8c3d faeb e33c 692c 223d
00000390: fbd5 63bd df4c fabb 1a57 873d 2a46 7f3d
000003a0: 1ddf 323d f023 1ebc 68e9 a9bb a7ae bb3c
000003b0: cb4e 023c 47e8 b9bc 9a63 503d 2d41 c1bb
000003c0: 6ec6 49bd 355c 613d 5e1b 1e3d bf3f aa3c
000003d0: 1839 c13b b075 7ebd c03b 993c f2f7 293c
000003e0: b692 a5bc 90ab 543c 8af3 74bd fea2 eebb
000003f0: 91c5 3dbd 2eb1 533d d5af 30bb 0a12 8e3b
0.013323413 0.055445302 0.01781684 0.024683736 -0.024034498 -0.027101727 -0.009552317 0.0221385
0.018243704 0.040902365 -0.053852294 0.01266111 0.002999528 -0.06142684 -0.061228737 -0.046844553
0.047225233 -0.013164772 0.051736996 0.03194373 0.028822688 0.06405944 -0.008344966 0.061944865
-0.036376882 -0.044322968 0.056098457 -0.040833626 0.012555604 0.055212315 0.0010534632 -0.020535676
0.022842972 0.06387188 0.05254522 -0.053694665 0.0046627363 0.046152778 0.007644562 0.011130471
-0.033218753 0.024689168 -0.0065194606 -0.044303928 -0.0374344 -0.03146429 0.04379175 0.022795523
-0.011389016 0.06948014 -0.056464653 0.024159852 0.025984857 0.057733025 -0.04327669 -0.024584452
-0.033253945 -0.04289139 0.0643131 0.04693764 0.021140067 -0.049949177 -0.00820013 -0.00566805
-0.05554144 -0.02408201 -0.02174103 -0.014942692 0.039462343 0.027052574 0.018138636 0.026299069
0.060674533 0.010873987 0.03598758 0.036713596 -0.031506866 0.029100442 0.046708584 0.06446777
0.030006824 -0.049358163 0.010070568 0.008994558 -0.046735365 0.03875899 -0.018279774 0.004732296
-0.02733003 -0.060388826 0.009724319 -0.04536921 -0.03431474 -0.030072367 0.0014227628 -0.014855643
0.0071886303 -0.05623933 -0.04364032 -0.021074012 -0.035516996 -0.0023975363 0.030375676 0.012274266
-0.020366374 0.0020761068 0.006066678 -0.0139832925 0.064672895 0.050136223 0.030773273 -0.03732875
-0.014440427 0.0073760673 -0.011936048 -0.0041193385 0.042297002 -0.011674909 0.05613012 0.0550089
-0.032049216 -0.024881825 0.063897334 -0.01200113 -0.017491594 0.046285234 -0.043832436 0.00419748
-0.031556174 0.008883416 0.0292251 0.056424093 0.05639453 0.029307453 -0.026319414 0.06467012
-0.025575211 -0.020603582 0.024176411 -0.010944623 -0.01693214 -0.037841752 -0.015341294 0.010715054
0.025802327 0.026061192 0.04336532 0.064039014 -0.0322266 -0.04418393 0.04363014 0.050183583
-0.005804161 0.04981501 0.058841284 0.02539871 0.048389435 -0.03613722 -0.050311957 -0.0313483
-0.05204827 -0.03613008 0.060604125 -0.013227066 -0.010488138 -0.011219914 0.052082967 -0.00047597926
0.0026103908 0.05185075 0.03523354 -0.013748015 0.04006997 0.021388683 -0.020905493 0.021889506
-0.04201041 0.008846996 -0.023739558 0.031094424 -0.011487986 0.06947764 0.070553415 -0.013940853
-0.029359993 0.06938706 0.0005308744 -0.046888046 0.02534126 0.056642596 -0.023090161 0.04123084
-0.0292188 -0.00046124478 0.011275208 -0.026592392 0.027860655 -0.00933425 0.009476984 0.047310032
0.02387399 0.057193212 -0.047130015 -0.025951061 -0.050899606 -0.0025658994 0.041605614 -0.029768424
-0.046018586 0.027928747 0.019531982 0.00039307598 0.056467567 0.006680875 -0.012875988 0.030503592
0.0041041696 -0.054287758 0.030256653 -0.021395631 0.064000875 0.00068414427 0.030243842 -0.011073878
-0.010778458 0.06858735 0.027822483 0.039593134 -0.05562399 -0.0076385583 0.0660841 0.062322773
0.04366981 -0.009652123 -0.005185295 0.02291043 0.007953356 -0.022693766 0.050876237 -0.005897662
-0.049261503 0.055019576 0.038600318 0.02078235 0.0058966987 -0.062123954 0.018705249 0.010374056
-0.020211559 0.012980357 -0.05980257 -0.007282614 -0.046330992 0.051682644 -0.0026960273 0.0043356465

feature_extraction.bias f4 [64]
00000000: d325 d5bc cff4 a4b9 4032 96bd 1e19 933d
00000010: 0279 7dbd e862 27bd 1b42 88bd fc94 25bc
00000020: 9a96 72bd ae9a 83bd 8526 99bc ab46 cebc
00000030: 0bdc b63d 019f 3dbd e3be 0c3d ae91 07bd
00000040: 8b84 a8bb 52f3 8cbd 4763 3dbd 8b62 c63c
00000050: 103d 0bbd 36eb 32bd 5746 833c 0fac 2a3d
00000060: 0e44 8c3c b80d a4bb 1819 043d 9046 a6bd
00000070: 9332 823d 2963 64bc 1539 7a3d b7e7 7f3d
00000080: 09d1 95bd 92ec 7c3d cfe3 033d 84fe 0c3d
00000090: b364 8d3d f17a 66bd e26f a23d da08 973d
000000a0: 55b9 6f3d ab67 cc3c ab2c a33d 07d1 f23c
000000b0: fde3 973d 20db 323d cbef 7fbd 1125 4ebd
000000c0: e4c3 213d 4068 edbb 371b c53c 9b98 92bd
000000d0: 0551 a93d 192d 133c b6c6 953d 8b37 acbb
000000e0: 4676 09bd fb70 4dbd 2ba9 40bd 13ee 903d
000000f0: caab a1bd ca26 903d 5bed 66bd a384 2fbd
-0.026019013 -0.00031462914 -0.07333803 0.07182525 -0.06188298 -0.04086581 -0.066532336 -0.010106321
-0.059225656 -0.06425987 -0.018695125 -0.025180181 0.089286886 -0.046294216 0.03436173 -0.033097915
-0.0051427535 -0.06882347 -0.046237256 0.02421691 -0.03399378 -0.043681346 0.016024752 0.041667994
0.017122295 -0.005006518 0.032250494 -0.081189275 0.063573025 -0.013939657 0.061089594 0.06247684
-0.07315261 0.06174905 0.032199677 0.034422413 0.069039725 -0.05626959 0.07931496 0.07374735
0.058526356 0.024951776 0.07967504 0.029640688 0.07416532 0.043666005 -0.062484544 -0.050328318
0.039493456 -0.0072450936 0.024060829 -0.071580134 0.082674064 0.00898292 0.07313292 -0.0052556447
-0.03356006 -0.050156575 -0.04703633 0.07076659 -0.07894094 0.070386484 -0.056378704 -0.0428511

convolutions.0.weight f4 [64, 64, 3, 3]
00000000: 3cde 943c 75e9 5cbc bef5 043d 534f 0dbd
00000010: 47ec b53b 1006 b43c 5444 2bbd 3d68 c03c
00000020: fb2b 203c 6e26 c0bc b8e0 a0bc 2879 08bc
00000030: 16be b0bc 3fd6 053d d521 94bb 07aa 0ebd
00000040: 880e 083d 6120 9b3c a623 163d a402 5a3c
00000050: e7ab 0d3d a6d0 b43c 56eb cfbb 2d1c 053d
00000060: b375 9ebc 93e2 09bd aa83 6dbb 01c6 febc
00000070: 601d 67bd 7d0e 0abd 3aeb 52bc 3347 b9bc
00000080: d6b0 4cbd 9b89 b7bc 4b88 e7bc 99e1 e93b
00000090: 9b6f 93bc 1d11 3d3d c9a5 383c 9084 153c
000000a0: 25fb bbbc a4e2 bf3c bb53 5c3d d93e 9cbc
000000b0: 91d1 083c 8d73 c0bc 4ecd 6abb fef6 f13c
000000c0: a03c 713c 71cd d63b 9f78 59bb 3ace 0bbd
000000d0: 8527 03bd 697b 0ebb cd24 f8bc e5d8 95bc
000000e0: 2b48 2f3c 7920 73bc 3a42 35bd 0017 f5bc
000000f0: 683a 9fbc 69b7 12bd 1e94 e3bb ed98 1e3d
00000100: 3596 fe3c 00ce 0a3d dc74 ccbc 82bd ce3c
00000110: 8653 a83c 3996 833c 4528 4fbc ccda 783c
00000120: 4034 f5bc 18bf adbc d037 e63c c7e9 f0bc
00000130: 9009 cbbb 0401 283d 381c 6b38 858e b93c
00000140: 7c40 d83c 0644 06bd 739b 27bc 2381 8b3c
00000150: 86ff 393c 632f 813c 111c 193c 512e 28bb
00000160: ecaf 25bd c059 043b f71e d33c 3b6f d13c
00000170: ff0e 8bbb 26d9 803c d52d 9bbc b45b 63bc
00000180: d33d c23c 8087 7ebc 5996 b13c 484f 003d
00000190: f72a 2839 7cdc 043d 57e6 823c cac2 aebc
000001a0: 1ba7 663c c1a9 d0ba c721 74bc 5628 bc3c
000001b0: c69e 0abc a2b6 5c3a c65f d43c 787b 36bc
000001c0: 5448 dfbc e6cb 93bc c275 66bc 6bea bb3a
000001d0: e520 2fb9 8d00 183d 3ee6 703c 2ef0 f73c
000001e0: 99bc 5f3d 0c0b 13bb 6862 623d 4139 3ebc
000001f0: 6768 3d3d 0119 103d f611 4ebc c4b0 10bd
00000200: f30c 1c3d 5929 8ebc 1c7c b63c 52ac 2a3c
00000210: 17ce 1fbd 3fec cbbb bc3b f83c 8fed 213d
00000220: a9d4 b8bc f3c3 5bbc 82c3 003d 1682 a73c
00000230: 938a efb9 d0cd 1d3b b651 b13c 6b35 dabc
00000240: 0070 1d3c d997 01bd 05ab 21bd 0477 acbb
00000250: fac1 ac3b 0ca4 c0bc 527c b7bc 3582 0f3d
00000260: a941 08bd c5b1 87bc 485c c5bc 963c de3c
00000270: d18a 093d 4f2d 063c 9896 403d 9e50 323d
00000280: 5a27 173d c6f0 06bb 293c 093d 14d4 8cbc
00000290: a233 94bc b8f3 ff3b c0eb 86bc 538c abbc
000002a0: 219f 29bd e1c5 bdbc 744e c63b 4955 afbc
000002b0: deb3 ab3c c694 b0bc 1ef4 113d 1609 eabb
000002c0: a6a2 dcba ea35 dd3c cc0f 333d d94e 90bc
000002d0: e314 3cbd b5d3 f4bc 965e 213b dbce b03b
000002e0: 1381 25bc dd25 22bd 6547 16bd f97f 45bd
000002f0: 4e0d 12bd 6741 0cbd 3574 b33c ca55 323c
00000300: 1e3d 2bbd 110d 41bc f429 79bb 9b55 bebc
00000310: c4ed c6bc 54a3 da3c aada 06bc c6fa edbc
00000320: f3e0 41bd 4fce f2bc f46f d53c 7184 21bd
00000330: 817d dfbb e0a5 3cbd 1542 3bbd ace5 0ebd
00000340: 3040 0cbd baa0 fb3c 1e2f 39bc 7a62 ce3a
00000350: 7d79 1f3c 3b4e 4f3c 6129 fb3c d8c1 13bc
00000360: 62f5 ddbc 5535 83bc 2dca 8abc 4744 8fbb
00000370: 5f4e 2abc c858 063d 2ff2 fe3a 80d7 793c
00000380: 6d6c 283c 497e 483c 7669 fdbb dc42 3cbc
00000390: 27b6 2d3d 4d13 9abb 8f15 b4bc b895 0cbd
000003a0: 3839 f9bc a1c7 7cbc 6747 c13b 14f8 ac3b
000003b0: 822f 94bc 9433 243d 3484 8fbc a247 723c
000003c0: 369d 50bc 1815 05bd 1129 8ebc 2b94 e3bb
000003d0: a244 35bc b47f d1bc e45e 06bd 222f 283d
000003e0: c727 b63c 3991 c33c 68cd c9bc 15cc a03c
000003f0: 959b bd3c 1e6f 083d b39f 0cbc c0a7 3abb
0.018172376 -0.013483395 0.03246092 -0.034499478 0.005551848 0.021975547 -0.04181321 0.023487205
0.009776111 -0.023455825 -0.019638404 -0.008329667 -0.021575015 0.032675024 -0.0045206347 -0.03483012
0.033216983 0.018936338 0.03665509 0.013306294 0.034587767 0.022072148 -0.006345193 0.032497574
-0.019343233 -0.033663344 -0.0036241808 -0.031100275 -0.0564245 -0.033705223 -0.012873465 -0.022616958
-0.04997333 -0.022404483 -0.028263232 0.007137489 -0.017997554 0.0461589 0.011269995 0.009125844
-0.022946903 0.0234235 0.05379079 -0.019072937 0.008350746 -0.023492599 -0.0035827938 0.02953672
0.014723927 0.0065552522 -0.0033183468 -0.03413222 -0.03202011 -0.0021741039 -0.030290985 -0.0182919
0.0106983585 -0.014839285 -0.04425261 -0.029918194 -0.01943703 -0.035819445 -0.006945147 0.03872006
0.031077484 0.033887863 -0.024958067 0.025236849 0.02054764 0.016062843 -0.012643878 0.015188884
-0.029932141 -0.021209285 0.028102785 -0.029408349 -0.0061962083 0.041016594 5.6054647e-05 0.022650966
0.026397936 -0.032779716 -0.010229933 0.01702935 0.011352425 0.015769666 0.00934507 -0.0025662372
-0.040450975 0.0020195097 0.025771601 0.025565734 -0.004243731 0.015728544 -0.018942753 -0.013876844
0.02371112 -0.015535235 0.021678137 0.03132561 0.00016037734 0.032436833 0.015978975 -0.021333117
0.014077927 -0.0015919731 -0.014900631 0.022968452 -0.008460706 0.00084195484 0.025924575 -0.011137836
-0.027256168 -0.018041562 -0.014066162 0.001433683 -0.00016701555 0.0371099 0.0147033315 0.030265894
0.05462322 -0.0022437004 0.05526963 -0.01161033 0.046242144 0.035180096 -0.012577524 -0.035324827
0.038098287 -0.0173537 0.022275977 0.010417061 -0.039014902 -0.006223231 0.030301921 0.039533194
-0.022562342 -0.013413417 0.03143645 0.020447772 -0.00045688878 0.0024078973 0.021645408 -0.0266368
0.009609222 -0.031638954 -0.039469738 -0.005263211 0.0052721472 -0.023515724 -0.022398148 0.035036284
-0.033265743 -0.01656426 -0.024091855 0.027128499 0.03357965 0.008189513 0.047018617 0.043533914
0.036902763 -0.002059029 0.03350464 -0.01719097 -0.018091027 0.007811036 -0.016469836 -0.020940935
-0.041411523 -0.023165645 0.006051833 -0.021402972 0.02095979 -0.021555316 0.0356332 -0.0071421964
-0.0016833141 0.027003247 0.043716237 -0.017615722 -0.045918357 -0.029886106 0.0024623028 0.005395753
-0.0101015745 -0.03958689 -0.03668918 -0.048217747 -0.03565722 -0.03424206 0.021905998 0.0108847115
-0.041806333 -0.0117829 -0.003801939 -0.02323418 -0.024283297 0.026689209 -0.0082308445 -0.029050242
-0.04733367 -0.029639391 0.02605436 -0.039432947 -0.006820381 -0.04605663 -0.045717318 -0.034887
-0.0342409 0.030716289 -0.0113027375 0.0015745901 0.009733555 0.012652929 0.03065938 -0.009018384
-0.027094547 -0.016016642 -0.016942108 -0.004372153 -0.010394662 0.032799512 0.0019450838 0.015249133
0.010279757 0.01223714 -0.007733519 -0.01149055 0.042410042 -0.004702008 -0.021982936 -0.03432247
-0.030422792 -0.015428455 0.0058984044 0.0052785967 -0.01808906 0.04008825 -0.017519094 0.014787586
-0.0127327945 -0.03249082 -0.017353566 -0.006945153 -0.011063727 -0.025573589 -0.03280534 0.041060574
0.022235764 0.023872958 -0.024634078 0.019628564 0.023145476 0.033309095 -0.008582997 -0.0028481334

convolutions.0.bias f4 [64]
00000000: 9711 46bb 05ef 03bd 7da7 533d 48cd 10ba
00000010: 340d 9fbc e753 25bd 6c8b 3abd f441 f7bc
00000020: 56ac d1ba 95f4 143d def4 1ebd ba29 37bd
00000030: 96c1 d3bb 6d82 da3c 7411 183d b572 f0ba
00000040: ab89 073d f325 d3bb 09cc 84bc e098 e13b
00000050: bf6f 123d b378 18bd e4eb e33c fc45 f6bc
00000060: 0d96 bc3c 5926 8ebc efd4 e7bb d1b7 4d3d
00000070: 9efc 9bbc 3fc3 75bd 3990 2cbd d610 3b3d
00000080: 491c 7a3d afc4 bbbc bb6e aebc ff33 25bd
00000090: f19e e9bc 0aa7 133d d813 8c3d 3bb1 2fbd
000000a0: a924 8b3d 5298 bfbc 4ce7 18bc 2682 16bc
000000b0: 8e35 3fbd 9dd9 833c 097d 423d 504d be3b
000000c0: 6acb b8bc f536 9e3c 75de 8c3c 3679 803b
000000d0: 0bbe 573d b7e4 8a3d ba31 3cbd 8d1f 10bc
000000e0: 03f5 f43c 53ad 583d e33b bdbc 8938 14bd
000000f0: 0e09 e6bc 226d 98bc 600a 83bc 45cd 58bc
-0.0030222887 -0.03221037 0.0516734 -0.00055237534 -0.019415475 -0.04036322 -0.04554312 -0.030182816
-0.0015996795 0.036366064 -0.038807742 -0.044717528 -0.006462286 0.02667352 0.03712602 -0.0018344732
0.033090275 -0.006443733 -0.016210573 0.006884679 0.0357511 -0.037224483 0.027822442 -0.030062668
0.023020769 -0.01735227 -0.007074944 0.05022413 -0.019041356 -0.060000654 -0.04212973 0.045670353
0.06106213 -0.022920934 -0.021293035 -0.04033279 -0.028518172 0.036047973 0.068397224 -0.04289363
0.06794102 -0.023388062 -0.009332489 -0.009186303 -0.046681933 0.016094977 0.047482524 0.005807556
-0.022557933 0.019313315 0.01719592 0.0039206995 0.052671473 0.06781905 -0.04594586 -0.008796585
0.029901987 0.05289967 -0.023099845 -0.03618673 -0.02808049 -0.018606726 -0.015996158 -0.013232534

convolutions.2.weight f4 [64, 64, 3, 3]
00000000: ef30 063d 8e3b e73c ebdb 0d3d 1f2f 02bc
00000010: 2c61 09bd 2a99 1abd 351f 073d fe8b 2d3c
00000020: c643 59bc 539e 913c a366 00bd 07be 9dbb
00000030: 0c9b 5bbc 7a87 bd3c dba1 273d 52af a33a
00000040: 0ff5 273d 1a6c 063d 0764 b3bb 29e9 943c
00000050: 7e4f 67bc c981 d03c 9b9a dabc 6b44 8ebc
00000060: 68c2 09bd 5689 d5bc c763 53bb a986 6abc
00000070: b0d4 ccbc e772 2b3c 0c3a d0bc 7d69 323c
00000080: f6de d53c 1b81 043d d5c3 ea3c f6f5 c9bc
00000090: 545b 22bc 2fe5 743c 1c03 a53c ac9b bdbc
000000a0: 9514 f0bc 38e6 bcbb c205 603b 04e8 213d
000000b0: 0e6c ae3b 3d05 10bd 10e9 ef3c 5420 293d
000000c0: 530a 38bc 78ab 1d3d 4eba d1bc db59 9f3c
000000d0: 9cb0 f03c 585b 3a3d e854 de3b eb6b be3c
000000e0: 0de5 8a3b 1bc7 1dbd 2dc2 24bd 6fcf a33b
000000f0: 5a07 813c 6eb4 86bb 7ef4 ea3b 8d71 25bd
00000100: f10a e03b 675e ea3c 1903 783c 929b f2bc
00000110: d5c7 eb3a 0843 a13c 6692 c9bb 2cc5 40bc
00000120: a651 db3c d748 15bd a492 4abc ae58 77bc
00000130: 8fa8 d63c fbec ce3c f6c8 f3ba 2aa5 423b
00000140: 660b 89bc dcf6 853b b6b9 153d d6fc debc
00000150: b6cf 2f3c 9c34 b63c 6720 a1bc 36fc 07bd
00000160: 3fcf 12bd 7fd3 cabc 5679 f33c 6c71 b0bc
00000170: bc44 0ebc c0b9 0c3d d9ac 323d 7cf6 61bc
00000180: a6c0 ffbc 7046 fa3c 026c 4ebb b60e dbbc
00000190: 36e6 b839 c61c 6b3c 88fb 32bc b2d3 6b3c
000001a0: 59e6 0b3d b9f5 933c efa6 efbc cc3c d43c
000001b0: 5f43 17bd 305b a3bc 8091 d33b 5e76 f93c
000001c0: 6bfb 69bc a60e 20bd 44fc 22bd e5c1 a23c
000001d0: cebe bc3b 4320 253c 09af 5dbc 9e5d 2c3d
000001e0: fa2f 44bc 05a1 023d b6a2 8439 e0e1 f43b
000001f0: d33b 273d b833 d1bc 6270 ecbb acef 043a
00000200: 1311 123d f62f bd3c 27f7 27bd c3e7 1ebd
00000210: 2011 2abd 33ad ecbb 66da 193d e748 cbbb
00000220: e49e d8bc 4c75 8ebc 7fcd eebb 405d dc3c
00000230: 9f97 aabb 441e 153d cd90 c23c da04 233d
00000240: 0ba1 b43b a144 a93b d96d 843c 3526 283d
00000250: c6c6 123d 045e 20bd 00ad 2f3c f285 813b
00000260: 4ff0 ddbc 1ef0 4a3c 3b0d d9bc b4f9 d4bb
00000270: b0a3 b4bc b592 f8bb 55a3 323d 324b 1fbb
00000280: 0b15 1abd 4cfb 023d b2bf f03c 258a f33c
00000290: e350 47bc ad2e 0f3d 561c fe3c fdcf 18bd
000002a0: 2056 87bc 6f25 afbc bc70 1bbd e697 e33c
000002b0: 7e3c 68bc e711 213c 0888 233c d264 e3bc
000002c0: 2ee1 cc3c a227 663c a533 d23c 18e5 a1bb
000002d0: 0103 a4bc 79cb fa3c 6ad1 673a 9678 e93b
000002e0: 2257 cebc a1b6 f5bc a90b fc3c c3fd 8d3c
000002f0: 2b04 9cbb e632 2ebc d03b 8fbc 6ab7 d73b
00000300: aba2 2abd 19f5 c43c 9a83 10bd 0428 1ebd
00000310: 2ae5 743c f89a 1ebd 93f8 eb3c 047e 87bc
00000320: 7cce 17bd cc57 353d 1062 eebc be73 bdbc
00000330: 7c21 293c 7441 603c 64d8 cf3c 10d6 dd3c
00000340: d5f1 8f3c 2f4d e63b 0908 653c d982 86bc
00000350: fe16 9f3c f99c 0d3c c88f 5b3c 0e67 8c3c
00000360: 268d 9b3b 3f3d 01bd 727d bdbb 911e 933c
00000370: 5372 13bd 7027 d6bc 8914 d8bc 7086 9938
00000380: f9a1 053c a319 a0bc d903 67bb 3620 e2bc
00000390: 90d9 8b3b 0b1b f6bc 4382 143d 56fa 963c
000003a0: 29ef 2d3b 0fa0 aabc 2d08 203d 63f1 10bc
000003b0: 8b7e 49bb 8cbb 88bc c3a4 f13c 4138 913c
000003c0: 76ea 913a 9b7c 68b9 e93e 063d df93 c73c
000003d0: 8748 25bd 8b42 10bd 95ea d23c 72a9 07bd
000003e0: b35d 96bc bb24 f33c 3e1e 08bd 8103 02bd
000003f0: 206c 3a3c c395 a83b 68e1 15bd 05f5 8cbc
0.03276151 0.02822664 0.03463356 -0.007945805 -0.033539936 -0.037743725 0.032988746 0.010592459
-0.013260787 0.01777569 -0.031347882 -0.004813913 -0.013403665 0.02313589 0.04092584 0.0012488163
0.04100519 0.032817937 -0.0054745707 0.018177586 -0.0141180735 0.025452511 -0.02668505 -0.017366609
-0.033632666 -0.026066463 -0.0032255517 -0.014314332 -0.025003761 0.010464407 -0.025418304 0.010889408
0.026107293 0.032349687 0.028657833 -0.024653416 -0.00990947 0.01494722 0.020143084 -0.02314552
-0.02930669 -0.005764749 0.003418312 0.039527908 0.0053229397 -0.035161246 0.029285938 0.041290596
-0.01123293 0.038493603 -0.025601532 0.019452026 0.029381089 0.04549727 0.006785024 0.023244819
0.0042387308 -0.03851996 -0.040224243 0.0049990932 0.015750576 -0.0041108644 0.007170259 -0.040391494
0.006837242 0.028609468 0.015137457 -0.029615197 0.0017988632 0.019685283 -0.0061514853 -0.011765759
0.026772331 -0.03644642 -0.012364063 -0.0150968265 0.026203422 0.025259485 -0.001859932 0.0029700496
-0.016729068 0.004088266 0.03655406 -0.027220171 0.0107306745 0.022241883 -0.019668771 -0.03319951
-0.035842177 -0.024759052 0.029720943 -0.021538459 -0.00868338 0.034356833 0.04362187 -0.013791677
-0.031219792 0.030551165 -0.0031497483 -0.026740413 0.00035266735 0.014350122 -0.010924228 0.014393734
0.034155224 0.018061506 -0.029254405 0.025907896 -0.036929484 -0.019940943 0.006456554 0.03045195
-0.014281134 -0.03907647 -0.03979136 0.019867847 0.0057600504 0.010078493 -0.013530501 0.042081468
-0.011974329 0.03189184 0.0002529823 0.0074732155 0.040828537 -0.025537357 -0.0072155455 0.0005071114
0.035660814 0.023094159 -0.041007187 -0.038795244 -0.041520238 -0.0072227954 0.037561797 -0.006203759
-0.026442952 -0.017389916 -0.0072876806 0.026899934 -0.005206063 0.036405817 0.023750687 0.03979955
0.005512362 0.005165652 0.01616566 0.041052062 0.035834096 -0.03915216 0.010722399 0.003952735
-0.027092127 0.01238635 -0.026495567 -0.0064994935 -0.022050709 -0.007585848 0.043612797 -0.0024306295
-0.037617724 0.031977937 0.029388282 0.029728958 -0.012165281 0.034956623 0.031019371 -0.037307728
-0.01652056 -0.021380154 -0.03794931 0.027782392 -0.014174579 0.009830928 0.009981163 -0.027758036
0.025009718 0.014047535 0.025659392 -0.00494064 -0.020020964 0.030614601 0.0008843156 0.0071249707
-0.025188033 -0.02999431 0.030767279 0.017332917 -0.004761239 -0.010632252 -0.017484576 0.006583144
-0.04165904 0.024042653 -0.035281755 -0.03861238 0.014947215 -0.03872201 0.028805053 -0.016539581
-0.037062153 0.044273183 -0.029099494 -0.02312648 0.010322925 0.01368748 0.025371738 0.027079612
0.01757137 0.007028244 0.0139789665 -0.016419815 0.019420143 0.008643382 0.013400979 0.017138984
0.004747051 -0.03155255 -0.0057827765 0.017958911 -0.0359977 -0.026141852 -0.02637698 7.3206495e-05
0.008156293 -0.019543475 -0.0035250096 -0.02760325 0.004267879 -0.030042192 0.03625704 0.018429916
0.0026540256 -0.020828275 0.039070297 -0.008846614 -0.0030745592 -0.016690992 0.02949751 0.01772702
0.0011132497 -0.00022171663 0.03277484 0.024362503 -0.04035237 -0.03521971 0.025746623 -0.03312058
-0.018355226 0.0296806 -0.033231966 -0.031741623 0.011378318 0.005144806 -0.036591917 -0.017206678

convolutions.2.bias f4 [64]
00000000: aed2 ee3c a748 5a3c 4b3e 4b3c c87d 1c3d
00000010: a410 ab3b 5284 2c3d f032 28bd 31d9 713d
00000020: f19f dcbc f412 633d e8e0 30bd d840 3c3c
00000030: a858 5a3d 2613 dd3c ba35 7b3b 40b1 7fbc
00000040: 9cfd d63c 4f0a 12bc 7596 263d 21a1 a03c
00000050: c0dd 2b3d a7ab e9bc 8be0 b13c 15e3 ff3c
00000060: ca64 c93c 3dd2 f3bc aa13 ea3c bb95 603d
00000070: ff44 28bd 2971 40bc d004 78bc f973 0bbc
00000080: d63e dfbc bef6 2bbd 18b9 033d 3923 7d3d
00000090: 0d30 c83c 878b 3f3b 5d32 213c 42c8 5e3d
000000a0: dac4 3bbd a9ea 5f3d 9564 2cbc 511e 57bd
000000b0: be0a 733d 6237 73bd 869b 7dbd a9fb 29bc
000000c0: 306f 4f3c 9a1f c4bc 3507 24bd 8f2b 8c3c
000000d0: 5f85 3cbc ac92 753b 55ea 0b3d acb8 53ba
000000e0: 7fc4 823d db34 ca3c 73f6 1c3c 6576 07bd
000000f0: 6b6b 2cbd 9814 01bd 7aec 0a3b f8e5 56bc
0.029153194 0.013322986 0.0124049885 0.03820589 0.0052204896 0.042118378 -0.041064203 0.05904502
-0.026931735 0.055437997 -0.043183237 0.011490069 0.053307205 0.02698667 0.0038331584 -0.015606225
0.026243977 -0.008913591 0.04067083 0.019608082 0.041959524 -0.028524233 0.021713516 0.03123621
0.024584193 -0.029763335 0.02857383 0.054830294 -0.041081425 -0.0117457295 -0.015137866 -0.008511537
-0.027251642 -0.04198336 0.03215894 0.06180117 0.024436975 0.0029227452 0.009838668 0.0543902
-0.04584203 0.05466715 -0.0105220275 -0.052519146 0.059336416 -0.05937899 -0.061915897 -0.010374942
0.0126607865 -0.02394085 -0.040045936 0.017110614 -0.0115064075 0.0037471456 0.034159023 -0.00080765295
0.06385135 0.024683407 0.009580242 -0.033071894 -0.04209463 -0.03151378 0.002119808 -0.013116352

convolutions.4.weight f4 [64, 64, 3, 3]
00000000: c9aa d5bc fb21 a33c d652 b7bc 4f8b 123d
00000010: acad 5d3c a8bb 01bc c5d8 043d 1eb1 c83c
00000020: 76a4 0f3c ae9c 8c3b b2e5 31bd 9191 02bd
00000030: bdf2 803c 915f d03c e738 4bbd c085 3fbd
00000040: e777 47bb 29e0 fabc ec5b b13c 1aff 6c3b
00000050: 1135 a13c 6efe 65bc d2a4 12bd 0c13 133d
00000060: e54e 993c f4bd 7737 c396 49bc c98d b8bb
00000070: ee32 093d 52e2 1a3d 75aa f5bc f419 223d
00000080: 6edb 203d 7083 123d fa0a 0d3d 159a 04bb
00000090: d474 473c 31dc fcbc a3be 083d f75d 20bd
000000a0: 1da9 cabb bcfc 1a3d 09cb caba 573e adbc
000000b0: d8bc ce3a 9a86 933c c8e6 3f3b d7e3 b13c
000000c0: f2aa 1ebd 4f64 4cbc fadb 13bd ebf6 233c
000000d0: 2379 9cbc a449 cb3c 427e 82bc eb14 4dbc
000000e0: 05c4 c53c 7db5 8f38 017d 923c 8157 7a3b
000000f0: 3e2a b4bc 8e96 1abd 6c3e 1abd e777 b43c
00000100: 7f11 f63b f955 ca3b 3897 a2bc 60a4 193d
00000110: 6b6e 4b3d 2fc9 3ebc e0d5 a0b9 1fa1 55bc
00000120: f896 c4bc 76bc 42ba 61db f93b 7a09 623a
00000130: 8172 2e3c 4c1b 86bc 3e42 143d c89f 1abd
00000140: 4be8 13bd b59b e53c 6b56 b43c 4b02 f03c
00000150: 850b 693c 0114 cf3c 95c0 edbc ccda 24bd
00000160: effb 58bc d0fb 34bd 87bc d03c 1560 ffbb
00000170: de39 103d 108b 3e3c 45da cfbc e44d a53b
00000180: 3aa2 04bd b2a6 01bc be73 23bd a36a 343c
00000190: e1aa debc c89e 873c 67b6 943c cb27 633b
000001a0: 2d7e eaba 58be b53c a8be 103c 99df 98bb
000001b0: f488 823c 1512 3fbc f696 e93c 8b38 3d3d
000001c0: 72fb b5bc 3def 9c3c 9978 93ba 46a1 033d
000001d0: f49a a7bb 45d8 cbbc 763e 1c3c 8ca0 8e3c
000001e0: 2a16 b43c 864e 01bd 3497 42bb afae 52bb
000001f0: ae6d 2b3c d439 08bc 63e3 bf3b adf9 35bd
00000200: 9c27 293c 41cc 1e3c 70fe b83b d774 9c3c
00000210: fba6 d53c 7b66 b9bc d10f bcbc 415f 123c
00000220: 96bc 8c3c e250 633b 13ed 33ba 0929 1bbb
00000230: e720 5abc ec65 28bd c784 233a 66b0 a63c
00000240: dbea 1b3b cc3d 1dbd be1f 0dbb 9bbf e53c
00000250: dd2e 123d 825c 31bb ea79 8a3c d69b 15bc
00000260: 8f8c 83bc b9f1 5fbd 9763 823c 46d6 0ebd
00000270: a219 5b3c fc18 08bd 928c cabc 50da af3c
00000280: da66 3fbd 1887 64bc f6b5 413c da13 53bd
00000290: 1984 df3c 8d97 f4bc 1468 13bd 40de 113c
000002a0: 206e a63c af01 44b8 59af 80bc 1e37 42bc
000002b0: 740c f2bc ba32 e03c 4079 1abd d827 86bc
000002c0: bfef 053b f3a5 483c d985 043d 7eb2 923c
000002d0: c49c b13b ace0 0cbd 7272 30bd 874c 033d
000002e0: 8f57 bb3a a178 19bd e6cc 25bd 5885 fdbc
000002f0: 92ca debc 2cd6 4abb b986 dbbc f086 00bd
00000300: ad47 95bb 81dd eabb b1e4 fbbb f7ee 42bd
00000310: 8253 33bd 58d2 2139 e3f2 41bd 122d 05bd
00000320: ab34 01bd 32ba be3c df9e e13c 39e8 6f3b
00000330: 0383 c0bc d1f7 88bc 731a 9d3c 03c7 993c
00000340: aaa9 343c f573 c23c 0139 4c3c 07ea db3c
00000350: 17a2 3e3b 385f f3bc 9c55 f03c 83e5 eaba
00000360: 062b b1b9 9972 e03c 57e1 bc3c 1738 ccbc
00000370: b7a2 02bd 6a90 fcbc de9f 5bbc 91b9 40bc
00000380: a662 1c3d 4433 cdbc 2a77 1dbd c24f bab9
00000390: ecd3 c43c c272 303c 7b7e 4e3c 3e44 173d
000003a0: 1a7f dcbc c480 e53c 7ee0 1cbd fdca 10bd
000003b0: 8d78 19bd 84d9 e0bc ebc4 ccbc 2b9d a43c
000003c0: ea55 833c dfaa b6bc d896 ecbc d63b 7e3b
000003d0: 0766 453d b4b3 8cbc ce0d 273d a9f4 b0ba
000003e0: 9076 2cbb 9003 db3a ab1b 253d a6ad 8abc
000003f0: 87ad 02bd 651d f03c 9cc2 9d3c c87d ddbc
-0.026082413 0.019913664 -0.022378366 0.035777386 0.013530176 -0.007918276 0.03243329 0.024498519
0.008767238 0.0042911386 -0.043431945 -0.031877104 0.015740747 0.025436195 -0.049614813 -0.046758413
-0.0030436458 -0.030624466 0.021650277 0.0036162795 0.019678624 -0.014037712 -0.035801716 0.035906836
0.018714378 1.4766574e-05 -0.012304011 -0.0056321365 0.033495836 0.037813492 -0.029988507 0.039575532
0.039271764 0.03576988 0.034434296 -0.0020233442 0.01217385 -0.030866714 0.03338493 -0.03915211
-0.0061847107 0.037838683 -0.0015471886 -0.02114789 0.0015772833 0.018008519 0.0029281843 0.021715088
-0.038737245 -0.012475087 -0.036098458 0.0100076 -0.019100731 0.024815388 -0.015929345 -0.012517194
0.024141321 6.852576e-05 0.017881872 0.003819913 -0.021992799 -0.037741236 -0.037657186 0.02202983
0.00750941 0.0061747995 -0.019847497 0.037510276 0.04966585 -0.011644646 -0.00030676927 -0.013038903
-0.023997769 -0.00074285956 0.007625029 0.0008622628 0.010647417 -0.016370438 0.036195986 -0.037750036
-0.036110204 0.028028348 0.022013864 0.029297968 0.014223938 0.025278093 -0.029022494 -0.040247723
-0.013243659 -0.04418546 0.025480522 -0.0077934363 0.035211436 0.011629835 -0.025372634 0.0050446857
-0.032381274 -0.007913278 -0.039905302 0.011011752 -0.02718109 0.016555205 0.018153382 0.003466117
-0.0017890387 0.02218549 0.0088345185 -0.004665327 0.015934445 -0.011662026 0.028514367 0.0461965
-0.022214625 0.019157046 -0.0011251151 0.032136224 -0.0051149074 -0.024883399 0.009536376 0.01741054
0.021983225 -0.031569026 -0.0029692175 -0.0032147577 0.010463161 -0.008314569 0.005855964 -0.044427563
0.010324385 0.009692253 0.0056455657 0.019098682 0.026080599 -0.022631874 -0.02295676 0.008933843
0.017179769 0.003468566 -0.0006863635 -0.0023675582 -0.013313509 -0.041112825 0.0006237742 0.020347785
0.0023791108 -0.038389012 -0.0021533812 0.028045466 0.035689224 -0.0027063196 0.016903836 -0.009131392
-0.016058234 -0.054673884 0.015916629 -0.034872316 0.013372811 -0.033226952 -0.024725232 0.021466404
-0.046728946 -0.0139482245 0.011823168 -0.051532604 0.027284669 -0.029857421 -0.03598793 0.008903086
0.020316184 -4.673161e-05 -0.015708612 -0.011853961 -0.029546954 0.027367938 -0.03771329 -0.01637642
0.002043709 0.012246597 0.03235421 0.017907377 0.0054202992 -0.03439395 -0.043077894 0.032055404
0.0014293062 -0.037468556 -0.04047861 -0.030947372 -0.027196202 -0.003095041 -0.02679764 -0.031378686
-0.0045556636 -0.0071675186 -0.0076871742 -0.047591176 -0.04378081 0.00015432516 -0.047350775 -0.032513686
-0.03154437 0.023282144 0.027541576 0.0036606921 -0.023499971 -0.01671973 0.019177651 0.018771654
0.011026779 0.023736933 0.012464763 0.026844991 0.0029088312 -0.02970849 0.029337697 -0.0017921183
-0.00033792126 0.027398394 0.02305667 -0.02492909 -0.03189346 -0.03083058 -0.0134048145 -0.0117629925
0.038180016 -0.02504886 -0.03844372 -0.0003553611 0.024026833 0.010769548 0.0126033975 0.036930315
-0.026916075 0.028015502 -0.03830003 -0.035349835 -0.03746848 -0.02744747 -0.024996242 0.020094475
0.016032178 -0.022298275 -0.028880522 0.003879299 0.048193004 -0.017175533 0.04078465 -0.0013500649
-0.0026315786 0.0016709436 0.04030959 -0.016928505 -0.03190377 0.029310891 0.019257836 -0.027037516

convolutions.4.bias f4 [64]
00000000: d2b9 3f3c ffdf f1bb 633a f53c 3efb 1c3c
00000010: 07ad ec3c a1b1 1d3d 9261 233d d7e8 28bd
00000020: fb66 463d 7f5d c8bc 1424 7abb ef51 0cbc
00000030: df52 bd3c 9c55 4e3d b586 463d 6988 b6bc
00000040: 74ca ee3c 54d3 2e3d 4f12 e23c 2740 23bd
00000050: 43d2 1dbc 9e17 2bbc 229c 393c 5865 1c3b
00000060: 5f98 e6bc 45b3 44bd 2b20 333d afef be3c
00000070: 4c3e 32bd c3e3 163b ccb9 46bc 0eb4 113d
00000080: a4c6 8e3c d3ce 5fbd 9983 153b 9060 8dbb
00000090: 6d22 f3bc 4c23 08bd 5a24 6dbc 901d f6b9
000000a0: f67a 3e3d 5216 213d 6b51 10bd 082d 5d3c
000000b0: a170 c33c e079 32bd a1ff d7bc 1c53 66bc
000000c0: a879 c73c 8e4c 91bb 2f00 7a3d ad26 2e3d
000000d0: 959a 7e3d 2c68 5a3c 1595 74bc 1e8d 703c
000000e0: 5582 3fbd f1f8 0abd 2c49 663c 486c e03c
000000f0: 1148 ed3b a552 df3c 12ee 19bd bb39 803c
0.011702018 -0.0073814387 0.029935068 0.009581385 0.0288911 0.03849948 0.039887972 -0.04123768
0.048438054 -0.024458645 -0.0038168477 -0.008564456 0.023110805 0.050374612 0.04846831 -0.022281842
0.029149272 0.042682007 0.02759662 -0.039856102 -0.00963265 -0.0104426425 0.011328729 0.0023864117
-0.028148828 -0.048022527 0.04373185 0.02330765 -0.043516442 0.002302394 -0.012129258 0.035572104
0.017428704 -0.054640602 0.0022814034 -0.0043144897 -0.029679501 -0.033236787 -0.014473999 -0.00046942802
0.046503983 0.039327927 -0.035233896 0.013499506 0.023857417 -0.04357326 -0.02636701 -0.014057901
0.024350002 -0.004434175 0.06103533 0.042517353 0.06215914 0.013330501 -0.014928122 0.014682082
-0.046755154 -0.033928815 0.0140555315 0.027395383 0.007241257 0.027261088 -0.037580557 0.015652528

convolutions.6.weight f4 [64, 64, 3, 3]
00000000: 9b3c c33c 8806 cbbc d695 f1bc db48 a1bc
00000010: 0c04 223d 463f 243c eb70 113b cb63 77bc
00000020: c8a3 eebc afd6 013d 0079 48bb a31b ea3c
00000030: 682b 1dbd 7f58 06bd 2812 d8bc fbcc b8bc
00000040: eb82 083d a856 a23c f385 f73c 77ea 28bd
00000050: 8b6f 17bd 6b6a 963c ec5a 1cbd 2b9c b6bb
00000060: d365 8d3c a383 21bd d6ab ca3b 1b65 663c
00000070: c637 183c f6e4 66bc 230f 853c 3eb8 bc3c
00000080: de39 973c 66fa 083d 50fd 0b3d cb1b febc
00000090: 36e2 a63b 2ab8 153d b6a5 d63b 98e7 aa3c
000000a0: 3ca1 14bd 2b9f b2bc 801e 32bb 9b7b 82bc
000000b0: 5bee 34bc 8b4b dabc 33e2 d7bc a729 183d
000000c0: 6049 6dbc 20eb fe3c 5b06 3a3c 402c ec3c
000000d0: c680 e93c 9e3d bb3c aa89 173d d6d7 5cbb
000000e0: 6b03 823c 4bca 70bc d645 6b3b 1e0e fabc
000000f0: 1e24 cdbc eed8 b53c abb3 b5ba 2b81 c2bc
00000100: 5eeb fb3c 3691 4d3c 6b8b 8cbc 58bd 1a3d
00000110: ab7c b6bc 8b53 683c cb84 2abc c0fd 783c
00000120: c3d0 f9bc 00b8 4439 ab52 93bc cb79 b6bb
00000130: 1003 e83c c0b0 3d3b 5031 7e3c 9e9d aa3c
00000140: 008d 91bb b694 1fbd c67e b93c d8b2 0a3d
00000150: 5b7a ee3c 56f4 60ba 83b9 903c ce14 dabc
00000160: 96c4 26bc 96fa a53c 669f 2a3c 9765 133d
00000170: 2b1b dc3b e6e0 093c 6073 023c 6b4a 593b
00000180: 0678 43bc 547e 093d 7bdf 973c 081e c5bc
00000190: 6e7e d03c 1812 973c d6fe 1bbc 5ba5 29bc
000001a0: c6d3 9dbc 8601 0f3d cce9 10bd c088 c5bc
000001b0: 8bbb e03c a6c1 7abc 6bf2 8dbc 6b82 66bc
000001c0: 234f e93c 3b35 d4bc 4b73 34bc 93d8 823c
000001d0: 604e 913c 8e91 023d 7b08 5ebc 4b9b 81bc
000001e0: a8a6 23bd ec82 0cbd 2b39 913c b87b dbbc
000001f0: a031 40bc f034 853c f029 41bc f00c f43c
00000200: b8ff 063d 4b7d af3b db23 2bbc 3482 15bd
00000210: 00e9 febb de00 833c c0d9 753b f00c 873c
00000220: 6be9 8a3c 542e 0a3d 6b3d 0d3c 7b3b 5a3c
00000230: ced6 b9bc 4e2f f7bc 3b25 02bc 9e67 933c
00000240: 0654 01bd ffb3 07bd d004 07bd ab9b ce3c
00000250: dcae 253d 5710 173d 92b9 1abd 261b eb3c
00000260: 7bf9 85bc 969e 53bc 1018 233d 9044 283c
00000270: f064 b13c a447 2abd 36d8 51bc f65f 02bd
00000280: 2ec1 26bd 9e65 e33c 40e0 c1bc 93fa a13c
00000290: 8087 b3ba 2682 6bbc f672 c7bb c05f 8f3b
000002a0: 807c a13c e60c b93c 06e1 043d 802a f5bc
000002b0: deac a43c 76d1 41bc ab64 c439 4348 a0bc
000002c0: b896 ecbc a033 923c 38a9 8e3c a6e9 39bc
000002d0: 6bd8 67bb 2613 2abc e001 853b e8cc f5bc
000002e0: 4b5d 8c3b 4639 8cbc 5487 1f3d 5670 ccba
000002f0: 8b47 dabc d65a f2ba 1a57 02bd 8020 04bc
00000300: 1b0b 5d3c 1e3e db3c 563d 57bb 6f2f 2a3d
00000310: cb9e 803c 08f3 163d 6b9d d7bc 38f9 a5bc
00000320: 10e1 703c 5bee 883c 3a6c 0fbd 501f 87bc
00000330: 844c 15bd 9b7b b0bc 0077 28bc 4049 763b
00000340: 9041 793c c028 0f3b 8079 08bc cb2f 2d3c
00000350: 8af8 103d 8327 f53c e625 82bc eb98 15bd
00000360: 00e3 d6ba cbb1 07bc 101b babc a666 093d
00000370: cb50 0bbd 408c f0bc 2b44 c23c 06c3 04bc
00000380: f0f3 08bc 2b19 71bc 80a2 583c 3fa3 0c3d
00000390: f63b 34bc acac 29bd d31b fe3c 68ae e9bc
000003a0: 1022 173d 1b91 84bc 0041 d73b 22f8 1d3d
000003b0: 70d6 573c 9bde 633c 032c c2bc 6bd9 b73b
000003c0: e3e1 83bc f6b7 b3bb 46a4 0b3c d03c 3f3c
000003d0: d6cd 153b 06cd eabc 68ff 8cbc 3609 ec3b
000003e0: a348 bbbc 80b8 18bc d632 69bc cbf8 fa3b
000003f0: 96a2 103d 8621 28bd eb4c 283c e0e3 b23b
0.02383261 -0.024783388 -0.029490393 -0.01968806 0.03955464 0.010024851 0.0022192548 -0.015099476
-0.029130831 0.03169888 -0.00305897 0.028577631 -0.038371474 -0.03279924 -0.026375845 -0.02255868
0.033327978 0.019816712 0.03021524 -0.041239228 -0.03697161 0.01836129 -0.038172647 -0.005572816
0.017260468 -0.03943218 0.006185035 0.014062191 0.009290641 -0.0140926745 0.01624257 0.023037072
0.01846021 0.033441924 0.034177125 -0.031019112 0.0050928844 0.036552586 0.006550516 0.020862386
-0.036286578 -0.021804413 -0.0027178824 -0.01592808 -0.0110431565 -0.02664735 -0.026352977 0.037149098
-0.014482826 0.031117976 0.011354054 0.028829694 0.028503787 0.02285653 0.03699652 -0.0033697984
0.01587077 -0.014696668 0.003589978 -0.03052431 -0.025041636 0.022198167 -0.0013862749 -0.023743233
0.03075188 0.012546828 -0.017156323 0.03777823 -0.022276243 0.014180074 -0.010407637 0.015197217
-0.030495053 0.00018760562 -0.017983755 -0.005568718 0.028321773 0.0028944463 0.015514687 0.02082711
-0.0044418573 -0.03896018 0.022643458 0.033861965 0.029111078 -0.0008581331 0.017666584 -0.026621249
-0.010178706 0.02026109 0.01041398 0.035985555 0.006717106 0.008415436 0.007962078 0.0033155929
-0.011930471 0.03356774 0.018539181 -0.024062172 0.025450911 0.018441245 -0.009521207 -0.010354365
-0.01926602 0.034913562 -0.035379216 -0.024113059 0.027433177 -0.015304958 -0.017327508 -0.01406918
0.028480118 -0.025904289 -0.011013816 0.015972411 0.017737567 0.031877093 -0.013551827 -0.01582112
-0.039953858 -0.034304544 0.017727455 -0.026792392 -0.0117305815 0.016260594 -0.011789784 0.029791325
0.032958716 0.0053555123 -0.01044556 -0.036501125 -0.0077792406 0.015991624 0.0037513822 0.016485661
0.016957005 0.03373559 0.0086206 0.013319845 -0.022685435 -0.030173924 -0.007943447 0.017993744
-0.03157427 -0.033130642 -0.032963574 0.025220713 0.040449962 0.036880817 -0.03777463 0.028699469
-0.016354313 -0.012916228 0.03981787 0.010270253 0.021654576 -0.041572228 -0.012807896 -0.031829797
-0.040711574 0.027758416 -0.023666501 0.019772803 -0.0013696998 -0.0143742915 -0.0060867025 0.004375428
0.019712687 0.022589158 0.03244116 -0.029927492 0.02010196 -0.011829725 0.00037459037 -0.019565707
-0.028880462 0.017846882 0.017414674 -0.01134721 -0.0035376798 -0.010380542 0.0040590614 -0.030004933
0.0042835823 -0.017117154 0.03894742 -0.0015597444 -0.026645442 -0.0018490206 -0.031821348 -0.008064389
0.013491417 0.026763018 -0.0032842956 0.041549142 0.015700718 0.036852866 -0.02632018 -0.020260438
0.014702097 0.01671522 -0.035015322 -0.016494423 -0.036449924 -0.021543315 -0.010282278 0.0037580281
0.015213385 0.0021844357 -0.008329749 0.010570477 0.035393275 0.029926067 -0.015887212 -0.036522787
-0.0016394556 -0.008282135 -0.022717983 0.03354516 -0.034012597 -0.029363751 0.023714146 -0.008103138
-0.0083589405 -0.014715473 0.013222337 0.03433537 -0.011000624 -0.04142444 0.031019127 -0.028525546
0.03689772 -0.016182473 0.006569028 0.038566716 0.0131736845 0.013908054 -0.023702627 0.005610635
-0.016098922 -0.0054845763 0.008523053 0.011672214 0.0022858283 -0.028662216 -0.017211631 0.0072032465
-0.022861784 -0.009321332 -0.014233312 0.007659053 0.035311304 -0.041047595 0.010272245 0.0054592937

convolutions.6.bias f4 [64]
00000000: f619 45bc b231 23bd fe11 dabb f473 15bc
00000010: 842e 00bd 2b83 c7bc d361 8bbc 457c 613c
00000020: d641 0f3c d186 493c 4ee1 0f3b fc85 0bbd
00000030: 562c bb3c b243 f8bc 1008 d93a f8ad 57bb
00000040: d3e8 e93c 1e6d c93b 5965 45bd 5762 19bd
00000050: 3a3a 8e3c f92e eb3c d248 95bc ce93 443d
00000060: 542f 29bb dd9e b83c 7092 b9bc d5d8 5d3d
00000070: 0eed 253d 660a ae3c 42d5 69bd b909 9f3c
00000080: 6719 813d b37b df3c 08ae 6b3b 5d4a 06bd
00000090: 2e70 16bd f9f4 173d 14fa b93c a2b0 df3c
000000a0: 48fb 3d3d 1a02 3d3d 6230 1d3b 3826 243d
000000b0: c2fd 853b 812f 88ba 7a3a 5bba f332 b23a
000000c0: df52 f23c 32bc 2f3c 93be 103a 6d32 85ba
000000d0: 235d 43bc 9e66 d4bc c917 1c3d 3478 6ab9
000000e0: da0d 6bbc 07a4 523b 74de 54bd f12e 4bbd
000000f0: 1b04 71bc 492e 4a3d 76aa 243c b48c 0dbd
-0.012030115 -0.039842315 -0.006654977 -0.009121884 -0.03129436 -0.024354538 -0.01701442 0.013762538
0.008743724 0.012300209 0.002195436 -0.034063324 0.02284829 -0.030305717 0.0016558189 -0.003291009
0.028553402 0.006147041 -0.048192356 -0.0374473 0.017361749 0.028708922 -0.0182232 0.04799252
-0.0025815563 0.02253669 -0.022652835 0.054161865 0.040509276 0.021245193 -0.057088144 0.019413816
0.06303673 0.027280664 0.0035961885 -0.032785762 -0.036728077 0.03709886 0.022702254 0.027305905
0.04638222 0.046144582 0.0023985137 0.04007551 0.004089088 -0.0010390134 -0.00083629007 0.0013595506
0.029580532 0.010726022 0.0005521562 -0.0010162123 -0.011924061 -0.025927838 0.03810862 -0.00022360758
-0.014346564 0.0032141225 -0.05196996 -0.049605314 -0.0147104515 0.049360547 0.010050407 -0.034558013

reconstruction.weight f4 [4, 64, 3, 3]
00000000: fb01 553c 2ba9 bfbc 1b89 d73c aab3 1cbd
00000010: c641 74bc 96ad 4e3c 2f9e 11bd 3208 0a3d
00000020: 0eb5 81bc f9c8 ae3a 2639 e03c 8996 12bd
00000030: 7214 ae3c a585 883c c8af d238 f973 c33c
00000040: 8c7b 74bb 9fa3 343c 1dc7 393d caf6 053a
00000050: d15d f93c fd52 9c3c 65c5 3a3d 78be 0f3d
00000060: a496 86bb bf81 113d 4444 dd3c cd8d 07bd
00000070: 3daa a9bc 5443 d63c 4d81 393c 76f5 223d
00000080: cf74 d13c 3421 87bb e971 1abd ea69 09bc
00000090: 3bd2 aebb 25b4 403c a401 22bd 2bf7 03bd
000000a0: 73b7 1cbd 6716 253c f313 10bd 30f6 c0bb
000000b0: 8622 3f3c b6f1 3fbc d442 143d 937d e13c
000000c0: 4010 42bb 70cb b0bc 58c7 273d 132a ecbc
000000d0: fff8 033d d6f7 86bb c88d b33c fe24 173d
000000e0: d6fb 1fbc ebd0 04bd 8692 bebc 1444 013d
000000f0: c321 823c d3dc fe3c c033 8c3c 418c 0e3d
00000100: 2ad0 e93c b7b5 9abb e4ce 563b 5cc5 8f3c
00000110: bfe1 4c3c d3de e23c 39de 373d 9bdd babc
00000120: 8145 7c3c a3f6 8839 635a 50bd a7e6 54bd
00000130: 4641 acbc 581d 88bc 0337 bb3c 7215 d1bc
00000140: a552 06bd b24d 6cbd 3786 963c 2b01 b9bc
00000150: f6be 13bd 8937 fabc c7cc 6fbc 0dd7 52bb
00000160: 14a0 70bd 12a8 7cbc faf4 04bd d751 a43b
00000170: 1321 383c 7894 8dbc 851a 82bb c02b 4eba
00000180: 08b6 c23c 53ac 14bd dda7 743c 9346 0c3d
00000190: 3c56 303c ce96 f0bc 8a75 f43b b4e3 49bc
000001a0: 029f 833c a09c a03c 6850 10bd f33f 253c
000001b0: a4c6 24bb 6422 d0bc fe4a cfb9 009f d9bc
000001c0: fab5 17bd a5fe 39bd eb84 45bd a3eb bf3b
000001d0: db89 34bd 9244 debb c9ff 82bc fbd3 00bd
000001e0: a1de d4bb ccf9 2fbd 712f 063c 5bc3 f63a
000001f0: 5d93 25bc af9d 68bc 29cd 47bc 3fab 103d
00000200: d27a eebc 2c92 fcbb 8e38 73bc 5675 233d
00000210: d4c3 20bd e0d0 e53c d57a 543c 70a1 0bbc
00000220: e25d babc e446 06bd bfc9 e5bc 70ed 69bc
00000230: 8c39 b23c 14ed 5e3c 3005 573b 463b 06bc
00000240: b719 a13b 0f8a c7bc 4741 433c 8a9e 9e3c
00000250: 8f77 103d ded6 893c f6e4 023d f0d1 1a3d
00000260: 3348 8abb ca82 8eba 6617 2a3d 0c45 bf3c
00000270: f2a0 66bc bc91 f0bc 2dee 793c 24b3 3fbb
00000280: b205 463d 344a e13c 6a0c f0bb af90 103d
00000290: bb86 eabc 28b6 12bd e795 50bc 9b75 513a
000002a0: b6aa e23c 4967 fabc 0571 eabc 8d24 5139
000002b0: 29b6 083d 5fd3 89bc d288 ff3c 935e 733b
000002c0: 5eff fa3b 8a8e bebc af00 5fbc 67ab cb3c
000002d0: 0104 0bbc ed2c 213d 4855 073d bc37 3e3d
000002e0: 183d acbc 7da0 c7bc d15e f23c 6379 343d
000002f0: 4716 223d 2277 5e3b b7fe 9dbc 01c8 c03b
00000300: 7f6a 99bc 2fa1 f83b 481d b33c a095 993c
00000310: 61be c2bc 1001 d13c 9d9d 44bc 6ae3 3dbc
00000320: 541c 17bd b222 84bc 0dc1 4cbc 8197 0c3d
00000330: a89f 083d 5ae9 23bd b7f1 20bd a762 28bd
00000340: f39f 03bd d35f 1bbd ada2 9b3a 6143 8dbc
00000350: 9a7b 13bd e1b4 a2bc c6b4 ebbc 07fa 243c
00000360: a579 e6bc 9238 34bd d51d 99bb 7fe6 853b
00000370: 1655 2cbd 90d3 64bc 43bd c6bb df94 d1bc
00000380: 190b f23c 779d 40bd a85d 31bd 1d3e 0cbd
00000390: cb34 48bd 56bf b2bc 6bf0 e5bc dbc8 923c
000003a0: 4d1b 32bc d613 13bd c63e e03c 1ec3 363a
000003b0: f573 06bd f452 b13c b53f 573c 9a90 d5bc
000003c0: ef9c 283d 4b91 22bd dc14 92bc 7f63 58bd
000003d0: 1a13 69bc d883 43bd 10ae 193c a2bd 43bc
000003e0: b4f1 08bd 4d03 e4bc 77cd 9bbc 3b25 b3bc
000003f0: 5bf3 373d 4305 3e3d 0b72 193d 6f30 78bc
0.01300096 -0.023396095 0.026310494 -0.03825728 -0.01490826 0.012614628 -0.035551246 0.033699222
-0.015833404 0.0013335041 0.027371 -0.035788093 0.021249983 0.01666529 0.00010046322 0.023859011
-0.0037305085 0.011025338 0.045355905 0.0005110322 0.030440243 0.01908254 0.045598406 0.035093755
-0.004107313 0.035524126 0.02701009 -0.033094216 -0.020711059 0.026155151 0.011322332 0.03978487
0.025568394 -0.004123831 -0.03770629 -0.008387068 -0.00533512 0.0117617 -0.039552346 -0.03221814
-0.03826089 0.010076142 -0.035175275 -0.005888723 0.011665946 -0.011715343 0.036196545 0.027525699
-0.0029611737 -0.021581382 0.040961593 -0.028828656 0.032219883 -0.0041189 0.021918193 0.036900513
-0.009764632 -0.032425802 -0.023263227 0.031559065 0.01588524 0.031111157 0.01711452 0.034801725
0.028541643 -0.004721369 0.0032777125 0.017550163 0.012504994 0.027694141 0.044889662 -0.022810748
0.01539743 0.000261237 -0.05086745 -0.05197778 -0.021027219 -0.016615555 0.02285338 -0.025522921
-0.03279366 -0.057691284 0.018374545 -0.022583565 -0.036070786 -0.03054406 -0.014636225 -0.0032171637
-0.058746412 -0.01542093 -0.03246019 0.005014639 0.011238354 -0.01728271 -0.0039704465 -0.00078647956
0.02376844 -0.036297154 0.0149326 0.034246992 0.010762747 -0.029368784 0.007460301 -0.012322355
0.016067032 0.019605935 -0.03523293 0.010086047 -0.0025142813 -0.025407024 -0.0003953799 -0.026565075
-0.03703878 -0.045408864 -0.048222464 0.0058569475 -0.04407678 -0.0067830766 -0.015991108 -0.03145216
-0.006496266 -0.042962834 0.008190022 0.0018826531 -0.010105935 -0.014197751 -0.01219491 0.035319563
-0.0291113 -0.0077078547 -0.014845027 0.039906822 -0.039249256 0.0280537 0.012968739 -0.008522376
-0.022749845 -0.03278245 -0.028050302 -0.014277801 0.021755956 0.0136063285 0.0032809488 -0.008192843
0.0049163955 -0.024357824 0.011917419 0.019362707 0.03527027 0.01682609 0.031956635 0.03779787
-0.0042200326 -0.0010872718 0.04152622 0.023348354 -0.014076458 -0.029366367 0.015254539 -0.0029251063
0.048345275 0.027501203 -0.0073256986 0.03529423 -0.028628698 -0.03581825 -0.012731052 0.0007990242
0.027669292 -0.030566828 -0.028618345 0.0001994541 0.033376846 -0.016824422 0.03119317 0.0037135228
0.0076598367 -0.023261327 -0.013611003 0.024862004 -0.008484841 0.039349485 0.033040315 0.04643987
-0.021025226 -0.024368519 0.029586228 0.044061076 0.039572027 0.003394552 -0.019286497 0.0058832173
-0.01872754 0.007587574 0.021864548 0.018748105 -0.02377242 0.025513202 -0.012000469 -0.011589864
-0.03689225 -0.016129825 -0.012497199 0.034324173 0.033355385 -0.040017463 -0.039293017 -0.041109707
-0.03213496 -0.037933182 0.0011874043 -0.017244043 -0.036006548 -0.01986164 -0.028772723 0.010069377
-0.028134177 -0.043999262 -0.0046727457 0.004086315 -0.04207333 -0.013966456 -0.006065042 -0.025583683
0.029546307 -0.04702517 -0.04330221 -0.034238923 -0.048878472 -0.021819752 -0.028068742 0.017918041
-0.010870767 -0.03590759 0.027373683 0.0006971824 -0.03282543 0.021646 0.0131377475 -0.026069928
0.04116529 -0.039689343 -0.017832212 -0.052829262 -0.014225746 -0.047733158 0.009379879 -0.011947067
-0.03343363 -0.027833605 -0.019018872 -0.021868339 0.044909816 0.046391737 0.037462275 -0.015148266

reconstruction.bias f4 [4]
00000000: 67f3 6abb f26a b43b 076f 373c c35a a43c
-0.0035850646 0.005505913 0.011195905 0.02006281
