decomposition/simple_retinex_model/weights_last.pt (torch, 668167 bytes, 24 tensors)

feature_extraction.weight f4 [64, 3, 9, 9]
0	0x39c613b8	0.00037780195
1	0xbd73a267	-0.05948105
2	0xbd24359c	-0.04009019
3	0x3d1f409a	0.03887997
4	0xbd869c78	-0.06572813
5	0x3d127658	0.035757393
6	0xbd1f6ad3	-0.038920235
7	0x3b34f10d	0.0027609498
8	0xbca2771d	-0.019832188
9	0x3c645180	0.013935447
10	0xbd643e58	-0.055723518
11	0x3ce928ab	0.028461775
12	0x3d72a5ca	0.05924014
13	0x3bae7468	0.0053239353
14	0xbca7881f	-0.02045065
15	0x3bdf1983	0.006808461
16	0x3d422852	0.047401734
17	0x3cabb35e	0.020959552
18	0x3c312cc0	0.010813892
19	0xbd4955cf	-0.0491541
20	0xbc011a76	-0.007879844
21	0xbce04667	-0.02737732
22	0xbcf030fd	-0.029320234
23	0xbc60f2b8	-0.013729744
24	0xbc3d734c	-0.011563133
25	0x3c29cd7f	0.0103639355
26	0xbc119011	-0.008884446
27	0xbd0fdc8c	-0.03512244
28	0x3b4f1c96	0.0031602732
29	0x3c0666ac	0.00820319
30	0xbd6a9ac5	-0.057276506
31	0xbb6f2163	-0.0036488406
32	0xbd7e5f45	-0.062102575
33	0x3d673fc2	0.05645729
34	0xbd2bad60	-0.04191339
35	0x3cdc5432	0.026895616
36	0x3d2247df	0.039619323
37	0x3d0b3d00	0.03399372
38	0x3c95e853	0.018299257
39	0x3d096b12	0.033549376
40	0x3bd8ac44	0.0066123325
41	0x3d3e9465	0.04652824
42	0x3cf5e01e	0.030014094
43	0x3a6e41ee	0.0009088804
44	0xbd64c606	-0.055852912
45	0x3c4fc493	0.012681144
46	0xbd45738e	-0.048205905
47	0xbd5ef2a8	-0.054430634
48	0x3d7b596d	0.06136458
49	0xbcbc124e	-0.022957947
50	0xbd840606	-0.064464614
51	0x3b84657b	0.0040404177
52	0x3d2205c5	0.039556284
53	0x3c9d5607	0.01920606
54	0xbbd15b2b	-0.006389042
55	0xbcd6abb4	-0.026204921
56	0x3c994deb	0.018713912
57	0x3c2f5d5c	0.010703411
58	0x3cc956cb	0.024577519
59	0x3d26d093	0.040726256
60	0x3c985816	0.01859669
61	0xbd45782a	-0.0482103
62	0x3d3b99fa	0.04580114
63	0x3d15d0d5	0.03657611
64	0xbd654fa1	-0.055984143
65	0xbd6493e8	-0.055805117
66	0xbd2c119c	-0.04200898
67	0xbb5b7485	-0.00334862
68	0xbd3b1342	-0.045672663
69	0xbc08144c	-0.00830562
70	0x3d4a46b8	0.04938385
71	0xbd49823c	-0.049196467
72	0x3d5529a1	0.052041654
73	0x3c69a2a3	0.014259967
74	0x3ce4fce8	0.027952626
75	0xbc1da681	-0.009622217
76	0x3c2a8d48	0.010409661
77	0xbd816e77	-0.063198976
78	0xbd62da2f	-0.055383857
79	0x3cd19529	0.02558382
80	0xbc6ea5b5	-0.014565875
81	0xbce956af	-0.028483717
82	0x3d71472c	0.058905765
83	0xbcafa765	-0.021442125
84	0xbc25784e	-0.010099484
85	0x3cbb9bc0	0.022901416
86	0xbc341fb8	-0.01099389
87	0xbd1a4ed3	-0.03767283
88	0x3caad442	0.020853166
89	0xbc9d4dd1	-0.019202145
90	0x3b762e0d	0.003756407
91	0x3ccff591	0.02538565
92	0x3d58118d	0.052751113
93	0x3d5123f3	0.051059674
94	0xbcd125ea	-0.025530774
95	0xbcce9ec1	-0.025222184
96	0xbd57cce3	-0.05268563
97	0x3be374f2	0.006941431
98	0xbcc6475b	-0.024203947
99	0xbd72e4cb	-0.059300225
100	0x3cb9d911	0.022686513
101	0x3d3985a3	0.04529346
102	0xbd284a27	-0.041086342
103	0xbb83bd5d	-0.0040203766
104	0x3c9b373d	0.018947238
105	0xbd86335f	-0.06552767
106	0x3d5f8391	0.05456883
107	0x3cc053bf	0.023477433
108	0xbc25642a	-0.010094682
109	0xbc70738e	-0.014675988
110	0xbc452bfa	-0.012034411
111	0xbd58608b	-0.052826446
112	0xbc916aed	-0.017751181
113	0xbcfb685e	-0.030689415
114	0xbd7f15ae	-0.062276535
115	0xbd2be203	-0.04196359
116	0xbc5e1c17	-0.013556502
117	0x3d34a566	0.04410305
118	0x3d301444	0.042988077
119	0x3d65ded1	0.056120697
120	0xbd0d9bc8	-0.034572393
121	0x3add6211	0.0016890188
122	0xbd72627d	-0.059175957
123	0x3c8cc939	0.017185794
124	0xbcdfc662	-0.027316276
125	0xbcc60d24	-0.024176188
126	0xbcea8c2f	-0.028631298
127	0xb6e9cab6	-6.96754e-06
128	0xbd80e81e	-0.06294273
129	0x3c906468	0.017626002
130	0xbd12ff53	-0.035888027
131	0x3d16f947	0.036858823
132	0x3c09f920	0.008421212
133	0x3d36e4d2	0.044651814
134	0x3d25a546	0.04044082
135	0xbd42ffa5	-0.047607083
136	0xbd00f8f9	-0.03148744
137	0xbd021150	-0.03175479
138	0xbbaf647d	-0.0053525553
139	0xbb72bcf2	-0.003703889
140	0x3d54c49e	0.05194532
141	0xbcbde8b4	-0.02318225
142	0xbc305952	-0.010763483
143	0x3d7547ad	0.05988281
144	0x3b4b227d	0.0030995898
145	0x3d4cd010	0.05000311
146	0xbc898742	-0.016788129
147	0xbd4db179	-0.05021808
148	0xbd3adc51	-0.045620266
149	0xbbf19300	-0.00737226
150	0xbd562bfb	-0.052288037
151	0x3ca78c43	0.020452624
152	0xbbbde41c	-0.005795015
153	0x3ca05800	0.019573212
154	0xbd2eef29	-0.04270855
155	0xbc1f832e	-0.0097358655
156	0x3d1e8152	0.03869755
157	0xbcb65324	-0.022256441
158	0xbd601ef5	-0.054717023
159	0x3d1fd246	0.03901889
160	0x3c59a735	0.013284494
161	0xbd829d7b	-0.06377693
162	0x3c0ac0af	0.008468791
163	0x3c7b4e4d	0.015338493
164	0xbd810135	-0.06299058
165	0xbd8645fd	-0.06556318
166	0xbd72b13d	-0.05925106
167	0x3d40f19e	0.047105424
168	0x3d28b182	0.04118491
169	0xbd6b52ca	-0.057452
170	0x3cfb7021	0.030693116
171	0x3d030703	0.03198911
172	0xbc022fd9	-0.007945978
173	0x3c9e4423	0.0193196
174	0xbc41c9dd	-0.011827913
175	0xbd156de1	-0.03648174
176	0x3d0cc9af	0.034372028
177	0x3d120391	0.035647932
178	0xbb98243b	-0.004642991
179	0x3c10fadb	0.008848871
180	0xbc5d4f10	-0.0135076195
181	0xbce33074	-0.027733065
182	0x3baa6beb	0.005200853
183	0xbc249412	-0.010045068
184	0x3d532236	0.051546298
185	0x3d35b5a5	0.044362683
186	0x3d0c18e6	0.034203433
187	0xbcdab495	-0.026697436
188	0xbd84e145	-0.06488279
189	0xbd2bbc94	-0.04192789
190	0xbc8b81bb	-0.017029634
191	0xbbe2a7fb	-0.0069169975
192	0xbcd2f23b	-0.02575027
193	0x3af76303	0.0018874112
194	0x3cb91b29	0.022595959
195	0x3d63e8ab	0.05564181
196	0x3d10aa4c	0.035318658
197	0x3ad7dc4f	0.0016468855
198	0x3d117c4a	0.035518922
199	0x3cd8ef76	0.026481371
200	0xbb2ab154	-0.0026045637
201	0xbd221d38	-0.039578646
202	0x3d4b4c6c	0.04963343
203	0x3ce2c9da	0.027684141
204	0xbb613e56	-0.003436943
205	0xbce85b70	-0.028363913
206	0xbc2966a1	-0.01033941
207	0xbb970805	-0.0046091103
208	0x3d2d33ac	0.042285606
209	0xbd356fed	-0.044296194
210	0xbd24aeac	-0.040205643
211	0x3d2bcd6c	0.041943952
212	0xba09a483	-0.00052506494
213	0xbd83ba74	-0.064320475
214	0xbd82cb3c	-0.0638642
215	0x3d68ec61	0.056866053
216	0xbd7296cd	-0.059225846
217	0xbcb69bb9	-0.022291051
218	0xbd5224b2	-0.051304527
219	0x3cce01be	0.025147315
220	0x3d3d8198	0.04626617
221	0xbd4e6805	-0.05039217
222	0xbd48e2e7	-0.049044516
223	0xbb1be496	-0.002378737
224	0xbd5efb43	-0.05443884
225	0xbd4cb4a0	-0.049976945
226	0xbd77611d	-0.06039535
227	0x3d613e9c	0.05499135
228	0xbd4df665	-0.05028381
229	0xbce16b97	-0.027517123
230	0x3b237440	0.0024941117
231	0x3c126dbb	0.008937295
232	0x3d4d4c8b	0.050121825
233	0x3c0465db	0.008080925
234	0xbd446fb1	-0.04795808
235	0xbac6219d	-0.0015116219
236	0x3cfc884e	0.030826714
237	0x3c8fa6eb	0.017535647
238	0x3c3108cc	0.01080532
239	0xbd1daa4c	-0.038492486
240	0x3d58e82f	0.052955803
241	0xbcd87507	-0.02642299
242	0xbd15a4fa	-0.036534287
243	0xbab6e88d	-0.0013954804
244	0xbd82439e	-0.06360553
245	0x3cae2faf	0.021262972
246	0x3d4ec3f4	0.050479844
247	0x3b2c2276	0.0026265658
248	0xbd308b54	-0.043101624
249	0xbd1d0e76	-0.03834387
250	0x3d3bb900	0.045830727
251	0xbaa0a968	-0.0012257518
252	0x3ab1a1dc	0.0013552266
253	0xbd5d81c5	-0.054078836
254	0xbd581d8d	-0.052762557
255	0xbbffbaac	-0.0078042354

feature_extraction.bias f4 [64]
0	0xbce4fddd	-0.027953083
1	0x3c563227	0.013073481
2	0xbd4ab2bf	-0.04948687
3	0x3d3d3e08	0.046201736
4	0xbd0c4826	-0.034248494
5	0x3d7a0d9c	0.061048135
6	0x3d1f836d	0.038943697
7	0x3caaf362	0.020868007
8	0xbd578f63	-0.05262698
9	0x3ca7db53	0.020490324
10	0x3d8d7835	0.06907693
11	0x3ad45c24	0.0016201776
12	0x3d77ac88	0.060467273
13	0xbd7c2e97	-0.06156787
14	0xbd545cc6	-0.05184629
15	0xbd83aa02	-0.06428911
16	0xbd67d4f4	-0.056599572
17	0x3ba497ff	0.005023002
18	0x3c811573	0.015757298
19	0xbd3d25cf	-0.046178635
20	0x3cf7c5aa	0.03024562
21	0x3d12b740	0.035819292
22	0xbd24470b	-0.040106814
23	0xbd48dba6	-0.049037598
24	0xbd829bbd	-0.06377361
25	0x3d88d214	0.06680694
26	0xbd6380f2	-0.055542894
27	0x3ca813ee	0.020517316
28	0x3d44931f	0.047991868
29	0x3cadab2a	0.021199781
30	0xbcba1ac3	-0.02271784
31	0xbd28fb2f	-0.041255172
32	0xbcc2fb3d	-0.02380144
33	0x3d655f2f	0.055998977
34	0x3d104f66	0.03523197
35	0xbcdc941b	-0.026926091
36	0xbd0f28ae	-0.034950905
37	0xbc2fee37	-0.010737947
38	0xbd59d0f1	-0.053177778
39	0xbd1c8ec5	-0.038222093
40	0xbc4d121f	-0.012516527
41	0xbd4a9224	-0.049455777
42	0xbc7c0e4a	-0.015384266
43	0x3d7d93e3	0.061908614
44	0x3ce6dfd5	0.028182903
45	0xbd340edf	-0.043959495
46	0xbd698dac	-0.057019874
47	0xbcfa6436	-0.030565362
48	0xbd26e96b	-0.04074995
49	0x3c52e9d4	0.012873132
50	0x3cba1efb	0.02271985
51	0x3d0ef2af	0.03489941
52	0xbd57600a	-0.052581824
53	0xbd67bc9c	-0.056576356
54	0x3d2a0ae5	0.041514296
55	0xbd7dcf4d	-0.061965276
56	0x3d584334	0.052798465
57	0xbcb1a229	-0.02168377
58	0xbd8c859a	-0.0686142
59	0x3cd5b76c	0.026088439
60	0xbcefce0a	-0.029273052
61	0x3c500bcd	0.012698126
62	0x3d2d4434	0.04230137
63	0x3d073d7b	0.033017617

convolutions.0.weight f4 [64, 64, 3, 3]
0	0xbbdcd30d	-0.0067390264
1	0x3d1e5bd6	0.0386618
2	0x3b089e08	0.0020846147
3	0xbc81d6f1	-0.015849562
4	0x3c2a51f1	0.010395513
5	0xbc476f0d	-0.012172473
6	0x3bb7772b	0.0055989227
7	0xbba790f1	-0.005113714
8	0x3d249f64	0.04019107
9	0x3bb02ae6	0.0053762076
10	0x3c938a7f	0.018010376
11	0x3c92b4e1	0.017908515
12	0x3d40ba9c	0.047052965
13	0xbc0192e5	-0.007908558
14	0x3c2e164e	0.010625435
15	0x3a284ca7	0.00064201135
16	0x3c7f322c	0.015575927
17	0x3cfe4c8c	0.03104236
18	0x3ccb8332	0.024842832
19	0xbc9f7873	-0.019466614
20	0x3d083b94	0.033259943
21	0xbd11937d	-0.035541046
22	0x3ae58489	0.0017510812
23	0x3cade0ab	0.021225294
24	0xbaddc01c	-0.0016918215
25	0x3cc69a3d	0.024243468
26	0xbbfb2adb	-0.007665021
27	0xbc289720	-0.010289937
28	0x3bb063bf	0.0053829844
29	0xbce0e0ed	-0.027451003
30	0xbd1923fd	-0.037387837
31	0x3d23e7f7	0.04001614
32	0x3ca3b9de	0.01998609
33	0x3d01c19b	0.031678777
34	0xbd17b28f	-0.03703552
35	0xbc8563d0	-0.016282946
36	0x3b8b0dbe	0.0042435816
37	0x3cc61191	0.024178298
38	0x3d1bca77	0.038034882
39	0x3cebef29	0.028800564
40	0x3cba7dc1	0.022765042
41	0xbd001347	-0.031268384
42	0xbc35ce5b	-0.011096562
43	0x3d252666	0.040319823
44	0x3d1844e6	0.03717508
45	0x3cc58625	0.024111817
46	0x3ce32b16	0.027730506
47	0xbd253b9f	-0.040340062
48	0x3c71dc4b	0.014761995
49	0xbc61ce36	-0.013782075
50	0x3cc13422	0.02358443
51	0x3cbe153e	0.023203488
52	0x3c8b053f	0.016970275
53	0x3d166985	0.036721725
54	0xbc77e001	-0.01512909
55	0xbc554061	-0.013015837
56	0x3ba07b95	0.0048975446
57	0xbcb22485	-0.02174593
58	0xbd23bf13	-0.039977144
59	0xbbbf40a8	-0.005836565
60	0xbd22d86d	-0.03975718
61	0x3cc98b15	0.024602452
62	0xb99484bf	-0.00028327663
63	0xbc06154a	-0.008183787
64	0xbd1d6e5d	-0.03843533
65	0xbc7e42f6	-0.015518894
66	0xbcc97982	-0.024594072
67	0xbd0fb26c	-0.035082266
68	0x3d07f458	0.03319201
69	0x3c3b7301	0.011440993
70	0x3cb36ca4	0.02190239
71	0x3c4badd6	0.012431582
72	0x3d207193	0.039170813
73	0x3b25112e	0.0025187242
74	0xbc01f3fe	-0.007931707
75	0xbabf7516	-0.0014607038
76	0xbd1ba1c7	-0.03799608
77	0xbd2d96d4	-0.04238017
78	0x3ca23606	0.019801151
79	0x39d340f7	0.0004029346
80	0x3cf870b5	0.03032718
81	0xbc8985ce	-0.016787436
82	0x3bf76e07	0.007550958
83	0x3c1002ee	0.008789761
84	0x3cde771e	0.027156409
85	0xbcfa61ec	-0.03056427
86	0x3ca00e0f	0.019537954
87	0x3ce99618	0.028513953
88	0xbd15522e	-0.036455326
89	0x3c432cf1	0.01191257
90	0xbd0a8e1c	-0.033826932
91	0xbd1e48c1	-0.038643602
92	0xbc28eaaf	-0.010309859
93	0xbbf098e8	-0.0073424466
94	0x3c1ac848	0.009447165
95	0xbd0f253a	-0.03494761
96	0xbc15ac1d	-0.009135273
97	0x3c61e6de	0.013787953
98	0xbccb5ea9	-0.02482541
99	0xbbfee46f	-0.0077786963
100	0xbd0d69bd	-0.034524668
101	0x3d02015d	0.03173958
102	0xbd10cfd5	-0.035354454
103	0x3b434a48	0.0029798914
104	0xbb8817a9	-0.004153211
105	0xbcf85daf	-0.03031811
106	0x3c4e9df1	0.012610898
107	0x3cb31d34	0.021864511
108	0x3cce343b	0.02517139
109	0xbc808c08	-0.015691772
110	0xbc91aa2a	-0.017781336
111	0x3ce5ceb2	0.028052662
112	0x3c1ec824	0.009691272
113	0x3bdeb36d	0.0067962916
114	0xbcd94639	-0.026522743
115	0x3c89545a	0.016763855
116	0xbcdcb13b	-0.026939979
117	0x3c40e0f9	0.011772388
118	0xbbfd4d84	-0.007730188
119	0xbcece869	-0.028919416
120	0x3d1327b2	0.03592653
121	0x3d1b15b2	0.037862487
122	0x3d278241	0.040895704
123	0xbc79690d	-0.0152228
124	0xbcea5944	-0.028607018
125	0xbc8153c4	-0.015787013
126	0xbc971732	-0.018443678
127	0xbd1b951d	-0.037984002
128	0x3c842694	0.016131677
129	0xbcebf01d	-0.028801018
130	0xbd093292	-0.033495493
131	0xbb24b906	-0.0025134697
132	0x3d31d9f4	0.043420747
133	0x3cccf491	0.025018962
134	0xbbfb1eb6	-0.007663573
135	0x3b98528b	0.0046485118
136	0x3bc59da3	0.0060307547
137	0xbc6f0869	-0.0145894075
138	0x3cb8db1c	0.022565417
139	0xbd208e8a	-0.039198436
140	0xbbed07d5	-0.0072335997
141	0x3d1a3699	0.037649725
142	0x3cb37657	0.021907015
143	0xbd0390d4	-0.03212054
144	0xbd029c4c	-0.031887338
145	0x3cf7ed35	0.030264476
146	0xbc44ad85	-0.012004261
147	0x3cc4771b	0.023982575
148	0x39de4aff	0.00042399016
149	0xbcd6db06	-0.026227485
150	0xbc6b05de	-0.014344661
151	0xbc34daba	-0.011038477
152	0x3d1b164c	0.03786306
153	0xbbaf67b4	-0.0053529385
154	0x3d10457e	0.035222523
155	0xbd08450a	-0.033268966
156	0xbd0b9d91	-0.034085814
157	0xbc95b3da	-0.018274236
158	0x3a5a4591	0.0008326406
159	0xbbb416e1	-0.0054958914
160	0xbc72a1eb	-0.014809112
161	0xbd302789	-0.043006454
162	0xbb8a122e	-0.004213593
163	0x3a05bffc	0.0005102155
164	0x3a586953	0.00082554406
165	0x3b56835c	0.0032732105
166	0x3c75c232	0.014999913
167	0x3ca7aa9c	0.020467095
168	0xbccbff13	-0.024901902
169	0x3c803cc3	0.015653973
170	0xbd3e06ea	-0.046393313
171	0x3bbfe3b3	0.0058560013
172	0x3d004325	0.031314034
173	0xbcc7f404	-0.024408348
174	0x3bb3d837	0.0054884213
175	0xbd19c0aa	-0.037537254
176	0x3c5db26e	0.0135313105
177	0xbc6d9dc4	-0.014502946
178	0xbd158354	-0.036502197
179	0x3c2889dc	0.0102867745
180	0xbce03c24	-0.027372427
181	0x3ce8709c	0.028374009
182	0xbc2da8ea	-0.010599354
183	0x3d048b40	0.03235936
184	0x3c0b27b7	0.0084933555
185	0x3d0a042b	0.03369538
186	0x3ce24c14	0.027624168
187	0xbccd8735	-0.025088886
188	0x3ca2a953	0.01985613
189	0x3cc59bce	0.024122145
190	0xbbd5c816	-0.0065240962
191	0xbba83e54	-0.005134383
192	0xbcdf169a	-0.027232457
193	0xbcdfdb11	-0.027326139
194	0x3d19aaab	0.037516277
195	0x3c396b0d	0.011317027
196	0x3c99a750	0.018756539
197	0x3c860ad4	0.016362585
198	0xbd12f51d	-0.03587829
199	0x3c607c13	0.013701457
200	0xbd0b5b45	-0.03402259
201	0x3d07e78b	0.0331798
202	0x3cff543d	0.031168098
203	0x3c93ed84	0.018057592
204	0x3cc8f872	0.02453253
205	0xbc2a0ff7	-0.010379783
206	0x3d375646	0.04476001
207	0xbb7c04f3	-0.0038455098
208	0xbc87ea3a	-0.01659118
209	0xbc6e3365	-0.014538621
210	0x3c95d246	0.018288743
211	0xbd0bfba6	-0.034175538
212	0xbcfc15f9	-0.030772196
213	0x3ca7f1db	0.020501068
214	0x3cd7bfcc	0.026336573
215	0x3bcb4c64	0.006204175
216	0xbc35e000	-0.011100769
217	0xbc4303d2	-0.011902766
218	0xbb9b4225	-0.0047381097
219	0xbc989898	-0.01862745
220	0x3c3721aa	0.01117746
221	0x3c18b0f6	0.0093195345
222	0xbc1356ce	-0.008992864
223	0x3ce98f9d	0.028510863
224	0x37deb85a	2.6550308e-05
225	0x3c378c77	0.011202923
226	0x3c315c0a	0.0108251665
227	0xbc8de23e	-0.017319795
228	0xbd23255b	-0.039830547
229	0x3a837d89	0.0010031919
230	0x3c90edb6	0.017691474
231	0x3d2bda8c	0.04195647
232	0x3c67cca8	0.014147915
233	0xbc97ecd7	-0.018545551
234	0xbbbd2226	-0.005771893
235	0x3d0b14a7	0.033955242
236	0xbc9bcd41	-0.019018771
237	0xbc252081	-0.01007855
238	0xbcfad2e3	-0.030618137
239	0xbd171783	-0.036887657
240	0xbc834379	-0.016023384
241	0x3cbdd013	0.023170507
242	0x3c93d7c6	0.018047225
243	0x3ccbe1b3	0.024887895
244	0x3a51028a	0.00079730956
245	0x3cdeda0d	0.027203584
246	0x3d20f22b	0.03929345
247	0xbcec59c1	-0.028851392
248	0xbd084722	-0.033270963
249	0xbcc44094	-0.023956574
250	0xbca3ee21	-0.02001101
251	0x3bf2814a	0.0074006664
252	0x3d0f1b0e	0.03493791
253	0x3d2692d5	0.040667374
254	0xbd00259e	-0.031285875
255	0x3cfb2f5f	0.030662237

convolutions.0.bias f4 [64]
0	0xbc4d8692	-0.012544291
1	0xbc243398	-0.0100220665
2	0x3cdc1fb3	0.026870584
3	0xbd1ee8d0	-0.038796246
4	0x3b8dba6f	0.004325203
5	0x3cc0500a	0.023475666
6	0x3d316353	0.043307614
7	0x3cd41036	0.025886636
8	0x3d196bc5	0.037456293
9	0xbbd1cff5	-0.0064029642
10	0x3c62df48	0.01384718
11	0xbc3b1ee5	-0.01142094
12	0x3bbff50f	0.0058580707
13	0xbb816bca	-0.003949617
14	0x3cecf48a	0.028925199
15	0xbd06162a	-0.03273598
16	0xbc82f75f	-0.015987096
17	0x3d22e614	0.0397702
18	0x3cd0f5c6	0.025507819
19	0xbad61144	-0.001633205
20	0x3c58feca	0.01324434
21	0xbcafcde6	-0.021460485
22	0xbc8292c4	-0.015939124
23	0x3d313459	0.043262813
24	0x3c581d06	0.0131905135
25	0x3cc94fcd	0.024574185
26	0x3ca5343a	0.020166505
27	0xbc4eba7f	-0.012617706
28	0x3cca863f	0.024722217
29	0x3cef3b1b	0.029202988
30	0x3cccbe0c	0.024992965
31	0xbd09a2a2	-0.033602364
32	0x3d1446ba	0.036200263
33	0xbd1ec7d9	-0.03876481
34	0x3d6592ae	0.056048088
35	0xbcbaade3	-0.022787994
36	0xbc89d773	-0.016826367
37	0xbd1ef2e1	-0.038805846
38	0xbc2e1e44	-0.010627333
39	0x3d2113af	0.039325412
40	0x3d3a4451	0.045475308
41	0x3d194d5b	0.037427288
42	0xbac49933	-0.001499927
43	0xbc5b5377	-0.013386599
44	0x3bd44dec	0.0064790156
45	0xbcbeb84a	-0.023281235
46	0xbd276f2a	-0.0408775
47	0x3c36439c	0.011124518
48	0x3ccb24b5	0.024797777
49	0x3ca576af	0.020198194
50	0xbca99e8a	-0.02070548
51	0xbcb698d8	-0.022289678
52	0x3cfb6fe3	0.030693
53	0xbd2e590b	-0.042565387
54	0xbd36646e	-0.04452937
55	0xbc58fa4e	-0.013243271
56	0xbcf0293f	-0.029316543
57	0x3cdabdba	0.026701797
58	0x3d2bb998	0.041925043
59	0xbc438d61	-0.011935563
60	0xbd00473f	-0.031317946
61	0xbd22c520	-0.039738774
62	0xbbdf8400	-0.0068211555
63	0x3d2d0a26	0.042246006

convolutions.2.weight f4 [64, 64, 3, 3]
0	0xbcd94c2f	-0.026525585
1	0x3c233573	0.009961474
2	0xbc86c4a6	-0.016451191
3	0xbc235463	-0.00996885
4	0x3ce5e7ed	0.028064692
5	0xbd1465e5	-0.036229987
6	0xbbd75764	-0.006571697
7	0xbd061c02	-0.032741554
8	0x3cd34ef9	0.025794493
9	0x3c661991	0.014044181
10	0x3cc23c36	0.023710351
11	0x3c1dcce3	0.009631368
12	0xbcade681	-0.021228077
13	0x3c107ee8	0.008819319
14	0x3d0ea479	0.034824822
15	0xbb942983	-0.00452155
16	0xbd049caa	-0.03237597
17	0x3d063a47	0.03277042
18	0x3c173c0f	0.009230628
19	0x3c138fc4	0.009006444
20	0x3c762010	0.015022293
21	0xbd14ce56	-0.03632959
22	0x3d107c70	0.035274923
23	0xbce22403	-0.027605062
24	0x3d1ff070	0.03904766
25	0xbc90b7ca	-0.017665762
26	0xbcc8330b	-0.024438402
27	0x3d03bfe8	0.032165438
28	0xbc06962e	-0.008214517
29	0xbc18aa1d	-0.009317902
30	0xbd020b7a	-0.031749226
31	0xbd233a83	-0.039850723
32	0xbc707a5c	-0.01467761
33	0xbc79c64b	-0.015245031
34	0xbc704bf2	-0.014666544
35	0xbba58a86	-0.0050519137
36	0xbabad706	-0.0014254756
37	0xbc578663	-0.013154599
38	0xbbe80b0a	-0.007081394
39	0x3c27e2f9	0.010246986
40	0x3c0740bd	0.008255181
41	0xbd0f5ea0	-0.03500235
42	0x3b687c99	0.0035474657
43	0xbd095431	-0.033527557
44	0xbcae6c79	-0.021291958
45	0xbc9c9799	-0.019115256
46	0xbcc57c94	-0.024107255
47	0x3cbcebab	0.023061594
48	0xbd1af96c	-0.037835523
49	0xbd13b20a	-0.036058463
50	0x3c17630f	0.009239926
51	0xba78e32d	-0.0009494301
52	0x3ca3b30f	0.019982843
53	0x3b819764	0.0039548147
54	0x3d0dc9e8	0.03461638
55	0xbd00f162	-0.0314802
56	0xbc0d8282	-0.0086370725
57	0x3c0b90ab	0.008518378
58	0x3ccc272c	0.024921022
59	0xbc51a9d5	-0.012796839
60	0x3c57eb2b	0.013178627
61	0x3c073efa	0.008254761
62	0xbc27c685	-0.010240202
63	0xbce3385d	-0.027736837
64	0xbd197df5	-0.037473638
65	0xbcc73635	-0.02431784
66	0xbcee00a8	-0.029053047
67	0x3d24e173	0.040254068
68	0xbbb78c7a	-0.005601463
69	0x3a9d9d33	0.0012024998
70	0xbbdf122c	-0.006807586
71	0x3a98f5b0	0.00116699
72	0xbd21ded8	-0.03951916
73	0xbc494104	-0.012283567
74	0xbcf03811	-0.02932361
75	0x3d0acc60	0.033886313
76	0x3cc1a29b	0.023637107
77	0xbd264591	-0.040593687
78	0x3b9af923	0.0047294064
79	0x3ce2ea3f	0.027699588
80	0x3bc0e6e6	0.0058869002
81	0xbd100441	-0.035160307
82	0x3d1794be	0.037007086
83	0xbd2554d9	-0.04036412
84	0x3cf9a36b	0.030473432
85	0xbccc9609	-0.024973886
86	0xbca11fdf	-0.019668518
87	0x3d0e0dd7	0.034681167
88	0x3d238ae1	0.039927367
89	0x3c284cb9	0.010272198
90	0xbc9ee6e4	-0.019397207
91	0xba00171c	-0.0004886256
92	0x3d0c118c	0.03419642
93	0xbcf64d76	-0.030066233
94	0x3d2d428d	0.042299796
95	0xbc22a93c	-0.009928044
96	0x3cd89337	0.026437385
97	0xbd10faf9	-0.035395596
98	0x3cd9f672	0.026606772
99	0x3b07b327	0.0020706148
100	0xbc361644	-0.011113707
101	0x3d03c5e6	0.032171153
102	0xbc9cff2f	-0.01916465
103	0xbb721a27	-0.0036941858
104	0x3c8d4bc7	0.017248048
105	0x3d29ecb1	0.041485492
106	0x3d1a488e	0.03766685
107	0x3cb30230	0.021851629
108	0x3c4a3ecb	0.012344073
109	0xbd194f7c	-0.037429318
110	0xbc0a6427	-0.00844673
111	0xbc9eb7d7	-0.019374771
112	0xbcc6574e	-0.024211552
113	0x3bc9a6b9	0.006153908
114	0xbd0f7ad7	-0.03502926
115	0x3d136b2d	0.035990883
116	0x3c1eef52	0.009700613
117	0xbc36379c	-0.011121657
118	0x3ccbc381	0.024873497
119	0x3c0c54c5	0.0085651325
120	0x3d0ac559	0.03387961
121	0x3d1d0105	0.03833105
122	0x3d2deecb	0.04246406
123	0x3d335ea9	0.043791447
124	0x388488ac	6.3197076e-05
125	0x3d1bed76	0.038068257
126	0x3d177fc4	0.03698708
127	0xbbf3c95c	-0.0074397754
128	0xbc96206e	-0.01832601
129	0x3d1c9365	0.038226504
130	0x3ca9eb71	0.02074215
131	0x3d242d17	0.040082064
132	0xbcaa31eb	-0.020775756
133	0xbd1fa461	-0.038975123
134	0xbd13a40f	-0.03604513
135	0xbce51a9e	-0.027966794
136	0x3c9d11ea	0.019173581
137	0xbd02ba7b	-0.031916123
138	0xbcac5c69	-0.021040158
139	0xbcdf74b6	-0.027277332
140	0xbd0bd741	-0.03414083
141	0xbc1b2593	-0.009469408
142	0x3ccbdc6a	0.024885375
143	0xba828207	-0.0009956964
144	0xbc7e4d20	-0.015521318
145	0xbc05cbc4	-0.008166257
146	0xbcf2ec02	-0.029653553
147	0x3d16f110	0.03685099
148	0xbca6772b	-0.020320496
149	0xbcd13f4c	-0.025542878
150	0x3cade36e	0.021226611
151	0xbc9c29fc	-0.019062988
152	0x3bf6dfdc	0.0075340103
153	0xbc5932dd	-0.013256756
154	0xbca7578f	-0.020427493
155	0x3b2ecb1f	0.0026671363
156	0x3c0907fb	0.008363719
157	0x3c91a5cd	0.017779255
158	0x3ccd9dbc	0.025099628
159	0xbcfa37b0	-0.030544132
160	0xbbf85961	-0.007579014
161	0xbc787b41	-0.015166105
162	0xbd183293	-0.037157606
163	0x3cd46918	0.025929019
164	0x3c882968	0.016621307
165	0x3b428362	0.002968036
166	0xbc0fdd0c	-0.008780729
167	0x3c065b28	0.008200444
168	0xbc9342a0	-0.017976105
169	0x3c530f06	0.012882
170	0x3d126e38	0.035749644
171	0x3d33d61b	0.04390536
172	0x3bcdd15e	0.006281062
173	0xbc56fabd	-0.013121304
174	0x3bddb884	0.0067663807
175	0x3cfb6b50	0.030690819
176	0xbc72423c	-0.014786299
177	0x3d296cea	0.041363634
178	0xbbebce55	-0.0071962276
179	0x3cea35d5	0.028590122
180	0xbc95b602	-0.018275265
181	0x3cf44bad	0.029821241
182	0x3c990900	0.01868105
183	0xbc2a44c0	-0.010392368
184	0xbd113b72	-0.035457082
185	0xbc73ed01	-0.014888049
186	0xbb6c9e28	-0.003610501
187	0xbce347d1	-0.027744206
188	0xbd28b5fa	-0.04118917
189	0xbd479ffb	-0.048736554
190	0x3cf939c9	0.030423062
191	0x3ccb6d89	0.024832504
192	0x3ccd3104	0.025047787
193	0x3b02f89b	0.0019984606
194	0x3bbb5f7e	0.0057181707
195	0xb9a53a71	-0.00031514795
196	0xbceca2c6	-0.02888621
197	0x3c8ad86f	0.016948907
198	0x3ce73b15	0.028226415
199	0x3cb275a5	0.021784613
200	0xbccbb81e	-0.024868067
201	0x3cba4fa4	0.022743054
202	0xbcc9ad4f	-0.024618773
203	0x3d070e48	0.032972604
204	0x3cf2f295	0.029656688
205	0x3cf89101	0.03034258
206	0x3d014692	0.03156144
207	0x3cab2ba4	0.020894833
208	0xbd4c42be	-0.049868338
209	0xbd382a06	-0.04496195
210	0x3c9feeb9	0.019523012
211	0x3c89b953	0.016812002
212	0xbc6e831a	-0.014557624
213	0xbc070b6c	-0.008242469
214	0xbd33a0ea	-0.04385463
215	0x3ce351df	0.027749
216	0x3d0abd57	0.033871975
217	0xbadb5767	-0.0016734422
218	0x3c8384b2	0.016054485
219	0xbc95624d	-0.01823535
220	0x3cd0e9f3	0.02550218
221	0xbd0b5890	-0.034020007
222	0x3d31c3ed	0.04339974
223	0xbc0cd52d	-0.008595747
224	0xbc1f6c39	-0.009730392
225	0xbd032248	-0.032015115
226	0xbc40dbe9	-0.011771181
227	0x3b2012a6	0.0024425178
228	0xbd1b08b8	-0.03785011
229	0x3b270c99	0.0025489687
230	0x3b87c210	0.004143007
231	0xbcb5be0f	-0.022185354
232	0x3b597f1b	0.0033187333
233	0xbc813409	-0.015771883
234	0x3d068a67	0.032846835
235	0x3c7c0f9e	0.015384583
236	0xbd02de91	-0.031950537
237	0xbc9c2e57	-0.019065065
238	0x3d24e75c	0.040259704
239	0xbc788d65	-0.01517043
240	0xbc5ff7df	-0.013669937
241	0x3d0f65eb	0.035009306
242	0x3d07f13c	0.033189043
243	0x3d2e792d	0.04259603
244	0xbc8c3ea2	-0.01711971
245	0x3d0a313a	0.033738352
246	0xbc425549	-0.011861154
247	0x3ce280b2	0.027649257
248	0x3abece0e	0.0014557259
249	0x3c52817f	0.012848257
250	0x3ccbe324	0.024888583
251	0xbc87b169	-0.016564088
252	0x3af5bc94	0.0018748217
253	0xbd2fd9d9	-0.042932365
254	0x3d116859	0.035499904
255	0x3c9ab655	0.01888577

convolutions.2.bias f4 [64]
0	0x3bf03cdd	0.007331474
1	0xbd1b04f0	-0.037846506
2	0xbcd05da2	-0.025435273
3	0xbd32dd55	-0.04366811
4	0x3b6cff8b	0.0036163058
5	0xbcbf0215	-0.023316422
6	0x3c03d393	0.008046049
7	0x3c69cd76	0.014270177
8	0xbc6c529c	-0.0144239925
9	0xbb164d5b	-0.002293429
10	0x3bb00f92	0.00537295
11	0x3cc7903d	0.02436077
12	0x3d095eca	0.033537664
13	0x3c99d815	0.018779794
14	0x3d3d6bfa	0.046245553
15	0xbced16e4	-0.02894158
16	0x3d27a903	0.040932667
17	0x3bb87378	0.0056289993
18	0x3b3f76b8	0.002921505
19	0x3ca08882	0.019596342
20	0x3d317b7c	0.043330655
21	0x3c6cfa8e	0.014464034
22	0x3d11778a	0.035514392
23	0x3b84e695	0.004055808
24	0x3d204143	0.03912474
25	0xbd1abffd	-0.03778075
26	0x3b74950e	0.0037320289
27	0xbd24c9c4	-0.04023148
28	0x3cca12fe	0.02466726
29	0x3d3619c6	0.044458173
30	0xbd29b17a	-0.04142902
31	0x3d123938	0.0356991
32	0xbc6ecc83	-0.014575127
33	0xbc97d9ea	-0.018536527
34	0xbc4fa0d1	-0.012672619
35	0xbd1410c8	-0.036148816
36	0x3d1f1148	0.03883484
37	0xbc8cc52e	-0.017183866
38	0xbc6e4d79	-0.014544838
39	0xbcf0ad5e	-0.029379543
40	0x3b9535be	0.0045535257
41	0x3d2703fd	0.040775288
42	0xbce36265	-0.02775688
43	0x3cf39180	0.029732466
44	0xbcc82d6b	-0.02443572
45	0xbca39844	-0.019970067
46	0xbc2d8f59	-0.010593259
47	0xbaa66eb5	-0.0012697788
48	0xbd0dcb6e	-0.034617834
49	0xbd148d50	-0.03626758
50	0x3bb95cc2	0.0056568095
51	0xbcf4096e	-0.029789653
52	0xbca0feb7	-0.019652708
53	0x3d55f66b	0.052236956
54	0xbc67f8e2	-0.014158459
55	0xbbd0cfde	-0.006372436
56	0xbd1c6d1c	-0.038189992
57	0x3c0b1d9d	0.008490947
58	0xbc2eb86b	-0.010664086
59	0x3d29d04a	0.041458406
60	0xba2367d0	-0.0006233426
61	0xbd05944b	-0.032612126
62	0xbcdc6dff	-0.026907919
63	0xbc35ba55	-0.011091788

convolutions.4.weight f4 [64, 64, 3, 3]
0	0xbcf70fe3	-0.030158943
1	0xbcc99fe5	-0.024612376
2	0xbc500fa7	-0.012699044
3	0x3af598bd	0.0018737536
4	0xbc0f4848	-0.008745261
5	0x3cfaf48e	0.03063419
6	0x3c885aff	0.016644953
7	0xbcf0cced	-0.029394591
8	0xbbef3230	-0.007299684
9	0xbcb6b376	-0.02230237
10	0x3aeac02b	0.0017910054
11	0x3bd13636	0.0063846363
12	0x3c80fb33	0.015744781
13	0x3d17f422	0.037098058
14	0xba91ccd6	-0.0011123668
15	0x3cd4b4f0	0.025965184
16	0x3c83f4d3	0.016107952
17	0xbcf03fa3	-0.02932722
18	0xbcd28835	-0.025699714
19	0x3d0a0dc7	0.033704545
20	0xbcf5e75b	-0.030017545
21	0x3b5a659e	0.0033324729
22	0x3ceb0194	0.028687276
23	0xbbe4cb07	-0.0069822106
24	0x3cf9b156	0.030480068
25	0xbcf9e8a0	-0.030506432
26	0x3d2edfd0	0.042693913
27	0x3c688d77	0.014193884
28	0xbce09154	-0.027413048
29	0x3a483c4f	0.0007638381
30	0x3c880c70	0.016607493
31	0x3cd3a714	0.025836505
32	0xbc5ef409	-0.013607987
33	0x3ce4ba09	0.02792074
34	0x3c4d97ce	0.0125484
35	0x3cebac93	0.028768813
36	0x3ce86b51	0.028371485
37	0xbce0c5f3	-0.02743814
38	0xbccc2ec6	-0.024924647
39	0x3cba0f1c	0.022712283
40	0x3ccc1cde	0.024916109
41	0xbd258d3f	-0.040417906
42	0xbd02c20f	-0.03192335
43	0xbcc3cdfa	-0.023901928
44	0xbca10e8a	-0.019660253
45	0xbae864d6	-0.0017730247
46	0xbc9636ad	-0.018336618
47	0x3d20e49f	0.03928053
48	0x3c4b8518	0.012421869
49	0x3c5109ac	0.012758654
50	0xbbf887c4	-0.007584544
51	0x3ce127ca	0.027484793
52	0xba7d36f5	-0.00096593733
53	0x3c8916e7	0.016734554
54	0xbd13760a	-0.036001243
55	0xbc93982c	-0.018016897
56	0x3c520349	0.012818166
57	0x3bf7f082	0.0075665126
58	0x3a4148bd	0.00073732046
59	0x3d1660c5	0.03671338
60	0xbd1f9a83	-0.038965713
61	0x3cdf9118	0.027290866
62	0x3b4df784	0.0031428048
63	0xbce7dcab	-0.028303465
64	0x3ce747d7	0.028232498
65	0x3ce3ff2c	0.027831636
66	0xbcfb68b5	-0.030689577
67	0xbcb78e4c	-0.02240672
68	0xbc18122d	-0.009281677
69	0xbc19f996	-0.009397885
70	0x3be39e83	0.0069463863
71	0xbcb8fa42	-0.02258027
72	0xbc272f9e	-0.010204224
73	0x3c90ae79	0.01766132
74	0x3cae198c	0.021252416
75	0x3cb8beb2	0.022551868
76	0x3c970a23	0.01843745
77	0xbc2e2aba	-0.010630304
78	0xbd14a745	-0.036292333
79	0x3cf6ff88	0.030151144
80	0x3d013dba	0.031553008
81	0xbc8ad55e	-0.016947445
82	0x3c2a57c8	0.010396905
83	0x3ce43692	0.027858052
84	0x3c566939	0.0130866105
85	0x3cf78f70	0.030219764
86	0xbcbc10b8	-0.02295719
87	0xbccbfe20	-0.02490145
88	0xbcdf6d10	-0.027273685
89	0xbc4f5cae	-0.012656374
90	0xbbc76afe	-0.0060857525
91	0xbbb23b23	-0.0054391786
92	0xbc1d5d2c	-0.009604733
93	0xbc7c15e9	-0.015386083
94	0xbcb1471c	-0.021640353
95	0xbd053cb3	-0.03252859
96	0xbd04c571	-0.032414857
97	0xbd0592e7	-0.0326108
98	0x3bad242c	0.005283853
99	0x3ca8c930	0.020603746
100	0x3cec8b97	0.028875155
101	0xbb0202b5	-0.001983804
102	0xbcf765cb	-0.030199906
103	0xbca735cd	-0.020411396
104	0xbc9075f7	-0.017634375
105	0xbd0bd9dd	-0.034143317
106	0xbcc24d72	-0.02371857
107	0x3cf8c371	0.030366631
108	0x3d237d88	0.039914638
109	0x3d1b6ba1	0.03794444
110	0xbd00b3ef	-0.031421598
111	0xbcf2198a	-0.029553194
112	0x3d18dc0b	0.037319224
113	0x3c510167	0.012756682
114	0x3cabd166	0.020973872
115	0x3cc7bf67	0.02438326
116	0x3ca27ea4	0.019835778
117	0xbcd83ff3	-0.02639768
118	0x3cd829a1	0.026387038
119	0x3d112daf	0.035443958
120	0xbcfb281e	-0.030658778
121	0xbc0d00eb	-0.008606176
122	0x3c78ee0a	0.015193472
123	0x3c75b198	0.014995955
124	0xbd14c03b	-0.036316138
125	0xbd01723d	-0.031603087
126	0x3d029456	0.031879745
127	0x3cabed91	0.020987304
128	0x3c73bf71	0.014877186
129	0xbb7eab14	-0.0038859295
130	0xbba7c42e	-0.005119822
131	0x3c569c3e	0.0130987745
132	0xbcbd1eb8	-0.023085937
133	0x3d2ef062	0.042709716
134	0x3cf4805d	0.029846365
135	0xbc6e6bdc	-0.014552083
136	0xbd0794df	-0.03310096
137	0xbc8a3dd9	-0.016875194
138	0x3d09dccf	0.033657845
139	0xbce9fc2f	-0.028562633
140	0x3cd17909	0.02557041
141	0x3d028f95	0.03187521
142	0xbcb0a2c2	-0.021561984
143	0xbcd464d9	-0.025926994
144	0xbd0844cd	-0.03326874
145	0x3bddca1b	0.0067684776
146	0x3cd5e303	0.026109224
147	0x3c339ec2	0.010963144
148	0x3c0c0136	0.008545211
149	0x3b95797e	0.004561602
150	0x3cd6388e	0.026150014
151	0xbd22897c	-0.039681897
152	0xbca16263	-0.019700235
153	0xbd19dfde	-0.037567012
154	0x3c753cf3	0.014968145
155	0x3d10f77d	0.035392273
156	0xba99f352	-0.0011745489
157	0xbbd6d9dc	-0.0065567326
158	0x3bd545c3	0.0065085604
159	0xbced5336	-0.028970342
160	0xbcec8315	-0.028871099
161	0x3c9121d3	0.017716324
162	0x3ca7e562	0.02049512
163	0x3cc12332	0.023576353
164	0xbc6d1abf	-0.014471709
165	0x3bc4164c	0.0059841033
166	0x3ce41238	0.027840719
167	0xbca32e19	-0.019919442
168	0xbb2f9c2d	-0.002679597
169	0xbcad995c	-0.021191292
170	0x3c8fb8fe	0.017544266
171	0x3c295b30	0.010336682
172	0x3d08e609	0.033422504
173	0x3bbb4da8	0.0057160445
174	0xbcb428fd	-0.021992201
175	0xbc241afa	-0.010016197
176	0xbc7968e4	-0.015222762
177	0xbca1454c	-0.019686364
178	0x3d1f7998	0.03893432
179	0x3d217c04	0.03942491
180	0xbcbab001	-0.022789003
181	0xbbc63d76	-0.006049807
182	0x3d31c53b	0.043400984
183	0x3d279789	0.040916
184	0x3c8b2173	0.016983723
185	0x3c24cbf3	0.010058391
186	0x3c436ee6	0.011928296
187	0x3c41075f	0.011781543
188	0x3b881695	0.0041530826
189	0x3c7420ef	0.01490043
190	0xbc9b3280	-0.018944979
191	0xbb570837	-0.0032811293
192	0x3cbf7200	0.02336979
193	0xbcba1134	-0.022713281
194	0x3bbe78af	0.0058127264
195	0xbc99ce9a	-0.018775273
196	0x3c87b1b5	0.01656423
197	0x3c41fde3	0.0118403165
198	0x3cd17d96	0.02557258
199	0x3d20baf3	0.03924079
200	0xbc17a68b	-0.0092560155
201	0xbbf6e6b7	-0.0075348276
202	0xbcbe2124	-0.023209162
203	0x3c7efe6e	0.01556359
204	0xbb6b112f	-0.0035868397
205	0x3cbae943	0.022816306
206	0x3b3dc2d5	0.002895524
207	0xbcafa179	-0.0214393
208	0xbc43cb05	-0.011950259
209	0xbc4a6bfe	-0.012354849
210	0x3b12671e	0.0022339295
211	0x3d2604a0	0.040531754
212	0xbc9ccdea	-0.019141156
213	0x3d1b0447	0.037845876
214	0xbd04a19a	-0.032380678
215	0xbbfb2bf1	-0.0076651503
216	0x3cfa59e4	0.030560441
217	0xbcc28d23	-0.02374894
218	0x3c9916bb	0.018687597
219	0xbcaaf5e7	-0.020869208
220	0xbca579c8	-0.020199671
221	0xbd1ddcbf	-0.038540598
222	0xbc92bb6a	-0.017911632
223	0x3d260423	0.04053129
224	0xbcad07f5	-0.021121958
225	0xbbd673eb	-0.00654458
226	0x3c8bad1e	0.017050322
227	0xbd19acf0	-0.03751844
228	0x3d1df4a4	0.038563386
229	0xbd03ae32	-0.032148547
230	0xbc7d1100	-0.015445948
231	0xbc1a1156	-0.009403547
232	0xbb08822b	-0.002082954
233	0xbb60e680	-0.0034317076
234	0x3cd1a408	0.025590912
235	0xbd202d68	-0.039105803
236	0xbcbdafad	-0.023155058
237	0x3bd0aa10	0.0063679293
238	0xbc6feb67	-0.014643527
239	0xbd16b9f9	-0.03679845
240	0xbccdc0fc	-0.025116436
241	0xbc065df6	-0.008201113
242	0xbcd34f26	-0.025794577
243	0xbd1642d9	-0.036684845
244	0x3c385ce2	0.011252614
245	0xbd02a184	-0.031892315
246	0x3cf224ff	0.029558657
247	0x3b9df080	0.0048199296
248	0x3d23a9cd	0.039956857
249	0xbd06cf65	-0.03291263
250	0x3c2178b7	0.009855441
251	0xbd01133a	-0.031512477
252	0x3d05b9e0	0.032647967
253	0x3d1afe36	0.03784009
254	0xbcc2d295	-0.023782054
255	0xbcb98aa2	-0.022649113

convolutions.4.bias f4 [64]
0	0xbd0af039	-0.0339205
1	0x3c62c87d	0.013841745
2	0xbc7feef9	-0.01562094
3	0xbd2f7cc8	-0.04284361
4	0x3b893862	0.0041876296
5	0xbc4934d0	-0.012280658
6	0xbc9227d9	-0.017841266
7	0x3bfba868	0.0076799877
8	0x3c93cc81	0.018041851
9	0xbd0aa4c8	-0.033848554
10	0x3c56953d	0.013097105
11	0xbca85cb0	-0.02055201
12	0x3c62efa4	0.01385108
13	0x3c761d63	0.015021655
14	0x3c403423	0.01173118
15	0xbcf4a93d	-0.029865855
16	0x3c078e85	0.008273725
17	0xbc469f8a	-0.012122998
18	0xbc74c613	-0.014939803
19	0x3b7e0798	0.003876185
20	0x3ca01af5	0.019544104
21	0x3c8bc0ea	0.017059762
22	0xbc536208	-0.01290179
23	0xbd2a8b75	-0.041636903
24	0x3c633f29	0.013870039
25	0xbd0758af	-0.03304356
26	0x3d1bf03a	0.038070895
27	0xbc9d759d	-0.019221121
28	0x3c8ade47	0.016951693
29	0xbcba151b	-0.022715142
30	0x3c18410b	0.009292851
31	0x3d2e29fe	0.042520516
32	0x3886c000	6.425381e-05
33	0x3d19a452	0.037510224
34	0x3d42f20c	0.047594115
35	0x3b94d1c2	0.0045416066
36	0x3cc00239	0.02343856
37	0x3ca36005	0.019943247
38	0xbc4ae06e	-0.01238261
39	0x3c52e347	0.01287157
40	0xbd219c8b	-0.03945593
41	0x3c10f977	0.00884854
42	0x3cfa7f4f	0.030578284
43	0xbcfce691	-0.030871661
44	0x3c694c0d	0.014239323
45	0x3c8d7f6b	0.017272672
46	0x3d040023	0.032226693
47	0x3cb9b9c7	0.022671593
48	0x3cdedfb4	0.02720628
49	0x3c8d8480	0.017275095
50	0xbc19ea4a	-0.009394238
51	0x3cc30f34	0.02381096
52	0xba749b3a	-0.0009330992
53	0x3d537575	0.051625688
54	0xbb6517f9	-0.0034956916
55	0xbd22f2d2	-0.039782353
56	0x3a233a41	0.0006226637
57	0x3c9df338	0.019281015
58	0x3cbd05fd	0.023074144
59	0x3d1848fa	0.03717897
60	0xbd0ce07f	-0.034393784
61	0xbcabf90b	-0.020992776
62	0x3ce10a00	0.027470589
63	0x3d14b974	0.036309674

convolutions.6.weight f4 [64, 64, 3, 3]
0	0xbc0f05f6	-0.008729449
1	0x3ca71146	0.020393979
2	0xbba161b6	-0.004924978
3	0xbd17aa9b	-0.037027936
4	0x3c124b00	0.008929014
5	0x3d0ba82a	0.03409592
6	0xbaefa500	-0.0018283427
7	0x3cb9c36e	0.022676196
8	0xbd0a2ef8	-0.0337362
9	0xbd1ab930	-0.037774265
10	0x3cb3f47e	0.021967169
11	0xbcad021b	-0.021119168
12	0x3ba1b200	0.0049345493
13	0xbd122b3b	-0.03568576
14	0xbbecfe16	-0.007232438
15	0xbc24c4c6	-0.01005668
16	0xbced20c8	-0.028946295
17	0x3cfa3d2b	0.030546745
18	0xbd128864	-0.035774603
19	0x3c36febb	0.011169131
20	0xbb2225eb	-0.002474184
21	0xbd0ff1ef	-0.035142835
22	0xbccba0eb	-0.024857005
23	0xbcddcb33	-0.027074432
24	0xbd21800b	-0.039428752
25	0xbccc6493	-0.024950301
26	0xbcb68d76	-0.02228425
27	0x3cbc7e3b	0.02300941
28	0x3ca54796	0.020175736
29	0xbcca2af8	-0.024678692
30	0xbcf03af6	-0.02932499
31	0x3d17efba	0.037093855
32	0x3c8a3af8	0.016873822
33	0x3a9e3300	0.0012069643
34	0xbd1b59bc	-0.037927374
35	0x3d297496	0.04137095
36	0xbc8c1a6e	-0.017102446
37	0x3c1a1246	0.009403771
38	0xbbab824b	-0.005234038
39	0x3c286370	0.010277614
40	0x3b8f916b	0.004381349
41	0x3d1a6404	0.03769304
42	0xbcec5c88	-0.028852716
43	0x3d28649a	0.041111566
44	0x3c3405bb	0.010987694
45	0xbd01c117	-0.031678285
46	0x3cf48b80	0.029851675
47	0xbd02f6a6	-0.031973504
48	0xbd0febe6	-0.03513708
49	0x3d239976	0.039941274
50	0x3d04850a	0.03235344
51	0x3ccd1a48	0.025036946
52	0xbc755a50	-0.014975145
53	0x3c443066	0.01197443
54	0xbc731820	-0.014837295
55	0xbd086fab	-0.03330962
56	0xbd152e9a	-0.036421396
57	0xbb9ccd6b	-0.00478523
58	0x3bd3c116	0.0064622266
59	0x3c130940	0.008974373
60	0x3d217390	0.03941685
61	0x3be89a76	0.0070984913
62	0xbc329650	-0.010900095
63	0xbcd9f00e	-0.026603725
64	0x3bf913eb	0.0076012514
65	0xbce82166	-0.028336238
66	0x3cc24fd6	0.02371971
67	0x3d03426b	0.032045763
68	0x3cfc7313	0.03081659
69	0xbc5ae26b	-0.013359646
70	0xbc0c3466	-0.008557415
71	0xbbba7c8b	-0.005691116
72	0x3c37a306	0.011208301
73	0xbd208cbc	-0.039196715
74	0xbca75ece	-0.020430949
75	0xbcc39266	-0.02387352
76	0x3cb56000	0.022140503
77	0x3d124cda	0.035717823
78	0xbd29f87e	-0.041496746
79	0xbc5b69db	-0.013391937
80	0xbd1187a0	-0.035529733
81	0x3d17f2b3	0.03709669
82	0xbbc39916	-0.005969177
83	0x3cf7e7f0	0.030261964
84	0xbcb5658b	-0.022143146
85	0x3baac440	0.005211383
86	0x3c95c338	0.018281564
87	0x3d25c6da	0.040472843
88	0x3d284e7b	0.04109047
89	0x3cbf447e	0.02334809
90	0x3ca01f13	0.019546067
91	0x3c1d2c16	0.00959303
92	0x3d24e9e0	0.040262103
93	0xb86a0aab	-5.5799883e-05
94	0xbc9bf06b	-0.019035539
95	0x3cdc3798	0.026881978
96	0xba0cad00	-0.0005366355
97	0x3cd3205b	0.025772264
98	0x3d0b4977	0.03400561
99	0xbd006f98	-0.031356424
100	0xbcbd0fe3	-0.023078864
101	0x3c284a30	0.010271594
102	0x3d255250	0.040361702
103	0xbc039840	-0.008031905
104	0x3c17c206	0.009262567
105	0xbd29fe3b	-0.04150222
106	0x3ad2d3d6	0.001608486
107	0xbd1afdee	-0.037839822
108	0xbc946b58	-0.018117592
109	0xbd22aeab	-0.039717358
110	0x3cae9490	0.021311074
111	0xbcf32dcb	-0.029684922
112	0x3cf973f3	0.030450797
113	0x3c2a644b	0.010399888
114	0x3c8dc968	0.017307952
115	0x3d0de2a2	0.034639962
116	0x3c40ba2b	0.011763136
117	0xbca7328e	-0.020409849
118	0x3c66ca96	0.014086386
119	0xbcfa0aee	-0.03052279
120	0xbcd19273	-0.025582528
121	0x3cd87088	0.026420847
122	0x3d005422	0.031330235
123	0x3d27251a	0.040806867
124	0xbc571200	-0.01312685
125	0x3bbd7420	0.0057816654
126	0x3c11f93b	0.008909519
127	0x3c9fb440	0.01949513
128	0xbd0a61c3	-0.03378464
129	0x3c364726	0.011125362
130	0x3bab9600	0.0052363873
131	0x3cca56b8	0.024699554
132	0x3d288d92	0.041150637
133	0x3c99864e	0.0187408
134	0x3c21afd6	0.009868583
135	0xbc56cd46	-0.013110464
136	0xbd118fe8	-0.03553763
137	0xbd220b56	-0.039561592
138	0xbc099ca6	-0.008399164
139	0x3b1068eb	0.0022035192
140	0x3c83c658	0.016085789
141	0x3c748446	0.014924115
142	0xbcdcb12b	-0.026939949
143	0x3cbe8540	0.023256898
144	0xbb4f4e80	-0.0031632483
145	0xbd242254	-0.0400718
146	0xbc7ac2e6	-0.0153052565
147	0x3c91e25b	0.01780813
148	0x3d1c3d32	0.038144298
149	0xbb9e48ab	-0.00483044
150	0x3b8f3076	0.0043697907
151	0xbc0f36e0	-0.008741111
152	0xbc501dd0	-0.01270242
153	0x3d131b0e	0.035914473
154	0xbcebcc80	-0.028784037
155	0xbc2e8e3b	-0.010654028
156	0xbd189c7f	-0.03725862
157	0xbb135380	-0.002248019
158	0xbc186556	-0.009301504
159	0xbd1f0c17	-0.03882989
160	0x3d2a7cb8	0.041622847
161	0x3ccd137b	0.025033703
162	0x3c8bad28	0.01705034
163	0xbc29d16b	-0.010364871
164	0xbc8a4233	-0.01687727
165	0xbd285e46	-0.04110553
166	0xbca1fd3b	-0.01977407
167	0xbcf770c3	-0.030205136
168	0x3c8c5c53	0.017133867
169	0x3ce5f7e0	0.028072298
170	0xbd0aa90e	-0.03385263
171	0x3c66e89b	0.014093543
172	0x3d1391aa	0.036027588
173	0xbd28befc	-0.041197762
174	0x3bfaaf76	0.007650311
175	0xbc3c7cdb	-0.011504377
176	0x3ca0ac90	0.019613534
177	0xbcc1dd68	-0.023665145
178	0xbcad7186	-0.021172296
179	0xbb38e080	-0.0028209984
180	0xbd224674	-0.03961797
181	0x3cd2426e	0.025666442
182	0xbcd94c78	-0.026525721
183	0x3d1e6e7a	0.038679577
184	0x3cc225ab	0.023699602
185	0x3bb2bf00	0.005454898
186	0xbd01d207	-0.03169444
187	0xbd179414	-0.037006453
188	0xbce9d4db	-0.02854388
189	0x3ce5c5e8	0.02804847
190	0x3b72ac00	0.003702879
191	0xbd119c9a	-0.035549738
192	0x3d02f9eb	0.03197662
193	0x3c8ac763	0.016940778
194	0x3b6225d6	0.0034507415
195	0x3cad5c23	0.021162098
196	0x3c3249b0	0.010881826
197	0x3c1e4740	0.009660542
198	0xbd1b1ab6	-0.03786727
199	0x3d27f182	0.041001804
200	0x3c89bab3	0.016812658
201	0x3c655ef6	0.013999691
202	0xbb8a2f60	-0.0042170733
203	0x3cfc1710	0.030772716
204	0x3cc55678	0.024089083
205	0xbbde2ccb	-0.006780242
206	0x3c1551e6	0.009113764
207	0x3c0966e0	0.008386344
208	0xbc668ea6	-0.014072096
209	0xbc6ed0f0	-0.014576182
210	0x3b96f780	0.004607141
211	0x3caa24ee	0.020769563
212	0xba85dbab	-0.0010212561
213	0xbc7244b0	-0.014786884
214	0x3d02c316	0.03192433
215	0xbc2e1ba6	-0.010626709
216	0xbcecb60b	-0.028895399
217	0xbc7b473b	-0.015336807
218	0x3d21242b	0.039341133
219	0x3cce0ade	0.025151666
220	0xbbaf5800	-0.0053510666
221	0xbcc6e8c8	-0.02428092
222	0xbd01669b	-0.031591993
223	0x3c161230	0.00915961
224	0xbc49c4e0	-0.012315005
225	0x3d235f3f	0.039885756
226	0xba948d56	-0.0011333625
227	0x3d0f28bb	0.034950953
228	0xbd120006	-0.035644554
229	0x3d0ecc5b	0.034862857
230	0xbb8eb7cb	-0.004355406
231	0x3d060ecf	0.032728966
232	0x3ce1b3b6	0.027551513
233	0x3c45f5d0	0.012082532
234	0x3cea9e43	0.028639918
235	0x3d24f86e	0.040275984
236	0x3c6c9650	0.014440134
237	0xbc54f330	-0.012997434
238	0xbca5da80	-0.02024579
239	0x3bb488f6	0.005509491
240	0x3d1330af	0.0359351
241	0xbcb208c8	-0.021732703
242	0x3cff31b8	0.031151637
243	0xbc330c90	-0.010928288
244	0x3cf100fe	0.029419418
245	0x3820c556	3.8330756e-05
246	0xbcd636db	-0.026149204
247	0x3bcfb10b	0.006338244
248	0xbd03dcfa	-0.03219316
249	0xbd141214	-0.036150053
250	0x3cea1c90	0.028578073
251	0xbba4700b	-0.0050182394
252	0x3c465000	0.012104034
253	0xbcb1b856	-0.021694344
254	0xbcb668e8	-0.02226682
255	0xbc97a356	-0.018510502

convolutions.6.bias f4 [64]
0	0xbd16caff	-0.036814686
1	0x3d011ac6	0.031519674
2	0xbd20c558	-0.0392507
3	0xbd0061f2	-0.031343408
4	0xbc971114	-0.01844076
5	0x3cfd3283	0.030907875
6	0x3ce9690b	0.028492471
7	0x3d22c3ed	0.03973763
8	0x3d124501	0.03571034
9	0x3ceecd31	0.029150577
10	0xbd00fc1b	-0.031490427
11	0x3d37c52b	0.04486577
12	0x3cefb6b6	0.029261928
13	0xbd0ba092	-0.03408868
14	0xbce149ca	-0.027501006
15	0x3bd1d3e4	0.006403433
16	0x3c31279c	0.010812666
17	0x3c3df26e	0.011593444
18	0xbb58a424	-0.003305682
19	0x3cdf8574	0.027285315
20	0xbc863636	-0.016383272
21	0x3d0d8aba	0.034556128
22	0x3c91db95	0.0178049
23	0x3d1fecdf	0.039044257
24	0xbcfe843e	-0.031068917
25	0xbd0ef360	-0.03490007
26	0x3bc80fe2	0.006105409
27	0xbba424c2	-0.0050092647
28	0xbcc94248	-0.024567738
29	0xbab57dda	-0.0013846711
30	0x3cca7336	0.02471314
31	0xbc1f24e2	-0.009713383
32	0x3cde4963	0.027134603
33	0x3d2392f4	0.039935067
34	0x3c975f4f	0.018478064
35	0x3d4d2566	0.050084494
36	0x3d0ab475	0.033863503
37	0x3cdcfe9f	0.026976882
38	0x3d0c1bcf	0.034206208
39	0xbbfc1710	-0.007693179
40	0xbc848058	-0.01617448
41	0xbd01ca6c	-0.031687185
42	0x3d07c393	0.0331455
43	0x3c73821e	0.014862565
44	0x3c52eb3f	0.01287347
45	0xbbdc2256	-0.0067179604
46	0xbcc9bd42	-0.024626378
47	0x3c8d7904	0.017269619
48	0x3cc4737b	0.023980847
49	0x3d2215d3	0.039571594
50	0xbced9b17	-0.029004617
51	0xbcc640d8	-0.024200842
52	0x3c118245	0.008881156
53	0xbd1520c1	-0.03640819
54	0x3ccddfc7	0.02513112
55	0xbc22769b	-0.009915973
56	0x3ccbbcd7	0.02487032
57	0xbd3b3b25	-0.0457107
58	0x3d163a73	0.036676835
59	0x3d157605	0.036489505
60	0xbcf801fb	-0.030274382
61	0x3b8e6077	0.0043449956
62	0xbcb969b4	-0.022633411
63	0xbcc1d76c	-0.023662291

reconstruction.weight f4 [4, 64, 3, 3]
0	0xbcd6ead0	-0.026235014
1	0xbceb7a4e	-0.028744843
2	0x3b4db600	0.0031388998
3	0xbca92066	-0.020645332
4	0x3d1fc8db	0.03900991
5	0x3cfb82a0	0.030701935
6	0xbadbf92b	-0.0016782632
7	0x3c347516	0.011014244
8	0xbcdd715b	-0.027031591
9	0x3d3124f0	0.043248117
10	0xbd0046fb	-0.031317692
11	0xbb7166a8	-0.003683487
12	0xbc6e6901	-0.014551402
13	0xbd015b84	-0.031581417
14	0x3d34be83	0.044127
15	0x3ce54991	0.02798918
16	0x3c81a463	0.015825456
17	0x3d0cc9c6	0.034372114
18	0xbce30c9b	-0.027715972
19	0x3a94a22b	0.0011339834
20	0xbccc8827	-0.024967266
21	0x3c488b5e	0.012240259
22	0x3ccc718b	0.024956485
23	0xbcf803f3	-0.03027532
24	0x3cc00abe	0.023442622
25	0xbd08f447	-0.033436086
26	0x3ca06b12	0.019582305
27	0x3c4749cb	0.01216359
28	0xbb117300	-0.002219379
29	0xbc92cd9b	-0.017920306
30	0x3cd49270	0.025948733
31	0xbd08082b	-0.033210915
32	0xbb75fc40	-0.0037534386
33	0x3d294eb4	0.041334823
34	0xbc8c98b3	-0.017162656
35	0xbd0961f4	-0.03354068
36	0xbcd3c28d	-0.025849605
37	0xbcf73ad5	-0.03017942
38	0x3b21d1ba	0.0024691657
39	0xbcc62141	-0.024185779
40	0xbd24fabd	-0.040278185
41	0xbd076d4d	-0.03306322
42	0xbc2e1095	-0.010624071
43	0x3c8fa8e5	0.01753659
44	0x3c1287a0	0.008943468
45	0xbc855a35	-0.016278366
46	0x3d300ae0	0.04297912
47	0xbcf983a7	-0.030458285
48	0xbc585fa4	-0.013206396
49	0xbb213748	-0.00245996
50	0x3d266d94	0.040631846
51	0xbcf346c3	-0.029696828
52	0x3c5f66e2	0.013635369
53	0xbcfcb7d2	-0.030849371
54	0xbcea77fc	-0.028621666
55	0xbcb2ddb8	-0.02183424
56	0x3bd3eb3f	0.0064672525
57	0xbcd86491	-0.026415141
58	0xbc97e2e2	-0.018540803
59	0x3c685632	0.014180707
60	0xbcb8fc72	-0.022581313
61	0xbca9122e	-0.020638552
62	0x3ba7f17b	0.0051252223
63	0x3cf76cff	0.03020334
64	0xbd0b4096	-0.03399714
65	0x3c101f5b	0.008796538
66	0x3ca4903f	0.020088313
67	0x3ba1707a	0.0049267383
68	0x3ca273d2	0.019830618
69	0x3d1de72a	0.038550533
70	0x3bdda302	0.006763817
71	0x3cfb0ade	0.03064483
72	0x3d1afcea	0.037838854
73	0x3ca1cd91	0.019751342
74	0xbbcd104b	-0.006258046
75	0x3d076639	0.03305647
76	0xbcb04e22	-0.021521632
77	0xbca5a7f9	-0.020221697
78	0x3bd2aaae	0.006429038
79	0xbd0c9995	-0.034326155
80	0xbcbfe206	-0.023423206
81	0xbce717b4	-0.028209545
82	0x3cf792a9	0.0302213
83	0x3cdef3b5	0.027215818
84	0x3ccaa5d4	0.024737276
85	0x3d110cb7	0.035412516
86	0x3c7b226b	0.01532803
87	0xbc3f033a	-0.011658484
88	0xbcee3975	-0.029080132
89	0xbbc8a3a4	-0.006123023
90	0xbc99d411	-0.018777879
91	0xbc9c7ede	-0.019103464
92	0x3bc04dd0	0.005868651
93	0xbca86d1c	-0.02055984
94	0xbb2a51e6	-0.0025988757
95	0xbcb986ca	-0.02264728
96	0xbca805f0	-0.020510644
97	0x3d1d8317	0.038455095
98	0x3d14872c	0.036261722
99	0x3cd904f8	0.026491627
100	0xbcd4d828	-0.025981978
101	0x3b796941	0.003805712
102	0xbc9e48ed	-0.019321883
103	0xbce1936e	-0.02753612
104	0x3d03c6db	0.032172065
105	0xbcf4431a	-0.029817153
106	0xbcc41750	-0.023936898
107	0x3b8051e7	0.0039160135
108	0x3d2002c0	0.039065123
109	0xbcc56678	-0.024096712
110	0xbd0b3ef7	-0.033995595
111	0x3c13445b	0.008988465
112	0xbd06e2d9	-0.032931183
113	0x3c340335	0.010987093
114	0xbc2796c7	-0.010228819
115	0x3d34f063	0.044174563
116	0xbc722a13	-0.014780539
117	0xbc9ab012	-0.018882785
118	0xbbe9507f	-0.0071201916
119	0x3c9ef94e	0.019405987
120	0xbcc87b32	-0.024472807
121	0x3cc64155	0.024201075
122	0x3cc1c5ee	0.02365395
123	0xbc7ee6b9	-0.015557938
124	0xbcc650b5	-0.024208406
125	0x3b89a273	0.0042002737
126	0xbd14ac69	-0.036297236
127	0x3c5ab781	0.013349415
128	0x3c94e487	0.018175377
129	0xbb2b3a0a	-0.0026127123
130	0xbc9f8758	-0.019473717
131	0xbd1734e6	-0.036915682
132	0x3d1d13a9	0.038348828
133	0x3a16186d	0.00057256856
134	0xbd22fbd3	-0.03979094
135	0x3cf6bfcd	0.030120755
136	0xbc32bd8b	-0.010909448
137	0x3c277f0e	0.010223163
138	0x3cd6997f	0.02619624
139	0xbc7d4aaf	-0.0154597005
140	0x3d120ba0	0.035655618
141	0xbc59321f	-0.013256579
142	0x3d179367	0.03700581
143	0x3c783be1	0.015150995
144	0xbc64e984	-0.01397169
145	0x3cc4f595	0.024042884
146	0x3b4dc752	0.0031399322
147	0x3d0a5605	0.03377344
148	0x3c8e9967	0.017407132
149	0xbc98ab5f	-0.018636404
150	0xbb8d961c	-0.004320873
151	0x3c0d6c66	0.008631801
152	0x3d28b15e	0.041184776
153	0x3c6deebd	0.014522252
154	0x3d35f329	0.04442135
155	0xbcfa62c3	-0.030564671
156	0x3d3110e8	0.043229014
157	0x3bf1526b	0.0073645613
158	0x3aa41fb9	0.0012521661
159	0xbc86a8a8	-0.016437843
160	0x3caac7d2	0.020847235
161	0x3c63939b	0.013890172
162	0x3d0a916f	0.033830103
163	0xbc97b188	-0.01851727
164	0x3cfba505	0.030718336
165	0x3bd4f164	0.0064985026
166	0xbd025bd3	-0.03182585
167	0xbd056b40	-0.032572985
168	0xbce2f9ca	-0.027707
169	0xbd1e65b8	-0.038671225
170	0x3c9f2193	0.01942519
171	0xbb667a08	-0.003516795
172	0xbc050c84	-0.00812066
173	0x3c8a4d83	0.016882664
174	0xbc2c59af	-0.010519429
175	0xbbecc5ff	-0.0072257514
176	0x394f470d	0.00019767527
177	0x3cf0d834	0.029399969
178	0x3ce08e7d	0.027411694
179	0x3b70a026	0.003671655
180	0xbbfe3a2b	-0.007758399
181	0xba3c4356	-0.00071816647
182	0x3c8eba2e	0.017422762
183	0x3cecc216	0.028901141
184	0xbd1bcae0	-0.038035274
185	0xbd2aa232	-0.041658588
186	0xbd20c65b	-0.039251667
187	0xbcab02e0	-0.020875394
188	0xbb921ac0	-0.0044587553
189	0xbb30ebe5	-0.0026996073
190	0x3d227886	0.03966572
191	0xbc3949af	-0.011309071
192	0xba91e126	-0.0011129722
193	0x3d011af2	0.031519838
194	0x3c14b93b	0.0090773655
195	0x3cb0b980	0.021572828
196	0xbcee3e13	-0.029082334
197	0xbc2b2cb1	-0.010447667
198	0x3d1482eb	0.036257666
199	0x3beeeccf	0.0072914134
200	0x3ce28caa	0.027654964
201	0x3d1ecc13	0.03876884
202	0x3d061f35	0.032744605
203	0xbb1dc021	-0.0024070817
204	0x3bc7b002	0.00609398
205	0xbc9170ae	-0.017753925
206	0xbbf0ccd7	-0.0073486376
207	0x3cc53c72	0.024076674
208	0xbc086112	-0.008323925
209	0x3cfa1fdf	0.030532775
210	0x3c64e277	0.013970009
211	0x3bcd375e	0.006262704
212	0xbcd905aa	-0.026491959
213	0x3cfca114	0.030838527
214	0x3bfa69a3	0.0076419874
215	0x3d0e8ca8	0.03480211
216	0x3cebb4a3	0.028772658
217	0x3c534464	0.012894724
218	0x3ce78bfc	0.028264992
219	0x3c238677	0.009980789
220	0xbd2829f5	-0.04105564
221	0xbcf7bdff	-0.030241964
222	0xba351c85	-0.0006908852
223	0xbcf4d7ad	-0.029887998
224	0xbad7fd64	-0.0016478715
225	0xbb78e7cb	-0.0037979956
226	0x3d1d6b4b	0.0384324
227	0x3bd5bdc2	0.006522865
228	0x3cf993ea	0.030466039
229	0xbd13c794	-0.036079004
230	0x3d0fb278	0.03508231
231	0x3c8ee68b	0.017443916
232	0x3d201342	0.039080866
233	0xbd147454	-0.03624375
234	0x3c898f27	0.016791893
235	0x3c5e6c60	0.013575643
236	0xbcb18a9b	-0.021672538
237	0x3c17cdae	0.009265346
238	0x3d1f843f	0.03894448
239	0x3cc2d24a	0.023781914
240	0xbcd5835a	-0.02606361
241	0x3cef3091	0.029197963
242	0xbc30bb18	-0.010786794
243	0x3b135ccb	0.002248573
244	0x3c508509	0.012727031
245	0x3c337b6b	0.010954718
246	0xbd011ca2	-0.031521447
247	0x3a9a75fa	0.0011784427
248	0x3ccac381	0.024751427
249	0xbd14f51e	-0.036366574
250	0xbc75ab3b	-0.014994438
251	0x3d21866f	0.039434846
252	0xbd113142	-0.035447367
253	0xbc922f13	-0.017844712
254	0x3d2fef57	0.04295286
255	0x3cf477c5	0.029842267

reconstruction.bias f4 [4]
0	0x3c30d63d	0.010793266
1	0xbd04dac4	-0.032435194
2	0x3d185d2a	0.037198223
3	0xbc516699	-0.012780809
