decomposition/simple_retinex_model/weights_last.pt (torch, 668167 bytes, 24 tensors)

feature_extraction.weight f4 [64, 3, 9, 9]
00000000: 2de9 9dbb 3bfd 103d 8e05 68bc 3d78 17bd
00000010: 1d93 2b3d 600f 3c3d 3e7c c6bc 6178 1abd
00000020: a8b1 1cbd a9fe d0bc 76c9 8fbc 2e0a 1ebd
00000030: cc53 64bd 00cf 27bc e870 3ebd 33f5 adbc
00000040: be92 3bbd 783e 033d b516 61bb a443 1b3c
00000050: 39d4 393c 0c5b 0a3c 1e01 2abd 0ca9 a53b
00000060: e953 3ebd 354d 9dbc 8a1b 1ebc 871e 04bd
00000070: 2cc0 4d3d 220d bb3c 98e9 1b3c 454f c33c
00000080: 35c2 3abd 6209 503d bf63 68bd dba9 7abd
00000090: 2fb7 72bd cac8 27bd d574 183d b25d 71bb
000000a0: 5552 b9bb 46bf f93b f30e 81bd 3944 0ebd
000000b0: d35e de3c 3e1b ffbc 6b44 a13c d8e0 6cbd
000000c0: dedc 73bd 3792 183d 2018 32bd 747e 1abd
000000d0: 039c 703d eec7 8cbc 5ee5 363c 4fe2 7e3d
000000e0: 7640 11bd a100 7a3d 4da8 f43b f424 5dbd
000000f0: 5668 6ebd 0163 753d 71bd 25bd 02ef 92bb
00000100: 9901 6bbd dac3 2bbd 9627 9c3b 8583 4f3c
00000110: a051 11bd 987c 82bc 1b54 bbbb 5e7c 543b
00000120: c774 df3c aa4d 3ebd 30f8 dbbc 788f 5b3d
00000130: e33c 07bc 1a7f 583d 2278 07bd 3130 09bd
00000140: 94bf 0e3b 282f d6bc 686a a2bb 5a5b 9f3a
00000150: 1428 43bc a30d 953c db5e f8bc da03 c7bc
00000160: 92b8 0ebd f1f4 d73c 5ba8 043c a9ca 55bd
00000170: 55c5 36bd 4f35 1fbc 3573 293d 9562 b2bb
00000180: 5588 f0bc dbf0 02bc b30d 363d 838f bf3c
00000190: b40e 3a3d 00d8 c5bb 57e7 4ebd e2fd 563d
000001a0: b8d4 14bd 2fca cb3c 982d 523d edeb ee3c
000001b0: 8cad 57bd 5d54 59bd f4c2 2e3d a833 5abc
000001c0: e006 11bd 6c62 9839 703b f7bb 7231 96bc
000001d0: 21a6 3b3d 2901 3abd cbaf 5dbc 3bf8 763d
000001e0: 4ffd 5cbc afc6 443d 2cb0 293c e85d 1b3d
000001f0: ffc6 a43c 231b 773c a751 1e3d 2220 79bd
00000200: aba0 7bbd 6787 8d3c 8f26 3bbb 294b 42bc
00000210: d844 6cbd ba96 813c eea7 ac3c c56c 29bd
00000220: 7df8 4ebc 58dd cb3c 1790 603d 0525 3a3d
00000230: c12a 523d 2de4 1a3d 69a7 75bc e2d7 21bb
00000240: 0cbd 4e3d d13b 16bd ab68 04bd 7e1b 5b3d
00000250: 975d 6cbd c881 65bd fb5e 83bd 88d6 583d
00000260: 605e abba a4ab 213d 255b 58bd f1d5 fcbb
00000270: 7d94 ea3c 1dca 14bd 97f2 c2bc 8697 3bbd
00000280: b76f a43a 9c03 7e3c 5b6e 7ebd aeda 2a3d
00000290: 1035 82bd ca86 e2bc ee52 46bd dc6d 0e3d
000002a0: 6938 4b3d af98 dcbc b2e3 443d afac 523d
000002b0: 88c4 9d3c 43af 323d 77be cfbc a339 db3c
000002c0: 4a49 87bd b328 5fbc 2b76 70bc 984b 65bc
000002d0: f1ac 243c 58fc 4dbb 1ba1 cdbc e1af 3bbd
000002e0: 85fc 0d3d 5b8e 183d 068e 05bc 22a0 0f3d
000002f0: 756b 723d c5a2 2abd ea3d 4dbd cbf2 febc
00000300: 63cb e63c b2a6 a7bc 5d1b 233d eaaf a03c
00000310: 5941 0cbd a866 de3c efca 05bd 84d5 7ebd
00000320: 8a56 c83c 4f06 35bd fb7b 45bd e1b5 3b3d
00000330: d4c4 a3bc 30a0 20bd 8821 73bd 3bfd 50bd
00000340: c538 86bd 5baf 2ebd e74e c83c 51df 253d
00000350: 959f d7bc a082 573d 1dd2 6ebd 5bf2 35bd
00000360: b060 5bbc b847 61bd 3539 1c3d 1953 11bd
00000370: 7c9a 48bd 5b76 b53c 4fac 433d 50f6 77bd
00000380: 4de6 e4bc 1d0f 723d ba10 77bd 4648 be3c
00000390: 40f9 35bd 462d 78bd 1cc5 663d 50b4 4b3c
000003a0: 7fb8 febc 84bd 2abd 6473 853c 6542 83bc
000003b0: d8d3 2dbd 0ad0 e23c 53d0 27bc 2412 513c
000003c0: fb3d 0f3d ec21 24bd c870 c3bc c2b4 4e3d
000003d0: 338b 513d 779e 85bc 2668 9abc 3333 bfbc
000003e0: 00e2 69bd 3358 853c 202d 63bc 56ad 183d
000003f0: cd89 eb3c 4f55 27bc d6c1 2a3d 9ebf 56bc
-0.0048190565 0.03539775 -0.014161481 -0.036979903 0.041888345 0.0459131 -0.024229165 -0.03771246
-0.038255364 -0.025512056 -0.017552119 -0.038583927 -0.055743977 -0.010242224 -0.046494395 -0.021235084
-0.04579424 0.032041997 -0.003434581 0.009476576 0.011342102 0.008444559 -0.04150497 0.0050555523
-0.04646674 -0.019201854 -0.0096501205 -0.032255676 0.050232098 0.02283341 0.009516142 0.02384151
-0.045595367 0.0507902 -0.05673575 -0.061197143 -0.05925673 -0.04096297 0.037220795 -0.0036829528
-0.0056555667 0.0076216785 -0.063016795 -0.03473303 0.027144825 -0.03114092 0.019685945 -0.057831615
-0.059536807 0.037248816 -0.04348004 -0.03771825 0.058742534 -0.017185178 0.011163084 0.062227543
-0.035461865 0.061035756 0.007466352 -0.05399032 -0.05820497 0.05990887 -0.04046387 -0.0044840584
-0.05737457 -0.041934825 0.004765461 0.012665634 -0.035478234 -0.015928552 -0.0057168133 0.0032422761
0.027277363 -0.046460785 -0.026851743 0.05360362 -0.008254263 0.05285559 -0.033073552 -0.033493225
0.002178167 -0.026145533 -0.0049565323 0.0012157962 -0.011911411 0.018194979 -0.030318668 -0.024293829
-0.03484399 0.026361914 0.00809678 -0.052195225 -0.044621784 -0.0097173 0.041369636 -0.005443881
-0.029361883 -0.007991995 0.04444666 0.023383861 0.04542418 -0.006037712 -0.05051359 0.052488215
-0.036335677 0.024876682 0.051313013 0.029165233 -0.05265574 -0.05305897 0.04266639 -0.01331798
-0.035406947 0.0002906503 -0.0075449273 -0.018334124 0.04581273 -0.045411263 -0.013530682 0.060295325
-0.013488128 0.048041042 0.010356944 0.037931353 0.02011442 0.0150821535 0.03865209 -0.06082166
-0.06143252 0.017276479 -0.0028556918 -0.01185874 -0.057682842 0.015818942 0.021076169 -0.041363496
-0.012632486 0.024885818 0.054824915 0.04544546 0.051310305 0.03781526 -0.014993527 -0.0024695327
0.050473258 -0.03667814 -0.03232638 0.053493015 -0.05770644 -0.056031972 -0.064146005 0.052938968
-0.0013074391 0.03947033 -0.052821297 -0.0077159335 0.028635258 -0.036325563 -0.023797316 -0.0457988
0.0012545501 0.01550379 -0.062116962 0.041712455 -0.06357777 -0.027652163 -0.04841893 0.03477274
0.049614344 -0.026928274 0.04806871 0.051434215 0.019258752 0.043624174 -0.025359375 0.026760882
-0.06605776 -0.013620543 -0.014676611 -0.013995074 0.010050998 -0.0031430926 -0.025101235 -0.045822028
0.03466465 0.037245136 -0.008151537 0.035064824 0.05918451 -0.041659135 -0.050107874 -0.031121632
0.028173154 -0.020465229 0.039821018 0.019615132 -0.034242008 0.02714856 -0.032664236 -0.062215343
0.024455328 -0.04419547 -0.04821394 0.04582775 -0.019991316 -0.039215267 -0.05935815 -0.05102275
-0.06553797 -0.0426477 0.024451686 0.040496174 -0.026321212 0.052614808 -0.05830585 -0.04442058
-0.013389751 -0.055000037 0.038140494 -0.03547964 -0.048975453 0.022151163 0.04777175 -0.060537636
-0.027941847 0.059096444 -0.060318686 0.023227822 -0.044427156 -0.06059005 0.056340322 0.012433127
-0.031093834 -0.041684642 0.016290374 -0.01602287 -0.042438358 0.027687091 -0.010242539 0.012760673
0.03497122 -0.040071413 -0.02385749 0.050465353 0.05115814 -0.016310913 -0.01884849 -0.023339843
-0.057100296 0.016277408 -0.013865739 0.03727468 0.028752232 -0.01021321 0.041688763 -0.013107209

feature_extraction.bias f4 [64]
00000000: 5d72 023d a6d0 893d 5966 d53c 2d69 e83c
00000010: ade7 913d aad9 7e3c 2515 75bd df03 d8bc
00000020: 8cbd 84bd a802 35bd 8492 503d ac42 8d39
00000030: f7ca e7bc cb16 2f3d ef19 2fbd 7ea5 84bd
00000040: ad28 2e3d cfa2 ca3b dd06 913d 5338 b9bc
00000050: e4c9 673c a605 89bd 7195 69bd 6d33 323d
00000060: 4dba 60bd d683 7d3d 7bf6 1b3d 55b1 df3c
00000070: 3f66 85bc 9e11 043d f318 04bb aea2 77bd
00000080: 5546 85bd bdbd 82bd 8b37 25bc 7ca6 bebc
00000090: a3a2 a23b f194 7fbd a4c5 92bd 3afa 87bd
000000a0: df47 303c 1f30 8a3d a973 3dbb eb06 16bd
000000b0: 9eb2 2abd c8be 153d 6188 763c 8732 fb3c
000000c0: 9968 633d 5adb 86bd 0524 563d 62cb 2dbc
000000d0: c8fd aa3b dff6 8fbd 6f9c 79bd d61a 543d
000000e0: bce5 873d 26e3 87bd 6c7a 1c3c 6581 90bc
000000f0: 464a 8a3c 48d4 373d 871e babc 76ec 633d
0.031847347 0.0672925 0.02604978 0.028370464 0.07124267 0.015554825 -0.059834618 -0.026369033
-0.06481466 -0.044191986 0.05092098 0.0002694329 -0.028295023 0.042746346 -0.04274934 -0.06476878
0.04251926 0.006183959 0.07081387 -0.022609865 0.014147256 -0.066905305 -0.057027284 0.043506075
-0.05486517 0.061893307 0.03807686 0.027306238 -0.016284106 0.032243364 -0.0020156472 -0.060457878
-0.065075554 -0.06383846 -0.010084043 -0.023272745 0.0049632355 -0.0623979 -0.07166603 -0.06639524
0.010759323 0.067474596 -0.002890805 -0.03662769 -0.04167425 0.036558896 0.015047164 0.030663742
0.055519674 -0.06584807 0.052280445 -0.010607572 0.0052182414 -0.07029509 -0.060940202 0.051783405
0.06635615 -0.06635122 0.009550672 -0.017639825 0.01688112 0.04488018 -0.022719635 0.05564543

convolutions.0.weight f4 [64, 64, 3, 3]
00000000: ee7c e03c 01df ab3b 5a8a e43c bb1f b93b
00000010: 0e25 c43c 5bd8 b1bc 3120 05bd 70de a8bc
00000020: 6bf8 11bc faea a6bc 56c8 a737 91d7 863b
00000030: 59a0 8c3c f6b5 913c d162 94bc 094c a7bc
00000040: 6486 8b3c d05e 833b 24a5 843a 6cec 883b
00000050: e8aa 3abc 3eda 22bc 0c93 ecbc be17 a73c
00000060: e236 053d 97e7 fbbc fcdc b43c fe66 80bc
00000070: 6934 3a3d cb60 323d c472 c3ba e66c 82bb
00000080: 1afc 313d 0f17 fdbc 51e5 2b3c dd91 843b
00000090: 9fe2 2d3c d275 ecbc c13c 1fbc 9002 cc3c
000000a0: 871a a53c eaff 6fb9 232e ce3c 6556 acbc
000000b0: 1f46 373d 8728 90bc 9884 1f3b 639e 1dbd
000000c0: 2b40 df3c c8a0 98bb a7d2 5abc 3b40 ddbc
000000d0: 054d d836 e26b 2f3d 7b13 85bb 54eb a03c
000000e0: eb95 5ebc b4cc 26bc 89fd 6a3c 484f 10bd
000000f0: e854 78bc 4e77 183d 57de 49b9 f8e3 5ebc
00000100: be6a 87bc c33c 603c 9be6 aabb e141 b13c
00000110: 8803 f2bb 8722 8f3c 3da8 003d 2620 f73b
00000120: 2b8a 273c 3557 10bd a9f8 0dbd 017b a63c
00000130: 3890 dd3c 7cbd 31bd e459 5a3c c580 a33c
00000140: fc17 2dbd 4fcd 0b3d 66e8 f9bb d8da 033d
00000150: 7d80 073d 3e5a 123d f64c 92bc 9dd1 d13a
00000160: a172 ebbc a764 b5bc fe6e 0b3d ceb0 05bd
00000170: c0a4 0b3d a573 edbc b11a 19bd 1ce9 21bd
00000180: d42b ca3c cd6d 18bc 5127 bf3b c444 313d
00000190: c445 c33c 5ed2 4fbb f7b7 f7bb b007 e5bc
000001a0: 54be 303b 12f1 a6bc 0804 df3c 45fa 153b
000001b0: 6a37 2bbd 8cdd 6b3c 5ac1 dfbb ad8c 16bd
000001c0: 7893 3dbc f1b5 193d a835 78bc 70c9 1bbd
000001d0: c35f d8bb 70d7 49bc 256a e7bc ab0e 40bc
000001e0: df15 bf3c 373a 00bd 1c05 103d 80b1 1b3d
000001f0: cfb1 5abc bac9 cebc a5f4 293c cd40 15bd
00000200: 093e e7bc 8291 9cbc fbb2 53bc 6d06 4cbc
00000210: 175f 07bd b04e 17bd ead5 35bd 62aa c0ba
00000220: 8822 ab3c 67f3 803c e179 68bc 8bfd cbbb
00000230: 4c29 c13c 9071 bc3c 6408 983c 8f15 8f3b
00000240: 2375 bf3c abee 753c e018 033d 5fd2 353d
00000250: d725 2e3d ace2 193d e6f6 31bc d785 f7bc
00000260: 3f50 e13c 692f 233d 4f30 2ebc 879d 0e3d
00000270: af7b 98bb 7704 b43c 0e2b cebc 5f95 2a3d
00000280: 46c2 bdbc 054a a83c 8d7c ae3b 5021 04bb
00000290: dd37 fcbc 0cde 143d 8b88 e03c 7a00 f13c
000002a0: bad8 e7bc 1076 a73c c254 2f3c c180 1cbc
000002b0: 56a8 29bc cfc6 0c3c 94f1 983c abf4 b53c
000002c0: af2f 18bd 7867 d23c 1157 22bc c8c5 763c
000002d0: d072 b03b 4bb1 d63c cfb1 123d 7f2d 013d
000002e0: 6c0d 28bd 1647 1a3c 335b 963c 595b 3c3c
000002f0: cc11 073d 2ca1 0a3d 72f4 cfbc 69d1 91bc
00000300: 110a 34bc 66ee b5bc 4b26 14bd 8608 a8bc
00000310: e559 cebb a8e1 2abd 80b7 d6bc 417d f8bc
00000320: cda7 1cbd 6d27 19bd c4dc babc 8dee bebb
00000330: 899d c3bc 186e 1a3d a06b e4bc b9e0 88bc
00000340: 7a87 81bb aa2c d63c 9b73 29bc cc09 093d
00000350: 8e36 b03c d4fe 0939 342e 0cbd 46e2 f53b
00000360: 8418 393c e75c e23c 5955 543c c764 80bb
00000370: 8efd 4cbd 930b 47ba 7ebf bebc 877a 1fbc
00000380: ac93 28bd c932 cbbc d86c 47bc 783c 1e3d
00000390: 0c0c cd3c ebf1 28bb 5a9b 1abd 88c2 0d3d
000003a0: c30a d43c 1426 4d3c 3e51 213c 8110 00bd
000003b0: 99c4 cbbc c86d 883c e132 ddbc 7241 62bc
000003c0: b57e 86bb 13b4 b73b 7e78 0d3d 1b08 b13c
000003d0: e65a c83b a437 fe3b bccd 073d ce55 ba3b
000003e0: 622d 4d3c e2d8 6b3c a91a e53c a73a 03bd
000003f0: da12 5cbc 64e5 5fbb 0412 c03c a854 27bd
0.027403321 0.00524509 0.027898002 0.0056495345 0.02394345 -0.021709612 -0.032501403 -0.020613879
-0.008909325 -0.020375717 2.000124e-05 0.004115053 0.017166303 0.017786961 -0.018113526 -0.020421999
0.017031856 0.0040091053 0.0010120017 0.0041785743 -0.011393286 -0.009939728 -0.028878711 0.020397063
0.032523043 -0.03075008 0.02207803 -0.01567411 0.04546014 0.04354934 -0.0014911522 -0.003980267
0.043453313 -0.030894784 0.010491685 0.0040457086 0.010613113 -0.028864775 -0.009719075 0.024903566
0.02015425 -0.00022888152 0.025168484 -0.02103729 0.044744607 -0.01759745 0.0024340507 -0.038481127
0.027252277 -0.0046578385 -0.0133558875 -0.027008167 6.446268e-06 0.042827494 -0.00406116 0.019643463
-0.013585548 -0.010180641 0.014342674 -0.03523186 -0.015156962 0.037223153 -0.00019251682 -0.013604157
-0.01653039 0.013686362 -0.0052154786 0.021637859 -0.007385675 0.017472519 0.031410445 0.007541674
0.010225813 -0.035239417 -0.03466097 0.020322325 0.027046308 -0.043393597 0.013327096 0.019958863
-0.0422592 0.034131344 -0.007626581 0.032191128 0.03308152 0.035730593 -0.017858963 0.0016007904
-0.028741183 -0.022142721 0.034041397 -0.032639317 0.034092665 -0.028985808 -0.03737897 -0.03952895
0.024679102 -0.009303522 0.0058335443 0.04327847 0.023836978 -0.0031711082 -0.007559772 -0.027957767
0.0026968913 -0.020378623 0.027223602 0.0022884768 -0.041800894 0.014396083 -0.006828469 -0.036755253
-0.011570804 0.03752703 -0.015149511 -0.038033903 -0.0066032126 -0.012319431 -0.028248856 -0.011722247
0.023325859 -0.031305518 0.035161123 0.038011074 -0.013348057 -0.025242675 0.010373269 -0.036438752
-0.028227823 -0.019112352 -0.01292109 -0.012452704 -0.03304967 -0.036940277 -0.044393457 -0.0014699216
0.02089049 0.015741063 -0.014189214 -0.006225293 0.023579262 0.02300337 0.018558688 0.0043665837
0.023371285 0.015010516 0.032006145 0.04439008 0.042516556 0.037569687 -0.010862088 -0.030215187
0.027504085 0.039840136 -0.010631635 0.0348182 -0.004653416 0.021974785 -0.025167014 0.041646358
-0.023163926 0.020543108 0.005324906 -0.0020161457 -0.030788356 0.036344573 0.027408859 0.029419173
-0.028301585 0.020442039 0.01070136 -0.009552182 -0.010355076 0.008592322 0.01866988 0.022211393
-0.03715485 0.025684103 -0.009908454 0.015061803 0.0053847805 0.026207587 0.035814103 0.03153753
-0.041028425 0.009416362 0.018354034 0.011496388 0.032975957 0.03384511 -0.025385115 -0.01780005
-0.010988728 -0.022208404 -0.03616933 -0.020511877 -0.0062973374 -0.04171911 -0.026210546 -0.030333163
-0.038245965 -0.037391115 -0.022810347 -0.0058267773 -0.02387883 0.03770265 -0.02788335 -0.016708719
-0.0039529176 0.026144344 -0.010342504 0.03345661 0.021510389 0.00013160269 -0.03422375 0.0075037805
0.011297349 0.02763219 0.012959802 -0.0039182636 -0.050046496 -0.0007592972 -0.02328467 -0.009733803
-0.041156456 -0.02480449 -0.0121719465 0.038631886 0.025030158 -0.002577896 -0.03774581 0.034609348
0.025884038 0.012521286 0.00984603 -0.03126574 -0.024874019 0.01665391 -0.0270018 -0.013809549
-0.00410446 0.0056061833 0.03453874 0.02161031 0.0061143516 0.0077580977 0.033155188 0.0056864982
0.012523027 0.014394971 0.027966814 -0.032038357 -0.013432229 -0.0034163827 0.02344609 -0.04085222

convolutions.0.bias f4 [64]
00000000: c19d 5f3c 7468 173d 581f 05bd ae15 0c3d
00000010: 389d f03c 1366 c23c 85c4 33bc a74e 163d
00000020: de69 c7bb 96ca 363c 0f99 5c3b c35f 44b9
00000030: 2552 543d 6f4c 11bd f221 c53c d053 b6bc
00000040: 4d86 d6bc 183c 5a3d fc84 1f3d 82c7 aabc
00000050: ab77 dd3c 60ce 2f3d 57b7 5fbc bf61 3abc
00000060: a085 51bc 65cf 363d 05b0 89bc 2d32 79bc
00000070: 5338 433a 7f86 48bd ddef c1bc b896 1cbc
00000080: 060e 1fbd 8132 8fbc 90c4 4bbc be9a 6d3b
00000090: da81 94bc e522 17bd a102 093d f240 0cbd
000000a0: 0db9 373c e3c4 253d ec4f c5bb 1a6d f3bc
000000b0: 003e 463d f979 afbc 38e6 993a eae7 08bd
000000c0: 4335 7dba cf43 993c d7d8 06bd 5fc0 95bc
000000d0: fc89 5eba e132 963c 179d dcbc f7e0 ea3c
000000e0: e20b 233d aa66 443b 73a0 02bb 5fba 013d
000000f0: 7657 3a3c d498 a73c ba0b bc3c 8d0c febc
0.013648451 0.03696485 -0.032500595 0.034200363 0.029371843 0.023730313 -0.010972147 0.036696102
-0.0060856184 0.011156699 0.0033660566 -0.0001872769 0.05183615 -0.035473283 0.024064038 -0.022256762
-0.026187086 0.053279966 0.038945183 -0.020847086 0.027034601 0.042921424 -0.0136545515 -0.011375844
-0.012788206 0.04463138 -0.016807565 -0.015209717 0.00074470526 -0.04895639 -0.023673946 -0.0095574185
-0.038831733 -0.017480137 -0.012437001 0.0036255564 -0.018128324 -0.036898512 0.033449773 -0.034241624
0.011213553 0.04047097 -0.0060214903 -0.02971511 0.04839897 -0.021420466 0.0011741584 -0.033424295
-0.00096591207 0.018709091 -0.03292164 -0.018280206 -0.0008489189 0.018334808 -0.026930375 0.028671725
0.039806254 0.002996842 -0.001993206 0.031671878 0.011373391 0.020458616 0.02295481 -0.031011844

convolutions.2.weight f4 [64, 64, 3, 3]
00000000: 4f12 113c d28f 2c3d 4302 c63c 1359 393d
00000010: c6b3 09bd ff28 c9bc 1e04 ddbb c8c0 a9ba
00000020: 9a5e 353d 028e 8b3c 7743 9bbc dc11 a83c
00000030: 151c ef3c f5b1 4ebc 3bbb 16bd fe3c 133d
00000040: 33df cabc c147 0bbc 8a10 073d dc9d fbbc
00000050: ac65 fcbc 3857 c83c d905 96bc 251f 8bbc
00000060: 3c32 9c3b eb76 d03c 94d1 a3bc cf46 dfbc
00000070: caf9 8a3b 3d46 2cbc 63df 163d ed4d b8bc
00000080: f6af c7b9 9f59 1bbd ce8a 703c e28b f3bc
00000090: 7831 c6bc 0d4a 973c 6a5e 2a3d 096e 05bd
000000a0: c0d8 0fbc 3024 023d 46be 75bc b42a 10bd
000000b0: 665a c03c 6efa 45bb 3cd3 ea3c e67e 6a3c
000000c0: 19bb 033d f62d 183d 90bb df3c 84a4 8dbc
000000d0: 92fa ffba 7f0a 943c 8ff2 1a3d c580 bcba
000000e0: 827a 08bd e0d7 d5bb d80d b93c fb12 3c3b
000000f0: f7f2 ddbc ad52 483b 4f85 0f3d 7e92 8dbc
00000100: efde d73a cec9 e13a 6953 853c bc50 153d
00000110: 291e 36bc 0ab4 873b c77a ea3c 4b83 173d
00000120: 0c20 0cbc 6fbe 753c 0199 403d 311b 9bbb
00000130: ade1 e53b 1302 833c 9b5b f23c 9929 c2bc
00000140: 72d6 18bd 7145 063d 335c 273c 8e92 f83c
00000150: 4d85 633c 4829 bd3c 1ad6 053d 244d ae3c
00000160: fe0c db3c 7284 8b3c c9c1 1fbd 9ab2 25bd
00000170: 12b0 d73b ad11 993c c523 bb3c 0456 1dbd
00000180: 18f2 7f3c b4fe 49bc ba5c 05bd 40d4 d7ba
00000190: 00e0 03bb 9906 15bd fbb0 f8ba ee4c ac3c
000001a0: 2a6b fd3c 8abf b6bb 0a4e 043d 03d8 903c
000001b0: c4d8 293d 3983 0abd f252 353d b0e6 173d
000001c0: d2a1 62bb 2048 9cbb 5aae 373d 3c4a c2bc
000001d0: ad9c e3bc da74 ffbc 9e86 d9bc 5963 e13b
000001e0: 55aa b0bc 0446 db3c e185 f7bc 46a0 08bc
000001f0: c597 da3c 8050 3fbc 2493 083d 2463 58ba
00000200: 170f 283d 1a18 0b3d a36f 1abd 4fb2 cdbb
00000210: e677 f1bc 22cc 56bc dc29 963c 72aa 1d3c
00000220: 7761 6dbc 6c55 61bb 2470 163d d9ec 043d
00000230: a94c a53b dc70 773c 16d5 fabb 23b4 913c
00000240: 3995 55bc 22c2 0d3d bf08 86bc ef43 073d
00000250: 9592 ecbb c90a 3c3c a25e 99bb 2caa 913a
00000260: 0f79 b03b a054 533d fc6d 413d 70b2 ecbb
00000270: 7584 bbbc 1f7a 21bb 819f 3f3d bf20 b93c
00000280: 6335 ecba 9340 813b 2d1a c33c 2e20 c33c
00000290: 9da5 213d 8e19 af3c 8d3c 843c aa7d 2a3d
000002a0: d3dd fe3c 9cc1 dfbb e5c6 90bc 8bd3 243d
000002b0: 6897 b23c b35c 26bd 786c ab3c 2f6c 313c
000002c0: 0e62 533c 1bfb e8b9 ce7e 8c3c 5371 1b3d
000002d0: 2c47 ec3c cca1 fa3b d03c 203d 8599 213c
000002e0: ce0b 683a 0794 c2bc 6cc0 08bc 4808 043d
000002f0: d1c8 1b3d eda8 0d3d bd68 5e3c 3875 593c
00000300: 2b63 c53c d6cb 533c fa46 fb3b ec75 2e3d
00000310: 2861 2c3d 362f 2bbc 4726 143d c7b5 f03c
00000320: 3ecd ac3c fdd0 a03c 81d6 7d3b 07df 01bd
00000330: 4d5b b73c 601e 07bd 68a9 22bd 37fd 0ebd
00000340: a55a 613c 5186 2b3b 9c5f 383c da12 283d
00000350: 7b5d 14bd 658d 8e3c f067 60bc 386a 823c
00000360: b9df f3bc aad3 e7ba 9090 b3bb 5dcc 943c
00000370: 545f 3ebc a279 8d3c 854f 2cbb 66af 03bd
00000380: 59df e3bc 3493 5b3c a5e4 eb3c 6dca ed3b
00000390: ae02 a0bb b56d a3bb 4546 71bc 846b a9bc
000003a0: 17ee a7bc 00b3 0bbd 4652 80bc fef4 b4bc
000003b0: d034 0e3d a80d 2a3d ba48 073d fad7 a5bb
000003c0: 85ef 263b 4281 113d 94b0 b2bb adc5 1e3c
000003d0: 8996 00bd 1d0f 093d a13e 263d 7aec 823c
000003e0: bb56 89bc dce8 0b3d 4c27 32bc 01a3 d6bc
000003f0: 476f 44bb 80cc a9bc 8b59 453d 33e2 363d
0.008854463 0.042129345 0.024171 0.045250963 -0.03361871 -0.024555681 -0.0067448756 -0.001295113
0.044279672 0.017035488 -0.018953068 0.020516329 0.029188195 -0.01261567 -0.03679965 0.03594684
-0.024764633 -0.008500994 0.032974757 -0.030714922 -0.0308102 0.024455652 -0.018313335 -0.016982624
0.0047667306 0.02544733 -0.019997396 -0.027255444 0.004241203 -0.010514793 0.036834132 -0.022498095
-0.0003808734 -0.037927266 0.014681531 -0.029729787 -0.02419351 0.018467927 0.041593947 -0.03257564
-0.008779705 0.031772792 -0.014998978 -0.035196975 0.023480605 -0.0030209082 0.028665178 0.0143124815
0.032160852 0.037153207 0.027311116 -0.017290361 -0.0019529632 0.018071411 0.03782898 -0.0014381638
-0.033319958 -0.0065259784 0.022589609 0.0028697837 -0.027093394 0.0030566857 0.035039242 -0.017281767
0.0016469638 0.001722628 0.016275125 0.036453947 -0.011115589 0.0041413354 0.028622998 0.036990445
-0.008552562 0.014999016 0.047020916 -0.004733466 0.007015428 0.0159922 0.029584697 -0.023701476
-0.037313886 0.03278107 0.010214853 0.03034332 0.013886762 0.023090973 0.032674886 0.021277018
0.026739594 0.017030928 -0.039003167 -0.04045353 0.0065822685 0.018685186 0.022844205 -0.03841211
0.0156216845 -0.012328792 -0.032559134 -0.0016466454 -0.0020122528 -0.036383245 -0.0018973643 0.021032777
0.030934889 -0.0055770325 0.032300986 0.017681127 0.04146649 -0.03381655 0.044268556 0.037085235
-0.0034581316 -0.00476934 0.04484401 -0.023717038 -0.02778467 -0.031183649 -0.026553448 0.0068782982
-0.021565596 0.026766784 -0.030215206 -0.008338993 0.026683697 -0.011676908 0.03334345 -0.0008254519
0.041030016 0.033958532 -0.03770412 -0.0062773596 -0.029476117 -0.0131101925 0.018330507 0.009623157
-0.014488569 -0.003438319 0.03672804 0.032452438 0.005044539 0.015102591 -0.0076547964 0.017786091
-0.013036066 0.034608968 -0.016361592 0.03302377 -0.0072196224 0.011477181 -0.0046804706 0.0011113337
0.005385525 0.051594377 0.04722403 -0.00722342 -0.022890309 -0.002463944 0.046782974 0.022598622
-0.0018021282 0.0039444654 0.023816193 0.023819055 0.03946458 0.02137449 0.016142154 0.04162375
0.031111633 -0.0068285 -0.017672965 0.040240806 0.021800712 -0.04061575 0.020925745 0.010829016
0.012901796 -0.00044437576 0.017150309 0.03794987 0.028842531 0.007648682 0.039120495 0.009863262
0.00088518567 -0.023752226 -0.008346658 0.03223446 0.03803331 0.03458493 0.013574776 0.013272576
0.024095139 0.012927016 0.007668373 0.042592928 0.042084843 -0.010448268 0.036169317 0.029383553
0.02109396 0.019630903 0.003873259 -0.031706836 0.022382403 -0.032987952 -0.03971234 -0.034909453
0.0137545215 0.0026172588 0.011253264 0.041033603 -0.036221962 0.017401407 -0.013696656 0.01591979
-0.029769765 -0.0017686982 -0.0054798797 0.018163854 -0.011619408 0.017269913 -0.0026292515 -0.032149695
-0.027816461 0.013401795 0.02879555 0.007256797 -0.004883132 -0.0049874433 -0.014726226 -0.02068115
-0.020499272 -0.034106255 -0.015664231 -0.022089478 0.034718335 0.04151693 0.03302834 -0.005061147
0.0025472355 0.03552366 -0.0054531787 0.009690684 -0.03139356 0.03346168 0.04058707 0.015981901
-0.01676499 0.03415762 -0.010873627 -0.026200773 -0.0029973553 -0.020727396 0.048181098 0.044649314

convolutions.2.bias f4 [64]
00000000: 584e aa3b 773d bf3c 4fee 92bc 1a36 91bc
00000010: 60c9 973c f645 45bc 271b d0bb d393 1fbc
00000020: eaf9 ab3c 6d04 d13c a546 27bd 3757 e0bc
00000030: 9ecc 01bd 5547 543d b597 9dbb 74fb 993c
00000040: fe96 ce3c 766d 77ba 7172 a9bc f67d aebc
00000050: 4301 b73b 6408 b4bc 6254 93bc de99 0b3d
00000060: f831 b8bc 4969 0abc 3dcb 25bc 026c 0e3c
00000070: b6b2 9fbc 1a9f a9bb 3bde 273d 4c99 8d3c
00000080: b2ae 263d 788d 4c3d 84f3 1dbd 5903 913b
00000090: ad08 cf3c 59d1 143d fde0 14bb 5f6f 3d3d
000000a0: 6d1c 103d b95f 14bc e4fc 453d c9aa 0fbc
000000b0: dfab c23c 62e2 e2bc 7b82 f33c 1dd0 32bd
000000c0: 1fca e8bc 8797 063d 1975 3c3d 6d14 c2b9
000000d0: 21b8 85bc f26b 0fbd 5833 563c 91d5 1abd
000000e0: 9520 d73c 73fc 8a3c 5c84 45bc 908f a33c
000000f0: 9837 5a3d 2e00 003c 4a4c ac3c 67b2 1e3d
0.0051973276 0.023344738 -0.0179359 -0.017725993 0.01852864 -0.012040606 -0.006350893 -0.009739834
0.020993192 0.025514806 -0.040838856 -0.027385337 -0.03168928 0.05182584 -0.0048093447 0.01879666
0.025218483 -0.0009438613 -0.020684453 -0.021300297 0.005584867 -0.021976657 -0.017984573 0.034082286
-0.022484764 -0.0084479535 -0.010119257 0.008692743 -0.019494396 -0.005176437 0.04098342 0.017285012
0.040693946 0.049939603 -0.038562313 0.004425448 0.025272692 0.036332462 -0.0022717111 0.04624879
0.03518336 -0.009056025 0.04833688 -0.008768746 0.023763595 -0.027695838 0.029725304 -0.043655504
-0.028416691 0.03285935 0.04601011 -0.00037017782 -0.016323151 -0.035015054 0.013073765 -0.03780133
0.026260654 0.01696608 -0.012055483 0.019965917 0.053275675 0.007812543 0.021032471 0.038744356

convolutions.4.weight f4 [64, 64, 3, 3]
00000000: 5b05 0fbc aae7 06bd 6ec3 f0bc bfe6 8a3b
00000010: 59b0 dc3c 2ec5 013b e6eb f3bc 1151 c2bc
00000020: 39d2 a33c bab8 adbc 1265 293d a210 343d
00000030: 5bb6 083d cc72 a3bc c8cf 103c 2c0e 2f3d
00000040: 1452 183b 264f fe3c 1eb7 c83c 3c63 d53c
00000050: e433 923b 8b18 6d3c e3c3 db3c 5315 42bc
00000060: 9c39 cdbc 0cf3 85bc b967 5cbc ae8d 7a3c
00000070: a6b4 543c e50f aabc 5180 1bbd 57c9 0b3d
00000080: 700a adbc 0159 68bc 05cf 9bbc 00eb 073d
00000090: 6e11 13bd fc6c 01bd 583e 913c f8d4 dabc
000000a0: 85a7 24bd 8953 2e3c 14ee c63c 7b32 603c
000000b0: 09b0 153d b7be cc3c 19ae 763c 6e23 29bd
000000c0: b192 ebb9 40dd fe3c addf e53b 1a29 24b9
000000d0: 3411 e5bc 4343 17bb 6fbd a7bc e71f a1bc
000000e0: 8a5f 07bc bd15 14bd 556c 9d3c 82ba 19bd
000000f0: 911e 183d 125c dbbc ca46 003c 782d 07bd
00000100: 8362 2abc 1423 90bc 42b6 d93c a7a6 18bd
00000110: 847d d73c e889 763c 4279 653c 96f5 0bbc
00000120: 616c e23c 645f 053d 8108 73bc fcba 253d
00000130: 8e98 3d3c 8470 a93b acfe 143d 170d dbbb
00000140: 7ed1 03bd 2122 1dbd d8b2 88bb bda3 e33c
00000150: 69d5 8aba 2ae5 2abd c09a a7bc d056 df3c
00000160: c8c6 fcbc 20d0 5fbc 3bb9 0dbd 12b7 b2bc
00000170: 0fc7 e53c b01d acbc 958e d8b9 c51d 31bc
00000180: 3bf8 3a3d e0f9 8f3c 2fc4 cabc bfd9 183d
00000190: 503f 1cbd 7846 d73c 8c27 24bd 005a 933c
000001a0: 4ead 483b 404e 9d3c c268 e63c 79ae aebc
000001b0: fb5b 63bd 1dc6 fbbc 043e 4ebc 4977 71bd
000001c0: 4c1d 69bd 21c0 cebc 6567 83bd 43db 03bd
000001d0: 5767 a8bb 7cc9 c6bc 7c77 833c 4198 723c
000001e0: f48e 4cbc c40a b3ba 1dd2 2ebd 8e76 15bd
000001f0: ab01 ea3c 14e4 7839 e80f 343c 934f 133d
00000200: 3888 733b eb90 d4bb 9345 43bc c330 70bc
00000210: edb2 2fbc 7704 0a3d e437 dbbc 2b01 10bd
00000220: dcff 54bc 4251 873c cf6c a33c 2953 25bd
00000230: 2eb8 f93c 8c7f 51bc af6c f1bc a2a8 edbb
00000240: f6ab b3bc 7b9c cb3c ff67 5f3a df20 393d
00000250: c177 2c3d 0813 acba 83e5 f93c 98f8 d7bc
00000260: 9684 dc3c df03 563c 5dde fa3c ed18 fb3c
00000270: 5eab 543c 089a 063d 6970 00bd c303 873c
00000280: d749 123c edff e4bc 5084 dbbc 2bf2 f0bc
00000290: a6de 1c3d a645 b13c a632 d93c 3f93 c63b
000002a0: 95ec b63c 1c27 0c3d 2d73 73bc fba3 64bc
000002b0: 6b36 343c d349 fb3c f0fb 28bd f6ef eebb
000002c0: 7b41 26bc 40f6 45bc c01a dd3b 307a ad3c
000002d0: 0534 51ba 072c 17bb 0431 2c3d 8478 babc
000002e0: 8026 0f3d 33a9 263d 5e12 5c3b 9e54 0d3d
000002f0: 7237 033d cdfd 013d 9fb9 47ba 8fd7 9f3c
00000300: 2239 26bc 4031 0cbd e85a 243d 3701 11bd
00000310: af98 67bc be05 d03b 5439 d4bc b137 0a3d
00000320: 6950 373c 88ae 1cbc 18c1 133d 1ff0 bb3c
00000330: 741d a1bc 0506 2c3c 3eb1 d93c 50a6 febc
00000340: eea0 0d3d 4c13 043d 48b7 b9bc 0a96 8abc
00000350: 5df6 783c 155e 053d c58e 16bd 5476 f8bb
00000360: ef82 1e3c b517 c23a 6ca7 5abb 0e28 84bc
00000370: 3787 9abc a887 343b 9828 e83c cf50 32bc
00000380: 76b4 a23b 23d8 d73c fce4 afbc b2cf 123c
00000390: 30ab a13c 4acd e1bc ce3e 8e3c f203 a8bc
000003a0: 1fb7 3339 2d9d 373d b956 ef3b 6503 1e3d
000003b0: def1 17bc 5136 ff3c 6985 7bbc 03d4 e8bc
000003c0: 7101 87bc cccf 0c3d 7246 75bc c886 cebc
000003d0: cb9d 543c c9a2 ed3c bc3c c0bb 5920 56bc
000003e0: a454 d6bc 1781 043d dce5 78bc 6cd3 af3c
000003f0: 1634 263d 1e62 ad3c 966d 53bc b074 d73c
-0.008729304 -0.032935776 -0.029390063 0.004238933 0.026939558 0.0019801366 -0.029775571 -0.023720296
0.019997703 -0.021206249 0.041356154 0.043961175 0.033377033 -0.0199522 0.008838601 0.042738125
0.0023242282 0.0310436 0.02450138 0.026048295 0.0044617523 0.0144711835 0.026826805 -0.011845904
-0.025051884 -0.016351245 -0.013452464 0.015292568 0.012982523 -0.020759532 -0.03796417 0.03412756
-0.021123141 -0.014181376 -0.019019613 0.033183098 -0.035905294 -0.031598076 0.017729923 -0.02671288
-0.04019882 0.0106400335 0.024283446 0.0136839105 0.036544833 0.024993284 0.015056157 -0.041293554
-0.00044931986 0.03111136 0.0070151896 -0.0001565557 -0.027962305 -0.0023080863 -0.020476071 -0.019668533
-0.008262524 -0.036153544 0.019216696 -0.037531383 0.037138525 -0.026777301 0.007829377 -0.033002347
-0.010399464 -0.017594852 0.026576165 -0.037268307 0.026304968 0.015047528 0.014005961 -0.008542439
0.02763957 0.032561675 -0.01483357 0.040461525 0.011572016 0.0051708836 0.036375687 -0.00668491
-0.03218221 -0.038362626 -0.0041717105 0.027788037 -0.0010592166 -0.041722454 -0.020459533 0.027263075
-0.030856505 -0.013660461 -0.034600478 -0.02181581 0.02804902 -0.02101025 -0.00041304962 -0.01081032
0.045646887 0.017575204 -0.02475175 0.037317034 -0.038146317 0.02627872 -0.040076777 0.017987251
0.0030620876 0.019202352 0.028126124 -0.02132343 -0.05550764 -0.030734116 -0.012588028 -0.05895165
-0.056912705 -0.025238099 -0.06416205 -0.032191526 -0.005139272 -0.024265997 0.016048186 0.014806808
-0.012485255 -0.0013659825 -0.04268085 -0.036490016 0.028565248 0.00023736089 0.0109901205 0.03596456
0.003716005 -0.006487002 -0.011918443 -0.014660063 -0.010723812 0.033695664 -0.02676005 -0.035157364
-0.013000455 0.016518239 0.019949345 -0.04036251 0.030483332 -0.012786757 -0.02947077 -0.0072527686
-0.021932583 0.02485489 0.00085222715 0.045197364 0.042106394 -0.001312823 0.030504948 -0.026363656
0.02691869 0.013062446 0.03062361 0.030651534 0.01298031 0.03286174 -0.031357203 0.016481286
0.008928738 -0.027954066 -0.02679649 -0.02941235 0.03829827 0.021639656 0.026513409 0.0060600336
0.022329608 0.034216985 -0.014859003 -0.013955112 0.010999302 0.03067485 -0.04125589 -0.007291789
-0.010147448 -0.012082636 0.0067475736 0.021176428 -0.0007980469 -0.0023067014 0.042038932 -0.022762544
0.034948826 0.040688705 0.0033580284 0.034504525 0.0320353 0.031736184 -0.0007618907 0.019511966
-0.010145457 -0.034226656 0.040125757 -0.03540155 -0.014135524 0.006348341 -0.025906242 0.033744518
0.011188605 -0.009563096 0.03607282 0.022941647 -0.019667365 0.010499482 0.026573773 -0.031085163
0.034577303 0.032244965 -0.022670403 -0.016917247 0.015195456 0.032560427 -0.03675725 -0.007582465
0.009674772 0.0014808091 -0.0033363951 -0.01613238 -0.018863304 0.0027546678 0.02833967 -0.010883524
0.0049653603 0.02634818 -0.021471493 0.008960651 0.019734949 -0.02756371 0.017363932 -0.020509694
0.00017138988 0.04482763 0.0073040393 0.038577456 -0.009273974 0.03115383 -0.015351632 -0.028421408
-0.01648018 0.034377858 -0.014970409 -0.025210753 0.012977074 0.029008286 -0.005866615 -0.013069236
-0.026163407 0.032349672 -0.0151915215 0.021463118 0.040577017 0.02116495 -0.012904545 0.026300758

convolutions.4.bias f4 [64]
00000000: 6ca3 84bc 96eb 01bc 3b95 23bc acdc 8e3c
00000010: c26c fb3c d284 69ba 786b 213d cd08 00bc
00000020: 848c 883b c397 923c 0db2 1c3c 21cb 7dbc
00000030: 6104 b1bc 55c3 133d 19e4 303c 64f0 e6bc
00000040: 8fed 513d c629 09bd 5239 883c 4096 de3c
00000050: 2b28 d0bb 254c 383b e6a9 7639 277b e23c
00000060: ce0f c0bc 1898 0bbd e275 6c3a fc6f adbc
00000070: e2ba 113d 646c 9fbc 8f43 0bbd eae9 8abb
00000080: 1394 993b e94a 7c3c f514 2b3b 03e5 da3c
00000090: 3c2b 2fbd 261e 0bbd fcca 2dbc f572 c83b
000000a0: b56e 413d f1dd 463c d9c6 3d3d ab52 66b9
000000b0: a4e1 1abd f631 2abd 35bb a2bc 6f6b 9ebc
000000c0: 8a11 4e3c 6f2e 13bd a699 f9bc adca 9e3c
000000d0: aabe 513d d740 ab3b 0542 383c a46a 3c3c
000000e0: 9b89 b23b bdeb 243d f940 6b3c 6187 a63c
000000f0: d46f 17bc c497 1f3d a16e 263d fc37 593d
-0.016191207 -0.007929703 -0.00998431 0.017439209 0.030691508 -0.00089080364 0.03940913 -0.007814598
0.0041671414 0.017894631 0.009563935 -0.015490324 -0.021608533 0.036074955 0.01079657 -0.028190799
0.051251944 -0.033487104 0.016628895 0.027171254 -0.0063524446 0.0028121558 0.0002352368 0.027646614
-0.023445036 -0.034080595 0.00090202515 -0.021171562 0.035578616 -0.019460864 -0.033999976 -0.0042393105
0.0046868413 0.015398719 0.002610502 0.02672053 -0.04276584 -0.0339643 -0.010607477 0.0061172196
0.04722472 0.012137876 0.046332214 -0.00021965305 -0.037812844 -0.041551553 -0.019864658 -0.019338338
0.012577424 -0.035932954 -0.030468773 0.019383753 0.051207222 0.0052262354 0.011246209 0.0115000345
0.0054485328 0.04026388 0.014358752 0.020328226 -0.0092429705 0.038963094 0.040632848 0.053031906

convolutions.6.weight f4 [64, 64, 3, 3]
00000000: 94b0 aa3c ed2f 33bd ca80 ad3c 2a95 363c
00000010: a236 f539 8d0f 983c 3eaf dcbc 972b 1dbd
00000020: 6cc2 e6bb 1929 2fbd d4a6 6ebb 6107 d43b
00000030: a7c9 273c 981d 853b 5e89 203d 3c21 d7ba
00000040: 461d 25bb 2798 de3c b90e 96bc 0b43 0fbd
00000050: 65d0 743b a0fe 70bc 2384 1dbd 3e31 073c
00000060: c266 143d d4b6 863c d99b 00bd e45f 103c
00000070: 78f0 16bd faf0 2b3c 0349 30bd ddb6 683c
00000080: de4a 1dbd 727d a5ba bf42 423c ca6a 473c
00000090: a398 79bc a1ab 543d a261 b3bb 6681 983c
000000a0: 9307 213d 056b 6c39 ce62 c03c dbbd 5f3d
000000b0: c131 643d a48c 04bd 879d c93c 34c9 abbc
000000c0: ed85 41bc 6cf5 a7bb 4e33 e8bb f114 32bd
000000d0: 514d 043c 3c32 173c 31c7 1b3c 86d9 8e3c
000000e0: ebfa ecba 9cb2 aa3b 62b2 ec3c 18b0 88bb
000000f0: 62a6 a5bc 1f11 58bc 3517 af3c 98a1 0d3d
00000100: d7bb 4a3c e61f a43b 1536 b2bb 5b1d 0dbd
00000110: b134 9b3c 6b01 16bd b13d fcbc f753 0e3c
00000120: 2450 27bd cb14 063d c1c7 0ebc 6f02 2abc
00000130: b4cc b3bc 66e9 66bb 37dd 443c bf2c 9cbc
00000140: 5f09 f8bc 73c9 95bc 2f55 a9ba 069c 153d
00000150: b172 3ebc 75a6 c53c 6fcc 14bc 413e f13a
00000160: 9701 46bc 5041 c53c d14b 89bc 77ee 9cbc
00000170: 7ec8 513c 239e c53c f869 053c 68dd cdbc
00000180: 758a 803b 18a9 14bd 0636 fa3c d6e4 9dbb
00000190: 348d febc 7d22 053d ba6f 083c b070 bf3c
000001a0: a336 da3c ced5 0bbd c401 2e3a 3adc 843b
000001b0: 0bb6 e2bc 09c5 0dbd dd54 11bd 1ce5 893c
000001c0: a9ec 1f3d 8659 dd3c a1cb 653b e8df 113d
000001d0: 643c 85bc 0133 10bc 97e1 7cbc 7d05 a43c
000001e0: d21a dcbc a1d5 efbb e6c3 eebc 83fe cbbc
000001f0: 591d 2cbd 0162 25bd 6720 fe3c 5e4c bf3c
00000200: e9d6 1d3d bdbd 00bd f2d9 1b3d f93f ed3c
00000210: bb17 543c 7fb7 ff3c 7df6 b13c cebc 62bc
00000220: b327 34bd 64a0 ccbc dd79 00bd 7d95 983c
00000230: 7bb8 cabb eaec 963c 69bd a8bb b571 03bd
00000240: bdae cabc 5d47 08bd d1ee f03c c2bd b8bc
00000250: c091 23bd c512 8cbc cf1d d23c 5ce0 f53c
00000260: bb17 ad3b b6d5 683c 7ed1 ffbc d8d0 f9bc
00000270: 40ca a4bb 5099 1b3c 5b40 a1bc 161b cfbc
00000280: 68de 243d 5b1b 68bc 8692 983a 50bd 953c
00000290: 4253 d53c bf64 c63c b97a 28bc e1a3 ad3c
000002a0: e335 b23c b599 a13c 9540 bebb 11c8 463c
000002b0: 7234 39bb 6168 09bb 4127 6abb f958 17bd
000002c0: f320 20bc 8c18 34bd a856 a53b 02d9 a13b
000002d0: e459 063d a628 18bd 87fe 083d c146 043d
000002e0: 1ecb 9dbc 1f19 c93c 21f2 43bc 1990 41bd
000002f0: bff9 e63c 87a5 ebbc cef2 d4bc 3d3b 713c
00000300: 810f cbbc 7afb 763b 5b8b c5bb dab2 01bd
00000310: a767 983b 47b6 fa3b 04af 09bd 3222 633c
00000320: 7ef8 01bc a55c 1abc b204 c93c 92a4 5a3c
00000330: 96c2 2a3d 60a8 e93c c41f e33c 6c48 ebbc
00000340: b920 323c f76b 143d 3f2a 78bb 30b8 a63c
00000350: 3544 b5bc 8795 253d 023b c43c 1b48 e23c
00000360: 8e6c e13c 0369 513b ed39 bd3c 0957 5b3b
00000370: f3f0 83bc f084 493c 6d41 f53c bf9e 4fbc
00000380: 6734 003c fd06 123c 17eb 073d 578e dbbc
00000390: 2910 5bbc 40ad 183d 7309 473c 18b9 31bc
000003a0: 8924 eab9 20ae 9e3c fb5e 21bd 6b13 e13c
000003b0: 121c 2a3d 968f a03c ce69 c73c ab04 2a3d
000003c0: 1c02 1cbd aaa4 243d 0ef8 a03c bcaa ae3b
000003d0: 3110 e4bb b22a 80bc f667 1abd 383d 0b3d
000003e0: e239 b53c 8649 ddbc 092e 98bc fcac fe3c
000003f0: e6b0 073c 6a46 c03c 85a7 49bc 1ea9 54bc
0.020836152 -0.043746877 0.021179575 0.011143962 0.00046770746 0.018562103 -0.02693903 -0.03837165
-0.00704222 -0.042763803 -0.0036415355 0.006470606 0.010240949 0.0040623657 0.039193504 -0.0016413103
-0.002519445 0.027172161 -0.018317567 -0.034976047 0.0037355658 -0.014709145 -0.038456094 0.008251486
0.03623081 0.016444601 -0.031398628 0.008811925 -0.036850423 0.010494465 -0.04303838 0.014203754
-0.038401477 -0.0012625887 0.011856734 0.012171457 -0.015234145 0.05192149 -0.005474285 0.01861639
0.039313864 0.00022546582 0.023484614 0.05462442 0.05571151 -0.032360688 0.024611248 -0.020969965
-0.011811716 -0.005125692 -0.007086194 -0.043477003 0.008075074 0.009228285 0.00950794 0.017437708
-0.001808015 0.00520928 0.028893653 -0.0041713826 -0.02022094 -0.013187676 0.02137337 0.034577936
0.012373886 0.0050086854 -0.005438576 -0.034451824 0.018946024 -0.036622446 -0.030791136 0.008687011
-0.040847912 0.032734673 -0.008714617 -0.010376557 -0.021948196 -0.003523433 0.012015632 -0.019064305
-0.030277906 -0.018284535 -0.0012919063 0.03652575 -0.011624024 0.024127224 -0.009081944 0.0018405394
-0.01208534 0.024078995 -0.016759785 -0.019156678 0.012804149 0.024123257 0.008142941 -0.025129989
0.0039227554 -0.036294073 0.030543339 -0.004818539 -0.03107319 0.032503594 0.008327419 0.023369163
0.026637381 -0.034139447 0.00066378363 0.0040545734 -0.027674695 -0.034611735 -0.035481323 0.01683288
0.039044056 0.027020227 0.0035064 0.035613924 -0.016264148 -0.008801223 -0.015434644 0.020022148
-0.026868258 -0.0073191677 -0.029146146 -0.024901634 -0.042020176 -0.040376667 0.03102131 0.023351844
0.038535032 -0.03143095 0.038049646 0.028961169 0.012945111 0.031215427 0.02172398 -0.01383896
-0.043983173 -0.024978824 -0.031366218 0.018625969 -0.0061865426 0.018423516 -0.0051495326 -0.03209086
-0.024741525 -0.033271182 0.029410752 -0.022551421 -0.03993392 -0.017098794 0.02564898 0.03001421
0.00528237 0.014211109 -0.031227823 -0.030495092 -0.005028993 0.009497002 -0.019684007 -0.02528147
0.040251166 -0.014166678 0.0011640347 0.018278748 0.026040677 0.024217961 -0.010283166 0.021196308
0.02175421 0.019726614 -0.0058060386 0.0121326605 -0.002826002 -0.0020966756 -0.0035728964 -0.036950085
-0.009773481 -0.043968722 0.0050457306 0.0049391994 0.03280057 -0.03714814 0.03344586 0.03229404
-0.019261893 0.024548111 -0.0119595835 -0.047256563 0.02819526 -0.028765453 -0.025994685 0.014723596
-0.024787666 0.0037686513 -0.0060285754 -0.031664707 0.004651028 0.0076511237 -0.033614174 0.013863133
-0.00793278 -0.009421502 0.024538372 0.013344901 0.041689478 0.02852267 0.027725108 -0.028721057
0.0108720595 0.036235776 -0.0037866978 0.0203515 -0.02212725 0.040425804 0.023953918 0.027622273
0.027517583 0.003195346 0.02309891 0.0033468625 -0.016106104 0.012299761 0.029938424 -0.012672125
0.007824994 0.008912799 0.033183184 -0.026801271 -0.013370552 0.0372746 0.012148249 -0.010847352
-0.0004465918 0.019370139 -0.03939722 0.02747508 0.041530676 0.019599717 0.024342444 0.041508358
-0.03808795 0.0401961 0.019649532 0.0053304117 -0.006959938 -0.015645359 -0.0376968 0.03399393
0.022122327 -0.027012598 -0.018576639 0.031088345 0.008281922 0.023471076 -0.012308006 -0.012979774

convolutions.6.bias f4 [64]
00000000: 1be8 08bd 297a c2bc 2d9a d9bb 98c6 c0bc
00000010: a4d7 d33a f481 00bd fa52 a5bc 0367 743c
00000020: 5048 133c 439e 0e3d 32d3 a2bc afc5 7e3b
00000030: 8b36 193d 60b6 82bc 412e eebc a0c7 603b
00000040: 32cb 2c3c 766a 1dbd 0615 b6bc 9971 c1bb
00000050: 1b73 e13c 9974 5f3b 35e9 0cbc 1d5e 083d
00000060: b7f9 77bc 3b99 afbc 5b46 50bc 2059 4abc
00000070: 0474 193d f102 28bd f746 433d 1db8 fcbc
00000080: c8f5 d9bc 0a6b dabc dfc4 3cbc 85b2 b9bc
00000090: 3482 5a3c 8493 ef3b cc78 0bbd 3be5 f1bc
000000a0: 83b1 d2bc 47d9 e73c 4ee8 f6bc 52ff 18bd
000000b0: e015 8b3c bca4 8dbc 289a 6b3c 9828 063d
000000c0: 9187 313c 9000 23bc 91e5 243d 334b fd3c
000000d0: 6852 8fbc 3add aebb d1d6 b43b 4597 f0bb
000000e0: 227f 1ebc b095 f63c 88e0 323d a197 2a3d
000000f0: f05a 373d 24c4 083d 37c6 3b3d acc5 183d
-0.033424478 -0.023739891 -0.0066406936 -0.023532197 0.0016162288 -0.031373933 -0.020181168 0.014917138
0.008989409 0.0348189 -0.019876096 0.0038875153 0.03740553 -0.015956104 -0.02907479 0.0034298673
0.010546492 -0.038431607 -0.022226822 -0.0059034345 0.027520707 0.0034096597 -0.008600523 0.03329288
-0.01513522 -0.02143537 -0.012712087 -0.012350351 0.037464157 -0.04101843 0.0476751 -0.03084951
-0.026606455 -0.026662368 -0.011521547 -0.022668133 0.013336707 0.0073112864 -0.034050748 -0.02952825
-0.02571941 0.028301848 -0.030140068 -0.037352867 0.016978204 -0.017290466 0.014380015 0.032753557
0.010835544 -0.009948865 0.040257994 0.030919647 -0.017495349 -0.005336431 0.005518772 -0.0073422515
-0.0096738655 0.030100673 0.04367116 0.04164851 0.04476446 0.03339018 0.04584333 0.03729789

reconstruction.weight f4 [4, 64, 3, 3]
00000000: 6d54 01bd 5ebe e5bb 0284 9ebc 8c95 ffbc
00000010: 44fa 90bc 4da6 233d 5132 02bd 6cec 233d
00000020: 8924 ebbb 27a8 773c 1497 873c c781 d53c
00000030: 339c dd3c 9982 e2bc ab02 24bd fd9a 15bb
00000040: ef7e ce3c 6733 5fbc add5 7d3c 9dac b73a
00000050: 3ef1 74bc 5260 e93c 2bcd 94bc 9fb3 003d
00000060: d60b 19bd dd64 013c e8e3 9c3c 12ab bd3c
00000070: 003a b7bb b4ac 5ebc 14c2 9f3c bed9 3fbc
00000080: 5a06 0bbd 427a 0bbc 4564 a83c c33a 07bd
00000090: 25ad 673b 9fc7 e1bc 399e 0a3d 23ae b4bc
000000a0: e80a 063d 731e 19bb f8d1 23bc 7c2d 813c
000000b0: 07c7 b839 2e13 d73c ba69 af3c aa8e 063d
000000c0: 74ec 7abc 284f 443b f4f5 0f3c b8e2 1c3c
000000d0: de7a 4bbc d464 1abd 3687 6fbc 66b7 c63c
000000e0: 24da 51bc 1f1a 0bbd 1762 3a3a ca23 11bd
000000f0: 4790 00bc 96b1 00bd b3ec dcbb fd70 aa3c
00000100: 2ff5 1dbc 1a51 7bbc caa5 98bc df83 493d
00000110: 3336 0abc 0117 44bc 898c 103d d6ea 1fbb
00000120: c872 a93c 7fcd e8bc 73cb 8cbc 0a95 fe3b
00000130: b647 81bc b77d ce3c 5508 1d3b b227 08bd
00000140: da02 043c 2646 0d3d 190a 2a3d 057d 173c
00000150: d9ef 53bc cdb1 3b3d c7d7 153d 3262 003d
00000160: 4e15 c43a 5a82 c4b9 6a25 293d bc3e 243d
00000170: b6c8 203b 544c ddbc 48c5 88bc e836 333d
00000180: ce47 a8bc a565 f33b 4b23 153c 43f6 19bc
00000190: 776c 623c 1517 85bc 15a1 83ba 8c07 3a3b
000001a0: f9ca 02bd 14d6 df3c 9168 e93c b6b6 27bc
000001b0: 154d 8e39 d061 cbbc ea71 d23c 28f2 803c
000001c0: 6fdc 513c 4583 f33c fd10 143d 78c8 41bc
000001d0: 7430 d2bb 8898 37bb 846b 8fbc e4f9 463c
000001e0: 6de9 dfbc a5c5 f4bc 4ac4 8ebb 4fc7 603c
000001f0: bf8b d23b 2017 173d 31f0 493d 98b8 d0bb
00000200: c7ed 98bc c82a 463c 60e5 52bc c495 c63c
00000210: 69b0 5c3d eb53 1a3c 2806 663d 86ea 7abc
00000220: a880 003d 0286 dcbc e16d 14bd 55f8 b2bc
00000230: edd9 1e3d 0c89 803c 820e 80bc 63bf 693c
00000240: 56f6 c03c 0ed5 423b 2926 8b3a 0328 683b
00000250: f904 c1bb 1851 c3bc 0913 2abc 96d9 033c
00000260: ecb8 14bd 7a5f 02bd 80df 05bc c029 1c3b
00000270: eb6c 8a3b 2095 bbbc 1623 b7bc 6b8d 8ebc
00000280: 9b9b fe3c 2bbb 1b3d 58c1 923a 8539 383d
00000290: 4bd3 873c b039 023c 4704 273d 1ddf d83c
000002a0: 5746 84bc fb84 8fba 1432 ea3c acc2 89bc
000002b0: bacc 323d b465 6abb 11e8 17bd 5991 ca3c
000002c0: f582 0abc c91b 8ebc 81d3 0f3d a05d 11bc
000002d0: d45d babc 1a30 23bc b55b 6dbc 2505 0abd
000002e0: 4dfe 78bc ebdf ebbc bd0c 0d3d 52d9 32bc
000002f0: 0a70 e0bc d65b fcbc 64bd 4fbc c671 18bd
00000300: 3dfa b1ba a46e 91bc 0404 993c ab89 29bc
00000310: 0689 b93c c594 ed3c 3e64 003d a769 433d
00000320: 0aa1 303d 09af 2fbc 269b cf3c d193 293d
00000330: bb42 313d 77ae 193c 9f0f 3d3d 2403 263d
00000340: 4cd0 f23a f5ee 303d 1a31 1fbc 034b 33bc
00000350: 3e25 85bc 4491 de3c af36 05bd 3f55 25bc
00000360: 52b5 d5bb d7dd 3bbc f47a ba3b f872 db3c
00000370: de95 213d 724a 523c 33fe d43c 942a f5bb
00000380: fc22 043d c394 0a3d 087e 15bd 27bb e6bc
00000390: 87f2 1abd e6a7 9ebc 2045 0a3d 0d44 78bc
000003a0: 3506 d93b b7c6 90bc 37d6 d7bc 781f abbc
000003b0: 185c d43c 43b1 9b3c 1913 8ebb 61ea c63a
000003c0: e3f4 64bc 6b34 07bd 9007 c93c bd4d 153d
000003d0: 54a4 8abc 4ffc 5a3b 2cdb e53c 7efb cb3c
000003e0: 8479 c23a 0d43 2f3d 54eb 81bc e523 ec3c
000003f0: 1a2d ceba 5e48 213c 7760 efba c42f 353c
-0.031574655 -0.007011219 -0.019350056 -0.03119924 -0.017697461 0.03995352 -0.031786267 0.04002039
-0.007175986 0.015115774 0.016551532 0.02606286 0.02705202 -0.027650164 -0.040041607 -0.0022827976
0.025207011 -0.013623095 0.015492839 0.0014013235 -0.014950095 0.028488312 -0.018164238 0.0314213
-0.037364803 0.007897583 0.019151643 0.023152862 -0.005591631 -0.01359098 0.019501723 -0.011709629
-0.033941604 -0.008513035 0.020555625 -0.033015024 0.0035351005 -0.027561007 0.0338423 -0.022055691
0.032725245 -0.0023364096 -0.009998791 0.015768759 0.00035243502 0.026254263 0.021412719 0.0328509
-0.015315164 0.0029954407 0.008786667 0.009575538 -0.012419431 -0.037693813 -0.014619639 0.024257373
-0.012808356 -0.033960458 0.00071099534 -0.03543452 -0.007846898 -0.03141936 -0.006742084 0.02080583
-0.009640976 -0.01533916 -0.018633742 0.049198028 -0.008435774 -0.011968375 0.035290275 -0.0024401448
0.020684615 -0.0284183 -0.017186856 0.0077692317 -0.015781265 0.02520643 0.0023961265 -0.03324098
0.0080573205 0.034490727 0.041513536 0.009246116 -0.012935602 0.04582386 0.036582734 0.031343646
0.0014959963 -0.00037481153 0.041295446 0.04009889 0.0024533696 -0.027013935 -0.016695634 0.043753535
-0.020542052 0.0074278885 0.009102653 -0.009397092 0.013819805 -0.016246358 -0.0010042513 0.0028385846
-0.03193185 0.02732376 0.028492244 -0.010236433 0.0002714178 -0.024826914 0.025689084 0.01574047
0.012808903 0.02972568 0.036149014 -0.011827581 -0.0064144675 -0.00280145 -0.017507322 0.0121445395
-0.027332986 -0.0298794 -0.0043568956 0.013719394 0.0064253504 0.036887288 0.04930133 -0.0063696615
-0.018668069 0.012095161 -0.01287207 0.024241336 0.053879175 0.009419422 0.056158215 -0.015314704
0.031372696 -0.026919369 -0.0362376 -0.02184693 0.03878205 0.015690349 -0.015631918 0.014266822
0.023554962 0.0029729041 0.0010616231 0.003542424 -0.0058904854 -0.02384238 -0.010380515 0.008047482
-0.036309168 -0.031829335 -0.008170962 0.0023828596 0.00422441 -0.022898257 -0.022355597 -0.017401418
0.031080058 0.038020294 0.0011196537 0.04497673 0.016580245 0.007948324 0.040775564 0.026473576
-0.016146822 -0.0010949665 0.028588332 -0.01681646 0.043652274 -0.0035766186 -0.03708655 0.02472751
-0.008454074 -0.017347233 0.035113815 -0.00887242 -0.022749819 -0.009960199 -0.014487197 -0.033696312
-0.015197349 -0.028793296 0.034435976 -0.010916071 -0.027397174 -0.03080551 -0.012679432 -0.037217878
-0.0013578605 -0.017752953 0.018678673 -0.010347764 0.022648346 0.029001603 0.0313456 0.04770818
0.04312233 -0.010722884 0.025342535 0.041400734 0.04327653 0.009379975 0.046157476 0.04053034
0.0018525212 0.043196637 -0.009716297 -0.010943177 -0.01625311 0.027168877 -0.032522853 -0.010091125
-0.006521859 -0.011466465 0.0056909267 0.02678822 0.039449565 0.012835132 0.026000118 -0.0074818823
0.032259926 0.033833276 -0.036497146 -0.028165413 -0.03782895 -0.01936717 0.03375733 -0.015152943
0.0066230544 -0.01767288 -0.026347263 -0.020889029 0.02592282 0.019005423 -0.0043357727 0.0015176052
-0.013974401 -0.033008974 0.024539739 0.03645109 -0.01692406 0.0033414548 0.02805861 0.024900194
0.001483724 0.042788554 -0.015859284 0.02882571 -0.0015729994 0.009843914 -0.0018263002 0.0110587515

reconstruction.bias f4 [4]
00000000: 483f a23c e6fa 8a3c 25d2 edbc f94c d93c
0.019805565 0.01696534 -0.029030869 0.026525961
