decomposition/simple_retinex_model/weights_last.pt (torch, 668167 bytes, 24 tensors)

feature_extraction.weight f4 [64, 3, 9, 9]
-0.011757097 -0.024196994 0.022375323 0.018239982 0.040239528 -0.044673696 0.018335387 0.04822807
0.048789997 0.059225574 0.062380526 0.05953686 -0.00042790995 0.0093337465 0.041330423 -0.027306166
0.013086613 0.05751711 0.048304353 -0.03951205 0.026942622 -0.039583288 0.03134534 0.052483167
0.018815944 0.009131569 0.058753517 0.006809117 -0.012395179 0.057478514 0.035591938 -0.039364144
7.847779e-05 -0.0031922169 0.061741292 0.03819789 -0.01360575 0.006870598 0.036005784 0.009214709
-0.040270515 -0.041862134 0.024930019 -0.037675083 -0.0452635 -0.030100917 -0.022041623 -0.046053957
-0.03394156 -0.007988877 -0.017808693 0.027538562 0.04585903 0.046844497 0.02338271 0.010478479
-0.065853216 0.037775755 -0.027629709 -0.0030196523 -0.023636628 -0.035665967 -0.030418316 -0.030121755
-0.04061487 -0.02664703 0.012339947 -0.04075186 -0.04477677 -0.05667357 0.028949518 -0.022125779
-0.048025772 -0.05390818 -0.043256868 -0.029485056 0.005309132 0.044630256 0.06037659 -0.015020557
0.03001206 0.060254496 0.003992304 0.053775832 -0.00012581574 -8.498415e-05 0.043550394 -0.010423421
-0.03838921 0.057614494 -0.03573046 -0.0005640196 -0.012328251 -0.040751316 0.05796092 -0.03228748
0.0033226025 -0.0050066872 0.008040328 -0.059577957 -0.048828613 -0.0573108 0.030669313 -0.052156843
0.00078216195 0.028133506 0.06329711 0.0009805942 -0.030824328 0.056442194 -0.06316636 0.058630474
0.051822733 -0.029937258 0.045946334 -0.002556422 0.017049693 -0.059242822 0.05232912 0.022086319
-0.05817388 0.045259215 0.013634137 -0.04063784 0.050607543 -0.055946432 -0.017733162 -0.016172739
0.02079522 0.0066922107 -0.010395553 0.052169945 -0.063918054 -0.030996902 -0.056646142 0.019244622
0.0030212253 0.009510455 0.029553832 -0.0021789733 -0.023487492 -0.06431383 -0.0037329046 0.05718308
0.016248241 0.04355022 0.051415183 -0.030190311 0.040110692 -0.025946422 -0.034506682 -0.028618904
-0.04823709 -0.041223023 -0.047921117 0.040524833 -0.06176409 -0.00063488673 0.043818608 0.014810489
-0.05748406 -0.031763844 0.0040319436 -0.017329203 -0.020476073 0.03346453 -0.062223352 0.038996425
0.023039337 -0.046034474 -0.025888614 0.05242477 -0.04443122 -0.058198765 0.04052312 0.024534395
-0.012888324 0.042462137 0.015990332 0.05384348 -0.006247851 -0.0041570896 -0.0006291696 0.01655253
-0.062230956 -0.0647644 0.007756603 0.060145374 0.022154942 -0.018207302 0.036586553 -0.027832398
-0.018374298 -0.034960657 -0.010025754 0.033564392 0.05746327 -0.013695053 0.057212237 0.049236048
0.032619003 0.010730389 -0.065965965 0.055498026 0.018213253 -0.007716416 -0.0042523425 0.050391894
-0.042496976 0.05375045 0.00464779 0.048810426 -0.013949922 -0.052452363 0.010697834 -0.015331191
0.029539632 -0.035419177 -0.041579884 0.027727501 -0.029120473 0.03181592 -0.05306345 0.040500853
-0.023762573 0.012578549 -0.020923043 0.04973834 0.03973968 -0.02463096 0.016283559 -0.03294503
0.05535321 0.05018074 -0.062282383 0.010379788 -0.05176681 -0.019382473 0.004169643 -0.006598525
-0.00097080367 0.031525016 -0.024435928 0.023211533 -0.0032601573 0.030019367 0.014232696 0.0024843467
0.016730811 -0.039192166 -0.06599308 0.0133052 -0.004949917 0.009397783 -0.05744743 -0.033494774
00000000: d7a0 40bc c638 c6bc 744c b73c 046c 953c
00000010: 34d2 243d c4fb 36bd 1834 963c cc8a 453d
00000020: 05d8 473d 8496 723d b982 7f3d ecdc 733d
00000030: 1a59 e0b9 92ec 183c 174a 293d 2eb1 dfbc
00000040: 3c69 563c 1097 6b3d c9da 453d 63d7 21bd
00000050: c6b6 dc3c 1622 22bd f963 003d 97f8 563d
00000060: e523 9a3c 949c 153c 87a7 703d 031f df3b
00000070: 2615 4bbc 976e 6b3d dac8 113d 4c3c 21bd
00000080: 7194 a438 8334 51bb 70e4 7c3d 6475 1c3d
00000090: a7ea 5ebc c122 e13b cd7a 133d 4af9 163c
000000a0: b2f2 24bd a177 2bbd 0a3a cc3c 3051 1abd
000000b0: 3866 39bd 3396 f6bc a290 b4bc 13a3 3cbd
000000c0: 4e06 0bbd c7e3 02bc 89e3 91bc 8d98 e13c
000000d0: aed6 3b3d 04e0 3f3d 198d bf3c edad 2b3c
000000e0: 0dde 86bd c0ba 1a3d b357 e2bc 5ce5 45bb
000000f0: 9aa1 c1bc 7a16 12bd d52f f9bc e6c1 f6bc
00000100: c75b 26bd df4a dabc 7d2d 4a3c 6ceb 26bd
00000110: d967 37bd 8c22 68bd 8a27 ed3c 1f41 b5bc
00000120: acb6 44bd d3ce 5cbd 1d2e 31bd a58a f1bc
00000130: 3af8 ad3b 37ce 363d 714d 773d c818 76bc
00000140: dadb f53c 6bcd 763d e0d1 823b 0c44 5c3d
00000150: 68ed 03b9 8539 b2b8 e661 323d ffc6 2abc
00000160: 013e 1dbd 2dfd 6b3d 1a5a 12bd b7da 13ba
00000170: 6ffc 49bc daea 26bd 6e68 6d3d e03f 04bd
00000180: 05c0 593b 230f a4bb 94bb 033c 0408 74bd
00000190: 8300 48bd bbbe 6abd 363e fb3c 6aa2 55bd
000001a0: 000a 4d3a 3d78 e63c eaa1 813d 4887 803a
000001b0: 4d83 fcbc ee2f 673d 5d5d 81bd 8226 703d
000001c0: 1344 543d fb3e f5bc 3932 3c3d a589 27bb
000001d0: ccab 8b3c 9aa8 72bd 0f57 563d 5eee b43c
000001e0: bc47 6ebd ba61 393d b761 5f3c dd73 26bd
000001f0: db49 4f3d 1628 65bd 2345 91bc b17c 84bc
00000200: bd5a aa3c 554a db3b 1c52 2abc 27b0 553d
00000210: 78e7 82bd 37ed fdbc c905 68bd e6a6 9d3c
00000220: c0ff 453b bdd1 1b3c e11a f23c 1bcd 0ebb
00000230: d768 c0bc f8b6 83bd bfa3 74bb ce38 6a3d
00000240: 081b 853c b761 323d ba98 523d ac51 f7bc
00000250: 1c4b 243d 978d d4bc e156 0dbd 3172 eabc
00000260: 4194 45bd 79d9 28bd ef48 44bd 5efd 253d
00000270: 58fc 7cbd 876e 26ba 247b 333d b1a7 723c
00000280: 6874 6bbd ce1a 02bd 651e 843b f9f5 8dbc
00000290: 70bd a7bc 1a12 093d eadd 7ebd b7ba 1f3d
000002a0: febc bc3c a58e 3cbd 5c14 d4bc 5bbb 563d
000002b0: 83fd 35bd d461 6ebd 92fb 253d 5bfc c83c
000002c0: 8d29 53bc c7ec 2d3d 28fe 823c fb8a 5c3d
000002d0: c6ba ccbb 3238 88bb dbee 24ba 2c99 873c
000002e0: e3e5 7ebd 33a3 84bd 1a2b fe3b ff5a 763d
000002f0: 487e b53c 7b27 95bc c8db 153d c500 e4bc
00000300: b285 96bc e832 0fbd 0f43 24bc d17a 093d
00000310: 9b5e 6b3d 3761 60bc 6157 6a3d bdab 493d
00000320: 819b 053d 83ce 2f3c 2a19 87bd e651 633d
00000330: f633 953c fdd9 fcbb 3c57 8bbb bb67 4e3d
00000340: 4f11 2ebd 6f29 5c3d 7d4c 983b 71ed 473d
00000350: 378e 64bc 4ad8 56bd f845 2f3c ad2f 7bbc
00000360: 19fd f13c b313 11bd ab4f 2abd c924 e33c
00000370: 0f8e eebc 6951 023d 0f59 59bd 39e4 253d
00000380: baa9 c2bc 4216 4e3c cd66 abbc 6eba 4b3d
00000390: 13c6 223d dec6 c9bc 1965 853c 5ef1 06bd
000003a0: 0cba 623d 528a 4d3d d01b 7fbd fc0f 2a3c
000003b0: 6f09 54bd fec7 9ebc 80a1 883b 7138 d8bb
000003c0: 887d 7eba 6020 013d db2d c8bc 1d26 be3c
000003d0: 5da8 55bb 2deb f53c 4130 693c 6cd0 223b
000003e0: 0e0f 893c f787 20bd 6127 87bd 0efe 593c
000003f0: ea32 a2bb 29f9 193c ff4d 6bbd d131 09bd

feature_extraction.bias f4 [64]
0.026366677 0.06598674 0.023734193 0.063814394 -0.037798796 -0.018116025 -0.027250959 0.019396918
-0.0399165 0.018043041 -0.010682083 -0.061514266 0.027193828 -0.008779802 -0.042750586 0.06551973
-0.06291643 -0.034455642 -0.06709158 0.062521234 0.02933529 0.06243426 0.03548156 -0.027871713
0.030302074 0.048322286 0.064842135 -0.050176766 0.03995509 -0.056258764 0.03148803 0.049165778
0.069406316 0.011434176 -0.0013002066 -0.03639552 0.0395254 0.02679766 0.027695205 -0.06133699
-0.0376833 -0.029538373 -0.056860503 -0.05745681 0.04882139 0.041661933 -0.028520556 0.038423132
0.01640797 0.0039807186 -0.010915463 0.02162514 -0.05850774 0.044103418 0.023751484 -0.054413937
-0.06737285 -0.050922573 0.029663702 -0.044699628 0.019765623 0.052711744 0.030563114 -0.045941196
00000000: eefe d73c 0e24 873d 366e c23c 1fb1 823d
00000010: e9d2 1abd 0f68 94bc 673d dfbc 49e6 9e3c
00000020: 7c7f 23bd 00cf 933c e703 2fbc 62f6 7bbd
00000030: 97c5 de3c 29d9 0fbc 3d1b 2fbd 352f 863d
00000040: 54da 80bd 5c21 0dbd 4f67 89bd 220b 803d
00000050: 9050 f03c 11bb 7f3d 1d55 113d 3853 e4bc
00000060: 0e3c f83c 97ed 453d f4cb 843d 2786 4dbd
00000070: f3a7 233d 976f 66bd 98f9 003d 0e62 493d
00000080: e624 8e3d 6956 3b3c b26b aaba 7813 15bd
00000090: 63e5 213d c486 db3c 0ee1 e23c 7f3c 7bbd
000000a0: ce59 1abd 75fa f1bc 8fe6 68bd d557 6bbd
000000b0: f0f8 473d b4a5 2a3d f1a3 e9bc 9361 1d3d
000000c0: 026a 863c b070 823b c5d6 32bc 3527 b13c
000000d0: d0a5 6fbd c9a5 343d 7992 c23c 26e1 5ebd
000000e0: c7fa 89bd 3094 50bd 4b01 f33c f516 37bd
000000f0: 84eb a13c 45e8 573d 7f5f fa3c d62c 3cbd

convolutions.0.weight f4 [64, 64, 3, 3]
0.012442811 -0.040862825 -0.032764327 0.004272514 0.014786264 -0.041009244 -0.019124962 -0.018368531
-0.019172007 -0.026229564 -0.032366652 -0.008821669 0.032715276 -0.0038076905 -0.021747386 0.038225688
0.0047487905 0.028802758 -0.0054130163 -0.02242604 -0.0033674426 0.0071242005 0.014088419 -0.013585311
-0.020443043 -0.040863045 0.0024368814 0.022298617 0.00945229 -0.015053864 -0.019755682 -0.022097904
0.00010339622 -0.017161228 0.03435684 -0.042248413 -0.016590439 -0.03636061 -0.0074835946 -0.029931055
0.02509103 0.030097371 0.02459365 0.007493495 0.028795475 -0.013222868 -0.03212175 0.018140832
0.025187705 -0.00022935357 0.033275016 -0.0046454994 -0.015707906 -0.008214956 0.03550618 0.01477021
-0.030224506 0.03102087 0.015894534 0.032081895 -0.003380869 0.030719258 -0.026048485 0.012219237
-0.04174724 0.013166842 0.03896978 -0.016747586 0.0024835572 0.026513906 -0.0026542065 0.012262854
-0.011543276 -0.0039492976 0.005215011 -0.025578244 -0.019154178 -0.029342264 0.014325081 0.022456162
0.023692448 -0.037073515 -0.011664566 0.0015815467 -0.0045529134 0.016956598 -0.03938965 -0.009165378
0.0058063483 0.0055968887 -0.011669343 -0.03194714 0.029472308 -0.022921177 -0.035251457 -0.010602094
-0.030625662 0.03186427 0.01757385 0.016032413 -0.0066146357 0.0015570868 0.014174751 0.005098589
-0.015212977 0.028043728 0.01257701 -0.0333585 -0.015081909 -0.024515025 -0.038015086 0.0023902394
0.011345219 -0.003586655 0.019302666 0.037356958 0.01062506 0.01909991 0.009336174 0.0091580255
0.010224851 -0.00836813 -0.0027363438 0.022937963 -0.03100493 -0.008090258 0.0153897675 0.03459379
0.021612758 0.01297891 -0.030161763 0.040637568 -0.014378524 0.030708563 -0.034626156 -0.041383993
0.038914856 -0.029087842 0.028805843 0.032016188 0.020596497 -0.032551568 0.00397878 0.0026860961
0.042777665 0.012672383 -0.017771862 -0.0060698725 -0.016908558 0.0033243245 0.005179568 -0.0045595826
0.00025663886 0.01670769 0.009071169 -0.0062239678 0.020495292 0.044427793 0.03154848 -0.0076395315
0.036377385 0.020020865 -0.03407624 -0.037404835 -0.037192494 -0.025892721 -0.0009276527 0.0032204401
-0.03582327 0.026122086 0.020563584 -0.019028572 0.022948794 -0.03220622 -0.03472959 0.020988047
-0.042339128 0.013774266 0.024499426 0.028367618 -0.003737315 -0.042911913 0.017929936 0.03079301
-0.015526292 -0.04311375 -0.008583467 0.015405821 -0.006028042 0.020438353 0.03601168 0.026802544
-0.032864165 0.036567565 0.018256398 -0.006709155 0.03904415 0.040184572 0.009840847 0.008145652
0.013138177 -0.040069427 0.018771116 -0.038748752 -0.040886205 -0.009421281 0.008682635 0.0004969631
0.03134968 -0.033193413 -0.02911743 0.02293459 0.03463627 -0.012720255 0.031962387 -0.03203501
0.015112827 -0.031614657 -0.021458117 -0.010912585 0.03507223 0.018722462 -0.012869769 -0.019857455
0.008469537 -0.037265696 0.0055174613 0.03847791 -0.014988497 0.0039427523 0.028777095 -0.042199675
-0.022941494 -0.036274962 0.028534494 -0.03798164 -0.009293211 -0.0045396723 0.010986608 -0.026759591
0.005412662 -0.011841486 0.023651201 0.025026713 0.02178097 -0.028506627 0.026364623 0.030195003
-0.033536308 -0.011768518 -0.01605474 0.0034103838 0.010486384 -0.04240596 -0.04096684 0.016209912
00000000: efdc 4b3c c75f 27bd e333 06bd 7200 8c3b
00000010: 1642 723c 4ff9 27bd f4ab 9cbc 9a79 96bc
00000020: 9d0e 9dbc 62df d6bc e592 04bd c388 10bc
00000030: 7400 063d 728a 79bb 9327 b2bc 8a92 1c3d
00000040: be9b 9b3b c3f3 eb3c ac5f b1bb d1b6 b7bc
00000050: 50b0 5cbb 2072 e93b 1dd3 663c ed94 5ebc
00000060: 2b78 a7bc 0260 27bd 16b4 1f3b 97ab b63c
00000070: c7dd 1a3c 7ba4 76bc abd6 a1bc aa06 b5bc
00000080: 6cd6 d838 b495 8cbc c2b9 0c3d ac0c 2dbd
00000090: ace8 87bc ddee 14bd f138 f5bb f931 f5bc
000000a0: b48b cd3c c38e f63c 9f78 c93c fe8b f53b
000000b0: 7de4 eb3c baa4 58bc 1992 03bd 159c 943c
000000c0: 7256 ce3c a17e 70b9 624b 083d 4639 98bb
000000d0: dead 80bc 0698 06bc ee6e 113d c0fe 713c
000000e0: 6299 f7bc 7b1f fe3c 4135 823c 4e68 033d
000000f0: 9291 5dbb f4a6 fb3c a263 d5bc 3233 483c
00000100: 27ff 2abd bdb9 573c c79e 1f3d 3c32 89bc
00000110: 2dc3 223b b133 d93c 32f2 2dbb 23ea 483c
00000120: 0220 3dbc 1c69 81bb afe2 aa3b 7789 d1bc
00000130: 39e9 9cbc 305f f0bc bfb3 6a3c fcf5 b73c
00000140: aa16 c23c 66da 17bd bc1c 3fbc e74b cf3a
00000150: 9b30 95bb 90e8 8a3c 0b57 21bd 622a 16bc
00000160: 2e43 be3b 1b66 b73b c630 3fbc 01db 02bd
00000170: e96f f13c 31c5 bbbc d563 10bd 68b4 2dbc
00000180: abe2 fabc 1c84 023d 09f7 8f3c 6856 833c
00000190: 96bf d8bb 2a17 cc3a 373d 683c 1112 a73b
000001a0: da3f 79bc f6bb e53c ce0f 4e3c eca2 08bd
000001b0: 1c1a 77bc bcd3 c8bc b5b5 1bbd 90a5 1c3b
000001c0: 4ce1 393c 160e 6bbb a020 9e3c 9c03 193d
000001d0: bb14 2e3c 6a77 9c3c c0f6 183c 8b0b 163c
000001e0: 2286 273c 7b1a 09bc 3b54 33bb 65e8 bb3c
000001f0: 0dfe fdbc 008d 04bc 5d25 7c3c 38b2 0d3d
00000200: 3d0d b13c 7ea5 543c cd15 f7bc 9473 263d
00000210: e793 6bbc 8690 fb3c 28d4 0dbd 4382 29bd
00000220: 2f65 1f3d a049 eebc 3bfa eb3c 6823 033d
00000230: fcb9 a83c cb54 05bd 6d60 823b 3709 303b
00000240: a237 2f3d d49f 4f3c 4c96 91bc c8e5 c6bb
00000250: d183 8abc e9dc 593b 5eb9 a93b 8d68 95bb
00000260: 7c8d 8639 91de 883c 3e9f 143c 6df2 cbbb
00000270: bee5 a73c ebf9 353d fb38 013d 0955 fabb
00000280: 7400 153d cc02 a43c 8793 0bbd d035 19bd
00000290: 2857 18bd f91c d4bc b82d 73ba 050e 533b
000002a0: 6cbb 12bd fcfd d53c f674 a83c cfe1 9bbc
000002b0: 1cff bb3c abea 03bd 9d40 0ebd 20ef ab3c
000002c0: cb6b 2dbd 75ad 613c 05b3 c83c 3563 e83c
000002d0: beed 74bb 67c4 2fbd cde1 923c 9f41 fc3c
000002e0: fd61 7ebc 0b98 30bd aca1 0cbc b268 7c3c
000002f0: e286 c5bb 556e a73c fc80 133d 0291 db3c
00000300: 939c 06bd dfc7 153d 718e 953c 79d8 dbbb
00000310: c2ec 1f3d 9498 243d 813b 213c 5775 053c
00000320: 8241 573c d71f 24bd e2c5 993c 03b7 1ebd
00000330: 4b78 27bd b75b 1abc 9c41 0e3c a146 023a
00000340: 8668 003d d1f5 07bd ad87 eebc 52e1 bb3c
00000350: c3de 0d3d 9e68 50bc feea 023d 2537 03bd
00000360: ca9b 773c 5f7e 01bd efc8 afbc b3ca 32bc
00000370: e6a7 0f3d d95f 993c b9db 52bc 1aac a2bc
00000380: d0c3 0a3c eaa3 18bd d2cb b43b 039b 1d3d
00000390: 5092 75bc 3432 813b f1bd eb3c 91d9 2cbd
000003a0: cdef bbbc 0e95 14bd 2cc1 e93c a392 1bbd
000003b0: 8d42 18bc 88c1 94bb 2d01 343c ee36 dbbc
000003c0: b35c b13b cb02 42bc 2ac0 c13c d204 cd3c
000003d0: 016e b23c bb86 e9bc 9ffa d73c 835b f73c
000003e0: 5e5d 09bd bed0 40bc 3b85 83bc bf80 5f3b
000003f0: 15cf 2b3c dfb1 2dbd d8cc 27bd a6ca 843c

convolutions.0.bias f4 [64]
0.008092624 0.029967813 0.011348422 -0.0131786 -0.021660862 -0.040270798 0.044419654 0.038084093
-0.02355604 -0.0007197248 -0.027315674 0.021251835 -0.016202867 -0.021053039 0.04600553 0.042590592
0.04757131 0.025308792 0.05073251 -0.035045467 -0.039784852 -0.032250393 -0.016313883 -0.0035683126
-0.027669044 -0.0344138 0.03925168 -0.006092641 -0.0014430198 0.00999901 0.043848716 -0.0017399803
-0.027261885 0.054210074 0.015332063 0.009016816 0.031535566 -0.04093095 0.015565528 -0.04169725
0.033444464 0.0038118656 0.003313528 -0.005062381 -0.008148603 -0.008370549 -0.03422209 0.009480064
0.00416224 0.034380585 -0.029994076 -0.02554652 0.019215047 0.03525875 -0.029993001 -0.03763028
0.01938746 0.00042084203 0.033464063 0.037170116 0.03873017 0.0018296449 0.033814162 -0.014286166
00000000: ed96 043c 0f7f f53c bbee 393c 0eeb 57bc
00000010: 1f72 b1bc fef2 24bd 62f1 353d 11fe 1b3d
00000020: 99f8 c0bc eaab 3cba 1fc5 dfbc 5418 ae3c
00000030: e0bb 84bc 6c77 acbc 4b70 3c3d 7973 2e3d
00000040: 22da 423d 6254 cf3c e4cc 4f3d d68b 0fbd
00000050: 71f5 22bd fd18 04bd b1a4 85bc 5ada 69bb
00000060: 31aa e2bc 7cf5 0cbd 5fc6 203d c7a4 c7bb
00000070: b623 bdba e3d2 233c b69a 333d 0d10 e4ba
00000080: 5154 dfbc 620b 5e3d 5533 7b3c 44bb 133c
00000090: 702b 013d 36a7 27bd 8e06 7f3c bcca 2abd
000000a0: 10fd 083d 7ed0 793b c627 593b 54e2 a5bb
000000b0: b881 05bc a124 09bc 762c 0cbd 4552 1b3c
000000c0: 6663 883b a8d2 0c3d 23b6 f5bc ef46 d1bc
000000d0: e068 9d3c 7b6b 103d e2b3 f5bc 3522 1abd
000000e0: 73d2 9e3c 76a4 dc39 9d11 093d b13f 183d
000000f0: 87a3 1e3d b2d0 ef3a b880 0a3d 8610 6abc

convolutions.2.weight f4 [64, 64, 3, 3]
-0.0154589685 0.0003778012 0.0054797563 0.027725192 -0.019321803 -0.02675812 -0.01151265 -0.012324566
0.032662336 0.022345988 -0.017543094 0.03511431 -0.006830464 0.018468015 -0.03665418 0.004224171
0.0027170428 -0.011618413 -0.034997582 0.025118392 0.03590885 -0.043837246 0.010848022 -0.023626978
-0.017075198 -0.036503017 -0.034223545 0.03947178 -0.0012239198 -0.012159447 -0.03164069 0.040829603
0.015581219 -0.013900278 -0.006339967 0.0113066295 0.0027489795 -0.017566947 0.035212185 0.022367554
0.037341595 0.02642852 0.014833135 0.034981668 -0.0029124129 0.031359755 -0.025298627 -0.014617182
-0.023258077 -0.030611482 0.011536395 -0.0017807225 -0.03893535 -0.03695775 -0.006831945 0.016497873
0.02556032 -0.013826914 0.019571263 0.0035637007 0.036452048 0.04820554 0.020349696 -0.012334324
0.028964441 0.0395118 0.012765658 -0.019747214 0.016268874 -0.022305207 -0.00989735 -0.033652946
0.032313097 -0.029866137 -0.04063537 -0.04332162 0.025471589 0.022776807 -0.010300342 0.014140047
0.014767384 -0.025234157 0.024368923 -0.043935437 -0.001727553 -0.0007490262 0.00824358 -0.00021278055
-0.03637306 -0.015965106 -0.012502676 -0.041842055 -0.021465046 -0.042762708 -0.029638642 0.012733555
0.034940366 -0.014847932 0.03763038 -0.0018317013 -0.009310903 -0.016432488 -0.0012111301 -0.031478178
0.04172115 0.036446594 0.012428025 -0.032328192 0.022186808 0.038041774 -0.0388732 -0.030425051
-0.01899234 0.0143240765 0.0181498 -0.035290603 0.0025471572 -0.031460933 -0.017524242 -0.032372806
-0.000318397 0.03246669 -0.030918242 -0.032734327 0.036560178 0.000845097 0.041607622 0.0077459165
-0.03615636 0.039744645 -0.02507345 -0.008614666 -0.0096499175 -0.011098277 0.009042174 0.035851214
0.042088605 -0.0072450405 -0.009034991 0.04819642 0.043566253 0.034190726 0.02913794 -0.0045364397
-0.008092503 -0.004364434 0.02654747 -0.0034153932 -0.0010453954 0.015434482 0.0031239896 0.030456075
0.04237786 0.006571988 -0.011043403 0.017011806 0.024835292 -0.024208834 -0.024636447 0.019405084
0.015434979 0.01581883 -0.014526387 0.032260176 -0.015629848 -0.016552038 -0.009041368 -5.0830407e-05
-0.024791276 0.014858319 -0.0355034 0.011192912 0.012087453 0.00950051 0.036137655 -0.01961083
0.006401055 -0.030855538 -0.011561073 0.014129439 -0.0066049825 0.013134582 0.027922636 0.02783346
-0.042003304 -0.012937782 -0.04125095 0.015502124 -0.03684995 -0.029700512 -0.021390142 0.015938349
0.02027109 0.0022663116 0.002146611 -0.042144563 -0.035274297 0.03433905 0.012957834 -0.014370495
0.025794456 0.021811204 0.0031451639 -0.029189715 0.036098912 0.029063603 -0.0417128 -0.0315288
-0.020050926 0.010152778 0.02680985 0.008833171 0.031993132 0.008550071 0.037690185 0.017848153
-0.01973592 -0.015818045 0.008404663 -0.035810955 -0.026245205 -0.03465376 0.029211124 -0.0022837927
-0.03166936 0.02665605 0.03365232 -0.018832803 0.031375684 -0.023170818 0.0072258464 -0.017779315
-0.003265651 0.037452683 -0.029382078 -0.024120733 0.009046843 0.041816007 0.015638191 0.006365185
-0.033019133 0.029131653 -0.02033365 0.036009625 0.019530749 -0.031829868 0.02743987 -0.010677728
-0.035643365 -0.0066900193 -0.043276772 0.028896265 -0.009114143 0.026909405 -0.035084713 -0.022955423
00000000: 9d47 7dbc 9e13 c639 878f b33b f11f e33c
00000010: c248 9ebc d833 dbbc 8e9f 3cbc faec 49bc
00000020: f1c8 053d ef0e b73c 89b6 8fbc 06d4 0f3d
00000030: 16d2 dfbb 3c4a 973c b222 16bd ea6a 8a3b
00000040: 6a10 323b 285b 3ebc a059 0fbd 16c5 cd3c
00000050: 2915 133d af8e 33bd e7bb 313c 5d8d c1bc
00000060: 49e1 8bbc 3084 15bd fd2d 0cbd 29ad 213d
00000070: ef6b a0ba 6b38 47bc ab99 01bd f13c 273d
00000080: 5f48 7f3c febd 63bc 7fbf cfbb 713f 393c
00000090: 3928 343b 8fe8 8fbc a73a 103d 293c b73c
000000a0: 80f3 183d a080 d83c ad06 733c f048 0f3d
000000b0: 2ede 3ebb 1673 003d 113f cfbc e87c 6fbc
000000c0: b987 bebc eec4 fabc 2603 3d3c 2267 e9ba
000000d0: ac7a 1fbd 0261 17bd 82de dfbb 8c26 873c
000000e0: e063 d13c 488a 62bc ea53 a03c fa8c 693b
000000f0: be4e 153d 2c73 453d 68b4 a63c e815 4abc
00000100: d646 ed3c 20d7 213d 0d27 513c e9c4 a1bc
00000110: 4d46 853c 69b9 b6bc 7f28 22bc acd7 09bd
00000120: bd5a 043d d4a9 f4bc 4671 26bd 0372 31bd
00000130: cba9 d03c 6d96 ba3c c4c2 28bc a8ab 673c
00000140: e6f2 713c ddb7 cebc 56a1 c73c a5f5 33bd
00000150: 0f6f e2ba 4c5a 44ba 1510 073c d81d 5fb9
00000160: ebfb 14bd 41c9 82bc 06d8 4cbc 9362 2bbd
00000170: 77d7 afbc f327 2fbd bdcc f2bc 67a0 503c
00000180: a11d 0f3d be44 73bc 5022 1a3d b215 f0ba
00000190: c28c 18bc 6d9d 86bc c8be 9eba 43ef 00bd
000001a0: cce3 2a3d 0649 153d ea9e 4b3c 916a 04bd
000001b0: 1cc1 b53c b1d1 1b3d 8139 1fbd f53d f9bc
000001c0: d395 9bbc 88af 6a3c e4ae 943c e18c 10bd
000001d0: 35ee 263b 2edd 00bd 008f 8fbc 5999 04bd
000001e0: 86ee a6b9 cbfb 043d 4148 fdbc 6e14 06bd
000001f0: 20c0 153d 8089 5d3a c16c 2a3d 75d1 fd3b
00000200: b118 14bd 48cb 223d d666 cdbc 8724 0dbc
00000210: b01a 1ebc 8cd5 35bc a025 143c b9d8 123d
00000220: 1a65 2c3d ce67 edbb 8007 14bc 9c69 453d
00000230: 8772 323d 930b 0c3d b0b2 ee3c 6aa6 94bb
00000240: 6b96 04bc 8703 8fbb 147a d93c cad4 5fbb
00000250: a605 89ba e9e0 7c3c d9bb 4c3b 057f f93c
00000260: 6894 2d3d d559 d73b 64ef 34bc 585c 8b3c
00000270: 6273 cb3c 9b51 c6bc 60d2 c9bc 69f7 9e3c
00000280: ffe2 7c3c 7e96 813c 1500 6ebc 3f23 043d
00000290: 2b0a 80bc 2498 87bc 3f22 14bc bc32 55b8
000002a0: 1317 cbbc 4f70 733c 036c 11bd 7a62 373c
000002b0: 740a 463c 07a8 1b3c 1405 143d e4a6 a0bc
000002c0: f1bf d13b c1c4 fcbc a86a 3dbc 2a7f 673c
000002d0: 9c6e d8bb 6e32 573c 03be e43c ff02 e43c
000002e0: a80b 2cbd fef8 53bc c2f6 28bd 9ffc 7d3c
000002f0: f9ef 16bd 7d4e f3bc 613a afbc 2491 823c
00000300: 8f0f a63c 6686 143b 28ae 0c3b c79f 2cbd
00000310: c87b 10bd 1ba7 0c3d 184d 543c 3a72 6bbc
00000320: e54e d33c 69ad b23c 181f 4e3b 451f efbc
00000330: 74dc 133d cb16 ee3c 0adb 2abd 5824 01bd
00000340: d741 a4bc d657 263c 55a0 db3c 01b9 103c
00000350: 3b0b 033d 9915 0c3c 0661 1a3d 4a36 923c
00000360: 39ad a1bc d894 81bc b6b3 093c 82ae 12bd
00000370: 2f00 d7bc 1af1 0dbd 2b4c ef3c afab 15bb
00000380: bbb7 01bd ca5d da3c 04d7 093d 4047 9abc
00000390: ca83 003d bad0 bdbc cbc6 ec3b eda5 91bc
000003a0: 8804 56bb fc67 193d afb2 f0bc d898 c5bc
000003b0: 3639 143c 4347 2b3d aa1b 803c 0b93 d03b
000003c0: 123f 07bd 81a5 ee3c c192 a6bc d47e 133d
000003d0: f3fe 9f3c 0960 02bd 94c9 e03c a3f1 2ebc
000003e0: c7fe 11bd f337 dbbb fc42 31bd dcb7 ec3c
000003f0: 7d53 15bc 1d71 dc3c fdb4 0fbd 030d bcbc

convolutions.2.bias f4 [64]
0.018700726 -0.010721958 0.031932767 0.044461507 0.042999983 -0.011417964 -0.021624593 0.028635066
0.00043534662 0.038855076 -0.005643981 -0.008846691 -0.014133878 -0.017876325 -0.03648338 -0.033878002
-0.00603801 -0.03394287 0.04029002 0.028914398 0.025743125 -0.016319128 0.019099485 0.013330025
0.006000831 0.012495483 -0.028345551 0.040076602 -0.0013896492 0.019610891 -0.02918251 -0.022626257
-0.029283762 -0.027546544 0.0112892995 0.027468473 -0.026257211 0.0071266196 0.044202313 -0.037346307
-0.028488597 -0.031041143 0.0066132895 0.00027018448 0.02327416 0.019259881 0.009413935 -0.031000648
0.0008486511 0.0123594 0.008826773 0.042299997 -0.014654083 -0.04114533 -0.020739647 0.0119416155
-0.00089731574 0.023351967 0.038698886 0.03291236 -0.041347574 -0.012967617 0.03185461 0.0027294091
00000000: 4432 993c 27ab 2fbc efcb 023d 451d 363d
00000010: c020 303d 6912 3bbc 0f26 b1bc 1694 ea3c
00000020: 3c3f e439 8026 1f3d 25f1 b8bb b6f1 10bc
00000030: c891 67bc 5f71 92bc 996f 15bd a9c3 0abd
00000040: 80da c5bb ae07 0bbd 2607 253d e3dd ec3c
00000050: 3fe3 d23c b1af 85bc 8676 9c3c 2d66 5a3c
00000060: 9ea2 c43b dbb9 4c3c ee34 e8bc 5d27 243d
00000070: e424 b6ba 05a7 a03c 2910 efbc b35a b9bc
00000080: 80e4 efbc 4aa9 e1bc c1f6 383c 9005 e13c
00000090: 5d19 d7bc 6b86 e93b 7c0d 353d 71f8 18bd
000000a0: eb60 e9bc ff49 febc 4bb4 d83b 8ca7 8d39
000000b0: 74a9 be3c e6c6 9d3c e83c 1a3c 12f5 fdbc
000000c0: 0378 5e3a 157f 4a3c 2b9e 103c c342 2d3d
000000d0: ae17 70bc 0188 28bd 31e6 a9bc c4a6 433c
000000e0: d739 6bba a04c bf3c b982 1e3d 1ccf 063d
000000f0: 135c 29bd 2176 54bc fb79 023d e3df 323b

convolutions.4.weight f4 [64, 64, 3, 3]
-0.03379458 -0.033243667 -0.009891002 -0.032952517 -0.03201181 0.028810728 -0.016972924 0.025680935
-0.036381558 -0.035101257 0.038335413 -0.033081707 -0.040024195 -0.039338212 0.041685164 0.017547749
0.01205633 0.009743313 -0.026013793 -0.044226125 -0.018763497 -0.018191911 0.030203909 -0.021975804
0.0016402603 -0.0021959555 0.0017745636 -0.030906474 -0.016635047 0.014871441 0.013066898 -0.042304385
-0.025480933 0.005184184 -0.018389452 0.0013998424 0.003085447 -0.032834444 -0.011124328 0.016536584
0.00042756097 -0.007124487 0.040039852 -0.035503756 -0.019175079 -0.003377202 0.015915386 -0.036742628
-0.0058616335 -0.0015686419 0.02445531 0.018398276 -0.024816573 -0.029891536 0.018157573 0.005091316
0.020295614 0.034370337 0.0248589 0.03764713 0.027161082 -0.036084294 -0.0038151452 0.008573797
-0.033169936 0.018049521 0.0049229297 -0.025065755 -0.021398585 0.044329774 0.029233372 0.0040006996
0.012752192 -0.031224806 -0.014329167 0.015614439 0.026767744 0.020195765 0.011157446 -0.0019632615
-0.0029080163 -0.0143392915 -0.035093606 0.023712676 0.011952115 -0.040370915 0.014494351 -0.017804476
-0.029040476 -0.015091747 0.022187885 -0.040126443 0.021364057 -0.028784022 -0.024892798 0.0068091666
-0.021624267 0.032504756 -0.04010795 -0.027004996 0.03155835 0.016168155 -0.04070303 -0.0040374477
0.0049697636 -0.025386509 -0.011842551 0.032026295 0.024623686 -0.009770902 -0.00017220358 0.012425842
0.022153515 0.005434868 0.009766439 -0.028336352 0.020246454 -0.011914332 0.0018125109 -0.02580338
0.028743282 0.039423358 -0.018727763 -0.027423207 -0.018266065 -0.0335269 -0.025059093 0.04013186
0.02631574 0.038273897 0.021845737 -0.007004397 0.009089232 -0.0047026663 0.014809054 -0.035393327
-0.032638326 -0.03097659 -0.00021207954 -0.015473844 0.010011308 0.011737283 -0.0442935 -0.04582757
0.017431349 -0.0043800278 0.03395106 -0.0390785 0.020299232 0.025852358 -0.04159569 0.017379781
-0.03675535 0.0026149868 0.032542415 -0.00279105 -0.01973482 -0.00759517 0.0077534127 -0.0027288403
-0.016843988 0.029642466 0.039511405 0.040514838 -0.01653749 0.01107975 0.033849873 0.013794561
-0.01495445 0.033133786 -0.007748373 0.027740674 0.036772173 -0.019326873 0.034486193 -0.036983065
-0.030236661 0.027862338 -0.033460468 -0.031093089 0.034622435 0.0031946772 0.033384293 -0.009310944
-0.016585127 -0.009123883 0.013722545 -0.020764407 0.034505766 0.028799202 -0.008343699 0.0109976325
0.01576395 0.040458865 -0.014646486 -0.020907857 -0.018994065 0.009681396 -0.0057895747 0.030987747
-0.019828284 -0.033524808 -0.03894871 0.032531135 0.012757981 0.031615622 -0.03844138 0.029484265
-0.0348718 0.0019643703 -0.0024198303 -0.012130252 0.021237731 -0.01004446 -0.011859656 0.03810676
0.0147060575 -0.010186688 -0.013252203 0.025949053 -0.0034049426 -0.020190641 -0.028998237 -0.02058434
0.00698703 -0.037262183 0.030489102 0.0018508763 -0.03262998 -0.0031634618 -0.025384363 0.014609989
-0.011938962 -0.032181628 -0.013698227 0.025123581 0.02689353 0.033512276 0.04315783 0.03064212
0.033527866 0.024020845 0.039694864 -0.02963805 0.017526288 0.0155425295 -0.014750226 0.0018962383
0.031458978 0.0024398826 -0.017933259 0.00020197859 0.0033935574 -0.02064519 -0.021917496 -0.032034878
00000000: 2f6c 0abd 832a 08bd df0d 22bc 38f9 06bd
00000010: d11e 03bd 7a04 ec3c cd0a 8bbc d360 d23c
00000020: d404 15bd 56c6 0fbd 9805 1d3d af80 07bd
00000030: 69f0 23bd 1b21 21bd 10be 2a3d 4cc0 8f3c
00000040: ea87 453c 6ba2 1f3c e11a d5bc 7426 35bd
00000050: e8b5 99bc 3407 95bc 306e f73c 9a06 b4bc
00000060: 01fe d63a 05ea 0fbb 7998 e83a 932f fdbc
00000070: 3946 88bc 58a7 733c 8b16 563c 5d47 2dbd
00000080: 64bd d0bc 16e0 a93b 7aa5 96bc eb7a b73a
00000090: 3635 4a3b 697d 06bd d042 36bc bb77 873c
000000a0: 432a e039 8774 e9bb d400 243d 636c 11bd
000000b0: 0e15 9dbc 0c54 5dbb fc60 823c 707f 16bd
000000c0: f212 c0bb e39a cdba 8156 c83c fbb7 963c
000000d0: 204c cbbc 18df f4bc 31bf 943c 0ed5 a63b
000000e0: fd42 a63c e9c7 0c3d e4a4 cb3c e133 1a3d
000000f0: eb80 de3c 20cd 13bd 8407 7abb 1c79 0c3c
00000100: 33dd 07bd 97dc 933c 8750 a13b b356 cdbc
00000110: 164c afbc 2393 353d d37a ef3c 4d18 833b
00000120: 92ee 503c 2acb ffbc e2c4 6abc b4d3 7f3c
00000130: 0748 db3c 9771 a53c b8cd 363c 10aa 00bb
00000140: 6b94 3ebb 59ef 6abc 50be 0fbd 1641 c23c
00000150: ced2 433c f95b 25bd b779 6d3c b1da 91bc
00000160: 4be6 edbc 6043 77bc 5ec3 b53c a05b 24bd
00000170: ad03 af3c 78cc ebbc fbeb cbbc 6e1f df3b
00000180: 6025 b1bc b523 053d 3c48 24bd 9539 ddbc
00000190: 5443 013d 1473 843c 38b8 26bd 914c 84bb
000001a0: 66d9 a23b 5ef7 cfbc 4207 42bc 012e 033d
000001b0: 9db7 c93c 2216 20bc 8c91 34b9 c295 4b3c
000001c0: 4a7b b53c fa16 b23b 6a03 203c a321 e8bc
000001d0: e4db a53c 5534 43bc c691 ed3a 9c61 d3bc
000001e0: 0877 eb3c 637a 213d f76a 99bc a2a6 e0bc
000001f0: b7a2 95bc 8153 09bd ba48 cdbc 4e61 243d
00000200: 1b94 d73c 17c5 1c3d d5f5 b23c 2485 e5bb
00000210: 01eb 143c d318 9abb ada1 723c 98f8 10bd
00000220: c4af 05bd 9ec2 fdbc ab61 5eb9 0186 7dbc
00000230: 7806 243c bc4d 403c 1a6d 35bd b1b5 3bbd
00000240: 30cc 8e3c 5686 8fbb 4410 0b3d c710 20bd
00000250: 934a a63c 53c8 d33c 3e60 2abd 0b60 8e3c
00000260: c78c 16bd 3360 2b3b 324b 053d 0cea 36bb
00000270: ebaa a1bc e7e0 f8bb 5710 fe3b 58d6 32bb
00000280: 67fc 89bc c2d4 f23c b6d6 213d e3f2 253d
00000290: a179 87bc d787 353c 2aa6 0a3d 9502 623c
000002a0: 8203 75bc 4bb7 073d 10e6 fdbb 6940 e33c
000002b0: 6b9e 163d 6453 9ebc 6541 0d3d 8e7b 17bd
000002c0: e0b2 f7bc 8f3f e43c d80d 09bd efb6 febc
000002d0: 41d0 0d3d ca5d 513b f8bd 083d ee8c 18bc
000002e0: 88dd 87bc 577c 15bc 86d4 603c 1e1a aabc
000002f0: eb55 0d3d 4eec eb3c 03b4 08bc 6a2f 343c
00000300: 6623 813c 32b8 253d d1f7 6fbc f446 abbc
00000310: 7199 9bbc b89e 1e3c 79b6 bdbb 04da fd3c
00000320: ed6e a2bc 4f51 09bd af88 1fbd 5e3f 053d
00000330: da06 513c 627f 013d b574 1dbd fc88 f13c
00000340: bcd5 0ebd aabc 003b 0496 1ebb f7bd 46bc
00000350: c0fa ad3c 8591 24bc 014f 42bc d515 1c3d
00000360: adf1 703c 11e6 26bc c51f 59bc 1c93 d43c
00000370: 7525 5fbb d866 a5bc b68d edbc 7da0 a8bc
00000380: 75f3 e43b 3ba0 18bd 48c4 f93c 1a99 f23a
00000390: 04a7 05bd 1552 4fbb def2 cfbc bc5e 6f3c
000003a0: a39b 43bc e2d0 03bd 876e 60bc f8cf cd3c
000003b0: d24f dc3c 2b44 093d 44c6 303d 2f05 fb3c
000003c0: 8454 093d 5dc7 c43c 1597 223d 7fcb f2bc
000003d0: 4a93 8f3c 18a6 7e3c efaa 71bc 338b f83a
000003e0: 21db 003d 70e6 1f3b c5e8 92bc 37ca 5339
000003f0: 7266 5e3b 1a20 a9bc 528c b3bc 0137 03bd

convolutions.4.bias f4 [64]
-0.0018563772 0.02246323 0.04346871 0.0077305296 -0.014017669 0.024819667 -0.038671147 0.03105597
-0.020317711 0.0550629 -0.00034511412 -0.0076821162 0.0043776147 -0.0066022906 0.043615006 -0.020874962
0.017465312 -0.01586779 -0.0056870356 0.046633203 -0.0052785827 0.036861587 -0.034974534 0.017908115
0.0286416 -0.033295896 0.015321018 -0.035268012 0.016020525 -0.013295025 0.046828773 -0.02522809
0.02909277 -0.039081093 -0.037827406 -0.014032681 -0.025743935 0.017861996 -0.027394865 0.03752624
-0.012687827 0.029246967 0.031988937 0.026022738 0.0036281901 0.022108275 0.00040059828 -0.026768416
0.007573538 0.035878945 -0.027105702 0.024512077 -0.010956238 0.033812307 0.041940764 0.043963578
0.0231919 -0.0048903897 0.03851329 0.04501063 0.013673251 0.016225483 -0.011161258 0.033486016
00000000: af51 f3ba cf04 b83c 3f0c 323d 6250 fd3b
00000010: 5daa 65bc 9d52 cb3c a365 1ebd 1769 fe3c
00000020: 5471 a6bc a389 613d 6ff0 b4b9 43ba fbbb
00000030: 1872 8f3b 0758 d8bb a6a5 323d f801 abbc
00000040: 6a13 8f3c 2bfd 81bc 505a babb 7502 3f3d
00000050: f6f7 acbb 2dfc 163d 7541 0fbd 0ab4 923c
00000060: caa1 ea3c 4761 08bd 0205 7b3c 3175 10bd
00000070: 7a3d 833c 60d3 59bc 87cf 3f3d 24ab cebc
00000080: f653 ee3c 7f13 20bd e9f0 1abd 54e9 65bc
00000090: f2e4 d2bc 5253 923c 326b e0bc 1db5 193d
000000a0: 9be0 4fbc 5697 ef3c d506 033d a32d d53c
000000b0: eec6 6d3b 6a1c b53c 6407 d239 7049 dbbc
000000c0: 712b f83b cdf5 123d c70c debc 8dcd c83c
000000d0: cb81 33bc c67e 0a3d 14ca 2b3d 2713 343d
000000e0: f1fc bd3c 903f a0bb 1dc0 1d3d 115d 383d
000000f0: c505 603c 4eeb 843c b6dd 36bc a228 093d

convolutions.6.weight f4 [64, 64, 3, 3]
-0.00076447875 -0.040258903 0.03738535 -0.0002736245 -0.018329658 -0.03952889 -0.013579519 -0.0048931837
0.014221899 0.0066079074 0.013130838 -0.016228758 -0.025762532 0.0064215125 0.016832028 0.0283926
-0.024531793 0.008046846 0.02212666 -0.004900017 0.035827104 0.008904389 -0.025476506 0.01381841
-0.00293947 -0.0019155771 -0.030465731 -0.029831398 0.019848952 0.017574968 -0.036845185 -0.039895635
0.018278848 0.04268093 -0.017583111 -0.012088052 0.010972738 0.01597858 0.011047899 -0.028480195
0.0055813156 -0.0038428227 0.02885875 -0.021754177 -0.04302325 0.018342445 -0.008380668 0.017302033
0.03426076 -0.014297072 0.011910148 0.028959544 -0.02638221 0.010946482 0.03178719 -0.032426618
0.00021585045 -0.01765506 0.025716659 0.03324465 -0.030844806 0.009681593 -0.039006427 -0.03231632
0.010878047 0.03563334 0.03395142 0.001657597 0.013809999 -0.031919662 0.022597875 0.012971015
0.0026478088 -0.0075507276 0.040183168 -0.03267368 -0.010414186 0.019068314 -0.014591673 0.018779464
0.014153406 0.0067157308 -0.034769595 -0.023925161 -0.029815981 0.0226647 0.0302983 -0.0109578455
0.016586632 -0.009329944 0.022422053 -0.009230128 0.008326834 0.021084007 -0.04064699 0.024219757
0.04099899 0.0053427904 -0.014278506 -0.027510313 -0.028408388 -0.029919108 0.017502764 0.035787255
0.032963667 -0.037989855 -0.008864097 -0.02359825 0.018026456 -0.025777362 -0.03442738 0.020638185
-0.00329489 -0.0036309848 0.0080841435 -0.0027995312 0.01635733 -0.022409225 -0.0151179815 0.0048770374
-0.011747639 0.030363822 -0.024282226 0.012502778 -0.03935689 0.039912835 -0.041399162 -0.016729195
-0.017019039 0.023263281 -0.04319642 0.004520897 -0.0258106 0.023592724 -0.039110888 0.03224317
-0.01884339 -0.011410429 0.021392886 -0.03030567 -0.025785599 0.029746406 0.036414966 0.007439376
0.011937516 -0.00014742762 0.008599375 -0.037533965 0.023670018 -0.021248594 0.015192155 -0.027457245
0.03595007 -0.0056175916 -0.016518699 0.025825234 -0.0050805914 -0.02215348 0.00764976 -0.037756264
0.040719558 -0.026070556 -0.028077468 -0.033529595 -0.0013874227 0.019480782 0.035234466 0.03661023
-0.03829666 0.029780064 0.013063784 -0.011562606 0.003100064 -0.0362747 0.016596751 0.005261813
0.030826716 0.015932603 -0.0036304938 0.004488031 -0.007998728 -0.011247774 -0.025388718 0.03831305
0.024935663 0.015283774 0.030861862 -0.039025076 0.019596081 -0.003998807 0.022671508 -0.028604731
-0.0012984043 -0.00029188057 0.003083631 0.0359628 -0.015624918 0.015250803 0.034089133 -0.013391655
-0.028226292 -0.0051879054 0.018617885 0.0067391503 0.04046769 -0.038140804 -0.04160412 -0.010402679
0.01878114 0.00356667 0.0073940484 -0.004420712 0.029293928 -0.025626801 0.030524384 -0.027489629
-0.035368893 0.03556691 -0.014288616 -0.021498885 0.0034767936 0.018259821 -0.033085138 -0.010934962
-0.017324403 0.0077191195 -0.026125576 -0.013786633 0.016650783 -0.0011769439 -0.020938328 0.01813713
-0.020394761 -0.012894758 -0.0053800903 0.025834437 0.0015283787 0.026912166 -0.0032296479 -0.037744097
-0.03150892 0.03312223 -0.015193785 0.007954316 -0.012289367 0.00453167 0.0051343776 0.008661039
-0.028029112 -0.029077442 -0.019867828 -0.010640131 0.001124576 -0.0064750016 0.01677415 -0.016327847
00000000: 4d67 48ba 85e6 24bd 6121 193d 4275 8fb9
00000010: 1428 96bc 0ce9 21bd a27c 5ebc 0057 a0bb
00000020: f802 693c 2587 d83b ba22 573c 2cf2 84bc
00000030: f20b d3bc 8d6b d23b 52e3 893c 9997 e83c
00000040: e6f6 c8bc ebd6 033c f842 b53c 5290 a0bb
00000050: 71bf 123d b7e3 113c 1bb4 d0bc 9d66 623c
00000060: 20a4 40bb 1a14 fbba 4593 f9bc fa60 f4bc
00000070: 459a a23c 61f9 8f3c faea 16bd 9b69 23bd
00000080: 86bd 953c 33d2 2e3d 750a 90bc f70c 46bc
00000090: 00c7 333c 83e5 823c 3f02 353c 4c4f e9bc
000000a0: 78e3 b63b ded7 7bbb 2f69 ec3c d135 b2bc
000000b0: 2639 30bd e542 963c 124f 09bc febc 8d3c
000000c0: 0355 0c3d 443e 6abc c822 433c 913c ed3c
000000d0: 811f d8bc e058 333c 4933 023d c6d1 04bd
000000e0: ea55 6239 58a1 90bc beab d23c 8b2b 083d
000000f0: 3fae fcbc 8b9f 1e3c 34c5 1fbd 1e5e 04bd
00000100: d639 323c 44f4 113d a510 0b3d ba43 d93a
00000110: 5643 623c 31be 02bd 2e1f b93c 6184 543c
00000120: dc86 2d3b 186c f7bb 1b97 243d d6d4 05bd
00000130: 43a0 2abc 2735 9c3c ea11 6fbc 64d7 993c
00000140: b0e3 673c a20f dc3b 906a 0ebd b3fe c3bc
00000150: a540 f4bc 52ab b93c 2434 f83c 8988 33bc
00000160: b0e0 873c 9fdc 18bc 74ae b73c f639 17bc
00000170: 466d 083c 5eb8 ac3c 757d 26bd 8368 c63c
00000180: 8fee 273d 9312 af3b 65f0 69bc 4f5d e1bc
00000190: b5b8 e8bc eb18 f5bc f561 8f3c a895 123d
000001a0: e904 073d 409b 1bbd b83a 11bc 1e51 c1bc
000001b0: 38ac 933c 0c2b d3bc b903 0dbd 6911 a93c
000001c0: 15ef 57bb d1f5 6dbb 5b73 043c 5778 37bb
000001d0: cfff 853c 8d93 b7bc 69b1 77bc 8ecf 9f3b
000001e0: 2b79 40bc 8dbd f83c 85eb c6bc 74d8 4c3c
000001f0: b134 21bd a47b 233d 2b92 29bd aa0b 89bc
00000200: 836b 8bbc a392 be3c bbee 30bd 0824 943b
00000210: c070 d3bc 8745 c13c bd32 20bd 6a11 043d
00000220: 745d 9abc cff2 3abc 2240 af3c 9943 f8bc
00000230: 523c d3bc bcae f33c dc27 153d 02c6 f33b
00000240: 9295 433c cd96 1ab9 65e4 0c3c 37bd 19bd
00000250: a0e7 c13c 8811 aebc 84e8 783c 04ee e0bc
00000260: 6140 133d c613 b8bb 3952 87bc 718f d33c
00000270: 177b a6bb 377b b5bc d7aa fa3b 50a6 1abd
00000280: 8dc9 263d eb91 d5bc b802 e6bc 5456 09bd
00000290: 2eda b5ba 2996 9f3c 0452 103d 9cf4 153d
000002a0: f5dc 1cbd 52f5 f33c 7b09 563c 1671 3dbc
000002b0: 712a 4b3b c894 14bd e9f5 873c 496b ac3b
000002c0: 4f88 fc3c 1785 823c 94ed 6dbb 5510 933b
000002d0: 190d 03bc 9548 38bc 00fc cfbc 25ee 1c3d
000002e0: e045 cc3c cb68 7a3c 04d2 fc3c c2d8 1fbd
000002f0: f687 a03c 6d08 83bb 99b9 b93c 7854 eabc
00000300: 382f aaba 8c07 99b9 be16 4a3b bb4d 133d
00000310: a8ff 7fbc 81de 793c 0ca1 0b3d ac68 5bbc
00000320: d33a e7bc 4eff a9bb 8984 983c 17d4 dc3b
00000330: 73c1 253d 8839 1cbd 1569 2abd 0070 2abc
00000340: e8da 993c cbbe 693b c649 f23b 9fdb 90bb
00000350: d2f9 ef3c 4cef d1bc 460e fa3c ee31 e1bc
00000360: f9de 10bd 9cae 113d cd1a 6abc 6e1e b0bc
00000370: ebda 633b 9f95 953c 4884 07bd 8e28 33bc
00000380: e8eb 8dbc abf0 fc3b 4e05 d6bc 54e1 61bc
00000390: 3967 883c af43 9aba db86 abbc 5294 943c
000003a0: ea12 a7bc 8944 53bc 784b b0bb bea2 d33c
000003b0: e153 c83a e776 dc3c 80a8 53bb 8e99 1abd
000003c0: 7f0f 01bd 2dab 073d 5aef 78bc d252 023c
000003d0: 5759 49bc 677e 943b 483e a83b 08e7 0d3c
000003e0: 4f9d e5bc d133 eebc dbc1 a2bc f253 2ebc
000003f0: 8266 933a 402c d4bb f169 893c fac1 85bc

convolutions.6.bias f4 [64]
-0.0023929342 0.04647937 0.0094561195 -0.020213947 -0.011096676 0.02794483 -0.0387865 0.0006714576
-0.0148038175 0.004387114 -0.022289207 -0.026116027 -0.0097626215 0.023949804 0.01712961 0.037885956
-0.007185217 -0.033631835 0.050956916 -0.033343717 -0.026700903 0.006243194 0.019722402 0.020387134
-0.039887622 -0.023579549 0.008819381 0.038480222 0.0035384593 0.034995172 0.034069635 0.027432553
0.042896647 0.03473657 -0.02232629 -0.026519975 -0.03417931 0.029675841 -0.022748733 0.035628434
-0.024329891 -0.013766118 0.041170064 -0.020190174 -0.0066067167 0.006043187 0.0065509975 -0.0017560319
-0.023495855 0.028609196 0.013596637 0.020058263 0.04102337 -0.019756166 0.015814047 0.023362283
-0.015275196 0.04423687 0.0075524654 0.028135901 -0.03534217 -0.013871119 -6.4737986e-05 -0.02341257
00000000: c6d2 1cbb 2761 3e3d d7ed 1a3c b897 a5bc
00000010: d5ce 35bc 8eec e43c 98de 1ebd c204 303a
00000020: b68b 72bc c8c1 8f3b db97 b6bc 47f1 d5bc
00000030: 67f3 1fbc 6132 c43c 6553 8c3c 4e2e 1b3d
00000040: f871 ebbb 89c1 09bd 33b8 503d 6c93 08bd
00000050: dabb dabc b593 cc3b e090 a13c eb02 a73c
00000060: 3461 23bd e629 c1bc 2a7f 103c 709d 1d3d
00000070: 7fe5 673b 1957 0f3d 9a8c 0b3d 3cba e03c
00000080: 65b4 2f3d ef47 0e3d a0e5 b6bc 6b40 d9bc
00000090: 9bff 0bbd c01a f33c 8d5b babc 1fef 113d
000000a0: 7b4f c7bc 498b 61bc f1a1 283d dd65 a5bc
000000b0: 287d d8bb ed05 c63b c0a9 d63b a72a e6ba
000000c0: 617a c0bc d55d ea3c 6ec4 5e3c 3a51 a43c
000000d0: 1f08 283d afd7 a1bc 768c 813c 4262 bf3c
000000e0: d144 7abc b831 353d ac7a f73b 437d e63c
000000f0: f4c2 10bd b143 63bc f1c3 87b8 b8cb bfbc

reconstruction.weight f4 [4, 64, 3, 3]
0.025182554 0.0022940808 0.0027161962 -0.018311746 0.04054358 0.02460941 -0.0047838087 -0.013527276
0.008474358 0.015409463 -0.002150742 -0.010095263 0.03778887 -0.029231226 -0.0011822254 0.0013593837
0.009514555 0.025562972 -0.025987374 0.007387894 -0.030972993 0.04468706 -0.027989171 0.040328424
-0.010868566 0.011221509 0.024628839 0.04282625 0.005823007 -0.032117493 -0.022977885 0.0018676984
0.025993254 -0.0360331 0.042188127 0.043583162 0.019716052 0.037875272 -0.0060841907 -0.024723494
-0.006239834 0.03741686 0.027461173 0.019044613 -0.0014148658 0.04488194 0.019635186 0.031610537
0.005550837 0.026073426 0.031666 -0.004714326 0.04204835 -0.033039708 4.9809616e-05 -0.030199002
-0.005837734 -0.035930004 0.0067423135 -0.023523947 -0.016694179 -0.016475242 0.020343041 0.039570972
-0.02751957 0.0064457483 -0.032265335 -0.01950993 0.019509817 0.043043967 -0.020222604 -0.022630936
-0.021361632 -0.025898485 -0.024528282 -0.030523445 0.020198165 0.032662414 -0.03691186 -0.014796043
0.033165216 -0.016145628 0.027077094 -0.013864305 -0.027918417 0.00081626215 0.008402352 0.005906147
-0.022020858 0.014436384 0.01730287 -0.03163664 0.0062105907 -0.022009522 0.03692963 -0.0313503
0.00656644 -0.01748707 0.029859593 -0.003573515 0.012680587 -0.027697772 0.0259519 0.027670328
0.017377356 -0.0213209 0.003597449 -0.019433513 0.023154441 0.021608735 -0.0076333373 -0.029011538
0.051610768 0.021727411 0.04383153 0.04350054 0.046470586 -0.030195856 0.018745663 -0.007656156
0.02167689 0.0004860466 0.041611567 -0.031875405 0.014396574 -0.0042515527 -0.031352572 -7.692244e-06
0.018130487 -0.018710526 0.042584207 0.03594325 0.022601161 -0.008765124 0.04008718 0.028303275
-0.029060777 0.028390616 -0.004421242 -0.024099397 -0.006041795 0.043021325 0.038733914 0.04745451
0.024541402 -0.018119808 -0.034864552 0.00020587296 0.02942561 -0.031591408 -0.0047034337 0.01932514
0.02919243 -0.014629094 0.0014728581 0.03513777 0.017041523 -0.040394835 -0.011223741 0.012574612
-0.0065557933 -0.023276614 0.016774056 0.016007721 0.02875759 -0.024664858 -0.0118436245 0.030849162
0.046160758 -0.018975481 0.043917697 0.006954362 0.018504601 0.011848549 -0.0031974267 0.009948969
-0.011523804 -0.008182108 -0.012560254 0.040439993 0.0010720298 -0.03304292 0.03192674 -0.0020909149
0.012295667 0.03640141 0.04750095 0.011478317 0.041261967 0.004112058 -0.0016203226 0.0074472246
0.027667342 0.026055252 0.03998292 0.006879874 0.013796236 -0.015108571 -0.011748012 -0.023178063
0.037707828 0.0061941184 0.018267503 0.023850134 0.006824021 -0.026907826 0.017576031 -0.009110762
0.035120722 0.03221362 0.035565607 0.008141603 0.016715655 0.03390976 0.033418395 0.037239064
0.0020284571 -0.001485687 -0.026724264 -0.02279637 0.041521456 0.0095277075 0.044687893 -0.02869876
0.00893724 -0.019053295 0.040390726 -0.004120536 0.023232097 0.0023830212 -0.018720305 -0.024119537
0.020642199 0.036349054 0.011078354 0.01304274 0.03928381 -0.012809867 -0.031277027 -0.0031497562
0.04423825 -0.02250754 -0.023780882 -0.032255344 0.008532873 0.010437757 0.0447538 0.040218554
0.0183919 -0.036776632 0.02299038 -0.003649232 0.02491602 -0.021392748 -0.026369179 -0.031089611
00000000: a54b ce3c 4a58 163b 3602 323b 8402 96bc
00000010: 0611 263d ac99 c93c 7fc1 9cbb 82a1 5dbc
00000020: 09d8 0a3c f977 7c3c 77f3 0cbb 9a66 25bc
00000030: 81c8 1a3d 5376 efbc e7f4 9aba 592d b23a
00000040: f0e2 1b3c 7069 d13c 79e3 d4bc 2616 f23b
00000050: 13bb fdbc c709 373d 8c49 e5bc 6b2f 253d
00000060: 1212 32bc 6cda 373c 6bc2 c93c 946a 2f3d
00000070: ecce be3b a28d 03bd 1e3c bcbc 8fcd f43a
00000080: ceef d43c 7297 13bd 75cd 2c3d 4284 323d
00000090: 8f83 a13c 1a23 1b3d e45d c7bb ed88 cabc
000000a0: 8577 ccbb 6c42 193d 41f6 e03c 7303 9c3c
000000b0: 0573 b9ba 20d6 373d f8d9 a03c 0d7a 013d
000000c0: cce3 b53b f097 d53c 35b4 013d a27a 9abb
000000d0: e43a 2c3d a554 07bd abea 5038 e663 f7bc
000000e0: 764a bfbb 572b 13bd a0ee dc3b 4bb5 c0bc
000000f0: 3bc2 88bc 16f7 86bc 73a6 a63c 2c15 223d
00000100: b970 e1bc db36 d33b a828 04bd 4ad3 9fbc
00000110: 0dd3 9f3c df4e 303d e0a9 a5bc 8364 b9bc
00000120: 97fe aebc 0f29 d4bc 89ef c8bc 4e0c fabc
00000130: 9f76 a53c 06c9 053d e430 17bd 1a6b 72bc
00000140: 40d8 073d d643 84bc c8d0 dd3c 1c27 63bc
00000150: 2ab5 e4bc 6dfa 553a 05aa 093c 5a88 c13b
00000160: 1665 b4bc 9586 6c3c c0be 8d3c 6c95 01bd
00000170: 3682 cb3b 504d b4bc 8643 173d 2c69 00bd
00000180: 4b2b d73b 0b41 8fbc 1b9c f43c a231 6abb
00000190: 3dc2 4f3c 70e6 e2bc 1499 d43c e2ac e23c
000001a0: f55a 8e3c 2ba9 aebc 2ec3 6b3b 0833 9fbc
000001b0: 62ae bd3c cd04 b13c 1321 fabb 9ba9 edbc
000001c0: d065 533d affd b13c b188 333d 9f2d 323d
000001d0: f157 3e3d 4d5d f7bc 8190 993c 7ee0 fabb
000001e0: bc93 b13c 12d4 fe39 e470 2a3d c98f 02bd
000001f0: 9cdf 6b3c 9c50 8bbb 8e6b 00bd f00d 01b7
00000200: 6386 943c d146 99bc c76c 2e3d 3b39 133d
00000210: 1226 b93c 989b 0fbc 7432 243d 45dc e73c
00000220: de10 eebc 7093 e83c 11e0 90bb 196c c5bc
00000230: 40fa c5bb 2137 303d 74a7 1e3d a95f 423d
00000240: 0d0b c93c fe6f 94bc 22ce 0ebd 9adf 5739
00000250: fa0d f13c fe65 01bd 431f 9abb c24f 9e3c
00000260: f724 ef3c deae 6fbc eb0c c13a 9fec 0f3d
00000270: aa9a 8b3c 0e75 25bd c8e3 37bc bf05 4e3c
00000280: fbd1 d6bb 99ae bebc bf69 893c a022 833c
00000290: 0a95 eb3c f50d cabc c30b 42bc 62b7 fc3c
000002a0: 1013 3d3d 7872 9bbc 0be3 333d 6be1 e33b
000002b0: f696 973c 6b20 423c eb8b 51bb 0001 233c
000002c0: 56ce 3cbc 400e 06bc 86c9 4dbc 68a4 253d
000002d0: 5a83 8c3a 0358 07bd 9dc5 023d bb07 09bb
000002e0: c473 493c a519 153d 5b90 423d 8d0f 3c3c
000002f0: 4f02 293d 71be 863b 0161 d4ba d907 f43b
00000300: 9fa6 e23c d371 d53c 21c5 233d 9170 e13b
00000310: 9c09 623c f189 77bc bc7a 40bc ecdf bdbc
00000320: 8673 1a3d 08f8 ca3b bba5 953c 5b61 c33c
00000330: 0a9c df3b cd6d dcbc 9cfb 8f3c 4e45 15bc
00000340: bfda 0f3d 6ef2 033d 3ead 113d 5c64 053c
00000350: 45ef 883c f6e4 0a3d bae1 083d fd87 183d
00000360: ddef 043b 62bb c2ba d8ec dabc 74bf babc
00000370: 6712 2a3d 1a1a 1c3c a70a 373d a919 ebbc
00000380: 806d 123c a815 9cbc bf70 253d 9005 87bb
00000390: 3d51 be3c 762c 1c3b 535b 99bc 5696 c5bc
000003a0: d419 a93c bfe2 143d fc81 353c 37b1 553c
000003b0: 0fe8 203d 7ae0 51bc 571c 00bd 246c 4ebb
000003c0: 2b33 353d bc61 b8bc 20d0 c2bc 2e1e 04bd
000003d0: 77cd 0b3c 2003 2b3c c34f 373d 36bc 243d
000003e0: 9caa 963c 18a3 16bd 5256 bc3c f427 6fbb
000003f0: ae1c cc3c d83f afbc 2d04 d8bc a4af febc

reconstruction.bias f4 [4]
0.035758607 -0.016850965 0.0072037433 -0.0022258067
00000000: 9e77 123d 090b 8abc 610d ec3b d7de 11bb
