decomposition/simple_retinex_model/weights_last.pt (torch, 668167 bytes, 24 tensors)

feature_extraction.weight f4 [64, 3, 9, 9]
-0.059342176 -0.034433484 -0.0059963185 0.043556552 0.02834733 -0.019095145 0.053996686 0.052057184
0.03037453 -0.04247631 -0.0644072 -0.059492636 -0.058512583 0.003492474 -0.0014678823 0.001490472
-0.016411185 -0.048906546 0.044514667 0.018844072 -0.017530117 0.034626476 -0.008899848 -0.0339676
0.051858854 -0.013659373 -0.044315647 -0.009462115 0.054742806 -0.028593302 -0.055987325 0.022286203
0.03616488 0.00047177906 0.048689716 0.028334439 0.057894614 -0.059417088 0.06161711 -0.027638385
-0.017160479 0.04318026 0.0102688065 0.061185475 0.02744559 0.05654283 0.06162311 0.034755215
0.057058524 -0.018987808 0.0065820543 0.037122816 -0.02097674 -0.03502203 0.045658033 -0.02888777
-0.004723169 -0.024228659 -0.036817033 0.033993106 0.009723015 -0.001146527 0.03412787 0.014654798
0.010688797 0.0228584 -0.047497835 -0.0251575 0.042619247 -0.03750364 -0.008538948 0.025141548
0.013050486 -0.056533612 0.035833873 -0.048261374 -0.04356455 -0.057016 -0.039721753 0.017227275
0.014265468 0.022305956 0.059653744 0.0030839876 -0.057619583 0.011973544 -0.014405664 -0.048394788
-0.052694466 -0.011352682 -0.01568531 -0.059291273 -0.026049413 -0.048354782 0.008052764 0.018723045
-0.043507297 0.004948243 0.0033734755 0.0059024165 -0.039170377 -0.058867272 -0.05192726 0.030152397
0.055195153 -0.05536224 0.03138274 0.029248977 0.054748032 0.030651964 0.059112485 0.045793235
-0.05379548 0.022716833 0.044327736 0.05921605 -0.035909854 0.03670983 0.03330611 -0.051413044
-0.056450967 -0.031120917 0.027025843 0.0068325466 -0.039520912 -0.052150983 -0.020660847 0.038306374
-0.05409202 -0.048802204 -0.007155883 0.024819624 -0.00405861 0.010198828 0.01169533 -0.055912666
0.003922212 -0.03344255 -0.024607785 0.024984801 -0.054076 -0.045469828 0.049368612 -0.05110034
-0.013426077 0.055580992 -0.03136749 -0.011720436 0.0072974833 -0.031745397 0.022804985 0.034707204
0.019212995 -0.045294233 -0.03447532 0.051692083 -0.012279339 0.019007223 -0.0138224615 -0.024402238
0.033704385 -0.042114392 -0.03249866 -0.058837 0.014844494 -0.040661503 -0.015442692 -0.06309826
-0.055434514 0.058178622 0.039730117 -0.019616818 -0.0040645925 -0.05994926 0.060692158 0.05811143
0.059620924 0.03877607 0.038469065 -0.013851643 0.054416995 0.046928506 -0.054775346 0.055693593
-0.05163188 0.03719329 -0.062073987 0.04491074 0.018531958 -0.020128904 0.036941364 -0.04367988
0.050820194 0.043339994 -0.03508106 -0.061194427 -0.010112511 0.050761364 0.05482508 0.033166442
-0.03343441 -0.006626253 0.017138226 -0.0034915044 -0.00033317533 -0.060832437 -0.030412974 0.005536709
0.012974536 0.053320307 -0.025866503 0.009536169 -0.060977574 -0.064975895 -0.061999757 0.04525448
-0.027248586 -0.03221445 -0.032407396 0.029137973 -0.055122204 0.033478487 0.05270765 -0.005654139
0.013897382 0.03488132 0.03273068 0.03890789 0.056907758 -0.0048533636 0.056887623 0.04638006
-0.027917549 0.02517857 -0.024660757 0.038253926 -0.06292786 -0.0076582227 0.043047477 0.052073263
-0.015122203 -0.036012683 0.021373386 -0.034591015 0.054442465 -0.05672422 0.047388047 0.053497307
0.008936861 -0.016786315 0.061366588 -0.024216104 -0.02160351 0.002254766 0.060427237 0.045733817
00000000: c810 73bd 200a 0dbd c47c c4bb 5b68 323d
00000010: a938 e83c 6c6d 9cbc a12b 5d3d ea39 553d
00000020: 02d4 f83c a4fb 2dbd ece7 83bd 8dae 73bd
00000030: e4aa 6fbd fee1 643b f565 c0ba f15b c33a
00000040: c070 86bc 3b52 48bd 0355 363d e25e 9a3c
00000050: 529b 8fbc 7ed4 0d3d abd0 11bc 9c21 0bbd
00000060: f369 543d 90cb 5fbc 5384 35bd fd06 1bbc
00000070: fe39 603d 803c eabc f752 65bd 8e91 b63c
00000080: a021 143d 1d59 f739 de6e 473d a01d e83c
00000090: e722 6d3d 555f 73bd 3962 7c3d e569 e2bc
000000a0: 2294 8cbc c9dd 303d 7f3e 283c 9f9d 7a3d
000000b0: 93d5 e03c 7499 673d 8468 7c3d 7c5b 0e3d
000000c0: 33b6 693d 528c 9bbc 46ae d73b 180e 183d
000000d0: 6ad7 abbc 4373 0fbd eb03 3b3d 0ba6 ecbc
000000e0: d0c4 9abb 2e7b c6bc 75cd 16bd 5b3c 0b3d
000000f0: 484d 1f3c 1047 96ba aac9 0b3d ae1a 703c
00000100: 1020 2f3c 8a41 bb3c 178d 42bd 1a17 cebc
00000110: 8591 2e3d 6b9d 19bd f2e6 0bbc a6f5 cd3c
00000120: b5d1 553c ca8f 67bd 8ac6 123d b8ad 45bd
00000130: be70 32bd 9c89 69bd 47b3 22bd 3720 8d3c
00000140: b6b9 693c fbba b63c 7c57 743d ba1c 4a3b
00000150: 8302 6cbd af2c 443c bc05 6cbc 9d39 46bd
00000160: 27d6 57bd 9900 3abc 7b7e 80bc 68db 72bd
00000170: 9465 d5bc aa0f 46bd beef 033c 1261 993c
00000180: b534 32bd df24 a23b 8715 5d3b 0f69 c13b
00000190: 1e71 20bd cf1e 71bd aeb1 54bd 2902 f73c
000001a0: 5014 623d 84c3 62bd 308b 003d 8d9b ef3c
000001b0: 793f 603d d419 fb3c ef1f 723d b091 3b3d
000001c0: a658 5cbd a718 ba3c 0091 353d 878c 723d
000001d0: 3616 13bd 0c5d 163d fd6b 083d 7c96 52bd
000001e0: 2139 67bd 4bf1 febc 4d65 dd3c 8ee3 df3b
000001f0: aee0 21bd 459c 55bd f040 a9bc 25e7 1c3d
00000200: 988f 5dbd d2e4 47bd e67b eabb 8652 cb3c
00000210: 17fe 84bb fc18 273c c59d 3f3c ae04 65bd
00000220: e685 803b 0efb 08bd 4496 c9bc edac cc3c
00000230: cc7e 5dbd 923e 3abd be36 4a3d 974e 51bd
00000240: 0cf9 5bbc e5a8 633d 327b 00bd 1207 40bc
00000250: ba1f ef3b 7607 02bd 85d1 ba3c 2429 0e3d
00000260: 9264 9d3c 7286 39bd fe35 0dbd 14bb 533d
00000270: 482f 49bc 09b5 9b3c 9b77 62bc 34e7 c7bc
00000280: 9c0d 0a3d 2480 2cbd 511d 05bd 11ff 70bd
00000290: 5236 733c ad8c 26bd 5803 7dbc a939 81bd
000002a0: 4d0f 63bd b54c 6e3d 0cbc 223d 73b3 a0bc
000002b0: 4630 85bb 5b8d 75bd 5798 783d 4006 6e3d
000002c0: 1235 743d a8d3 1e3d bd91 1d3d 00f2 62bc
000002d0: 5be4 5e3d 1b38 403d 1d5c 60bd f71e 643d
000002e0: f37b 53bd fe57 183d 4b41 7ebd 53f4 373d
000002f0: 55d0 973c 5fe5 a4bc d44f 173d ade9 32bd
00000300: d628 503d 4785 313d 28b1 0fbd 02a7 7abd
00000310: f2ae 25bc 26eb 4f3d 4390 603d 89d9 073d
00000320: 85f2 08bd 0a21 d9bb 7765 8c3c b9d1 64bb
00000330: 09ae aeb9 6f2b 79bd a124 f9bc 486d b53b
00000340: 2693 543c 6566 5a3d fde5 d3bc 973d 1c3c
00000350: 9fc3 79bd 1512 85bd 75f3 7dbd c35c 393d
00000360: 6d38 dfbc 4df3 03bd 9ebd 04bd c2b2 ee3c
00000370: d2c7 61bd bd20 093d fae3 573d 5b46 b9bb
00000380: d8b1 633c b7df 0e3d 9b10 063d e15d 1f3d
00000390: 1c18 693d f708 9fbb ff02 693d 05f9 3d3d
000003a0: 58b3 e4bc 4a43 ce3c 5b05 cabc 26b0 1c3d
000003b0: 52e0 80bd d4f1 fabb 8d52 303d c64a 553d
000003c0: 1ec3 77bc 0982 13bd 3d17 af3c 4faf 0dbd
000003d0: 10ff 5e3d a857 68bd f819 423d fe1f 5b3d
000003e0: e96b 123c 7483 89bc 885b 7b3d da60 c6bc
000003f0: d8f9 b0bc b2c4 133b 8d82 773d 6253 3b3d

feature_extraction.bias f4 [64]
0.060844712 0.050528888 -0.037299566 -0.07457755 0.06892733 -0.011174211 -0.01909383 0.067878395
-0.03735073 -0.0703263 0.021635545 0.05197906 0.05209808 -0.041983787 -0.06310176 -0.025040621
-0.06296303 -0.012369056 0.065004535 0.03787287 0.03739769 -0.041553576 -0.037445802 -0.037361905
0.0045232153 -0.026495768 0.029232077 0.054302678 -0.0005243231 0.03403457 -0.025964921 -0.02862796
0.02913804 0.03463285 0.036396235 -0.024138387 0.06521773 0.060833596 -0.021360362 -0.02908858
-0.0017073347 0.01169416 -0.02592509 -0.047626127 -0.06642889 -0.0037751729 -0.066841215 0.020466907
-0.02261874 -0.013986754 0.06349929 -0.0529955 0.01076706 -0.060952455 -0.029492678 0.06444526
0.0023438253 -0.022562161 -0.055410977 0.06629356 -0.043644484 0.003463866 0.03657117 -0.053622406
00000000: 4e38 793d 61f7 4e3d 6ec7 18bd 1dbc 98bd
00000010: c629 8d3d 0a14 37bc aa6a 9cbc d403 8b3d
00000020: 14fd 18bd 3c07 90bd 073d b13c ffe7 543d
00000030: cc64 553d 31f7 2bbd 7f3b 81bd fd21 cdbc
00000040: c3f2 80bd 95a7 4abc 1921 853d 9520 1b3d
00000050: 522e 193d 1534 2abd c560 19bd cc08 19bd
00000060: 7b37 943b a70d d9bc 1c78 ef3c 7c6c 5e3d
00000070: ba72 09ba d567 0b3d 63b4 d4bc 2f85 eabc
00000080: e6b2 ee3c 2ddb 0d3d 3814 153d debd c5bc
00000090: e090 853d a62c 793d edfb aebc 2c4b eebc
000000a0: a5c8 dfba dd98 3f3c db60 d4bc 9d13 43bd
000000b0: df0b 88bd e468 77bb 0ce4 88bd 37aa a73c
000000c0: f04a b9bc b328 65bc ea0b 823d cf11 59bd
000000d0: 5368 303c 48a9 79bd a19a f1bc e0fb 833d
000000e0: dd9a 193b 48d4 b8bc 9ff6 62bd ebc4 873d
000000f0: 8fc4 32bd 0702 633b a7cb 153d 2ba3 5bbd

convolutions.0.weight f4 [64, 64, 3, 3]
-0.022578008 -0.03946056 -0.022575995 -0.042363822 -0.05260901 -0.05243546 -0.023435097 0.01975396
-0.033956934 0.024470966 -0.02803044 -0.00029082588 0.010300214 -0.018203985 0.018611008 0.025989078
0.03802223 -0.00560956 0.026855698 -0.04063324 0.014830937 -0.017106151 0.03786819 0.008862452
-0.010936152 -0.011326259 0.03909557 -0.02340711 -0.034707285 -0.014721619 0.024475962 -0.019244662
-0.019542756 0.0029916258 0.02544735 0.003302702 0.02656595 -0.041976236 -0.03263647 0.018534875
0.009005769 -0.014444607 0.0070893103 -0.00066006073 -0.007679454 0.020202035 -0.017317884 0.0010490413
0.028975101 -0.03890981 0.03500241 0.032411084 -0.0034053947 -0.041744206 0.009679378 0.0062601273
0.03517222 -0.0039860806 0.023221437 -0.035537947 -0.032729264 -0.024988389 0.02758939 -0.0027713042
0.024288317 -0.0022809738 0.013327866 0.0038328047 -0.0017334698 0.0035661634 -0.040627483 -0.037947502
-0.017594459 0.035461497 -0.003658678 0.033847474 -0.023253197 -0.036216293 -0.0019399049 0.018912233
0.02059018 0.018045869 -0.037470113 -0.03150043 -0.005996881 -0.03702288 -0.010243557 0.042173516
0.04104203 -0.012215863 0.01992862 -0.033324 0.036321614 0.023919156 -0.021491954 -0.0024531216
-0.022749161 0.005282339 -0.021420274 0.019613292 0.006521432 0.01133056 0.010106466 -0.031378344
0.0055984166 -0.014209213 0.0011465867 -0.022870934 0.0066221245 0.023670508 0.0015623443 0.010592514
-0.026640143 0.036819223 -0.033336062 -0.034202673 -0.0086277565 0.004949598 0.019627823 -0.026813084
-0.039267346 -0.01108119 0.038908657 -0.009132438 0.03979331 0.02172353 0.0042969105 -0.04069924
-0.0112684155 -0.00042459386 0.037647855 -0.019896222 -0.028289616 -0.0012979453 0.03164125 0.035273712
-0.03259331 -0.027630556 0.03422535 -0.010054566 -0.028891262 -0.028844481 0.024690028 0.013141935
0.032626033 0.009403175 -0.024933955 0.030784985 -0.010450642 -0.014272766 -0.038000584 0.00209669
0.0029218947 0.0031474761 0.025361342 0.040789228 -0.014625133 -0.008728757 0.017349806 0.035360456
0.019522589 -0.028170547 -0.033402037 0.033620264 -0.010828153 -0.0020733958 -0.033987142 -0.0008548863
-0.030754527 -0.0224692 -0.013494473 0.033617795 -0.019605897 0.034434866 0.02640006 -0.0061706426
0.020756008 0.009253268 0.032157768 -0.029578209 0.013253663 -0.011649569 -0.006905265 -0.032447927
-0.036745526 0.029234163 -0.018226892 0.01858481 -0.040539797 0.023561485 0.04078693 -0.016368927
0.028551638 0.035064857 -0.0018418756 -0.0014578978 0.026869945 -0.030022373 -0.00961976 0.0024493649
0.03267046 -0.035600185 0.01260123 0.010601959 0.023194484 -0.0018145132 -0.028402202 -0.011031882
0.008658899 0.018886892 -0.019081913 0.03213233 -0.008137219 0.03670696 0.03677831 -0.031104207
-0.013469456 -0.02905948 -0.022506334 -0.0054783137 0.02581189 0.038981125 0.03421907 0.034053717
-0.005369327 0.006640713 -0.038675457 -0.009823396 0.015689384 0.015716499 -0.032828633 -0.032880962
0.012983219 0.011060134 0.019661 0.023960508 -0.025515042 0.0041398318 -0.021396052 0.03083234
-0.03720503 -0.029027082 -0.013604489 -0.03066574 -0.017780771 0.0043367827 0.01661302 0.030030243
-0.034236908 0.026751636 -0.012161254 -0.028869012 -0.038701463 -0.0010017398 -0.025458852 0.018074643
00000000: 84f5 b8bc 65a1 21bd 4bf1 b8bc b085 2dbd
00000010: 8c7c 57bd 91c6 56bd f6fa bfbc 0fd3 a13c
00000020: 6d16 0bbd 5677 c83c 18a0 e5bc fd79 98b9
00000030: 3bc2 283c 8620 95bc 1d76 983c 0ce7 d43c
00000040: 33bd 1b3d 66d0 b7bb 7b00 dc3c 0a6f 26bd
00000050: 75fd 723c 3322 8cbc ad1b 1b3d d133 113c
00000060: 8c2d 33bc c691 39bc ad22 203d 44c0 bfbc
00000070: 3a29 0ebd f232 71bc d081 c83c fba6 9dbc
00000080: 2118 a0bc 270f 443b f676 d03c 2572 583b
00000090: d6a0 d93c 46ef 2bbd d2ad 05bd 73d6 973c
000000a0: ef8c 133c 13a9 6cbc 724d e83b ed07 2dba
000000b0: eea3 fbbb bd7e a53c 3cde 8dbc fc7f 893a
000000c0: 315d ed3c e55f 1fbd b05e 0f3d 7cc1 043d
000000d0: 0b2d 5fbb f9fb 2abd 4196 1e3c c121 cd3b
000000e0: bf10 103d ab9d 82bb e23a be3c 3d90 11bd
000000f0: 1f0f 06bd 73b4 ccbc 2503 e23c c59e 35bb
00000100: 4bf8 c63c 647c 15bb 1f5d 5a3c cb2f 7b3b
00000110: 9835 e3ba 4bb6 693b 0169 26bd d76e 1bbd
00000120: 4122 90bc 1340 113d 6ec6 6fbb a6a3 0a3d
00000130: 7d7d bebc 8957 14bd 6844 feba d4ed 9a3c
00000140: bdac a83c eed4 933c 437a 19bd 9806 01bd
00000150: 7c81 c4bb 4ea5 17bd 98d4 27bc 23be 2c3d
00000160: b01b 283d 0b25 48bc 5841 a33c bf7e 08bd
00000170: f9c5 143d 1bf2 c33c e50f b0bc 8dc4 20bb
00000180: 735c babc 7917 ad3b 9279 afbc 0eac a03c
00000190: bdb1 d53b d0a3 393c 9795 253c 9486 00bd
000001a0: ec72 b73b c2cd 68bc 1149 963a d35b bbbc
000001b0: 68fe d83b a7e8 c13c 93c7 cc3a 398c 2d3c
000001c0: 6e3c dabc c1cf 163d 658b 08bd 1a18 0cbd
000001d0: 6f5b 0dbc 3d30 a23b 87ca a03c 1da7 dbbc
000001e0: ccd6 20bd e18d 35bc af5e 1f3d 39a0 15bc
000001f0: 4ffe 223d 8bf5 b13c 19cd 8c3b 3fb4 26bd
00000200: 299f 38bc 069c deb9 a334 1a3d 67fd a2bc
00000210: a0bf e7bc d11f aaba 419a 013d 2b7b 103d
00000220: 9080 05bd 7a59 e2bc e12f 0c3d e8bb 24bc
00000230: 5ead ecbc 434b ecbc be42 ca3c 4551 573c
00000240: e0a2 053d c60f 1a3c 4b42 ccbc cb30 fc3c
00000250: 2b39 2bbc 52d8 69bc 80a6 1bbd 9f68 093b
00000260: 427d 3f3b e345 4e3b 97c2 cf3c 9b12 273d
00000270: 419e 6fbc 0f03 0fbc 2e21 8e3c 20d6 103d
00000280: d6ed 9f3c ebc5 e6bc 93d0 08bd 67b5 093d
00000290: 9168 31bc cfe1 07bb 1a36 0bbd 731a 60ba
000002a0: ebf0 fbbc 5411 b8bc ec17 5dbc d0b2 093d
000002b0: 8c9c a0bc 930b 0d3d f044 d83c 1a33 cabb
000002c0: 8108 aa3c 059b 173c ddb7 033d 004e f2bc
000002d0: e425 593c d5dd 3ebc 9045 e2bb 1ee8 04bd
000002e0: 7a82 16bd 7c7c ef3c 9050 95bc 2c3f 983c
000002f0: 0f0d 26bd 0404 c13c 3210 273d 2118 86bc
00000300: 20e5 e93c 2ba0 0f3d 176b f1ba ef16 bfba
00000310: 5c1e dc3c 7bf1 f5bc 339c 1dbc 8685 203b
00000320: 76d1 053d 80d1 11bd 6475 4e3c d7b3 2d3c
00000330: 5c02 be3c f6d4 edba bcab e8bc 11bf 34bc
00000340: 0ede 0d3c afb8 9a3c ac51 9cbc 319d 033d
00000350: f851 05bc 0a5a 163d daa4 163d 40ce febc
00000360: feae 5cbc 260e eebc 345f b8bc 6d83 b3bb
00000370: 7573 d33c acaa 1f3d 4c29 0c3d e97b 0b3d
00000380: 2ef1 afbb 579a d93b 286a 1ebd 4ff2 20bc
00000390: 0687 803c e3bf 803c 5177 06bd 30ae 06bd
000003a0: 91b7 543c 9035 353c 1b10 a13c d448 c43c
000003b0: ec04 d1bc 6da7 873b c646 afbc 1a94 fc3c
000003c0: 4d64 18bd 34ca edbc 5de5 5ebc b836 fbbc
000003d0: fba8 91bc 921b 8e3b 0718 883c fc01 f63c
000003e0: 003c 0cbd 3f26 db3c ff3f 47bc b57e ecbc
000003f0: 6d85 1ebd cf4c 83ba 158f d0bc 4611 943c

convolutions.0.bias f4 [64]
-0.033636235 0.040089175 0.046464764 0.015827702 -0.0015929047 0.022567516 0.00152722 0.013827095
0.027741076 -0.021746146 0.033981353 -0.007541934 -0.040195305 -0.038163092 0.038674798 0.026471768
0.01066137 0.012687419 0.03349682 0.020168873 -0.031021757 0.033652768 -0.015352408 -0.009125558
-0.0021051206 0.024119027 0.010124699 0.035628945 0.032743204 -0.00053593284 -0.009669193 -0.013809661
0.017831456 0.011234254 -0.019711984 0.040549386 -0.038532577 0.018449245 0.015205833 -0.015848514
0.005348739 0.033003744 0.009121279 -0.02119168 0.016045135 -0.0064472253 -0.00921688 0.017881757
0.024821658 -0.015749928 -0.01997052 -0.0039016332 -0.030893587 0.03173767 0.0053535094 0.01169017
0.023083577 0.04513007 0.046605915 -0.02666644 0.007756241 0.041153766 0.003970219 -0.0065257414
00000000: 26c6 09bd 8c34 243d d651 3e3d 19a9 813c
00000010: 03c9 d0ba 83df b83c 002d c83a 0a8b 623c
00000020: 4141 e33c f924 b2bc 0830 0b3d 5422 f7bb
00000030: d5a3 24bd e750 1cbd 7769 1e3d 52db d83c
00000040: 07ad 2e3c e4de 4f3c f633 093d 3139 a53c
00000050: 5721 febc 7cd7 093d ab88 7bbc 5d83 15bc
00000060: 10f6 09bb 4495 c53c 11e2 253c a8ef 113d
00000070: bd1d 063d d87d 0cba 896b 1ebc eb41 62bc
00000080: 4613 923c e00f 383c 077b a1bc 1d17 263d
00000090: 56d4 1dbd df22 973c e321 793c bed4 81bc
000000a0: 7a44 af3b ef2e 073d 6b71 153c 2d9a adbc
000000b0: 1671 833c 3f43 d3bb 6602 17bc c37c 923c
000000c0: ca56 cb3c fe05 81bc 3799 a3bc 8bb2 7fbb
000000d0: 8c14 fdbc 5cff 013d 7e6c af3b 2088 3f3c
000000e0: c519 bd3c 4fda 383d d8e5 3e3d 9473 dabc
000000f0: 1128 fe3b da90 283d 9c18 823b e3d5 d5bb

convolutions.2.weight f4 [64, 64, 3, 3]
0.010351106 -0.042073984 -0.019226637 0.018050857 -0.0059460597 -0.04131833 0.027202137 -0.0031901686
-0.027116287 -0.004921414 0.0034842277 -0.031676415 -0.00482027 0.0350633 -0.018670605 0.015638325
-0.023235343 0.00024459802 0.015967166 -0.0396413 0.03575019 -0.035012472 0.015949003 0.033690155
-0.022895383 -0.040256716 0.0042515267 -0.030408146 0.005640054 -0.010588954 0.01380416 0.0052886475
0.038370088 -0.0042384937 0.026777606 -0.018815264 -0.041067235 0.028271463 -0.02798746 -0.034262605
0.015673537 -0.023385782 -0.028713634 -0.0018752853 0.0042258967 -0.040461946 0.026886558 -0.033519264
-0.02334938 0.019918218 -0.017939454 0.040576134 -0.018603997 -0.031974558 0.030436976 0.038151715
0.009382512 0.033532374 0.0059082345 -0.027269792 0.015505159 -0.032877263 -0.025525 -0.022215245
0.027020948 0.00851779 -0.028026292 -0.018401323 -0.0068568503 -0.03138853 -0.03693556 0.030880792
-0.038825005 0.014231913 -0.0056405496 -0.0126122935 -0.0030666657 0.02386555 0.019649895 -0.031232238
0.019707927 0.03663932 -0.01869292 0.04129709 0.011336305 -0.03250518 0.037127946 0.03050368
0.024534592 0.03345806 -0.025478829 -0.036162544 0.038696397 -0.020718653 0.040935367 0.009543229
-0.003057046 0.015980115 0.012450834 -0.035532262 -0.012983133 -0.021011611 0.04082705 0.036427263
-0.026821153 -0.013424022 -0.006819933 0.031420458 -0.0045031337 0.033922337 0.0021152948 -0.039093923
-0.031061655 0.041670714 -0.015951362 0.013420393 0.025557341 -0.021056684 0.027332937 0.020867474
0.017836532 -0.035443373 -0.016078105 -0.005416738 -0.00885827 0.0048854286 0.0059562516 -0.035732727
-0.02587107 -0.0024805327 -0.0007970806 -0.014579623 0.019782372 -0.009140979 0.027607886 0.027166309
-0.015651748 0.005624304 0.015542725 0.038445532 0.009278739 0.028217573 -0.040397994 -0.03978284
-0.0050840885 0.008922018 -0.012392546 -0.034664404 -0.011045378 0.032743692 -0.011054956 -0.03440249
-0.024052644 0.032209508 0.031353924 0.032646276 0.0020112717 -0.024423795 -0.01134748 -0.031021008
-0.026760386 0.02481474 -0.036522165 -0.036071416 -0.020709712 0.009519059 -0.0069820383 -0.0047622533
0.039833367 0.03488002 0.005861626 -0.0068375114 -0.024659716 0.025505599 -0.01746536 -0.005977057
-0.024863241 0.041862596 -0.0006623246 -0.03900244 0.013188857 -0.04204063 -0.025284959 -0.004547378
-0.035080012 -0.013678924 -0.023691667 -0.027176104 -0.017578796 0.02194018 0.023457227 -0.02982317
0.015448539 0.025245883 0.030921144 -0.0011667744 0.00029784342 -0.0110230595 0.025583016 -0.009027352
-0.027054604 0.034949943 0.033825684 -0.039009463 0.029638093 0.03696982 0.0136114415 0.019339304
-0.0107623115 -0.006066081 -0.014786015 0.009482877 -0.032960843 -0.0021623415 -0.038979758 -0.011675376
-0.0150600225 0.03484325 0.024231296 0.0384733 0.014500228 -0.028252553 -0.004111198 0.016696332
-0.010036673 -0.035453226 0.039898254 -0.0033217955 -0.041722916 -0.026801733 0.026752291 -0.00077516545
0.03355949 0.0026901842 0.025009785 0.010632562 -0.0041304627 -0.00058229174 0.010809286 -0.034562744
0.033096395 -0.0344084 -0.0026598112 0.010023618 -0.013866359 -0.039802898 -0.03892351 -0.03613743
0.026451468 0.014917057 0.040549893 -0.02157739 -0.028960194 0.03345692 -0.036432702 -0.012023708
00000000: af97 293c c555 2cbd 2e81 9dbc 64df 933c
00000010: 2ad7 c2bb 693d 29bd 04d7 de3c 2612 51bb
00000020: fa22 debc d043 a1bb a457 643b 21bf 01bd
00000030: 5bf3 9dbb 899e 0f3d 19f3 98bc f21b 803c
00000040: 0c58 bebc 643d 8039 93cd 823c ea5e 22bd
00000050: cb6e 123d 3d69 0fbd 7ca7 823c b0fe 093d
00000060: 198f bbbc 3ae4 24bd 6450 8b3b 811a f9bc
00000070: 34d0 b83b 4b7d 2dbc d82a 623c 644c ad3b
00000080: f429 1d3d 10e3 8abb b65c db3c 7822 9abc
00000090: 1e36 28bd 8e99 e73c f545 e5bc f256 0cbd
000000a0: ca65 803c 8a93 bfbc db38 ebbc 22cc f5ba
000000b0: 6479 8a3b 6dbb 25bd 3341 dc3c 7f4b 09bd
000000c0: 3347 bfbc 882b a33c c3f5 92bc 2933 263d
000000d0: 6967 98bc c1f7 02bd f756 f93c f944 1c3d
000000e0: 1cb9 193c 3e59 093d dd99 c13b e664 dfbc
000000f0: 5a09 7e3c 4faa 06bd ce19 d1bc bffc b5bc
00000100: 095b dd3c 338e 0b3c 6597 e5bc 5fbe 96bc
00000110: 6eaf e0bb 4291 00bd be49 17bd b7f9 fc3c
00000120: f806 1fbd f82c 693c 5cd4 b8bb cba3 4ebc
00000130: 1dfa 48bb b081 c33c d1f8 a03c c0da ffbc
00000140: 8572 a13c 1d13 163d e521 99bc 2327 293d
00000150: e9bb 393c 2724 05bd 7913 183d dbe2 f93c
00000160: c5fc c83c 520b 093d fab8 d0bc 2d1f 14bd
00000170: 1d80 1e3d 2aba a9bc d8ab 273d 345b 1c3c
00000180: b958 48bb bbe8 823c 95fe 4b3c 478a 11bd
00000190: 35b7 54bc 8b20 acbc 443a 273d c134 153d
000001a0: 09b8 dbbc 6ef0 5bbc bf79 dfbb bdb2 003d
000001b0: 068f 93bb 26f2 0a3d c2a0 0a3b f320 20bd
000001c0: 0375 febc e9ae 2a3d 6eac 82bc 35e1 5b3c
000001d0: a15d d13c 117f acbc 53e9 df3c 44f2 aa3c
000001e0: eb1d 923c 122d 11bd 3bb6 83bc e47e b1bb
000001f0: 4722 11bc f215 a03b a92c c33b 7b5c 12bd
00000200: 91ef d3bc 6f90 22bb 2cf3 50ba 5fdf 6ebc
00000210: a40e a23c 0bc4 15bc ef29 e23c e18b de3c
00000220: 1838 80bc 154c b83b eaa6 7e3c 1079 1d3d
00000230: da05 183c 8a28 e73c 5e78 25bd 55f3 22bd
00000240: 6d98 a6bb a82d 123c 1b0a 4bbc 43fc 0dbd
00000250: acf7 34bc 401e 063d d91f 35bc a0e9 0cbd
00000260: 0d0a c5bc 1eee 033d f96c 003d 1ab8 053d
00000270: 8acf 033b 6914 c8bc c8ea 39bc c51f febc
00000280: 9938 dbbc 4848 cb3c 4498 15bd 9fbf 13bd
00000290: 6aa7 a9bc d4f5 1b3c 95c9 e4bb ad0c 9cbb
000002a0: 5028 233d 5ade 0e3d e212 c03b 340d e0bb
000002b0: 2c03 cabc 1ef1 d03c 8413 8fbc 30db c3bb
000002c0: ffad cbbc 1d78 2b3d da9f 2dba 06c1 1fbd
000002d0: 1316 583c cc32 2cbd 6722 cfbc 2c02 95bb
000002e0: 0fb0 0fbd 911d 60bc 0715 c2bc 6ca0 debc
000002f0: 6801 90bc e4bb b33c 5f29 c03c b84f f4bc
00000300: de1b 7d3c 74d0 ce3c 574e fd3c 74ee 98ba
00000310: de27 9c39 109a 34bc 7993 d13c 75e7 13bc
00000320: 9ea1 ddbc ac27 0f3d cd8c 0a3d 63c8 1fbd
00000330: 96cb f23c aa6d 173d 8602 5f3c 766d 9e3c
00000340: 6854 30bc fac5 c6bb 0b41 72bc 125e 1b3c
00000350: f301 07bd 12b6 0dbb 3da9 1fbd 144a 3fbc
00000360: 50be 76bc ccb7 0e3d b680 c63c 2e96 1d3d
00000370: 5d92 6d3c e671 e7bc 3ab7 86bb bfc6 883c
00000380: dc70 24bc 6737 11bd 5a6c 233d 7bb2 59bb
00000390: a6e5 2abd 4f8f dbbc 9f27 db3c 7934 4bba
000003a0: ad75 093d cd4d 303b 52e1 cc3c 3334 2e3c
000003b0: d558 87bb f0a4 18ba 6e19 313c aa91 0dbd
000003c0: 1690 073d d3ef 0cbd 3a50 2ebb 1a3a 243c
000003d0: ba2f 63bc 5d08 23bd 426e 1fbd d804 14bd
000003e0: c0b0 d83c ac66 743c a517 263d 11c3 b0bc
000003f0: ee3d edbc 200a 093d 753a 15bd 16ff 44bc

convolutions.2.bias f4 [64]
-0.013422807 0.039994396 0.04403214 0.008323145 0.052681297 -0.032884255 -0.018649016 -0.005765924
0.004320713 -0.039976545 -0.007968721 -0.040860213 -0.020271424 -0.009245013 0.009963454 -0.019946637
0.01798064 0.0033011746 -0.029925913 -0.008245929 -0.013477148 0.05054182 -0.03566041 -0.003704339
0.039444327 -0.004002865 0.011918032 0.01075816 0.038601294 0.022573534 0.007262215 0.005244921
-0.006496261 -0.021131324 0.0072255656 -0.011223464 -0.012238628 0.04844455 -0.018030854 0.0027425278
0.058518536 0.009896776 -0.020612525 -0.010834725 -0.018983897 0.041426998 0.038550504 0.024240505
0.0030161235 -0.022798683 0.04080899 0.014837894 0.037038613 -0.0019238145 0.027252031 0.033987835
0.03867782 0.042585373 -0.024871297 -0.025029631 -0.0016444002 0.04923638 0.03781719 0.026123624
00000000: 55eb 5bbc 2ad1 233d 0c5b 343d cd5d 083c
00000010: 58c8 573d a4b1 06bd d2c5 98bc 14f0 bcbb
00000020: c594 8d3b 72be 23bd 3d8f 02bc 0a5d 27bd
00000030: 4210 a6bc 6578 17bc c13d 233c 2167 a3bc
00000040: 234c 933c 8558 583b 3027 f5bc ef19 07bc
00000050: 41cf 5cbc f004 4f3d a610 12bd 7fc4 72bb
00000060: 6090 213d 772a 83bb d943 433c fe42 303c
00000070: 641c 1e3d 22ec b83c e0f7 ed3b 96dd ab3b
00000080: 96de d4bb 991b adbc 70c4 ec3b 9fe2 37bc
00000090: 8784 48bc cb6d 463d 71b5 93bc fbbb 333b
000000a0: 22b1 6f3d 1626 223c 99db a8bc 2184 31bc
000000b0: 1e84 9bbc 5baf 293d 22e7 1d3d 0694 c63c
000000c0: 28aa 453b 4ec4 babc 5427 273d a31a 733c
000000d0: cdb5 173d 8128 fcba a73f df3c d436 0b3d
000000e0: a26c 1e3d 006e 2e3d e4be cbbc f10a cdbc
000000f0: ea88 d7ba 16ac 493d 33e6 1a3d 3601 d63c

convolutions.4.weight f4 [64, 64, 3, 3]
0.001531876 0.03598629 0.019120116 0.013402102 -0.019386875 -0.029728096 0.033139773 0.022096844
-0.012581584 0.04665979 -0.03331286 0.040168107 -0.01230724 0.041829508 -0.016623812 0.004243451
0.04250575 -0.0137881525 -0.021153532 -0.017822621 -0.0043352903 0.03176473 0.042571723 0.018833289
0.010996394 0.02173423 0.025835495 -0.039040554 0.028037967 -0.018457143 -0.021887364 0.015879378
0.009582457 -0.028972507 0.0018843381 -0.010245294 0.020279458 -0.001092162 0.019914716 0.013141265
-0.028944507 -0.035874892 -0.008679296 0.029594338 0.012574697 -0.04356491 0.019068923 -0.007202639
0.00036735166 -0.01249007 -0.0055191885 -0.032297235 -0.030109623 -0.015865128 -0.0071152044 0.01170098
0.01002756 -0.02365892 -0.02515236 0.024938319 0.011435553 0.030400077 -0.0015001749 -0.016533209
0.045101427 0.034223575 0.00462161 0.03389143 0.009047206 0.04003038 0.026457015 0.045158714
-0.02482763 0.021067787 0.029963832 0.02076775 -0.027585834 0.022442605 -0.013332222 0.025590107
0.031734098 0.014356549 -0.03761264 0.009402287 -0.031425763 0.01660522 0.015879251 -0.018860154
-0.019607529 0.03861366 0.025794746 -0.04185453 0.02047078 0.0019809876 -0.0013722526 0.031690888
-0.007037384 0.014207314 -0.040008795 0.032242592 0.021751853 -0.0075967163 -0.043696765 -0.036213282
-0.023521585 0.00030638115 0.0151086645 0.015177592 -0.035678376 0.015046024 0.005351153 -0.0048730657
-0.025897957 0.032800257 0.0045508496 0.013529332 -0.030223232 -0.03189726 -0.04166805 -0.043694545
0.03480601 0.00080656575 -0.0022067314 -0.017328802 0.0049594906 -0.030080434 -0.0011815669 0.034054656
-0.038153313 0.003121048 0.026873253 0.0010590623 0.029063579 -0.033513937 -0.008990284 0.022186285
-0.023762153 -0.027604923 -0.0037154087 -0.007998281 0.020404615 -0.028751457 -0.018768582 0.016328631
0.0057566385 0.033698153 0.0016499159 0.008217508 0.013098851 0.0025233354 -0.022144208 -0.025764165
0.049125653 0.02089705 0.04385123 -0.0067316885 0.0436729 -0.024118267 0.035948887 -0.037774567
-0.010773037 0.031733777 -0.029782044 -0.011218138 0.03777178 -0.02535709 -0.03821954 0.0090874545
0.00046881105 0.01890749 -0.03328383 -0.036769684 -0.018054387 -0.008004473 0.00837831 -0.0054477495
-0.010748145 -0.014379235 -0.035247963 -0.024160784 0.012635916 0.010257877 -0.0056494162 -0.026088698
-0.009095271 0.027700868 -0.020963335 0.004070293 0.027424587 0.05006256 -0.026966976 0.01685547
0.028733002 -0.020799164 -0.009486558 0.018874628 0.037092783 0.020702235 -0.004237241 -0.029805386
-0.0010871926 -0.008770128 -0.022274584 -0.0019704516 0.0054996647 0.0016479471 0.01602437 0.0027120647
0.020343188 0.015680341 -0.018098015 -0.024360491 -0.010299266 -0.016684003 -0.025748136 -0.016933829
-0.012568376 -0.023702148 -0.008412848 0.034371685 0.018765328 0.014368874 0.028268915 -0.027676316
-0.016580157 -0.012521341 0.03570373 0.0136000775 0.020521993 -0.0112872 0.020757811 0.009842382
-0.033192415 -0.030395875 -0.0022175992 -0.020839207 0.005417215 0.029737037 -0.020321993 -0.04061656
0.010049283 -0.030588007 0.0030539797 0.023686757 -0.0204787 0.036770213 -0.0008108142 -0.03759419
-0.038895354 -0.0071744416 -0.03680862 0.013888825 -0.022966128 0.03505043 0.034231003 0.047707416
00000000: 3bc9 c83a 5c66 133d caa1 9c3c 7d94 5b3c
00000010: 39d1 9ebc 5688 f3bc 92bd 073d 7104 b53c
00000020: fd22 4ebc 561e 3f3d 1173 08bd 5087 243d
00000030: 4ea4 49bc 6b55 2b3d a92e 88bc a60c 8b3b
00000040: 821a 2e3d b4e7 61bc 2c4a adbc bf00 92bc
00000050: 0d0f 8ebb bc1b 023d b05f 2e3d 4548 9a3c
00000060: 382a 343c fc0b b23c f6a4 d33c fde8 1fbd
00000070: e1af e53c 6f33 97bc 214d b3bc 7815 823c
00000080: bdff 1c3c c057 edbc e5fb f63a e1db 27bc
00000090: 1b21 a63c e026 8fba 3024 a33c 764e 573c
000000a0: 081d edbc 8df1 12bd 9b33 0ebc d36f f23c
000000b0: 1a06 4e3c 1e71 32bd 6e36 9c3c 1d04 ecbb
000000c0: 1b99 c039 27a3 4cbc 4fda b4bb 1b4a 04bd
000000d0: 75a8 f6bc 96f7 81bc a926 e9bb 78b5 3f3c
000000e0: a34a 243c 5ad0 c1bc 520c cebc 724b cc3c
000000f0: 305c 3b3c 9509 f93c 84a1 c4ba a770 87bc
00000100: 46bc 383d 052e 0c3d e070 973b bdd1 0a3d
00000110: bb3a 143c e5f6 233d 62bc d83c 58f8 383d
00000120: 5063 cbbc 5a96 ac3c b676 f53c 2121 aa3c
00000130: b0fb e1bc 8ed9 b73c 646f 5abc 58a2 d13c
00000140: 9dfb 013d bb37 6b3c b60f 1abd 0d0c 1a3c
00000150: 4db8 00bd ac07 883c 3415 823c 9c80 9abc
00000160: f89f a0bc 5b29 1e3d 814f d33c a86f 2bbd
00000170: 56b2 a73c 75d3 013b 28dd b3ba 4ece 013d
00000180: db99 e6bb cbc5 683c 43e0 23bd cf10 043d
00000190: f130 b23c e0ed f8bb 61fb 32bd 6154 14bd
000001a0: 57b0 c0bc c8a1 a039 558a 773c 6fab 783c
000001b0: 7d23 12bd 9983 763c ba58 af3b 3dae 9fbb
000001c0: f427 d4bc 9059 063d 4b1f 953b 22aa 5d3c
000001d0: b696 f7bc b4a6 02bd 1eac 2abd 0df9 32bd
000001e0: bf90 0e3d b66f 533a cf9e 10bb 22f5 8dbc
000001f0: 3983 a23b 3e6b f6bc cede 9aba e57c 0b3d
00000200: a646 1cbd 7f8a 4c3b 4c25 dc3c 3cd0 8a3a
00000210: be16 ee3c e945 09bd fc4b 13bc 03c0 b53c
00000220: d9a8 c2bc b823 e2bc 377e 73bb 390b 03bc
00000230: 9427 a73c 2d88 ebbc 92c0 99bc 9fc3 853c
00000240: 2fa2 bc3b 1307 0a3d fe41 d83a baa2 063c
00000250: 909c 563c 8b5e 253b c567 b5bc 5f0f d3bc
00000260: fb37 493d 4a30 ab3c 599d 333d 7f95 dcbb
00000270: 5be2 323d ac93 c5bc 243f 133d 81b9 1abd
00000280: 6481 30bc 47fb 013d 79f9 f3bc 48cc 37bc
00000290: 95b6 1a3d acb9 cfbc 188c 1cbd 8ce3 143c
000002a0: c1ca f539 e1e3 9a3c a054 08bd cf9b 16bd
000002b0: cbe6 93bc 3125 03bc 2e45 093c 0983 b2bb
000002c0: fd18 30bc e296 6bbc 2b60 10bd d6ec c5bc
000002d0: df06 4f3c a810 283c bd1e b9bb f7b7 d5bc
000002e0: 5504 15bc eeec e23c 4dbb abbc 1860 853b
000002f0: 87a9 e03c 660e 4d3d d9e9 dcbc 7c14 8a3c
00000300: 7961 eb3c 0263 aabc 826d 1bbc f79e 9a3c
00000310: 9aee 173d bc97 a93c 8ed8 8abb 6d2a f4bc
00000320: 2180 8eba 95b0 0fbc 3079 b6bc b122 01bb
00000330: 8836 b43b eeff d73a 8a45 833c e5bc 313b
00000340: c2a6 a63c 0f74 803c 4a42 94bc a78f c7bc
00000350: 41be 28bc e4ac 88bc c1ed d2bc d0b8 8abc
00000360: 97eb 4dbc 022b c2bc 0bd6 09bc 53c9 0c3d
00000370: bfb9 993c 6d6b 6b3c 3694 e73c 71b9 e2bc
00000380: 1cd3 87bc 5026 4dbc 133e 123d dcd2 5e3c
00000390: bd1d a83c f3ed 38bc 490c aa3c f141 213c
000003a0: c5f4 07bd c500 f9bc 2455 11bb fcb6 aabc
000003b0: e582 b13b 169b f33c 4f7a a6bc 8d5d 26bd
000003c0: bfa5 243c b393 fabc 4725 483b bb0a c23c
000003d0: f2c2 a7bc 5d9c 163d d28c 54ba 5efc 19bd
000003e0: bc50 1fbd 9417 ebbb a3c4 16bd f48d 633c
000003f0: 7623 bcbc 0a91 0f3d cf35 0c3d da68 433d

convolutions.4.bias f4 [64]
-0.010270218 -0.026063452 -0.037601743 -0.012474791 0.042161413 -0.02881444 0.025975566 -0.015939558
0.022297844 0.026883826 0.042001177 -0.020197315 0.039848115 -0.022146665 0.027351415 0.0062745707
-0.031832274 -0.028052796 0.015768355 0.021693872 -0.04253305 -0.018258346 0.003020973 0.02857035
0.044424698 0.027790444 0.04435409 -0.0026194607 0.007986957 0.03919152 0.02667928 -0.040603556
-0.0018181468 -0.036522012 -0.0054632067 0.012871319 0.026113123 0.021181436 -0.029040832 0.05435387
0.04854884 -0.015734835 0.009011888 0.017161846 -0.037794925 -0.03521234 0.016870853 -0.019985829
-0.04020551 -0.018469619 0.017437937 -0.036650416 -0.03779147 0.016376907 0.0013557401 -0.02330087
0.008131809 0.020956611 0.01289884 -0.004202891 0.043061703 -0.028152555 -0.0041235387 0.046459954
00000000: 6b44 28bc 0583 d5bc 4904 1abd 1163 4cbc
00000010: 72b1 2c3d 430c ecbc b6ca d43c ad93 82bc
00000020: f8a9 b63c 783b dc3c 6d09 2c3d d774 a5bc
00000030: c737 233d ec6c b5bc 1310 e03c ea9a cd3b
00000040: 8f62 02bd face e5bc a32c 813c 59b7 b13c
00000050: 2337 2ebd 8792 95bc 84fb 453b 5e0c ea3c
00000060: acf6 353d c9a8 e33c a2ac 353d 42ab 2bbb
00000070: badb 023c 4a87 203d 818e da3c ea4f 26bd
00000080: e24e eeba 1b98 15bd b304 b3bb 3ae2 523c
00000090: 30eb d53c b184 ad3c 0ae7 edbc 2aa2 5e3d
000000a0: 26db 463d 57e6 80bc 99a6 133c 0097 8c3c
000000b0: dace 1abd d13a 10bd be34 8a3c 52b9 a3bc
000000c0: 88ae 24bd 994d 97bc 01da 8e3c bf1e 16bd
000000d0: 3acb 1abd dd28 863c 17b3 b13a 77e1 bebc
000000e0: 473b 053c 33ad ab3c a855 533c 68b8 89bb
000000f0: 7861 303d 30a0 e6bc c01e 87bb cb4c 3e3d

convolutions.6.weight f4 [64, 64, 3, 3]
0.028925156 -0.02165625 0.04091331 -0.021572102 -0.0060525187 0.0018999627 0.021821927 0.001911556
0.027820483 -0.01909381 -0.032245327 -0.021689262 -0.011629883 -0.040039334 -0.037183117 -0.03921188
-0.03785579 -0.012830703 -0.00033434562 -0.028273739 0.015047706 -0.0070894985 -0.022043075 -0.021028485
0.037471816 -0.037522793 0.004577832 0.019999176 0.018877601 -0.004525423 -0.029149145 0.009448081
0.007994771 -0.021860927 0.0004095187 0.0125872 -0.004758138 0.039984938 0.04701188 0.012649593
-0.010135127 -0.0037735817 0.0016276228 0.022565287 -0.014621222 -0.023995467 0.02326609 0.0149233565
-0.041077122 0.020251935 0.033929292 -0.00859103 -0.02963379 0.022611974 0.038340375 0.015216476
-0.005361898 0.04586723 -0.019272668 0.018078731 0.0340577 0.029447244 0.040208094 0.004255866
-0.027654653 0.01570049 0.0010997107 -0.005165334 -0.028059423 0.037675314 0.007861475 -0.028174385
-0.0015231695 -0.005989859 0.010856149 0.0071429336 -0.008641004 -0.0031393599 0.004958063 -0.03933295
-0.011373868 -0.03658376 -0.035481542 -0.023779737 0.023082636 0.0047563333 0.034419753 -0.033876117
0.0058469214 0.03396335 0.0026205191 -0.028130734 0.013158235 -0.0050307736 0.04610446 0.014976963
0.0061001517 0.034229856 0.04354195 -0.0039441213 -0.0004615603 0.026097536 -0.029464964 0.0094952
0.040024757 0.025110789 0.0075903987 -0.013262619 -0.011325614 -0.030916624 0.050310258 -0.008294176
0.011183085 0.0414617 -0.010449804 -0.02586757 0.022146864 0.012493765 -0.0151420245 -0.016794356
0.03227327 0.030299246 0.013836447 0.02703931 -0.028856823 0.016244996 0.020560415 -0.01945794
0.021143135 0.009676778 0.022056239 -0.030143097 0.028542925 -0.02891523 0.010535882 0.024476623
-0.021377798 0.040645093 0.010588969 -0.036298215 -0.03361772 -0.039559707 -0.01318642 0.011606395
0.02655533 0.022538926 0.015839433 0.033155903 0.019972226 -0.030730799 0.032720774 0.01189892
-0.016115975 -0.009269968 0.03430638 0.007926208 -0.007834867 0.012225964 -0.03911977 -0.0036376484
-0.023411382 -0.008507725 0.027396455 0.023665447 0.03071614 0.016546559 0.022927657 -0.02751654
-0.003640063 -0.031065943 0.032660395 -0.031008152 0.040366888 -0.02064248 -0.018323876 0.007693613
0.020344311 -0.028776918 0.019855699 -0.029409846 0.008530747 0.037249677 0.012280583 0.04098764
0.009587304 0.0066260765 -0.014900857 0.015857222 0.030424958 0.016787209 0.018266702 0.014137454
0.011563282 0.011477315 0.038523555 0.0070610414 -0.04001226 0.0241398 -0.015847532 0.0057894513
0.030470608 0.027877705 -0.013201572 0.020829115 -0.0047765793 0.025759235 0.053729933 0.021375101
0.020382343 0.036772635 -0.023213677 -0.027236795 0.03600431 -0.026047654 0.016117645 0.037557166
0.007896328 -0.0026840633 0.023960145 0.035911106 0.029417181 0.00019857756 0.036609937 -0.026397642
-0.02177308 -0.015102472 -0.015076324 -0.025271468 -0.018283956 0.020976493 -0.0075883633 -0.016911006
0.018413823 0.0022220416 -0.018041361 -0.011181859 0.051038392 -0.007516751 -0.020884622 0.017954027
0.03408365 -0.005544669 0.010665787 0.028352894 -0.018609894 0.032045208 -0.013836017 -0.0024693832
0.022647792 0.00634511 0.0006423794 -0.002573353 0.031383723 0.0023357442 0.0380846 -0.016967488
00000000: 73f4 ec3c 7368 b1bc b794 273d fab7 b0bc
00000010: 3554 c6bb 2b08 f93a e6c3 b23c 2d8d fa3a
00000020: c8e7 e33c 9f6a 9cbc ad13 04bd aead b1bc
00000030: 448b 3ebc 4900 24bd 534d 18bd a39c 20bd
00000040: ac0e 1bbd de37 52bc 1c4b afb9 549e e7bc
00000050: a78a 763c 064f e8bb ae93 b4bc ee43 acbc
00000060: 0c7c 193d 80b1 19bd a301 963b 50d5 a33c
00000070: 33a5 9a3c 004a 94bb 30ca eebc 20cc 1a3c
00000080: 80fc 023c b015 b3bc abb4 d639 8b3a 4e3c
00000090: 28ea 9bbb 3fc7 233d 878f 403d 3d40 4f3c
000000a0: ce0d 26bc 324e 77bb f555 d53a d6da b83c
000000b0: da8d 6fbc 2492 c4bc 8798 be3c 1881 743c
000000c0: 7c40 28bd 63e7 a53c 71f9 0a3d 64c1 0cbc
000000d0: 90c2 f2bc bf3c b93c cc0a 1d3d 874e 793c
000000e0: dcb2 afbb 47df 3b3d b7e1 9dbc d919 943c
000000f0: 1680 0b3d 593b f13c 3eb1 243d cb74 8b3b
00000100: 038c e2bc 509e 803c 2b24 903a f641 a9bb
00000110: e0dc e5bc 6e51 1a3d 6bcd 003c f8cd e6bc
00000120: 16a5 c7ba 9446 c4bb fddd 313c 450f ea3b
00000130: ff92 0dbc b8bd 4dbb 3f77 a23b 961b 21bd
00000140: 7659 3abc dad8 15bd 1855 11bd b9cd c2bc
00000150: cc17 bd3c 04db 9b3b bafb 0c3d afc1 0abd
00000160: 8897 bf3b 271d 0b3d 04bd 2b3b 6d72 e6bc
00000170: a395 573c 30d9 a4bb 08d8 3c3d f061 753c
00000180: c8e3 c73b 9b34 0c3d 0b59 323d b03d 81bb
00000190: 93fd f1b9 80ca d53c 8260 f1bc c191 1b3c
000001a0: 00f1 233d 24b5 cd3c e1b8 f83b 754b 59bc
000001b0: 118f 39bc dc44 fdbc 2112 4e3d 4ce4 07bc
000001c0: 4239 373c bed3 293d a835 2bbc 3ae8 d3bc
000001d0: 576d b53c a6b2 4c3c 4116 78bc 5194 89bc
000001e0: fa30 043d 2036 f83c 44b2 623c 8b81 dd3c
000001f0: 2565 ecbc 3a14 853c 516e a83c 4266 9fbc
00000200: 5e34 ad3c 598b 1e3c 49af b43c a8ee f6bc
00000210: dad2 e93c a2df ecbc b19e 2c3c 3383 c83c
00000220: 7e20 afbc 787b 263d 5b7d 2d3c 70ad 14bd
00000230: bcb2 09bd 5c09 22bd db0b 58bc c028 3e3c
00000240: 908a d93c 8ea3 b83c b3c1 813c 7cce 073d
00000250: cb9c a33c 28bf fbbc 3806 063d b0f3 423c
00000260: a605 84bc 10e1 17bc d984 0c3d eddc 013c
00000270: d05d 00bc 694f 483c 0d3c 20bd 9d65 6ebb
00000280: 3ac9 bfbc fc63 0bbc 886e e03c 0ade c13c
00000290: 6aa0 fb3c a68c 873c c8d2 bb3c 5e6a e1bc
000002a0: 208e 6ebb 017e febc e8c6 053d cf04 febc
000002b0: c057 253d 6b1a a9bc f41b 96bc b41a fc3b
000002c0: 1da9 a63c 92bd ebbc 6ba8 a23c ebec f0bc
000002d0: 8cc4 0b3c 1e93 183d 8034 493c a8e2 273d
000002e0: 1114 1d3c 8f1f d93b b922 74bc 01e7 813c
000002f0: c33d f93c 5485 893c 0da4 953c c8a0 673c
00000300: ec73 3d3c 590b 3c3c e0ca 1d3d 4f60 e73b
00000310: e5e3 23bd d4c0 c53c afd2 81bc 70b5 bd3b
00000320: 7f9d f93c c95f e43c 684b 58bc d2a1 aa3c
00000330: da84 9cbb 0805 d33c eb13 5c3d d61a af3c
00000340: dff8 a63c e79e 163d 9c2a bebc b31f dfbc
00000350: 4179 133d e461 d5bc 2709 843c 8bd5 193d
00000360: 9a5f 013c 1ce7 2fbb 1148 c43c 8617 133d
00000370: 4dfc f03c 4239 5039 4df4 153d de3f d8bc
00000380: 755d b2bc 5c70 77bc b002 77bc 1c06 cfbc
00000390: 3cc8 95bc e5d6 ab3c cea7 f8bb f388 8abc
000003a0: 96d8 963c ac9f 113b 7acb 93bc 1e34 37bc
000003b0: a20d 513d 144f f6bb 3a16 abbc 5314 933c
000003c0: 4c9b 0b3d 0eb0 b5bb 8ebf 2e3c 5444 e83c
000003d0: c773 98bc d641 033d 76b0 62bc 60d5 21bb
000003e0: dd87 b93c a4ea cf3b 5a65 283a b3a5 28bb
000003f0: 388c 003d 4913 193b 99fe 1b3d 67ff 8abc

convolutions.6.bias f4 [64]
0.0044352827 -0.015335539 0.0504784 0.00833548 -0.022819169 -0.011413279 -0.0099886 -0.024901552
0.03433065 -0.0144145945 0.03707143 0.011579269 -0.027740512 0.024219632 0.008574655 -0.034003377
0.015899597 0.046310287 -0.017348303 -0.033807494 0.028056698 0.022048969 -0.014618594 -0.011543524
-0.0033948661 0.03059293 0.0463054 -0.011859944 0.006624795 0.025955813 -0.013390654 -0.031492233
0.008456159 -0.026678424 -0.004823058 -0.004112027 -0.02842589 -0.026787378 0.024505755 0.011667335
0.030489447 -0.025462607 -0.009887208 0.019989826 0.044399697 -0.028257884 -0.015777461 -0.032956373
-0.021612758 -0.018109519 -0.032309663 0.026146248 0.000311299 -0.03849776 0.015839161 0.021470156
0.03005919 -0.040468503 0.027817989 -0.030042691 -0.012936942 0.028848074 -0.03650822 -0.008470503
00000000: d955 913b ea41 7bbc 70c2 4e3d 8991 083c
00000010: 44ef babc c3fe 3abc 3aa7 23bc 57fe cbbc
00000020: 4c9e 0c3d 312b 6cbc 36d8 173d f9b6 3d3c
00000030: 1240 e3bc 4068 c63c b67c 0c3c 2047 0bbd
00000040: df3f 823c dbaf 3d3d 071e 8ebc ba79 0abd
00000050: 29d7 e53c 0aa0 b43c d482 6fbc 0d21 3dbc
00000060: 677c 5ebb 069e fa3c bbaa 3d3d 3650 42bc
00000070: cf14 d93b 49a1 d43c 7964 5bbc 00fe 00bd
00000080: b48b 0a3c b68c dabc be0a 9ebb 2fbe 86bb
00000090: 69dd e8bc 3471 dbbc 4bc0 c83c 5a28 3f3c
000000a0: 01c5 f93c f596 d0bc f5fd 21bc b4c1 a33c
000000b0: 75dc 353d 147d e7bc bc3f 81bc 43fd 06bd
000000c0: 3d0d b1bc 6a5a 94bc 2357 04bd a830 d63c
000000d0: d835 a339 d4af 1dbd 21c1 813c 2ee2 af3c
000000e0: b13e f63c 4dc2 25bd 8de2 e33c 171c f6bc
000000f0: 78f5 53bc cc52 ec3c a589 15bd ddc7 0abc

reconstruction.weight f4 [4, 64, 3, 3]
-0.0036444513 0.027159955 0.023697192 0.034286346 0.018301902 -0.010144985 0.03305237 0.01620702
0.029971564 0.03478719 -0.016825005 0.03731593 0.018690595 -0.027104892 0.016440645 0.009837965
-0.0036168972 -0.005186907 -0.00625273 -0.011970158 -0.010995243 -0.03196943 0.047717053 0.006833881
0.019278042 -0.005641186 0.026376784 0.018789208 -0.017096328 -0.03649329 -0.022726597 0.040041305
0.03002073 0.025162872 -0.0031885244 -0.013007183 0.019305188 -0.0022699302 0.031089123 0.042325567
0.048601262 0.044655383 -0.016994061 0.04736309 0.014810816 0.014392465 -0.03847517 -0.038769353
0.037044708 -0.0052065603 0.03906479 -0.027214006 -0.0038353265 0.009740634 -0.040871464 -0.0013268567
0.026492408 -0.008061184 -0.0012516923 -0.007976729 0.025347518 -0.023797927 0.034827325 -0.011675623
0.01360296 0.023417573 0.024285087 0.011227193 0.03876733 0.019982038 0.04011429 0.037262715
0.03456052 0.034687348 0.018232722 -0.009877047 -0.00055495783 -0.0071839723 -0.036713064 -0.0012886327
-0.0049255323 0.027182033 0.03749608 0.0031924348 0.020338815 -0.004668992 0.0281258 0.007984561
0.055744607 0.008479544 -0.03468913 0.008419955 0.037814036 -0.006630683 -0.00056241424 -0.03165327
0.014818863 0.011045973 -0.00483563 0.028645087 -0.0141596515 0.03644571 0.03406247 -0.025454056
-0.028545247 0.016042575 0.021467127 0.0023241423 0.026721982 -0.035774875 -0.0030935341 -0.027218902
-0.033025164 -0.0051178 -0.0045967326 -0.033535805 -0.007566974 0.01446653 0.019793946 0.029164538
-0.028247943 0.03906439 0.010037193 0.03925131 -0.0034406073 0.007783499 -0.012076205 -0.017525261
0.009042591 0.014077867 -0.019786736 0.011335751 -0.009418687 0.03814371 0.0046160123 0.038490538
-0.019118533 0.0063324566 -0.020397257 -0.019581098 -0.030858647 0.0017538702 -0.009141097 0.009512849
-0.015393867 -0.029953415 -0.034996863 -0.02316578 -0.042783007 0.03561542 -0.005371326 -0.041716136
0.000761067 -0.018923912 0.04533071 -0.023918934 0.0337914 -0.02931714 -0.0032905992 0.019244542
0.010390555 -0.010809042 -0.026549514 0.009987549 0.037014376 -0.023415608 0.002474401 -0.012201305
0.011136818 -0.010048271 -0.021130074 -0.038684495 -0.027952617 -0.037259817 0.0032972544 0.023760786
-0.04128249 0.037030753 0.0031861614 0.026184723 -0.023760166 -0.031069374 -0.03418819 -0.0261238
0.038655046 0.026924225 -0.01812219 -0.027571471 0.035014983 0.008772319 0.026442716 0.04105441
-0.02253045 -0.0267609 0.024089724 0.029459901 -0.014131552 0.033595227 0.0061134472 -0.016751418
0.010900812 -0.02527856 0.03431493 -0.02348088 0.019384796 0.039142765 -0.006785604 0.00677204
0.017649539 -0.005930963 0.027948173 4.02637e-05 0.05112737 0.007190681 0.034232944 -0.023753181
0.002090466 0.012741939 0.02864778 -0.018689912 0.019912152 0.013590616 0.039216563 0.038970284
-0.035437908 0.033418633 0.030190246 0.04028451 0.0054732272 -0.022889413 -0.015162267 -0.037917715
-0.0008736836 -0.017456012 -0.01026078 -0.031088406 -0.02050956 0.0474167 -0.0006749926 -0.002632755
0.03845022 0.026341548 0.02504829 0.006841106 -0.032613896 -0.02126614 0.023871643 -0.031786162
-0.016338903 -0.011467725 0.025411522 -0.012906706 -0.005151567 0.0069646095 -0.039400358 -0.009766532
00000000: bfd7 6ebb 8e7e de3c 9d20 c23c d76f 0c3d
00000010: dfed 953c 2737 26bc ec61 073d 96c4 843c
00000020: ed86 f53c 037d 0e3d 98d4 89bc 97d8 183d
00000030: 051d 993c 140b debc 88ae 863c 6a2f 213c
00000040: 7709 6dbb eef6 a9bb b3e3 ccbb 7b1e 44bc
00000050: 6425 34bc 61f2 02bd f572 433d c0ee df3b
00000060: fcec 9d3c b3d9 b8bb 2014 d83c d3eb 993c
00000070: 990d 8cbc fd79 15bd 212d babc 5a02 243d
00000080: 09ee f53c 5e22 ce3c 90f6 50bb 141c 55bc
00000090: ea25 9e3c 1cc3 14bb 9eae fe3c 935d 2d3d
000000a0: 1e12 473d 90e8 363d 2137 8bbc cdff 413d
000000b0: 11a9 723c 60ce 6b3c 2498 1dbd 9dcc 1ebd
000000c0: 31bc 173d cb9b aabb 6702 203d e8ef debc
000000d0: 1a5a 7bbb 2e97 1f3c d668 27bd ece9 adba
000000e0: 9b06 d93c 0e13 04bc d30f a4ba d4b0 02bc
000000f0: 99a5 cf3c dff3 c2bc 19a7 0e3d 1d4b 3fbc
00000100: f3de 5e3c 36d6 bf3c 85f1 c63c 43f2 373c
00000110: 7eca 1e3d 5fb1 a33c e24e 243d caa0 183d
00000120: 558f 0d3d 5214 0e3d ca5c 953c 56d3 21bc
00000130: 977a 11ba 8767 ebbb 7060 16bd 57e7 a8ba
00000140: 5c66 a1bb dbac de3c 7d95 193d 2b38 513b
00000150: 969d a63c 58fe 98bb 1468 e63c add1 023c
00000160: 7554 643d c9ed 0a3c 3016 0ebd daf3 093c
00000170: e4e2 1a3d 3346 d9bb fb6e 13ba dca6 01bd
00000180: d1ca 723c 2bfa 343c 3474 9ebb 1aa9 ea3c
00000190: e2fd 67bc 1948 153d 1785 0b3d 0685 d0bc
000001a0: b9d7 e9bc b86b 833c d4db af3c a350 183b
000001b0: 0fe8 da3c ad88 12bd e4bc 4abb 2dfa debc
000001c0: 6545 07bd 38b3 a7bb 30a0 96bb d75c 09bd
000001d0: 61f4 f7bb 0605 6d3c ea26 a23c 78ea ee3c
000001e0: 3b68 e7bc fb01 203d 0a73 243c fbc5 203d
000001f0: d07b 61bb b90c ff3b 46db 45bc 2391 8fbc
00000200: 6027 143c dba6 663c cb17 a2bc 96b9 393c
00000210: d650 1abc 943c 1c3d eb41 973b 41a8 1d3d
00000220: 789e 9cbc 7f80 cf3b 2618 a7bc 8a68 a0bc
00000230: 46cb fcbc 1ee2 e53a 8ac4 15bc c8db 1b3c
00000240: 8f36 7cbc dd60 f5bc df58 0fbd 29c6 bdbc
00000250: 3c3d 2fbd 7ae1 113d f301 b0bb 8ade 2abd
00000260: 5882 473a 5206 9bbc b2ac 393d a4f1 c3bc
00000270: da68 0a3d 802a f0bc 18a7 57bb bba6 9d3c
00000280: 253d 2a3c 6818 31bc 5e7e d9bc d1a2 233c
00000290: 639c 173d 17d2 bfbc 8f29 223b fbe7 47bc
000002a0: 3377 363c 81a1 24bc fa18 adbc a273 1ebd
000002b0: e3fc e4bc c09d 18bd c016 583b fba5 c23c
000002c0: d417 29bd 8fad 173d ebce 503b 5881 d63c
000002d0: aea4 c2bc 3385 febc ea08 0cbd 9401 d6bc
000002e0: c154 1e3d 3190 dc3c fd74 94bc 91dd e1bc
000002f0: df6b 0f3d c6b9 0f3c 659e d83c ab28 283d
00000300: c791 b8bc ad39 dbbc d057 c53c e455 f13c
00000310: 0688 67bc 269b 093d 5053 c83b 453a 89bc
00000320: 5299 323c fc14 cfbc d08d 0c3d f95a c0bc
00000330: ddcc 9e3c 2a54 203d c659 debb fde7 dd3b
00000340: c495 903c 8658 c2bb 91f3 e43c d2e0 2838
00000350: ef6a 513d ce9f eb3b d837 0c3d 0896 c2bc
00000360: 3300 093b 91c3 503c c0ae ea3c 961b 99bc
00000370: cf1e a33c 2dab 5e3c 8ca1 203d 4e9f 1f3d
00000380: 5727 11bd fae1 083d 8951 f73c 5f01 253d
00000390: c258 b33b 9482 bbbc 286b 78bc 9b4f 1bbd
000003a0: ea07 65ba e9ff 8ebc d51c 28bc 1dad febc
000003b0: aa03 a8bc 0338 423d fdf1 30ba 4d8a 2cbb
000003c0: fa7d 1d3d 3bca d73c 1232 cd3c 5b2b e03b
000003d0: 2696 05bd 5436 aebc 778e c33c 3532 02bd
000003e0: 2ad9 85bc 20e3 3bbc d32b d03c a676 53bc
000003f0: 7ace a8bb 6137 e43b 4562 21bd ce03 20bc

reconstruction.bias f4 [4]
-0.013901913 0.010466637 0.026363952 0.020314787
00000000: d9c4 63bc 427c 2b3c 37f9 d73c 326b a63c
